IAV_FINAL/results/results/SheepsRedo1/Sheeps/Sheeps-243019.pt (torch, 200063 bytes, 24 tensors)

network_body._body_endoder.seq_layers.0.weight f4 [256, 28]
00000000: 93c4 363e daf7 6ebe 0021 523d 66a3 e7bd
00000010: 9efc f33e d2f6 45bd 56c8 313d 92c8 2e3c
00000020: 6fb2 5b3c b72c 69be ebcb 353e 060e 88be
00000030: 1097 67bc ca68 983d 29b5 11be 2cf0 91bd
00000040: 79c0 4e3e 36a1 a7bd e984 e1be babd 563e
00000050: 8896 95be 98ad 8d3d c752 c5bd 4ec8 883e
00000060: ec32 31be 9b4b e1bd e1a9 183e 3d26 063e
00000070: 72a5 1f3e 35d5 34bc 6470 393e 0817 57bd
00000080: a604 0ebe bbd4 e23e ba35 303c d750 633e
00000090: b66f b1bd 2c63 7fbe 8087 783e 73a1 563e
000000a0: 4a72 293e ff65 a23d 46ed 89bd 7c68 65be
000000b0: e086 74be 776c 29be e76c 26be 63de c1be
000000c0: 7528 d0bc 2c46 943d 9121 323e 2eaa 89bc
000000d0: f614 0ebe 70c3 66be e97f c2bd b73a 963d
000000e0: dfe7 a43e 8846 ad3d 7f1a bd3d a738 343e
000000f0: 3b17 f7bd f73d b2bd 9b58 9bbd d655 f2bd
00000100: 6d59 14bc c4bc 04bf 2ee5 1bbd 0acd e53d
00000110: 11a9 9a3d 9f84 83bd 3c22 073e 344c 923c
00000120: 4990 f5bc dd3a 3cbe 78d3 afbe dd38 c3bc
00000130: ba77 fb3d 1979 d93d 0af1 90bd 09b4 56be
00000140: 8467 6fbe 33cd 483e 956a 06be f461 8bbd
00000150: 0133 29be 0f1b 82be 21b8 92be 1fa3 41be
00000160: 7537 b1be febe 18be 95a8 d5be bca7 843d
00000170: 04b8 5a3e d889 3ebe 9f4d f93d 79da 383e
00000180: daed 39be 870d f83d 244b df3d b774 463e
00000190: 7850 853e 56b4 86be 909e 26be bb1d f93c
000001a0: 6717 e03e 5513 ba3c 7797 8fbd dc58 66be
000001b0: 578a 4f3e a098 fb3e 5b9a 21bd 60a9 db3b
000001c0: 4d1d 073e 332c 983d 3aea 8abe 6687 e9be
000001d0: f218 603d 5989 53be 3ae2 bf3d ab6d 373e
000001e0: d977 9abd 929e 3a3d 932f 3f3b 3791 a23d
000001f0: 1cce b1be 1c75 8d3e a03c 89be bdff b1bd
00000200: da2a 283c 2b1a 353e 59c2 033e f79e ad3d
00000210: a9b8 df3c 5086 4fbe 153e 30be f1d3 003c
00000220: c5a2 dfbe bcac 303e 6b3f 87be fe17 aabd
00000230: 2248 8ebe 6623 bfbd 25be 553e 8004 133c
00000240: 1ba0 b2bd 6c40 1a39 1bb2 5f3e 9963 f43d
00000250: 7ecb 493e 2307 66be 2243 7e3d 156a 0bbe
00000260: 3a1c 74bd 74aa 1b3e 04de 4d3d f1fa ed3c
00000270: 9def d1bc b74c 993d 913f a03e 7301 15be
00000280: 373d 74be b579 60be bc3a 48be dd53 39be
00000290: fdb1 b53c edd6 81be f8d1 a43c fd4e a23c
000002a0: 0c7d a2be 1f70 fcbd cb8d c43d 8a0d 303d
000002b0: f514 bfbc 2866 a7be 799a b33d 10d7 de3c
000002c0: 4008 903e c1ce a03e a100 13be eaec 4abe
000002d0: a743 e03d 33f9 f43d 16a2 87be 1e4d 4abe
000002e0: fdc2 563e c791 a73d b0f9 75bc c23e 9d3e
000002f0: 881c da3e 96ab 4c3d a6a1 963e d080 3bbd
00000300: 520a 683e 6bdd 163b 13ca 443e cb98 e73c
00000310: fdfa 59be f882 88bd a86f 15bd db4d 893d
00000320: fd30 483d 2d2d a53e 14e9 44be 8248 233d
00000330: b594 2abd 6a16 50bd 769f 93bd 5e26 1b3e
00000340: f1ec 6e3c 2047 dcbd 98bd 933c 0e71 a13e
00000350: 7550 3bbe a8cc 3cbd 1d12 50bd 3c3c 113c
00000360: f8c5 0a3e 596e e7bb be26 eb3d 8f97 60bd
00000370: b256 debd 3afa 67bd b26f 4c3e 43c0 54be
00000380: 7cb2 583c 9aff a33d aa70 86be 899a 3ebe
00000390: d446 6b3e 429f 563d 6639 e7bd 7227 f53d
000003a0: f53c 98be 386e 893d a4e8 123d 92fc 28bd
000003b0: 08df 3f3d c22d 0cbe 4024 0b3e 88e8 93bc
000003c0: cc04 febd 624f cabd 2f7b cf3e f767 f1bd
000003d0: fa7a 883e f13c 59bd c49f 1f3e 8076 093e
000003e0: 556c 293d 811a 553d 6ecc b6bd aaad 033d
000003f0: a0ba 5abd 6bed 05be d818 133c 3401 2d3d
0.17848425 -0.23336735 0.051301003 -0.11310463 0.4765367 -0.04833109 0.043403946 0.010667937
0.013409241 -0.22770964 0.1775357 -0.265732 -0.014135137 0.07441862 -0.14229263 -0.07125887
0.2019061 -0.081850454 -0.44046715 0.20970812 -0.2921641 0.06917876 -0.09634929 0.2671532
-0.17304581 -0.11000749 0.14908554 0.13100524 0.15590456 -0.011037161 0.1810928 -0.0525122
-0.1386896 0.44302925 0.010754997 0.22198807 -0.08663885 -0.24940175 0.24270439 0.20960025
0.16547504 0.079296105 -0.067347094 -0.22403139 -0.23879576 -0.16545282 -0.1625248 -0.3786498
-0.025409916 0.07239947 0.17395617 -0.01680478 -0.13875183 -0.22535491 -0.09497053 0.07335418
0.32208154 0.084607184 0.09233569 0.17599736 -0.12064978 -0.08703225 -0.075852595 -0.11832778
-0.009054524 -0.51850533 -0.03806036 0.11220749 0.07551778 -0.0642178 0.13196653 0.017858602
-0.029976027 -0.1838183 -0.34341025 -0.023830825 0.122786954 0.10618801 -0.070772246 -0.20967115
-0.23379332 0.19609527 -0.13126595 -0.068057925 -0.16523363 -0.2541127 -0.28656104 -0.18909882
-0.34612623 -0.14916608 -0.4173018 0.06477305 0.21359259 -0.1860727 0.12173008 0.1805209
-0.1815714 0.12111955 0.10903004 0.1938046 0.26037955 -0.2630946 -0.16271424 0.030409684
0.43767855 0.022714296 -0.070113115 -0.22494835 0.20267616 0.4913988 -0.039453845 0.0067035407
0.13194771 0.07430305 -0.27131826 -0.45611113 0.05471129 -0.20657863 0.09369321 0.17912929
-0.075423904 0.04556138 0.0029172644 0.07937854 -0.3472756 0.2762841 -0.26804066 -0.08691356
0.010264123 0.17685764 0.12867106 0.08477586 0.027309733 -0.2026608 -0.17211182 0.007863031
-0.4367887 0.17253393 -0.26415572 -0.083053574 -0.27789408 -0.093329236 0.20873316 0.008973241
-0.08721944 0.00014710583 0.21845286 0.11933059 0.19706532 -0.2246366 0.06207574 -0.13614686
-0.05959723 0.15201741 0.05026056 0.029050322 -0.025626952 0.07485335 0.31298497 -0.14551334
-0.23851477 -0.21921428 -0.19553655 -0.18098398 0.022179598 -0.25359288 0.020119652 0.019813055
-0.31736028 -0.12326073 0.09597357 0.04298166 -0.023325423 -0.32695127 0.08769698 0.02720216
0.28131294 0.3140774 -0.14355709 -0.19816938 0.10950404 0.119615935 -0.2649085 -0.1975598
0.2097282 0.08182102 -0.015013143 0.30711943 0.42599893 0.049968325 0.29420203 -0.045777142
0.22660187 0.002302016 0.1921771 0.0282711 -0.2128715 -0.06665605 -0.036483437 0.06704303
0.048874844 0.3226103 -0.19229537 0.03986407 -0.041645724 -0.050802626 -0.07208149 0.15151355
0.014582858 -0.107557535 0.018034741 0.31531566 -0.1829241 -0.046093613 -0.050798524 0.008864459
0.13552082 -0.007062715 0.11481999 -0.054832038 -0.108563796 -0.05663512 0.19964483 -0.20776467
0.013226148 0.080077365 -0.2625783 -0.18613638 0.22976238 0.052397974 -0.11290245 0.11970414
-0.29734007 0.06710476 0.035866395 -0.041256495 0.04684356 -0.1368933 0.13588047 -0.018055215
-0.12403259 -0.09878422 0.4052367 -0.11787408 0.26656324 -0.053036634 0.1558829 0.1342411
0.04136308 0.05202723 -0.089257106 0.03214804 -0.053400636 -0.13078849 0.008978091 0.042237476

network_body._body_endoder.seq_layers.0.bias f4 [256]
00000000: 6892 c6bc a8ac e13c a8f0 cf3c 0fdd 92bc
00000010: b3e0 16bd 0020 0cbd 4c36 eb3c 75c8 083d
00000020: dd0d 203d c965 123d 4ec9 7abc 846d 90bc
00000030: b5d6 ff3c 9a92 fc3b 4491 c23c 2949 5839
00000040: 09e2 ca3c cbff 0c3d a094 233d 38ff 1c3d
00000050: 321d 123d 871e 033d 9e88 4c3c 5276 0b3d
00000060: fe67 16bc 74c2 b2bc adf3 e4bc dcc3 1dbd
00000070: 6dc6 48bc 9733 463d 9b82 00bd 95ca 293c
00000080: a4be ccbc dcac 353d 9496 03bd c5ce 233d
00000090: aba3 0bbd cb23 08bd 4639 253d 976c b73c
000000a0: ce81 6cbc 283a f03b 03a0 dcbc 7d89 dbbc
000000b0: 9786 e6bc 950c ee3a 1a74 843c d721 9dbc
000000c0: 18d6 afbc 1e43 973c 5cca 1f3d 9ca6 8bbc
000000d0: c4e6 10bc e7bc cdbc 637a 41bc 85e7 1ebb
000000e0: 162b ddbb 92ea 0fbc a340 323d e2ca efbc
000000f0: af02 183d 5415 333d 4020 dc3c 51dc 263d
00000100: 7364 5bbc 3314 b2bc 5b67 d43c 7569 243d
00000110: acb7 353c 92ec 8dbb adbf d7bc 020a dfbc
00000120: 9ca1 0a3d 6204 10bd f81e 893c e01d f9bc
00000130: 28e4 74bc 4db2 bebc 1645 b6bc e083 da3c
00000140: 13e1 bebc c596 103d a5a5 eebc ac17 dc3c
00000150: 56de 10bd bbf6 cd3b e3e6 983c 387d f53c
00000160: c581 143c 1c4b bdbc 305c 63bc dc4b d4bc
00000170: bb4d 0abd 403d 043d be79 1a3d b7c4 f6bc
00000180: 9ee1 27bc a162 353d 8f97 753c 9f37 11bd
00000190: dba5 e0bc 2790 e73c ce87 80bc 43cd 04bd
000001a0: a286 103c 1a42 42bc 5b8d 39bc e9c8 4f3c
000001b0: f66e d0bc 429f 76ba 0e90 19bd e543 123d
000001c0: b9bd 82bc 95f6 0bbd bf2d 0a3d fe07 173a
000001d0: 5f6a 143d 5e18 cb3c 137e 983b 131e cb3c
000001e0: edad 1abd 39c2 1b3d 68bc bdbc 00cb e93c
000001f0: e02c 8e3c 78a5 0ebb eaa1 bcbc 4c04 c13c
00000200: 4fe0 b43b 1c88 e63c 471d d0bc 7f87 e5bc
00000210: 702d fabc f295 0dbd c32f 19bd 6a3d 2abd
00000220: 7826 9cbc 9d7a e4bc 34ec 073d 98af 6f3b
00000230: 128c 1f3d 1038 06bc f84a cd3c 65cb 9bbb
00000240: 990b 3a3d 1fba 9ebc 949f a2bc 793e 143d
00000250: 1db2 4b3c 79c5 093d b647 563c 6ca3 c9bc
00000260: 258b b4bb 1093 e23c ddec 263d f4aa 20bd
00000270: dfc0 4b3c 1d54 7d3c d5b0 c73b 1966 60bc
00000280: ac15 8b3c 28a4 97bc fa9b ecbc 4997 d73c
00000290: a4fd 2ebd 6df6 0ebd bd96 0a3d fd5b d63c
000002a0: 10d7 e4bc 7c2a bcbc 110e ffbc f125 303c
000002b0: 98ca 553c f427 aa39 0fca 6139 1ca7 023d
000002c0: fab7 b9bc e4f0 ddbc bcf3 0fbd a868 14bd
000002d0: 128d dc3c a7c5 23bd dcf6 0fbd 762a a03c
000002e0: bae1 cb3c e39a d6bc b316 e73c 05c1 6fbb
000002f0: e4c9 1bbc 4ff4 e13c 6847 20bd e9a7 04bd
00000300: 14e4 c1bc b8ad 873c 759d 80bc 5c2a c93c
00000310: efeb eb3c 2a18 3d3a 0d91 62bc a491 0e3c
00000320: e5fa fbbb cc45 953c 9142 22bc 642d fabc
00000330: ba5d 86bc ee85 2dbc 42b1 003d ff02 df3c
00000340: c29b 133d b7e6 42bd dc00 81bb 80be 183d
00000350: eb9f ce3c 50f3 33bd 9bb9 fdbc fd85 cc3b
00000360: 4369 353d 36fd 173d f9c3 dcbb e8a3 fe3c
00000370: 45f8 043d 4e76 07bd 5f1d 32bc 333a febc
00000380: f9fe 673c 2a6a 0f3d 3cc7 253d 2160 033d
00000390: ca6b 383d 97de 36bc 6b7b 01bd 8fa7 2cbd
000003a0: 5860 0f3c 20f8 14bd 102e 14bd 8c83 e3bc
000003b0: 0943 e6ba e37e 5c3c 4fef ebbc 104f e93c
000003c0: 6f92 a3bc 384a d9bb d90f cd3c e4e8 e23c
000003d0: 0558 893c d2a6 15bb d800 3abc eef8 1bbd
000003e0: a68e f0bc 626b ac3c e0c9 7d3c 74be c1bc
000003f0: 2697 923c db62 f63c 96db 0f3d 6452 f0bc
-0.024239734 0.02754815 0.025383309 -0.017927675 -0.036835384 -0.034210205 0.028712414 0.033394296
0.03907572 0.0357416 -0.015306784 -0.017630346 0.03123031 0.007707906 0.023750909 0.0002062662
0.024765985 0.03442363 0.03993666 0.038329333 0.035672374 0.032011535 0.012483744 0.034048386
-0.009180067 -0.021821238 -0.027948225 -0.038516864 -0.01225434 0.048389044 -0.031374555 0.010363241
-0.024993248 0.044354305 -0.032126024 0.039992113 -0.034091633 -0.03323726 0.040337823 0.022390647
-0.014435245 0.0073311515 -0.026931768 -0.026798958 -0.02814035 0.0018161709 0.016168643 -0.019181175
-0.021464393 0.018464621 0.039011344 -0.017047219 -0.008844081 -0.02511449 -0.011808964 -0.0024246883
-0.006749521 -0.008783953 0.043518674 -0.029271547 0.037111934 0.043721512 0.026870847 0.040737454
-0.013390648 -0.021738147 0.02592819 0.040139634 0.011091154 -0.00433118 -0.026336515 -0.027226452
0.03384553 -0.03516043 0.0167384 -0.030409753 -0.014946975 -0.02327838 -0.02224974 0.026674211
-0.023300683 0.035300035 -0.02913172 0.026866756 -0.035368286 0.006285516 0.018664783 0.029966936
0.009064143 -0.023107104 -0.01387696 -0.025915079 -0.033765536 0.032284975 0.03771376 -0.030123098
-0.010246662 0.044283513 0.014989748 -0.035453435 -0.027422836 0.02826698 -0.015689757 -0.032422315
0.008821161 -0.01185658 -0.011325206 0.012682178 -0.025443535 -0.00094078865 -0.037490897 0.03570928
-0.015959607 -0.034170706 0.033735033 0.0005761384 0.036234256 0.024791893 0.004653701 0.024794614
-0.037763525 0.038027022 -0.023161128 0.02853918 0.017355382 -0.0021766108 -0.023026425 0.02356162
0.0055199037 0.028141074 -0.025404586 -0.028018711 -0.030539244 -0.034566827 -0.037399065 -0.041562475
-0.019061312 -0.027890498 0.033184245 0.0036573168 0.03895194 -0.008192077 0.025060162 -0.004754471
0.045421217 -0.019375859 -0.019851483 0.03619239 0.012432602 0.03363559 0.013078621 -0.024614058
-0.0055097514 0.027658015 0.040753234 -0.039225534 0.012436121 0.015461949 0.006094078 -0.013696217
0.016978107 -0.018510893 -0.02888297 0.026317256 -0.04272236 -0.03490298 0.03383516 0.02616691
-0.027934581 -0.022969477 -0.031134637 0.010751233 0.01304879 0.00032454694 0.00021532945 0.03189765
-0.022670735 -0.027092405 -0.035144553 -0.03623262 0.026922736 -0.039983418 -0.035147533 0.019551497
0.024887908 -0.026196903 0.028209066 -0.0036583554 -0.009508584 0.027582316 -0.0391306 -0.032386694
-0.023668326 0.016562328 -0.015700081 0.024556331 0.028799025 0.00072133786 -0.013828528 0.008701716
-0.007689821 0.018221758 -0.009903566 -0.030539222 -0.016402114 -0.010591013 0.031419046 0.027223108
0.036037214 -0.047583308 -0.00393687 0.03729105 0.02522274 -0.043933213 -0.030972293 0.0062415586
0.04428984 0.037106715 -0.006737229 0.031084016 0.03246333 -0.03307181 -0.01087126 -0.03103361
0.014159911 0.035013355 0.040473208 0.032074098 0.04502467 -0.011161468 -0.03161184 -0.042151984
0.0087509975 -0.036369443 -0.03617674 -0.027772687 -0.0017567585 0.0134579865 -0.028800635 0.028480083
-0.019967286 -0.006631162 0.02503197 0.027698942 0.016765604 -0.0022835028 -0.01135274 -0.038079195
-0.029364895 0.021047298 0.015490025 -0.023650385 0.017894339 0.030076435 0.035121523 -0.029336162

action_model._continuous_distribution.log_sigma f4 [1, 2]
00000000: d458 0d3d 9cf9 2ebb
0.03450854 -0.0026699072

action_model._continuous_distribution.mu.weight f4 [2, 256]
00000000: 57fd f2b9 85e3 ae3c 63c9 8dbb 252c a2bc
00000010: ec69 32bd 0b71 1cbd 7bf0 8a3c a614 fd3c
00000020: 6564 e13c 100d 373d 6771 d2bc d35c eabc
00000030: 2d3e b63c 7799 d13c 07e8 b93c 51e1 16bc
00000040: 1dda ae3c 279c 283c c9f5 493d d2b4 ea3c
00000050: ffeb 353d 07b2 193d da13 433c 1a31 183d
00000060: 3762 92bb 06fd 1ebd f50d 93bc 74d7 e9bc
00000070: f314 5cbc cb58 4b3d 0b07 9fbc 6d2c 8a3c
00000080: 1954 19bd 77c2 453d c556 23bc bb56 3b3d
00000090: 0a4e cdbc 32cf edbc 0d4f 2d3d cf4d 353c
000000a0: 6def b7bc 3b79 1ebb 020d 77bc 4228 39bd
000000b0: a468 68bd f550 003b 831f 7f3c a3f1 2abb
000000c0: f9fb 1ebd c3d9 8b3c 5a5f 143d 26a4 47bb
000000d0: e567 ac3b b46a 3dbd b9da edbc 5100 bbbc
000000e0: 44df 39bc 13fd b3bb 6395 203d aa27 06bd
000000f0: 410d 0c3d e338 683d 5026 043d 0717 0e3d
00000100: 375c b93a 8751 1a3b 91aa 823c c7c3 193d
00000110: 9a8f 583c 8423 143b 5261 2ebd b9a0 10bd
00000120: 8700 043d e622 3dbd 40e7 2ebb 6ab1 17bd
00000130: 831a e53b 0ad2 80bd 601b 1bbc 70c6 923b
00000140: 8d72 17bd 1e1d 853c 439c 4fbd 043b c53c
00000150: 1c89 debb d216 16bc 92c8 9dbb 9b34 2d3d
00000160: 4bc5 8b3b d0bf 12bd 9cb7 78bb 9766 03bd
00000170: 4150 a8bc 96a1 743d 176b 0a3d 8371 75bd
00000180: c08b 473c eda6 eb3c 7f18 bf3b 0efc d8bc
00000190: 70e6 61bd e19b 073d e445 20bc 48df fcbc
000001a0: 19ee 04bc 91ee edbb 1c1a 1dbc 20c0 b93c
000001b0: 0369 43bc ed29 273c 6ae2 06bd 8ce8 eb3c
000001c0: 3053 2dbc e2c6 19bd 5569 793d 3bde 76bb
000001d0: 7a62 453d 6ea8 f43c 3f21 73bc 60be e13b
000001e0: 287b 2fbd 2281 163d 1134 bdbc 29dd ad3c
000001f0: df5c f93c 0e7b 4e3c cacb aabc dd87 213c
00000200: ae4d 8b3c 72c8 443c 97ab 0cbd 5f43 3cbd
00000210: 6f9b a1bc be71 46bd 7419 07bd e597 29bd
00000220: 31c3 c6bc d5b7 58bd c75b d03c d57d 5d3c
00000230: 4178 df3c cd99 8abc c784 b13c 306f 70bc
00000240: 9a71 2f3d 07b6 b6bc 06fc 22bc 26db fe3c
00000250: 4825 b63c 87f9 bc3c 52fa cc3c 1bac 97bc
00000260: 1f28 80bb cc8b ec3c d8ff 143d f7f4 16bd
00000270: cbfe 913c b50d 743c 6f66 6a3c d5bf afbc
00000280: eddf b53c 151b 18bd 6481 5ebd 38fd 1f3d
00000290: 065b 30bd 9687 45bd 6e87 193d 6423 213d
000002a0: 643d 18bd baa6 83bc 75ff 32bd ab39 15bc
000002b0: e4c9 8d3c 5a55 d6ba a75f 0b38 241d 0e3d
000002c0: 3b2f ffbc 5475 74bd 6a4a 0ebd e359 1ebd
000002d0: dc99 d63c bf65 02bd 56c3 4ebd 382c 963c
000002e0: acf7 d53c e961 cebc 80d9 883c 37f5 053b
000002f0: 34d9 85ba 4ad0 093d 5fbb aebc eecf 1ebd
00000300: 0635 0ebb 881a a53c 68b3 b0bb 1851 253c
00000310: cf2b 833c f704 dc3b 7484 0ebc b3e9 a7bb
00000320: ed3b 97bc 35e8 583c 3394 cf3b da3e 16bd
00000330: badb 35bb 4953 6cbc 3972 093d f1ae 183d
00000340: 4637 4a3d 1563 d9bc 3549 90bc bc97 9b3d
00000350: e647 fc3c 0463 debc 7f5d 89bc acd1 3f3c
00000360: 69e3 553d 4687 103d e888 bebc 4649 463d
00000370: 4e46 083d 845b 6dbc a421 d6bc 84cd 26bd
00000380: 1ab3 593c fee2 273d 79f6 283d 2b93 0c3d
00000390: 7acc 1c3d 07ba c9bb f60e 4abd a61e 02bd
000003a0: 6594 573c 0e21 28bd db59 31bd ce9f 1ebd
000003b0: 6f94 283c 8a07 3f3c 7fa0 67bd 19fd 153d
000003c0: 33e5 39bc 2935 a53b bfc3 533d 36ad 8d3c
000003d0: fcc3 6d3b cdce f838 00c0 50bc 0dc2 d4bc
000003e0: 3aa4 8cbc cb07 343c 99db d53c 118f fabc
000003f0: a33d b23c 5bd9 0e3d fdd8 cd3c 3ca7 21bd
-0.0004634659 0.021348724 -0.0043269857 -0.01979644 -0.043558046 -0.038193744 0.016960373 0.030893635
0.027513692 0.04469019 -0.02568884 -0.028608715 0.022246445 0.025585873 0.022693647 -0.009208993
0.021344239 0.010291136 0.049306665 0.028650675 0.044414517 0.037523296 0.011906588 0.037156202
-0.0044672745 -0.03881552 -0.017950991 -0.028545119 -0.013432729 0.049645226 -0.019412538 0.016866887
-0.037433717 0.04828116 -0.009969418 0.04573701 -0.025061626 -0.029029462 0.042311717 0.011065914
-0.022453034 -0.0024181146 -0.015078785 -0.04520441 -0.056740418 0.0019579504 0.015571478 -0.0026083968
-0.03881452 0.01707161 0.036223747 -0.003046283 0.0052614086 -0.04624434 -0.02903496 -0.0228273
-0.011344735 -0.0054928153 0.039204966 -0.03275267 0.034192327 0.056694876 0.0322631 0.03468993
0.0014141862 0.002354713 0.015950473 0.037540223 0.013217831 0.0022604177 -0.04257328 -0.035309527
0.032227065 -0.04617586 -0.0026688129 -0.03703443 0.006991686 -0.06290062 -0.009466976 0.004479222
-0.03697448 0.016249236 -0.050686132 0.024075992 -0.006791247 -0.009160714 -0.0048151696 0.042286497
0.0042654625 -0.035827458 -0.0037951237 -0.03208026 -0.02054608 0.059724413 0.033793535 -0.059922706
0.012179315 0.02876612 0.0058317776 -0.026487377 -0.055151403 0.033107642 -0.009782288 -0.030868188
-0.0081134075 -0.0072611053 -0.0095887445 0.02267462 -0.011926892 0.010202867 -0.03293077 0.02879741
-0.0105789155 -0.037543185 0.060891468 -0.003766908 0.048189618 0.02986547 -0.014839469 0.0068891495
-0.04284206 0.036744244 -0.023096116 0.021223621 0.030439792 0.012602581 -0.020849127 0.0098590525
0.017004814 0.0120106805 -0.03434333 -0.045962688 -0.019727437 -0.048448317 -0.03298326 -0.041404624
-0.024262996 -0.05290969 0.025434388 0.01351877 0.027279021 -0.016919041 0.021669758 -0.014674947
0.04283295 -0.022303594 -0.009947782 0.031110357 0.022234574 0.023068203 0.025021706 -0.018514683
-0.003911033 0.028875254 0.036376804 -0.03685471 0.01782169 0.014895846 0.014306649 -0.021453777
0.022201503 -0.037135202 -0.054322615 0.039059848 -0.043055557 -0.048225008 0.03748267 0.03934039
-0.03716792 -0.016070712 -0.043700654 -0.009107987 0.017308183 -0.0016352341 3.3229266e-05 0.03469576
-0.03115045 -0.059682205 -0.034738936 -0.03865994 0.026196413 -0.031835314 -0.050479256 0.018331632
0.026119076 -0.025193172 0.016705275 0.002044035 -0.0010211826 0.033645906 -0.02132958 -0.038772516
-0.0021699085 0.020154253 -0.0053924806 0.010090135 0.0160121 0.006714459 -0.0086985715 -0.0051242947
-0.018461192 0.013238956 0.0063348054 -0.036681034 -0.0027749375 -0.014424154 0.033556197 0.037276212
0.04936912 -0.026536504 -0.017613033 0.075973004 0.030796003 -0.027146824 -0.016768215 0.0117077045
0.05221883 0.035285257 -0.023258641 0.048409723 0.033270173 -0.014487151 -0.026139088 -0.04072334
0.01328733 0.04098796 0.04125068 0.034320038 0.03828094 -0.0061562094 -0.049330674 -0.03176751
0.013157939 -0.04104715 -0.043298583 -0.03872662 0.010289296 0.011659512 -0.056549545 0.036618326
-0.011346149 0.0050417376 0.05170035 0.017294507 0.0036280146 0.00011864081 -0.012741089 -0.025971437
-0.017168153 0.010988186 0.026105689 -0.030585798 0.021757906 0.034875255 0.025127882 -0.039466128

action_model._continuous_distribution.mu.bias f4 [2]
00000000: e8fc f23c ea34 b03b
0.02966161 0.0053774016

exp_avg f4 [256, 28]
00000000: 0000 0000 0000 0000 b67e 6c30 6f33 8430
00000010: 0000 0000 0000 0000 b67e 6c30 f8fb 8b30
00000020: 0000 0000 0000 0000 b67e 6c30 3c2c 8730
00000030: 7ae9 85b5 0000 0000 7f0b e8b4 108b c635
00000040: 0000 0000 0000 0000 b67e 6c30 f707 8c30
00000050: d39d 9eb6 0000 0000 9fae 6d36 11c6 9a36
00000060: 0000 0000 0000 0000 b67e 6c30 14f9 8330
00000070: 0000 0000 0000 0000 0a90 7ab3 348a 61af
00000080: 0000 0000 0000 0000 0a90 7ab3 7f64 4833
00000090: 0000 0000 0000 0000 0a90 7ab3 f63b 32b2
000000a0: 1775 0837 0000 0000 086e f035 2f96 73b7
000000b0: 0000 0000 0000 0000 0a90 7ab3 82ae 15b2
000000c0: 750b 8838 0000 0000 5586 84b8 ed2c 58b8
000000d0: 0000 0000 0000 0000 0a90 7ab3 73d6 c831
000000e0: 0000 0000 0000 0000 5c31 0eb2 4dcd 8fb2
000000f0: 0000 0000 0000 0000 5c31 0eb2 1d0b c9b2
00000100: 0000 0000 0000 0000 5c31 0eb2 c14c 84b2
00000110: 85f6 1b36 0000 0000 b44a f5b6 d0a3 20b7
00000120: 0000 0000 0000 0000 5c31 0eb2 84ab 84b2
00000130: 1a13 84b6 0000 0000 e46b fbb6 7445 9fb6
00000140: 0000 0000 0000 0000 5c31 0eb2 6341 98b2
00000150: 0000 0000 0000 0000 bd16 15b1 2f7e ddb3
00000160: 0000 0000 0000 0000 bd16 15b1 5498 45b4
00000170: 0000 0000 0000 0000 bd16 15b1 1389 b9b3
00000180: f8b7 55b7 0000 0000 46b3 dcb7 c0d1 d6b7
00000190: 0000 0000 0000 0000 bd16 15b1 b45a beb3
000001a0: 7588 86b8 0000 0000 cc81 e436 7705 2037
000001b0: 0000 0000 0000 0000 bd16 15b1 6892 f5b3
000001c0: 0000 0000 0000 0000 9e81 1631 88f5 fdb3
000001d0: 0000 0000 0000 0000 9e81 1631 e340 67b4
000001e0: 0000 0000 0000 0000 9e81 1631 0d30 d2b3
000001f0: d199 94b7 0000 0000 bcbe 91b7 4402 9eb6
00000200: 0000 0000 0000 0000 9e81 1631 0b25 d8b3
00000210: 1474 a6b8 0000 0000 0254 2238 d6a4 2638
00000220: 0000 0000 0000 0000 9e81 1631 8554 0db4
00000230: 0000 0000 0000 0000 3834 aa33 c73d 18b3
00000240: 0000 0000 0000 0000 3834 aa33 1878 09b4
00000250: 0000 0000 0000 0000 3834 aa33 17d8 88b2
00000260: 9759 44b7 0000 0000 0bd3 00b7 c3f0 9036
00000270: 0000 0000 0000 0000 3834 aa33 b9d6 a1b2
00000280: 6674 9db8 0000 0000 0192 3038 f8e1 1f38
00000290: 0000 0000 0000 0000 3834 aa33 6909 4db3
000002a0: 0000 0000 0000 0000 a53e 41b3 d4b9 1833
000002b0: 0000 0000 0000 0000 a53e 41b3 e14e d733
000002c0: 0000 0000 0000 0000 a53e 41b3 26bc bb32
000002d0: 47ad b437 0000 0000 e2aa 1837 a04b b5b6
000002e0: 0000 0000 0000 0000 a53e 41b3 d6ac cd32
000002f0: 8c17 9638 0000 0000 b9f0 55b8 d957 2fb8
00000300: 0000 0000 0000 0000 a53e 41b3 9a7b 3e33
00000310: 0000 0000 0000 0000 b0a0 24b3 7823 ad33
00000320: 0000 0000 0000 0000 b0a0 24b3 a848 3d34
00000330: 0000 0000 0000 0000 b0a0 24b3 72f7 8133
00000340: b550 9737 0000 0000 256e ed37 4674 1037
00000350: 0000 0000 0000 0000 b0a0 24b3 0017 8833
00000360: 91e9 e838 0000 0000 95ae 6eb8 9618 77b8
00000370: 0000 0000 0000 0000 b0a0 24b3 6058 c933
00000380: 0000 0000 0000 0000 e27d 23b3 5b77 9a33
00000390: 0000 0000 0000 0000 e27d 23b3 7831 2c34
000003a0: 0000 0000 0000 0000 e27d 23b3 33ec 6433
000003b0: 03f6 a837 0000 0000 db6c c737 8085 5736
000003c0: 0000 0000 0000 0000 e27d 23b3 447c 7033
000003d0: 54ce de38 0000 0000 a9a9 81b8 0513 78b8
000003e0: 0000 0000 0000 0000 e27d 23b3 dba9 b433
000003f0: 0000 0000 0000 0000 005d 8cb3 f1fe 4a32
0.0 0.0 8.6036367e-10 9.618882e-10 0.0 0.0 8.6036367e-10 1.0185195e-09
0.0 0.0 8.6036367e-10 9.835115e-10 -9.977223e-07 0.0 -4.3221732e-07 1.4792622e-06
0.0 0.0 8.6036367e-10 1.0188604e-09 -4.72714e-06 0.0 3.5417395e-06 4.6126156e-06
0.0 0.0 8.6036367e-10 9.602297e-10 0.0 0.0 -5.8338664e-08 -2.051273e-10
0.0 0.0 -5.8338664e-08 4.665753e-08 0.0 0.0 -5.8338664e-08 -1.0374597e-08
8.133494e-06 0.0 1.7913417e-06 -1.4518896e-05 0.0 0.0 -5.8338664e-08 -8.71262e-09
6.4871194e-05 0.0 -6.319272e-05 -5.1540253e-05 0.0 0.0 -5.8338664e-08 5.845146e-09
0.0 0.0 -8.276711e-09 -1.6740751e-08 0.0 0.0 -8.276711e-09 -2.3404533e-08
0.0 0.0 -8.276711e-09 -1.5401726e-08 2.3240293e-06 0.0 -7.3102656e-06 -9.574884e-06
0.0 0.0 -8.276711e-09 -1.5444819e-08 -3.9361303e-06 0.0 -7.492943e-06 -4.7466547e-06
0.0 0.0 -8.276711e-09 -1.7724863e-08 0.0 0.0 -2.169528e-09 -1.0314067e-07
0.0 0.0 -2.169528e-09 -1.8402471e-07 0.0 0.0 -2.169528e-09 -8.6396675e-08
-1.2738623e-05 0.0 -2.6309524e-05 -2.560846e-05 0.0 0.0 -2.169528e-09 -8.864063e-08
-6.415035e-05 0.0 6.81004e-06 9.538016e-06 0.0 0.0 -2.169528e-09 -1.1435333e-07
0.0 0.0 2.1901552e-09 -1.18258924e-07 0.0 0.0 2.1901552e-09 -2.1537157e-07
0.0 0.0 2.1901552e-09 -9.7876274e-08 -1.7714601e-05 0.0 -1.7374165e-05 -4.7090307e-06
0.0 0.0 2.1901552e-09 -1.0065022e-07 -7.937118e-05 0.0 3.870205e-05 3.9731e-05
0.0 0.0 2.1901552e-09 -1.3162396e-07 0.0 0.0 7.9257404e-08 -3.5446444e-08
0.0 0.0 7.9257404e-08 -1.2802809e-07 0.0 0.0 7.9257404e-08 -1.593075e-08
-1.170337e-05 0.0 -7.678532e-06 4.319563e-06 0.0 0.0 7.9257404e-08 -1.8840511e-08
-7.508024e-05 0.0 4.2097647e-05 3.8119004e-05 0.0 0.0 7.9257404e-08 -4.773884e-08
0.0 0.0 -4.499329e-08 3.5559268e-08 0.0 0.0 -4.499329e-08 1.0026066e-07
0.0 0.0 -4.499329e-08 2.1855225e-08 2.153836e-05 0.0 9.099693e-06 -5.4030243e-06
0.0 0.0 -4.499329e-08 2.3943738e-08 7.156943e-05 0.0 -5.1007348e-05 -4.1805066e-05
0.0 0.0 -4.499329e-08 4.4350237e-08 0.0 0.0 -3.833037e-08 8.062392e-08
0.0 0.0 -3.833037e-08 1.7628429e-07 0.0 0.0 -3.833037e-08 6.052041e-08
1.8038185e-05 0.0 2.8303892e-05 8.610141e-06 0.0 0.0 -3.833037e-08 6.337177e-08
0.00011106127 0.0 -5.6906214e-05 -5.8912286e-05 0.0 0.0 -3.833037e-08 9.375867e-08
0.0 0.0 -3.8065885e-08 7.1928945e-08 0.0 0.0 -3.8065885e-08 1.6036745e-07
0.0 0.0 -3.8065885e-08 5.330021e-08 2.0141719e-05 0.0 2.3773338e-05 3.2115204e-06
0.0 0.0 -3.8065885e-08 5.5992373e-08 0.000106242165 0.0 -6.182801e-05 -5.914552e-05
0.0 0.0 -3.8065885e-08 8.4128e-08 0.0 0.0 -6.5361746e-08 1.18159145e-08

exp_avg_sq f4 [256, 28]
00000000: 0000 0000 0000 0000 9a41 b02b 3823 b12b
00000010: 0000 0000 0000 0000 9a41 b02b c408 b32b
00000020: 0000 0000 0000 0000 9a41 b02b 8ae4 b02b
00000030: 2c2b 9f2f 0000 0000 f420 d82f d174 1030
00000040: 0000 0000 0000 0000 9a41 b02b 51ed b02b
00000050: 8adb 4a2f 0000 0000 abca 4f30 6bc8 7b30
00000060: 0000 0000 0000 0000 9a41 b02b cc55 b12b
00000070: 0000 0000 0000 0000 bc5c ad2d 234c ad2d
00000080: 0000 0000 0000 0000 bc5c ad2d 1ffc ad2d
00000090: 0000 0000 0000 0000 bc5c ad2d d93c ad2d
000000a0: 210e f331 0000 0000 1f43 5831 50e1 9f31
000000b0: 0000 0000 0000 0000 bc5c ad2d d53e ad2d
000000c0: eff6 bb31 0000 0000 b7aa e531 08d1 0c32
000000d0: 0000 0000 0000 0000 bc5c ad2d 8f5b ad2d
000000e0: 0000 0000 0000 0000 cbe1 5829 5e2e 7429
000000f0: 0000 0000 0000 0000 cbe1 5829 f7bc 9429
00000100: 0000 0000 0000 0000 cbe1 5829 5ac3 6c29
00000110: cf93 0a30 0000 0000 5ab1 cc2f f804 0a30
00000120: 0000 0000 0000 0000 cbe1 5829 92cf 6d29
00000130: 1cd9 1530 0000 0000 adb1 c12f dae4 0830
00000140: 0000 0000 0000 0000 cbe1 5829 5a08 7a29
00000150: 0000 0000 0000 0000 24ef 8c2c 1368 8e2c
00000160: 0000 0000 0000 0000 24ef 8c2c 04b5 902c
00000170: 0000 0000 0000 0000 24ef 8c2c fa0e 8e2c
00000180: b836 a630 0000 0000 d2b9 1231 03c9 3531
00000190: 0000 0000 0000 0000 24ef 8c2c b81b 8e2c
000001a0: 0545 0f31 0000 0000 95ac c530 f155 1c31
000001b0: 0000 0000 0000 0000 24ef 8c2c a2ab 8e2c
000001c0: 0000 0000 0000 0000 b9f7 242c 6d70 282c
000001d0: 0000 0000 0000 0000 b9f7 242c 93d0 2f2c
000001e0: 0000 0000 0000 0000 b9f7 242c 4670 272c
000001f0: 7fa0 0431 0000 0000 6752 0b31 60fa 4f31
00000200: 0000 0000 0000 0000 b9f7 242c 8b93 272c
00000210: da30 4831 0000 0000 e57f 9f31 6b61 ca31
00000220: 0000 0000 0000 0000 b9f7 242c 2637 292c
00000230: 0000 0000 0000 0000 4aec 1f2f 7ee5 1f2f
00000240: 0000 0000 0000 0000 4aec 1f2f 13fa 1f2f
00000250: 0000 0000 0000 0000 4aec 1f2f ece3 1f2f
00000260: 1476 ad31 0000 0000 2dc7 c831 f596 0332
00000270: 0000 0000 0000 0000 4aec 1f2f 2be4 1f2f
00000280: 884e a531 0000 0000 256f cb31 794c 0c32
00000290: 0000 0000 0000 0000 4aec 1f2f 34e7 1f2f
000002a0: 0000 0000 0000 0000 d3e4 842d c7ea 842d
000002b0: 0000 0000 0000 0000 d3e4 842d 4e5b 852d
000002c0: 0000 0000 0000 0000 d3e4 842d 69df 842d
000002d0: 9030 9931 0000 0000 2caa ad30 5eb4 0f31
000002e0: 0000 0000 0000 0000 d3e4 842d f2e0 842d
000002f0: a936 9431 0000 0000 1b1a 5a31 4787 8931
00000300: 0000 0000 0000 0000 d3e4 842d 2af5 842d
00000310: 0000 0000 0000 0000 3fcb 242e 5248 252e
00000320: 0000 0000 0000 0000 3fcb 242e fe3d 262e
00000330: 0000 0000 0000 0000 3fcb 242e e025 252e
00000340: dbf5 de31 0000 0000 15a9 1b32 10a1 3b32
00000350: 0000 0000 0000 0000 3fcb 242e a22a 252e
00000360: 61d8 fe31 0000 0000 6d05 4932 892c 6d32
00000370: 0000 0000 0000 0000 3fcb 242e 8662 252e
00000380: 0000 0000 0000 0000 c751 da2d 4ca9 da2d
00000390: 0000 0000 0000 0000 c751 da2d cec1 db2d
000003a0: 0000 0000 0000 0000 c751 da2d bd86 da2d
000003b0: 4f9a c631 0000 0000 b9f6 ca31 e20a f531
000003c0: 0000 0000 0000 0000 c751 da2d 528b da2d
000003d0: 5974 ce31 0000 0000 0dfa 1332 5012 2c32
000003e0: 0000 0000 0000 0000 c751 da2d 1ec5 da2d
000003f0: 0000 0000 0000 0000 7150 5e2f d23b 5e2f
0.0 0.0 1.252376e-12 1.2586382e-12 0.0 0.0 1.252376e-12 1.2721148e-12
0.0 0.0 1.252376e-12 1.2568984e-12 2.8952607e-10 0.0 3.9313586e-10 5.25529e-10
0.0 0.0 1.252376e-12 1.2571421e-12 1.8449789e-10 0.0 7.559417e-10 9.159808e-10
0.0 0.0 1.252376e-12 1.260042e-12 0.0 0.0 1.9709005e-11 1.9701634e-11
0.0 0.0 1.9709005e-11 1.9779787e-11 0.0 0.0 1.9709005e-11 1.9694845e-11
7.073837e-09 0.0 3.147029e-09 4.653124e-09 0.0 0.0 1.9709005e-11 1.9695726e-11
5.4704894e-09 0.0 6.684185e-09 8.196601e-09 0.0 0.0 1.9709005e-11 1.9708483e-11
0.0 0.0 4.815748e-14 5.42191e-14 0.0 0.0 4.815748e-14 6.6053005e-14
0.0 0.0 4.815748e-14 5.2571967e-14 5.0414156e-10 0.0 3.72334e-10 5.021117e-10
0.0 0.0 4.815748e-14 5.280461e-14 5.4514415e-10 0.0 3.5232742e-10 4.980173e-10
0.0 0.0 4.815748e-14 5.5518395e-14 0.0 0.0 4.0055893e-12 4.0474373e-12
0.0 0.0 4.0055893e-12 4.112823e-12 0.0 0.0 4.0055893e-12 4.0375455e-12
1.2093642e-09 0.0 2.1351423e-09 2.6453228e-09 0.0 0.0 4.0055893e-12 4.03896e-12
2.0848472e-09 0.0 1.4382687e-09 2.274984e-09 0.0 0.0 4.0055893e-12 4.054938e-12
0.0 0.0 2.3443315e-12 2.3936645e-12 0.0 0.0 2.3443315e-12 2.4984778e-12
0.0 0.0 2.3443315e-12 2.3794452e-12 1.929976e-09 0.0 2.0274002e-09 3.0264786e-09
0.0 0.0 2.3443315e-12 2.381403e-12 2.91316e-09 0.0 4.642049e-09 5.890049e-09
0.0 0.0 2.3443315e-12 2.4046958e-12 0.0 0.0 1.4544912e-10 1.4542498e-10
0.0 0.0 1.4544912e-10 1.454981e-10 0.0 0.0 1.4544912e-10 1.454194e-10
5.0483866e-09 0.0 5.8434098e-09 7.659527e-09 0.0 0.0 1.4544912e-10 1.4542027e-10
4.81106e-09 0.0 5.9207133e-09 8.16646e-09 0.0 0.0 1.4544912e-10 1.4543106e-10
0.0 0.0 1.5108281e-11 1.5110925e-11 0.0 0.0 1.5108281e-11 1.5160897e-11
0.0 0.0 1.5108281e-11 1.5105877e-11 4.458407e-09 0.0 1.2635772e-09 2.0911766e-09
0.0 0.0 1.5108281e-11 1.5106558e-11 4.313581e-09 0.0 3.1738014e-09 4.002604e-09
0.0 0.0 1.5108281e-11 1.5115537e-11 0.0 0.0 3.74698e-11 3.758089e-11
0.0 0.0 3.74698e-11 3.779909e-11 0.0 0.0 3.74698e-11 3.7550296e-11
6.489001e-09 0.0 9.060632e-09 1.0921454e-08 0.0 0.0 3.74698e-11 3.7554522e-11
7.4169724e-09 0.0 1.17009735e-08 1.3805342e-08 0.0 0.0 3.74698e-11 3.7604163e-11
0.0 0.0 2.4820047e-11 2.4858914e-11 0.0 0.0 2.4820047e-11 2.4983484e-11
0.0 0.0 2.4820047e-11 2.4843566e-11 5.7801013e-09 0.0 5.907023e-09 7.1316757e-09
0.0 0.0 2.4820047e-11 2.4845601e-11 6.0086163e-09 0.0 8.613381e-09 1.00158815e-08
0.0 0.0 2.4820047e-11 2.4871268e-11 0.0 0.0 2.0219361e-10 2.0212035e-10

exp_avg f4 [256]
00000000: cd1d cf33 e651 fd37 3626 93b6 c42f 5db8
00000010: 8885 83b8 0b8f 7ab8 7616 3038 48fc 8138
00000020: b965 7038 9816 2738 ffab a7b7 5ea3 80b8
00000030: 0f38 4438 8453 3538 a514 0f38 ef6c f3b7
00000040: 8df1 2838 2570 f237 84e9 a738 9147 3338
00000050: 7cf7 0e38 9aba 3238 1c06 2038 a35e 3038
00000060: 818f 4cb6 0f81 19b8 59a1 98b7 b3dd 32b8
00000070: f138 adb7 34aa 9438 11c4 76b7 4df4 d937
00000080: ddab 94b8 deeb c238 d936 e0b6 34af f738
00000090: ae89 f5b7 0ae0 2eb7 222d 9038 4ad6 b937
000000a0: 696a 50b8 39c0 32b6 eb52 a1b7 cde1 61b8
000000b0: 9c10 90b8 1fa4 5637 7a05 fd37 7fbc da36
000000c0: 6efd 4ab8 fc36 dc37 ca06 9438 654d 75b6
000000d0: 761c a736 5090 5fb8 0cb1 feb7 672a c7b7
000000e0: 8042 1fb7 5296 1db7 4032 6138 42d8 80b8
000000f0: bf9d ee38 1084 e138 cd8d 7738 fb58 6838
00000100: 0264 7d36 df8f f536 ef52 9338 4780 9d38
00000110: 4b21 8537 6f41 5637 ec81 85b8 a1a3 7fb8
00000120: a45b 8138 3a6f 92b8 c3ea 6636 4481 4bb8
00000130: a95a 5b36 e65f a1b8 cc49 31b5 b30b d837
00000140: 7662 1eb8 61a6 5c38 f4a6 d3b8 4f65 0b38
00000150: b5e3 d9b6 1fec acb5 721b 00b7 f73d dd38
00000160: c7cf 8637 8aa9 44b8 25b4 06b6 9367 21b8
00000170: 87ae 20b8 6d12 d238 3935 6e38 9f34 3eb8
00000180: ca42 1337 bfd7 9b38 b5ff 8b37 2e73 24b8
00000190: 6e20 bcb8 d7f9 8138 86dc 56b7 4273 97b8
000001a0: 01dd 6eb7 302f 11b7 08a1 9237 055d d637
000001b0: 54c2 f5b6 6216 8c37 4437 5bb8 599d 3938
000001c0: ef2c 89b7 641d 52b8 61d7 0639 2b0d 8137
000001d0: fd97 8438 7026 9c38 0b0b 3bb7 473c e437
000001e0: 00b8 56b8 6521 0938 6b59 57b8 d0d1 2838
000001f0: cb99 5e38 2d88 4a37 f06f 3db8 005c e037
00000200: a2cc e237 736a 1638 f5c1 5cb8 fed5 adb8
00000210: fb99 07b8 10ad 6db8 ff43 9eb8 4541 3eb8
00000220: 9b55 41b8 545b 8db8 f29e 2a38 7465 0c38
00000230: 7e6f 8838 4f32 ddb7 4096 1e38 f805 beb7
00000240: 60e6 9938 37e6 2eb8 5371 30b7 3ead 1938
00000250: bf8c 8c37 4c2b 2b38 6c00 7838 16e0 10b8
00000260: d6d5 e1b6 9ddc c837 749a 8c38 d610 90b8
00000270: 0541 4537 ea05 2138 24ff cd37 5398 75b8
00000280: bf74 8337 afba a6b8 0a66 5fb8 0fe6 4438
00000290: 68ea 4fb8 7bec 57b8 b3d6 1b38 bdec 8a38
000002a0: 4010 c2b7 4433 f3b7 130a 46b8 3427 94b7
000002b0: 4048 f637 05b0 b735 37bd 6c36 87d5 5938
000002c0: 0ab4 62b8 d956 0eb9 9b89 3ab8 9fe7 6eb8
000002d0: 0ea8 7f38 c00f 84b8 f11f 45b8 0f46 6c37
000002e0: 3516 3638 108d 37b8 22df 1d38 9551 bc36
000002f0: bd0c bf35 036d 1338 1430 85b7 10f6 a6b8
00000300: be9b 5036 2021 cc37 9485 6435 fbc3 d837
00000310: e2ab c837 32cc 5137 49ce 9bb7 4115 f3b6
00000320: d63f 45b8 b074 0d38 8e7c 3837 a0a3 79b8
00000330: ad0f 98b6 06ee f2b7 2c68 8438 0d01 4c38
00000340: 7a39 c638 ffea d1b7 4541 0eb8 3b3b 1039
00000350: 1698 8d38 69da 26b8 819d c936 b9b6 ab37
00000360: 8b71 6238 b971 8e38 f195 22b8 3933 8c38
00000370: 2570 4e38 ae5c 8eb6 bbbd 5db8 2ef6 78b8
00000380: b51e 2438 8bec c238 fe43 dc38 ca5e 7238
00000390: 3ad5 9138 f5b8 44b6 6530 a5b8 bc03 74b8
000003a0: 1923 9837 c870 76b8 9695 30b8 2234 81b8
000003b0: a829 9937 28c1 9137 e683 ebb8 2925 b538
000003c0: 8299 0bb7 b832 4d37 a1dc fb38 cc34 5338
000003d0: f455 8c37 f85c 5536 1681 d3b7 5bf2 6bb8
000003e0: 290f c1b7 4d66 ba37 48a0 6938 6da1 c0b7
000003f0: be3f 9b37 7cea 5138 472e 6238 cfa9 99b8
9.6446094e-08 3.0198087e-05 -4.3853897e-06 -5.273499e-05 -6.271439e-05 -5.9737864e-05 4.198259e-05 6.1981904e-05
5.7315196e-05 3.9836945e-05 -1.9988043e-05 -6.133945e-05 4.678225e-05 4.3231543e-05 3.4113084e-05 -2.9018584e-05
4.0279283e-05 2.890087e-05 8.006676e-05 4.2743577e-05 3.4085926e-05 4.2612293e-05 3.8152662e-05 4.2049807e-05
-3.04819e-06 -3.6598238e-05 -1.8194945e-05 -4.264498e-05 -2.0649723e-05 7.088893e-05 -1.4708393e-05 2.5982177e-05
-7.089202e-05 9.2945746e-05 -6.6821053e-06 0.00011810512 -2.9270388e-05 -1.0423371e-05 6.874862e-05 2.2153505e-05
-4.9690167e-05 -2.6635955e-06 -1.9231307e-05 -5.3854474e-05 -6.869549e-05 1.2793606e-05 3.01625e-05 6.51885e-06
-4.8396578e-05 2.6251648e-05 7.0584545e-05 -3.6552894e-06 4.980301e-06 -5.3301745e-05 -3.0361603e-05 -2.3742394e-05
-9.492622e-06 -9.392928e-06 5.369098e-05 -6.143797e-05 0.00011378107 0.000107534346 5.902145e-05 5.539598e-05
3.775815e-06 7.318318e-06 7.024954e-05 7.510237e-05 1.5870339e-05 1.2770629e-05 -6.366134e-05 -6.094913e-05
6.168269e-05 -6.98254e-05 3.440932e-06 -4.851936e-05 3.2686314e-06 -7.694941e-05 -6.6045027e-07 2.5754654e-05
-3.7761834e-05 5.260704e-05 -0.000100923615 3.3234533e-05 -6.4936125e-06 -1.2883719e-06 -7.635785e-06 0.00010549643
1.6070799e-05 -4.6887937e-05 -2.0072414e-06 -3.8481852e-05 -3.8309514e-05 0.000100170124 5.679319e-05 -4.5348537e-05
8.777433e-06 7.431162e-05 1.6689164e-05 -3.9207916e-05 -8.970579e-05 6.197736e-05 -1.2806739e-05 -7.2217095e-05
-1.4237362e-05 -8.65366e-06 1.7479542e-05 2.5554104e-05 -7.3241918e-06 1.6699723e-05 -5.226514e-05 4.425398e-05
-1.6352597e-05 -5.0095274e-05 0.00012859471 1.538413e-05 6.3225605e-05 7.445819e-05 -1.114864e-05 2.7207787e-05
-5.119294e-05 3.2694446e-05 -5.134327e-05 4.0249724e-05 5.3072155e-05 1.2071844e-05 -4.516536e-05 2.6745722e-05
2.7036589e-05 3.5861925e-05 -5.2632724e-05 -8.289142e-05 -3.2329914e-05 -5.666638e-05 -7.546692e-05 -4.5360317e-05
-4.6094512e-05 -6.740415e-05 4.0679188e-05 3.3473087e-05 6.5057524e-05 -2.636868e-05 3.7810067e-05 -2.2652544e-05
7.338519e-05 -4.1699237e-05 -1.0516803e-05 3.6639387e-05 1.675484e-05 4.08099e-05 5.91282e-05 -3.454097e-05
-6.7304163e-06 2.3944589e-05 6.704489e-05 -6.869591e-05 1.1757254e-05 3.83909e-05 2.4556713e-05 -5.8554415e-05
1.5670781e-05 -7.950269e-05 -5.3262374e-05 4.69443e-05 -4.9570954e-05 -5.1480234e-05 3.7154834e-05 6.624449e-05
-2.313417e-05 -2.899173e-05 -4.721626e-05 -1.766123e-05 2.935913e-05 1.3685791e-06 3.5276878e-06 5.1935695e-05
-5.4050273e-05 -0.00013574529 -4.447401e-05 -5.6959336e-05 6.095325e-05 -6.297184e-05 -4.6998208e-05 1.4083008e-05
4.3412863e-05 -4.3761975e-05 3.7639526e-05 5.612334e-06 1.4234316e-06 3.5149056e-05 -1.5877224e-05 -7.9613295e-05
3.108507e-06 2.433412e-05 8.5131e-07 2.5840467e-05 2.3921897e-05 1.2504914e-05 -1.8573499e-05 -7.2444386e-06
-4.7027912e-05 3.3725693e-05 1.0996255e-05 -5.9518614e-05 -4.531778e-06 -2.8959486e-05 6.313654e-05 4.863837e-05
9.4520816e-05 -2.502417e-05 -3.3916225e-05 0.00013754975 6.751732e-05 -3.9780894e-05 6.0086027e-06 2.0469875e-05
5.3988344e-05 6.79227e-05 -3.8763454e-05 6.685261e-05 4.921867e-05 -4.242719e-06 -5.2867206e-05 -5.935708e-05
3.9129245e-05 9.2947004e-05 0.00010503082 5.7785575e-05 6.953855e-05 -2.9313935e-06 -7.876827e-05 -5.817761e-05
1.8136156e-05 -5.8756006e-05 -4.2100983e-05 -6.16091e-05 1.8258419e-05 1.7375292e-05 -0.00011230241 8.637674e-05
-8.320787e-06 1.2230761e-05 0.00012009708 5.035549e-05 1.6729326e-05 3.1793588e-06 -2.521327e-05 -5.6254077e-05
-2.3014452e-05 2.2220565e-05 5.5700802e-05 -2.2963353e-05 1.8507122e-05 5.0047864e-05 5.3925698e-05 -7.327238e-05

exp_avg_sq f4 [256]
00000000: 81c8 cb30 4442 8b32 97d7 b530 e3d3 d131
00000010: b2ca 5432 389c a332 0d16 1f32 7229 d632
00000020: 9e15 9b32 341c 1f33 5d6a dc32 bebf 0733
00000030: 5b11 9232 6fb4 e532 f6f3 4b32 8383 4832
00000040: 13cb 4d32 8eef 1432 f71e 8a33 c57b da32
00000050: 32aa 5133 8c36 0f33 6907 c432 70f2 de32
00000060: c07e 3f31 b261 e132 1114 a932 2719 3631
00000070: 16eb 9831 774c 5533 d099 4c32 d685 8731
00000080: c296 6532 a6eb 3c33 3493 0e32 ec57 8933
00000090: 6aef e731 96e5 ab32 cbf3 1e33 785b 2232
000000a0: 557e 4832 127f b131 9b4d ca31 ecfa ce32
000000b0: 62e5 0433 f584 e732 6669 0f33 4e79 9f32
000000c0: 38b3 1633 509c a432 bc11 2533 001b 4e32
000000d0: c5f8 5f32 d51a dd32 34ec 0b33 ea66 6332
000000e0: 64dd 3832 0869 2a31 d815 e832 d5ce e531
000000f0: cd7b 8b33 8b5b fa33 b133 e632 8be8 f732
00000100: d359 6c32 43e3 1932 b26a 8333 d594 f832
00000110: c700 aa32 2f11 2833 b35a aa32 cb0c f831
00000120: a253 2033 1f78 9132 8942 4c31 909c d632
00000130: 110c 8631 ffb3 eb32 d779 4f32 95c0 b732
00000140: 0226 bb32 eea9 9132 a8c3 e432 8ac2 a232
00000150: 6b0c c430 3893 a832 d4e2 0431 8167 4933
00000160: 9dd7 8b32 2754 7f32 4cf5 5132 00d4 d032
00000170: 7072 1331 9388 ca33 6277 e032 b1ae fa32
00000180: b222 e631 702b d032 6644 0132 bb86 1a32
00000190: 7f44 0d33 cfca 5833 9dac a632 b162 0332
000001a0: 956e 3e31 1b65 5032 9dd8 aa33 24be 3132
000001b0: 3252 cb30 e56d 7931 3a23 1132 ad09 7832
000001c0: 831a ca31 b1df ba32 ab81 be33 f4bb 3233
000001d0: 5b28 6933 0b5c 0c33 0bd1 0933 1367 9532
000001e0: 4692 6432 c79d c132 ed36 2b31 1475 7a32
000001f0: 653c a532 a764 b331 7448 0532 2007 db31
00000200: 2a3b 2a32 cc70 b731 d67b 2a32 695e 3033
00000210: cc78 9630 0754 3f33 d6b3 1032 804c ac32
00000220: 1a4f 4931 c3ed 0a33 01e1 3c32 a2b8 da31
00000230: e0bf 9f32 309e f830 b73d 0533 8bda 6231
00000240: 2587 2033 4f81 a132 9ff7 ec32 4012 c032
00000250: a840 2633 58f2 3732 657a b233 da98 4431
00000260: b832 0331 3252 bb32 4e47 9732 ae2e 2b32
00000270: 5592 4e31 7dcd bf32 611e c331 7285 cb32
00000280: 9af8 3632 68e2 c632 0844 f232 8781 2733
00000290: cfba b532 7ac0 9732 3162 1833 242a 8a33
000002a0: 6e73 5033 d008 b131 cdb2 1032 84ea 9930
000002b0: 7940 2d33 0e28 8531 3ba8 3c31 5d9c 1733
000002c0: a366 0532 cddd c132 0687 a632 f22c 2832
000002d0: c7bc 8033 a668 d131 6f95 1333 4bf2 2d32
000002e0: f092 9932 64c9 6c32 61a8 8c32 6eca 4f32
000002f0: 9e41 4831 3ed5 e232 9cb0 fa31 fdfe 6232
00000300: 7060 8331 1f24 2732 b501 c432 1b54 1732
00000310: c0cf d131 de91 c731 be43 1833 9840 c330
00000320: 1d62 6031 c82e 1333 1df9 3831 5b66 4c32
00000330: 60cc 7a32 fb2e e531 0566 8933 0933 1a33
00000340: 3b6f c533 e6d4 9d31 1d01 cb32 4a97 3134
00000350: c428 2f33 1d0d 9031 073c 9f32 f602 7231
00000360: 76cb 2533 48f7 1433 4220 9032 2433 a933
00000370: fd68 0933 8bed 0432 3bd3 0f33 966e 7232
00000380: af0f 3833 4fe9 7a33 27ee 6333 f8cd 1333
00000390: b59c 1d33 3787 9332 73bc c332 0b57 df31
000003a0: 885b 0732 bd87 5e32 ff32 d232 a580 3532
000003b0: 5873 4b32 acf6 1c32 5c00 b232 c5be 8533
000003c0: 7768 c832 7ac7 bc32 130b 2d34 2343 8a32
000003d0: ba7e f432 1774 c532 24d3 0032 35e8 6231
000003e0: dd62 a931 42b7 5231 352b 6133 93ee 2533
000003f0: 296a 4f32 e8c0 0e33 041b 8732 5e24 9332
1.4827181e-09 1.6211864e-08 1.3230758e-09 6.1067893e-09 1.2386112e-08 1.9046738e-08 9.260032e-09 2.4931726e-08
1.8054205e-08 3.7045723e-08 2.565974e-08 3.1606525e-08 1.700453e-08 2.674116e-08 1.18716255e-08 1.16714345e-08
1.1978744e-08 8.669202e-09 6.431758e-08 2.5434824e-08 4.8816396e-08 3.3344392e-08 2.2820773e-08 2.595445e-08
2.7866207e-09 2.6237874e-08 1.9683315e-08 2.6498783e-09 4.4505084e-09 4.966247e-08 1.1909336e-08 3.9442325e-09
1.3363833e-08 4.3986482e-08 8.298958e-09 6.3955525e-08 6.750203e-09 2.0011424e-08 3.700897e-08 9.450439e-09
1.1670257e-08 5.165824e-09 5.8877965e-09 2.4095662e-08 3.0942267e-08 2.6952401e-08 3.339064e-08 1.85652e-08
3.5087595e-08 1.9163195e-08 3.8433186e-08 1.1996917e-08 1.3036872e-08 2.5739988e-08 3.2578285e-08 1.3236539e-08
1.0760548e-08 2.479796e-09 2.7018288e-08 6.6882913e-09 6.495211e-08 1.1658184e-07 2.679903e-08 2.8860333e-08
1.3757432e-08 8.9574455e-09 6.1195706e-08 2.893868e-08 1.9790958e-08 3.9131177e-08 1.983185e-08 7.2192043e-09
3.7328967e-08 1.6934846e-08 2.9723728e-09 2.4984075e-08 3.901285e-09 2.7439453e-08 1.2076689e-08 2.139158e-08
2.178695e-08 1.6957497e-08 2.6631668e-08 1.8947748e-08 1.4264406e-09 1.9624721e-08 1.9337465e-09 4.6893096e-08
1.627978e-08 1.4862088e-08 1.2221175e-08 2.4310793e-08 2.1456366e-09 9.431201e-08 2.6131321e-08 2.9183271e-08
6.6978254e-09 2.423414e-08 7.52434e-09 8.994614e-09 3.2891418e-08 5.0475872e-08 1.9403439e-08 7.647643e-09
2.7711498e-09 1.2130182e-08 7.9556436e-08 1.0345989e-08 1.4793555e-09 3.6296737e-09 8.44812e-09 1.44377e-08
5.881988e-09 2.1754973e-08 8.871151e-08 4.1614797e-08 5.4286243e-08 3.2680003e-08 3.208792e-08 1.7392756e-08
1.3304605e-08 2.2539906e-08 2.4914997e-09 1.4578536e-08 1.9235992e-08 5.2210285e-09 7.758093e-09 6.374549e-09
9.908755e-09 5.3388245e-09 9.923459e-09 4.106406e-08 1.0948269e-09 4.4547075e-08 8.422793e-09 2.0058224e-08
2.9294314e-09 3.2346872e-08 1.09942e-08 6.3656254e-09 1.859729e-08 1.8089334e-09 3.1022605e-08 3.3011556e-09
3.7375816e-08 1.880167e-08 2.7586621e-08 2.2360041e-08 3.870869e-08 1.07071045e-08 8.311034e-08 2.860864e-09
1.909184e-09 2.1807043e-08 1.761114e-08 9.964124e-09 3.0060125e-09 2.2328772e-08 5.6787006e-09 2.3692994e-08
1.065032e-08 2.3153191e-08 2.8203445e-08 3.9000522e-08 2.1156124e-08 1.7666242e-08 3.5479562e-08 6.433791e-08
4.8533757e-08 5.15238e-09 8.422558e-09 1.1198868e-09 4.033834e-08 3.875363e-09 2.7453229e-09 3.529964e-08
7.764956e-09 2.256902e-08 1.9386345e-08 9.789106e-09 5.994803e-08 6.0945977e-09 3.4362014e-08 1.0125016e-08
1.7878364e-08 1.3782799e-08 1.6374715e-08 1.2095013e-08 2.914113e-09 2.6406834e-08 7.2960358e-09 1.3212909e-08
3.8235655e-09 9.728892e-09 2.281818e-08 8.80848e-09 6.106319e-09 5.8082454e-09 3.545187e-08 1.4206476e-09
3.265206e-09 3.4268652e-08 2.6917129e-09 1.1897636e-08 1.4598385e-08 6.6701182e-09 6.398117e-08 3.5902335e-08
9.19376e-08 4.593505e-09 2.3632817e-08 1.6539448e-07 4.078244e-08 4.1924424e-09 1.8537333e-08 3.5217318e-09
3.8602103e-08 3.4683836e-08 1.6778475e-08 7.878978e-08 3.1993284e-08 7.737422e-09 3.3486895e-08 1.4111398e-08
4.2855103e-08 5.8419854e-08 5.3069154e-08 3.4413432e-08 3.6696935e-08 1.7174541e-08 2.2786685e-08 6.50005e-09
7.878846e-09 1.2952964e-08 2.4470408e-08 1.0564837e-08 1.1842381e-08 9.136482e-09 2.072209e-08 6.227996e-08
2.333057e-08 2.1976792e-08 1.611591e-07 1.6095845e-08 2.8462967e-08 2.298661e-08 7.498588e-09 3.3019323e-09
4.929787e-09 3.0663192e-09 5.242619e-08 3.8634038e-08 1.2073124e-08 3.32374e-08 1.5728354e-08 1.712959e-08

exp_avg f4 [1, 2]
00000000: c57f 72bc aaa0 633b
-0.01480097 0.0034733214

exp_avg_sq f4 [1, 2]
00000000: ff14 8539 bdef 6439
0.0002538338 0.00021833084
