IAV_FINAL/results/results/SheepsRedo1/Sheeps/Sheeps-139275.onnx (onnx, 33382 bytes, 5 tensors)

action_model._continuous_distribution.log_sigma f4 [1, 2]
0.019295875 -0.015210305
00000000: 6212 9e3c a534 79bc

action_model._continuous_distribution.mu.bias f4 [2]
0.014870249 0.0026170628
00000000: 58a2 733c 0783 2b3b

action_model._continuous_distribution.mu.weight f4 [2, 256]
-0.0026465082 0.012956223 0.003096016 -0.013776609 -0.02725294 -0.023170963 0.007794977 0.019949405
0.01313934 0.031550467 -0.017443128 -0.021869194 0.020252153 0.010192136 0.00849777 0.0051341415
0.012124796 0.013606799 0.035933547 0.016175298 0.029456388 0.028601168 0.0051245443 0.021087168
-0.0029984151 -0.026814312 -0.02188216 -0.013961265 -0.003968718 0.033143878 -0.018889269 0.005810892
-0.022990515 0.03765647 -0.015954418 0.03720735 -0.014598083 -0.024788005 0.024589878 0.0148465
-0.012577433 0.004853357 -0.009507816 -0.029843079 -0.042707924 -0.0013404461 0.0048970287 -0.010830319
-0.030898226 0.008619265 0.022661358 -0.01230921 -0.0027041505 -0.031892464 -0.021977223 -0.009386798
-0.0033175074 -0.0029987781 0.024390625 -0.020491255 0.028890777 0.044116855 0.018295914 0.019883823
-0.0028866252 -0.00989332 0.020022945 0.024033923 0.008267753 -0.0056625986 -0.028086381 -0.019100938
0.02320303 -0.03446957 0.0021213451 -0.025444316 0.00060329866 -0.04731236 -0.013944409 0.004791212
-0.025869176 0.013059147 -0.03561085 0.012593998 -0.0031493146 -0.00343837 0.007965184 0.030010644
-0.0009057373 -0.023961883 -0.010421872 -0.02308542 -0.009108552 0.043001715 0.018790806 -0.045805976
-0.001190818 0.019432195 0.0072665173 -0.013219065 -0.0435027 0.023225484 -0.017469868 -0.019470036
0.0011192303 -0.009076073 -0.017671164 0.0075559155 -0.0016884595 0.0014980421 -0.01844938 0.017780084
-0.001861368 -0.029448416 0.045079757 -0.0046354714 0.033224702 0.022261493 -0.005227468 0.006589442
-0.027455855 0.023277245 -0.009765745 0.0074798665 0.015702942 0.004453715 -0.012126703 0.009436993
0.009002352 0.01373077 -0.021367492 -0.03437297 -0.006153049 -0.041452326 -0.017115468 -0.028635273
-0.0075894715 -0.03933815 0.016239693 0.002495649 0.022611035 -0.0018709726 0.012523281 -0.0009199434
0.026262578 -0.010626791 -0.006479904 0.017604232 0.016013758 0.01165318 0.016636813 -0.007915886
-0.0004020266 0.014415062 0.021686923 -0.021081557 0.004306972 0.00515285 0.0016028038 -0.009277157
0.014423281 -0.028729867 -0.04165568 0.024948617 -0.029504567 -0.033938516 0.024167728 0.027161669
-0.038081214 -0.0064852145 -0.028249389 0.0028963266 0.009241465 -0.0061224787 0.0029913115 0.01979925
-0.015798887 -0.043895084 -0.028540958 -0.023335721 0.018997207 -0.018107302 -0.038610637 0.014945672
0.016980786 -0.020222265 0.011396199 0.0010412696 -0.0019065384 0.026588224 -0.01399893 -0.02123176
-0.009067187 0.0072203306 -0.011124563 0.010143593 0.018255481 0.0035812934 -0.017998988 0.007190948
-0.0045967856 0.0063494407 -0.0038561875 -0.018061407 -0.012424509 -0.0077996436 0.02726179 0.022476805
0.036138773 -0.015150332 -0.011580487 0.059334073 0.019979728 -0.012493335 -0.024081234 -0.00017298608
0.03469276 0.023891415 -0.010143071 0.036416963 0.022490453 -0.016087769 -0.018241223 -0.026630202
0.0043909615 0.0299431 0.030505374 0.032845065 0.02171737 -0.009287224 -0.034556493 -0.016998148
0.0054941345 -0.028889436 -0.03307812 -0.023815958 -0.00060000864 0.0041854098 -0.04053999 0.027546216
-0.011406507 -0.002792186 0.041865077 0.010979548 0.006184256 0.0021055625 -0.00726172 -0.010167672
-0.014634438 0.0012911463 0.014233243 -0.026000377 0.013214508 0.022982221 0.016753217 -0.025223734
00000000: 0a71 2dbb 5746 543c 87e6 4a3b 49b7 61bc
00000010: 8f41 dfbc 08d1 bdbc 026d ff3b ef6c a33c
00000020: 6346 573c 103b 013d e4e4 8ebc 0627 b3bc
00000030: d8e7 a53c ebfc 263c 3b3a 0b3c 4d3c a83b
00000040: 15a7 463c 0def 5e3c 0e2f 133d 0f82 843c
00000050: 864e f13c ff4c ea3c cbeb a73b ffbe ac3c
00000060: 0f81 44bb b0a9 dbbc 3742 b3bc cabd 64bc
00000070: 050c 82bb e0c1 073d abbd 9abc 4c69 be3b
00000080: 9b56 bcbc ac3d 1a3d d7b2 82bc bc66 183d
00000090: cc2c 6fbc 3710 cbbc b670 c93c bc3e 733c
000000a0: 9411 4ebc e908 9f3b acc6 1bbc 7979 f4bc
000000b0: 81ee 2ebd e8b1 afba 4177 a03b a671 31bc
000000c0: 471e fdbc d137 0d3c 50a4 b93c 92ac 49bc
000000d0: 1e38 31bb aca1 02bd 9409 b4bc 16cb 19bc
000000e0: 8a6a 59bb 2687 44bb d9ce c73c 47dd a7bc
000000f0: 5aac ec3c e0b3 343d 50e1 953c 66e3 a23c
00000100: 892d 3dbb 9717 22bc 2907 a43c cae2 c43c
00000110: 7875 073c 528d b9bb 6915 e6bc 9279 9cbc
00000120: 4814 be3c f72f 0dbd 4406 0b3b 9970 d0bc
00000130: b026 1e3a 9bca 41bd 1777 64bc 99ff 9c3b
00000140: 98eb d3bc 08f6 553c afdc 11bd 0e57 4e3c
00000150: bb64 4ebb 4756 61bb 6780 023c e2d8 f53c
00000160: 006f 6dba b64b c4bc 80c0 2abc a21d bdbc
00000170: 093c 15bc 9122 303d 2def 993c 0c9f 3bbd
00000180: 3915 9cba 4430 9f3c f71b ee3b c794 58bc
00000190: e32f 32bd 5f43 be3c f81c 8fbc a07f 9fbc
000001a0: 23b3 923a cfb3 14bc 1ec3 90bc 9d97 f73b
000001b0: 4d4f ddba f459 c43a 2723 97bc 8aa7 913c
000001c0: 25f9 f3ba ce3d f1bc 8da5 383d 27e5 97bb
000001d0: a016 083d bc5d b63c 2e4b abbb 3fec d73b
000001e0: 1aeb e0bc ecaf be3c 8100 20bc ab19 f53b
000001f0: 75a3 803c 78f0 913b 14af 46bc 9e9d 1a3c
00000200: 9a7e 133c 06f7 603c e10a afbc acca 0cbd
00000210: 849f c9bb eac9 29bd bd35 8cbc 8594 eabc
00000220: 1ab1 f8bb 0a21 21bd 1b09 853c 0b8e 233b
00000230: c73a b93c 6c3b f5ba 732e 4d3c 5b28 71ba
00000240: 9e24 d73c fe1b 2ebc 6055 d4bb c036 903c
00000250: 492f 833c fbec 3e3c ed49 883c a2b1 01bc
00000260: 19c7 d2b9 272d 6c3c c6a8 b13c 3bb3 acbc
00000270: 8021 8d3b 3dd9 a83b 2c15 d23a 37ff 17bc
00000280: a04f 6c3c e65a ebbc 259f 2abd 0b61 cc3c
00000290: 90b3 f1bc 1d03 0bbd 66fb c53c 2682 de3c
000002a0: 0cfb 1bbd ec81 d4bb 436b e7bc 4cd0 3d3b
000002b0: 8369 173c 139f c8bb e109 443b 0932 a23c
000002c0: ab6c 81bc 55cb 33bd bace e9bc 8e2a bfbc
000002d0: 08a0 9b3c c455 94bc 3026 1ebd b1de 743c
000002e0: 4a1b 8b3c 2aa9 a5bc 20b7 3a3c 367b 883a
000002f0: d0e4 f9ba 8ccf d93c c55b 65bc 3aee adbc
00000300: 8a8e 14bc 8698 ec3b cd43 36bc 5031 263c
00000310: 858c 953c 22b4 6a3b 9d72 93bc 0ba2 eb3b
00000320: a2a0 96bb f80e d03b 17b8 7cbb 84f5 93bc
00000330: 2b90 4bbc 2794 ffbb 1e54 df3c 4721 b83c
00000340: 4006 143d 1939 78bc 15bc 3dbc 4908 733d
00000350: 87ac a33c d8b0 4cbc 0246 c5bc 9963 35b9
00000360: ff19 0e3d eeb7 c33c 202f 26bc f429 153d
00000370: e63d b83c 7fca 83bc 9e6e 95bc 9527 dabc
00000380: 0ee2 8f3b 3b4b f53c 68e6 f93c 8c88 063d
00000390: a0e8 b13c 7129 18bc 1c8b 0dbd b33f 8bbc
000003a0: 2408 b43b 8aa9 ecbc ec7c 07bd af19 c3bc
000003b0: e649 1dba c325 893b 430d 26bd 9aa8 e13c
000003c0: 5ce2 3abc 1cfd 36bb b77a 2b3d 90e3 333c
000003d0: 4da5 ca3b 7afd 093b b9f3 edbb 4f96 26bc
000003e0: 48c5 6fbc ae3b a93a 8c32 693c befe d4bc
000003f0: aa81 583c 3645 bc3c 0b3e 893c 01a2 cebc

network_body._body_endoder.seq_layers.0.bias f4 [256]
-0.0076133753 0.016053822 0.005261639 -0.0111973705 -0.016423862 -0.019649215 0.014503812 0.014570859
0.020006688 0.017546827 -0.0037985104 -0.0056628045 0.01548308 0.0004383797 0.013563723 0.0018859898
0.003574235 0.014715758 0.022231014 0.022274155 0.018232074 0.015882675 0.002496924 0.016972227
0.0010496292 -0.0073760073 -0.010926915 -0.019944744 -0.009794794 0.027498895 -0.012218997 -0.0037216737
-0.011795885 0.020688454 -0.012885449 0.020243565 -0.01804254 -0.014922382 0.020888861 0.010036022
-0.010298247 0.008397983 -0.016136438 -0.013558103 -0.013727519 -0.0037818302 0.010512852 -0.010781499
-0.010442972 0.010636052 0.020729015 -0.010730467 -0.0035039003 -0.0079745455 -0.0055908575 0.0014736402
-0.0073148264 -0.0034255213 0.020364594 -0.014214456 0.018576434 0.023473963 0.011893463 0.021961054
-0.0111524025 -0.010686885 0.012946181 0.01967577 0.0058959527 -0.0014355751 -0.008866624 -0.015403753
0.015251911 -0.015755009 0.009090534 -0.012643319 -0.010185966 -0.009814247 -0.010648928 0.021830808
-0.009098127 0.016449433 -0.012736445 0.01579048 -0.006587959 0.008706906 0.005986158 0.012696249
0.0044752597 -0.008113533 -0.0042728167 -0.013391946 -0.015341102 0.015768984 0.019995894 -0.012650444
-0.010040257 0.02221295 0.007862155 -0.02023891 -0.014169985 0.015202467 -0.0027618008 -0.017097645
0.005528649 -0.009395438 -0.0059441407 -0.0012654812 -0.00745491 -0.0075448756 -0.020453745 0.011402244
-0.011575165 -0.016418451 0.015956242 -0.0005588905 0.018352205 0.011200371 0.007103561 0.014665553
-0.02026894 0.01928312 -0.0085472725 0.017428681 0.0037506532 -0.0065995352 -0.015811693 0.0074948366
-0.002463853 0.0075052935 -0.013367556 -0.014024322 -0.012025932 -0.015278476 -0.023431446 -0.019786978
-0.006059418 -0.011821417 0.012057174 -0.005711294 0.017489169 0.00019995472 0.015693437 0.004079858
0.023928102 -0.010345986 -0.014675415 0.019414594 0.0071537443 0.014634725 0.0075320355 -0.01258854
-0.0008488049 0.013372728 0.015125412 -0.021581711 -0.0014299827 0.009108166 -0.0024240934 -0.006850384
0.0074649355 -0.0084560625 -0.011293457 0.013690702 -0.02052957 -0.01648274 0.017832212 0.014057556
-0.013222279 -0.016967222 -0.014280859 0.0030409968 0.008441578 0.0019373924 -0.00536309 0.012326612
-0.009566678 -0.01307228 -0.014345171 -0.017631961 0.01338377 -0.021869414 -0.016209345 0.01071689
0.012856779 -0.012149254 0.01710487 4.785682e-05 -0.004393315 0.014328751 -0.018438492 -0.015432179
-0.007667555 0.005854344 -0.0077820094 0.01251234 0.011058703 -0.006806219 -0.009534806 -0.00067797984
-0.0010932726 0.010173065 -0.0046328325 -0.014112083 -0.0094416225 -0.010262044 0.016096875 0.012761217
0.018116618 -0.022105148 -0.0027600266 0.018631332 0.007391754 -0.024244018 -0.012880998 0.0057995724
0.0221977 0.017530493 -0.0018883626 0.016494377 0.015821215 -0.0111688115 -0.0078008743 -0.012464918
0.010569025 0.017859263 0.020331247 0.016248964 0.024415947 -0.0030953337 -0.0134073645 -0.02504535
-0.0017049043 -0.017710201 -0.016091656 -0.009379795 -0.0066463244 0.0072192824 -0.014555237 0.01575399
-0.011206158 -0.0023827956 0.013954432 0.015309413 0.011554927 0.001295084 -9.026172e-05 -0.022320522
-0.0041274196 0.013750607 0.0071188426 -0.009686547 0.009657785 0.016357021 0.017024556 -0.013162474
00000000: 9f79 f9bb 4e83 833c d469 ac3b 2d75 37bc
00000010: 568b 86bc 64f7 a0bc 66a1 6d3c 9dba 6e3c
00000020: 11e5 a33c 5dbe 8f3c 6ef0 78bb 0c8f b9bb
00000030: bfac 7d3c 54d6 e539 613a 5e3c 5133 f73a
00000040: b63d 6a3b 5d1a 713c d11d b63c 4a78 b63c
00000050: 6e5b 953c 621c 823c 6fa3 233b 5709 8b3c
00000060: b693 893a 6fb2 f1bb ce06 33bc 2963 a3bc
00000070: 587a 20bc 5d45 e13c 3032 48bc 53e7 73bb
00000080: 8743 41bc d57a a93c 7e1d 53bc d5d5 a53c
00000090: f3cd 93bc 027d 74bc 1e1f ab3c 216e 243c
000000a0: fbb9 28bc b297 093c 9030 84bc ce22 5ebc
000000b0: 63e9 60bc 95d8 77bb 193e 2c3c e2a4 30bc
000000c0: 0019 2bbc d642 2e3c e5cf a93c d7ce 2fbc
000000d0: b1a1 65bb aba7 02bc 8333 b7bb 2927 c13a
000000e0: 36b1 efbb b67e 60bb a6d3 a63c c0e3 68bc
000000f0: 9b2d 983c 784c c03c cddc 423c abe7 b33c
00000100: 91b8 36bc 0b18 2fbc 381c 543c 152f a13c
00000110: d632 c13b e829 bcba 5145 11bc 0660 7cbc
00000120: 27e3 793c a610 81bc 77f0 143c ec25 4fbc
00000130: 0ae3 26bc efcb 20bc d778 2ebc 86d6 b23c
00000140: 4f10 15bc f6c0 863c 86ac 50bc 095b 813c
00000150: cedf d7bb 69a7 0e3c 8827 c43b ee03 503c
00000160: 33a5 923b a0ee 04bc fc02 8cbb e569 5bbc
00000170: 3f59 7bbc f52d 813c 6ece a33c cf43 4fbc
00000180: e47f 24bc eff7 b53c 45d0 003c 12cc a5bc
00000190: 3a29 68bc c513 793c 54ff 34bb 5c10 8cbc
000001a0: ab29 b53b 53ef 19bc 11c7 c2bb 81de a5ba
000001b0: 5148 f4bb 013b f7bb 9d8e a7bc 7ad0 3a3c
000001c0: c3a5 3dbc fd7f 86bc aab6 823c 8282 12ba
000001d0: 5d57 963c c381 373c fdc4 e83b ca47 703c
000001e0: 0c0b a6bc a2f7 9d3c dc09 0cbc 98c6 8e3c
000001f0: 85cd 753b ea40 d8bb 8687 81bc 3f97 f53b
00000200: 9878 21bb f7ee f53b 9803 5bbc 45c6 65bc
00000210: 6a08 45bc 9352 7abc 4ef3 bfbc 4d18 a2bc
00000220: 158e c6bb 9eae 41bc 748b 453c ce25 bbbb
00000230: 7245 8f3c f0aa 5139 868f 803c 54b0 853b
00000240: de04 c43c 3682 29bc 2771 70bc 5b0b 9f3c
00000250: f569 ea3b 7cc6 6f3c 4bcf f63b 2a40 4ebc
00000260: 5582 5eba 4919 5b3c 93d0 773c 21cc b0bc
00000270: 426e bbba 6b3a 153c 8add 1ebb 3079 e0bb
00000280: 6b9c f43b 4c8b 0abc 3108 39bc f74e 603c
00000290: a12d a8bc d006 87bc dc14 923c aa51 663c
000002a0: 42a2 58bc d8fe 8abc 44fa 69bc 764b 473b
000002b0: 8b4e 0a3c 1af0 fd3a dcbc afbb 8ff5 493c
000002c0: 8ebd 1cbc 1e2d 56bc 0208 6bbc e770 90bc
000002d0: 9a47 5b3c 7c27 b3bc 76c9 84bc e595 2f3c
000002e0: 3da5 523c aa0d 47bc 831f 8c3c dfb9 4838
000002f0: ccf5 8fbb 23c3 6a3c 520c 97bc 40d7 7cbc
00000300: 1d40 fbbb ccd5 bf3b 3a00 ffbb 8f00 4d3c
00000310: 902f 353c b406 dfbb e037 1cbc 75ba 31ba
00000320: 244c 8fba edac 263c 04cf 97bb 5e36 67bc
00000330: 09b1 1abc 2222 28bc 98dd 833c 6c14 513c
00000340: 4d69 943c db15 b5bc 90e1 34bb bca0 983c
00000350: 8736 f23b 649b c6bc d20a 53bc 570a be3b
00000360: f3d7 b53c 1c9c 8f3c ef82 f7ba 371f 873c
00000370: 7e9b 813c 64fd 36bc 7a9e ffbb a839 4cbc
00000380: b429 2d3c 974d 923c b78d a63c 8c1c 853c
00000390: f403 c83c 15db 4abb 90aa 5bbc e82b cdbc
000003a0: 1877 dfba fc14 91bc a6d2 83bc b6ad 19bc
000003b0: 69c9 d9bb bb8f ec3b 1779 6ebc 830e 813c
000003c0: 099a 37bc ad28 1cbb 21a1 643c 55d4 7a3c
000003d0: e050 3d3c cfbf a93a e44a bdb8 87d9 b6bc
000003e0: 4e3f 87bb 3a4a 613c 2e45 e93b 53b4 1ebc
000003f0: b03b 1e3c 29ff 853c 1577 8b3c 6ba7 57bc

network_body._body_endoder.seq_layers.0.weight f4 [256, 28]
0.17848425 -0.23336735 0.050603203 -0.112902366 0.4765367 -0.04833109 0.042706147 0.011645028
0.013409241 -0.22770964 0.17683798 -0.26566824 -0.0049394215 0.07441862 -0.138531 -0.06290727
0.2019061 -0.081850454 -0.44116476 0.20980348 -0.2919216 0.06917876 -0.07854777 0.2844639
-0.17304581 -0.11000749 0.14838782 0.13133124 0.15590456 -0.011037161 0.1782951 -0.055853598
-0.1386896 0.44302925 0.007957266 0.21822524 -0.08663885 -0.24940175 0.2399067 0.206347
0.1513163 0.079296105 -0.072325505 -0.23134246 -0.23879576 -0.16545282 -0.1653225 -0.38191688
-0.034270514 0.07239947 0.16738349 -0.023094513 -0.13875183 -0.22535491 -0.09776824 0.069944635
0.32208154 0.084607184 0.08665307 0.1658903 -0.12064978 -0.08703225 -0.08153522 -0.13121334
-0.009054524 -0.51850533 -0.043742973 0.10275172 0.05738176 -0.0642178 0.12105761 0.0042771916
-0.029976027 -0.1838183 -0.34909275 -0.033397395 0.10757276 0.10618801 -0.08325158 -0.22107182
-0.23379332 0.19609527 -0.13694856 -0.07866414 -0.16523363 -0.2541127 -0.28643683 -0.18859403
-0.34612623 -0.14916608 -0.4171776 0.06561412 0.21359259 -0.1860727 0.1218545 0.18097082
-0.17778775 0.12111955 0.109275706 0.19582158 0.26037955 -0.2630946 -0.1625898 0.030876916
0.43774676 0.022714296 -0.060539838 -0.21745026 0.20267616 0.4913988 -0.039329402 0.0072719473
0.13194771 0.07430305 -0.2708984 -0.4537152 0.05471129 -0.20657863 0.09411311 0.18313771
-0.075423904 0.04556138 0.003337194 0.08147262 -0.32810435 0.2762841 -0.2646089 -0.076186
0.010264123 0.17685764 0.12909093 0.08693605 0.03254496 -0.2026608 -0.15294982 0.025766825
-0.4367887 0.17253393 -0.26373586 -0.08039204 -0.27789408 -0.093329236 0.21022812 0.0107231615
-0.08721944 0.00014710583 0.21994781 0.12128854 0.19706532 -0.2246366 0.063570715 -0.1344373
-0.044521913 0.15201741 0.053451344 0.037116148 -0.025626952 0.07485335 0.31447974 -0.14379585
-0.23108986 -0.21921428 -0.18472376 -0.17044733 0.022179598 -0.25359288 0.021614615 0.021598304
-0.31736028 -0.12326073 0.09373111 0.040229205 -0.023325423 -0.32695127 0.085454516 0.024048122
0.28131294 0.3140774 -0.14579946 -0.20083939 0.09173321 0.119615935 -0.27005234 -0.20599161
0.2097282 0.08182102 -0.017255625 0.30443662 0.41685623 0.049968325 0.28373328 -0.054482836
0.22660187 0.002302016 0.18993473 0.025455907 -0.2128715 -0.06665605 -0.037863605 0.06498901
0.048874844 0.3226103 -0.19367555 0.037237532 -0.041645724 -0.050802626 -0.07346163 0.14956369
-0.0026336915 -0.107557535 0.013343116 0.30605298 -0.1829241 -0.046093613 -0.052178692 0.006890702
0.12939991 -0.007062715 0.099606454 -0.06955203 -0.108563796 -0.05663512 0.19826466 -0.2099178
0.013226148 0.080077365 -0.26414624 -0.18838868 0.22976238 0.052397974 -0.11447051 0.116879
-0.29734007 0.06710476 0.034298323 -0.043401863 0.027752714 -0.1368933 0.13206127 -0.026494376
-0.12403259 -0.09878422 0.40366876 -0.12004208 0.25928718 -0.053036634 0.14046179 0.119618796
0.04136308 0.05202723 -0.09082517 0.02979905 -0.053400636 -0.13078849 0.007833139 0.04071139
00000000: 93c4 363e daf7 6ebe 4e45 4f3d 5b39 e7bd
00000010: 9efc f33e d2f6 45bd a4ec 2e3d caca 3e3c
00000020: 6fb2 5b3c b72c 69be 0415 353e ab05 88be
00000030: dfda a1bb ca68 983d 12db 0dbe 87d5 80bd
00000040: 79c0 4e3e 36a1 a7bd 59e0 e1be b9d6 563e
00000050: bf76 95be 98ad 8d3d a7dd a0bd 41a5 913e
00000060: ec32 31be 9b4b e1bd faf2 173e b27b 063e
00000070: 72a5 1f3e 35d5 34bc fe92 363e bec6 64bd
00000080: a604 0ebe bbd4 e23e 315f 023c 7076 5f3e
00000090: b66f b1bd 2c63 7fbe 1aaa 753e a14c 533e
000000a0: a9f2 1a3e ff65 a23d 651f 94bd 0ae5 6cbe
000000b0: e086 74be 776c 29be 4d4a 29be 9c8a c3be
000000c0: 3d5f 0cbd 2c46 943d 9466 2b3e b430 bdbc
000000d0: f614 0ebe 70c3 66be b73a c8bd 223f 8f3d
000000e0: dfe7 a43e 8846 ad3d 2a77 b13d 26df 293e
000000f0: 3b17 f7bd f73d b2bd f0fb a6bd ca5c 06be
00000100: 6d59 14bc c4bc 04bf d52b 33bd 7e6f d23d
00000110: 2309 6b3d 9f84 83bd 0ded f73d af27 8c3b
00000120: 4990 f5bc dd3a 3cbe 49bc b2be b5cb 08bd
00000130: 1b4f dc3d 1979 d93d ce7f aabd a760 62be
00000140: 8467 6fbe 33cd 483e 3e3c 0cbe aa1a a1bd
00000150: 0133 29be 0f1b 82be d9a7 92be cb1e 41be
00000160: 7537 b1be febe 18be 4d98 d5be b260 863d
00000170: 04b8 5a3e d889 3ebe da8e f93d 6a50 393e
00000180: fe0d 36be 870d f83d f1cb df3d 7485 483e
00000190: 7850 853e 56b4 86be f17d 26be 96f1 fc3c
000001a0: 5820 e03e 5513 ba3c 9ff8 77bd 48ab 5ebe
000001b0: 578a 4f3e a098 fb3e de17 21bd 8449 ee3b
000001c0: 4d1d 073e 332c 983d 32b3 8abe 5c4d e8be
000001d0: f218 603d 5989 53be 60be c03d 7488 3b3e
000001e0: d977 9abd 929e 3a3d d3b4 5a3b 1edb a63d
000001f0: 4bfd a7be 1c75 8d3e d17a 87be 6807 9cbd
00000200: da2a 283c 2b1a 353e 6a30 043e 870b b23d
00000210: dd4d 053d 5086 4fbe e19e 1cbe f314 d33c
00000220: c5a2 dfbe bcac 303e 6308 87be 95a4 a4bd
00000230: 2248 8ebe 6623 bfbd 0a46 573e 33b0 2f3c
00000240: 1ba0 b2bd 6c40 1a39 003a 613e 2066 f83d
00000250: 7ecb 493e 2307 66be 5d31 823d eea9 09be
00000260: 9c5c 36bd 74aa 1b3e ccef 5a3d 1a07 183d
00000270: 9def d1bc b74c 993d 7d03 a13e 383f 13be
00000280: d2a2 6cbe b579 60be 3a28 3dbe bf89 2ebe
00000290: fdb1 b53c edd6 81be 2211 b13c edee b03c
000002a0: 0c7d a2be 1f70 fcbd 19f6 bf3d 61c7 243d
000002b0: f514 bfbc 2866 a7be c702 af3d 9100 c53c
000002c0: 4008 903e c1ce a03e 744c 15be d7a8 4dbe
000002d0: 9fde bb3d 33f9 f43d 4d44 8abe 77ef 52be
000002e0: fdc2 563e c791 a73d ab5b 8dbc 1edf 9b3e
000002f0: 2e6e d53e 96ab 4c3d 7d45 913e 6529 5fbd
00000300: 520a 683e 6bdd 163b 407e 423e e888 d03c
00000310: fdfa 59be f882 88bd de16 1bbd f518 853d
00000320: fd30 483d 2d2d a53e e252 46be 6286 183d
00000330: b594 2abd 6a16 50bd 0d73 96bd 3927 193e
00000340: 039a 2cbb 2047 dcbd 169d 5a3c fab2 9c3e
00000350: 7550 3bbe a8cc 3cbd 53b9 55bd 66cb e13b
00000360: 6981 043e 596e e7bb 78fe cb3d 4b71 8ebd
00000370: b256 debd 3afa 67bd e405 4b3e b1f4 56be
00000380: 7cb2 583c 9aff a33d 2d3e 87be f6e8 40be
00000390: d446 6b3e 429f 563d 846f eabd 425e ef3d
000003a0: f53c 98be 386e 893d 667c 0c3d 27c6 31bd
000003b0: a959 e33c c22d 0cbe 123b 073e bc0a d9bc
000003c0: cc04 febd 624f cabd acad ce3e 9fd8 f5bd
000003d0: 4ac1 843e f13c 59bd 37d5 0f3e b3fa f43d
000003e0: 556c 293d 811a 553d 8c02 babd 231d f43c
000003f0: a0ba 5abd 6bed 05be 9156 003c fdc0 263d
