IAV_FINAL/results/results/SheepsRedo5/Sheeps/checkpoint.pt (torch, 298367 bytes, 24 tensors)

network_body._body_endoder.seq_layers.0.weight f4 [256, 44]
0	0xbde002b0	-0.109380126
1	0xbd9d7947	-0.076891474
2	0xbdbc7665	-0.092022695
3	0x3d93487b	0.07191559
4	0x3e333c03	0.17503361
5	0x3e01f5ef	0.12691472
6	0xbe2c5a82	-0.16831401
7	0xbe6c2daf	-0.23064302
8	0xbc3f186f	-0.01166354
9	0xbcf5a40c	-0.02998545
10	0xbea7feaa	-0.3281148
11	0x3d7f5f07	0.062346485
12	0xbc81c7c2	-0.015842322
13	0x3d723669	0.05913392
14	0x3df80ab9	0.1211142
15	0x3e3091f2	0.17243174
16	0x3c073cb3	0.008254218
17	0x3d622b9c	0.05521737
18	0x3e4ccfb1	0.20001103
19	0xbe7749b1	-0.24149205
20	0xbdd6eb9e	-0.10494159
21	0xbdc1c81b	-0.09461995
22	0x3df4ef9e	0.11959766
23	0x3d88e2ed	0.06683908
24	0xbdd66f0a	-0.10470398
25	0x3d2b64fd	0.041844357
26	0xbda0453f	-0.07825708
27	0x3dbaf16a	0.09128077
28	0x3d44ab16	0.048014723
29	0x3da58927	0.080828
30	0xbedff51d	-0.43741694
31	0x3e21365a	0.1574339
32	0x3d8d77a0	0.06907582
33	0xbe2feb4d	-0.17179604
34	0x3e95fc39	0.29293993
35	0xbda642de	-0.08118223
36	0xbd160a52	-0.036630936
37	0x3d93c276	0.07214825
38	0x3d1bb206	0.038011573
39	0x3db6ab90	0.08919442
40	0x3db414be	0.08793019
41	0xbdf1f144	-0.11813596
42	0x3e21b631	0.15792157
43	0x3d1d59ce	0.038415723
44	0xbdc99ea1	-0.09844709
45	0x3e1e1d11	0.15440775
46	0x3df7fff3	0.12109365
47	0xbd0d620f	-0.034517344
48	0x3e040d49	0.12895693
49	0xbe89dcbb	-0.26926216
50	0xbe39bd4a	-0.18138614
51	0xbdf69f64	-0.1204212
52	0xbe1f3f63	-0.15551524
53	0xbd324068	-0.043518454
54	0xbe6694df	-0.22517727
55	0x3ec316d9	0.3810337
56	0x3e57f6ed	0.21090288
57	0x3e38dda3	0.18053298
58	0xbdbbbddb	-0.091670714
59	0x3e7cfc2d	0.24705572
60	0x3e44455d	0.19167085
61	0x3d5a77c1	0.053336862
62	0xbe28ae08	-0.16472638
63	0xbdb5baf3	-0.08873548
64	0x3eb13d1b	0.34616932
65	0xbe6252f2	-0.22101954
66	0xbd2ac0d9	-0.04168782
67	0x3eb17b4a	0.34664375
68	0xbdd18fa3	-0.10232475
69	0x3d4f6143	0.050629865
70	0x3d190d0e	0.037365966
71	0x3d930f12	0.07180609
72	0x3e5ad66f	0.21370862
73	0xbdc122da	-0.094304755
74	0x3d3b1af0	0.045679986
75	0x3d04e5d3	0.03244574
76	0xbea19773	-0.3156086
77	0xbdf94c24	-0.12172726
78	0xbc9c9220	-0.019112647
79	0xbe83bd0e	-0.25730175
80	0x3e2dec2e	0.16984627
81	0x3e818e39	0.2530382
82	0xbe6c5b71	-0.23081757
83	0x3cf8d334	0.030374147
84	0xbd506fd3	-0.050887894
85	0x3d3a3684	0.045462146
86	0x3d210480	0.039310932
87	0xbd9e0608	-0.07715994
88	0x3d8f9f51	0.07012809
89	0x3e5a77d9	0.21334781
90	0x3e65733b	0.22407238
91	0x3dcf6d8f	0.101283185
92	0xbd876181	-0.06610394
93	0xbdb9d353	-0.0907351
94	0x3e33c636	0.1755608
95	0xbdb30511	-0.08741201
96	0xbd18991a	-0.037255384
97	0x3d5a0a82	0.053232677
98	0x3e8aa143	0.27076158
99	0xbc9e013d	-0.0192877
100	0xbeb80048	-0.35937715
101	0x3dde3951	0.10850776
102	0x3e2c38ea	0.16818586
103	0x3d0d4774	0.03449197
104	0xbdc74e4a	-0.09731729
105	0xbda256b3	-0.07926693
106	0x3d702793	0.05863149
107	0x3dee64d1	0.11640323
108	0xbdb0de78	-0.086361825
109	0x3db05fb7	0.08612006
110	0x3d6abe6c	0.057310507
111	0x3ca531dc	0.020165376
112	0x3d8fb5b0	0.07017076
113	0xbd5b3014	-0.053512648
114	0xbc990172	-0.018677447
115	0x3e22efba	0.15911761
116	0xbdb13ffd	-0.08654783
117	0x3d71cf31	0.059035484
118	0xbd5ec66f	-0.05438846
119	0x3e2f7524	0.1713453
120	0xbe5a8b55	-0.21342213
121	0x3ba49b56	0.0050234003
122	0xbe0fa054	-0.14026004
123	0x3e4701dd	0.19434305
124	0x3d8797e2	0.06620766
125	0xbda21d4a	-0.07915743
126	0xbce4d90f	-0.027935533
127	0x3e71db34	0.23618776
128	0x3e866686	0.26250094
129	0x3d8c3971	0.068468936
130	0x3dc73159	0.09726209
131	0x3e0dd678	0.13851345
132	0x3e3657c3	0.17806916
133	0xbdf053d9	-0.11734743
134	0xbdb0c429	-0.086311646
135	0x3e1c1d79	0.15245618
136	0xbe3ed629	-0.18636383
137	0xbe352918	-0.17691457
138	0x3e39e418	0.18153417
139	0xbcac9f70	-0.02107212
140	0xbe1a9b96	-0.15098414
141	0x3d9378bf	0.07200765
142	0x3b825280	0.00397712
143	0x3e0c4274	0.13697225
144	0x3c67961e	0.014134912
145	0x3d359c19	0.04433832
146	0x3e85a290	0.26100588
147	0x3d84626e	0.064640865
148	0xbd82ea00	-0.06392288
149	0xbd66d4f4	-0.05635543
150	0x3d5e26a3	0.054236066
151	0x3e7934e1	0.24336578
152	0x3e099951	0.13437392
153	0x3e11c0e6	0.14233741
154	0xbd7a0aa9	-0.061045323
155	0x3d24cb07	0.040232684
156	0xbd5ea11d	-0.05435287
157	0x3c84e4aa	0.016222317
158	0x3e2f17ba	0.17098895
159	0xbe1cd100	-0.15314102
160	0x3e43d1ec	0.19123048
161	0x3d081671	0.033224527
162	0xbe8d5fd9	-0.27612188
163	0x3d983a75	0.07433025
164	0xbd76320c	-0.060106322
165	0x3e0f0160	0.13965368
166	0x3c0726da	0.008249009
167	0xbe6bc66b	-0.23024909
168	0x3eaf4588	0.34232736
169	0xbdc9893b	-0.09840628
170	0xbe45f595	-0.19331963
171	0x3d114b3e	0.035472147
172	0x3d57667a	0.052587964
173	0x3e40ea54	0.18839389
174	0x3e0fc9b2	0.14041784
175	0xbdb73308	-0.0894528
176	0xbe47b5e2	-0.19502977
177	0xbc6b2775	-0.014352669
178	0x3d58319d	0.05278169
179	0xbcdf71e9	-0.027275996
180	0xbddaaa2b	-0.10676988
181	0xbe903d4c	-0.28171766
182	0x3d99e8e3	0.07515123
183	0x3ed7f248	0.42177033
184	0xbda506d6	-0.080579445
185	0x3e1b21f9	0.15149678
186	0x3e64cc30	0.22343516
187	0xbcc58ab8	-0.024113998
188	0x3f133b69	0.5751253
189	0xbd849762	-0.064741865
190	0xbe8dc127	-0.27686426
191	0xbe82b44c	-0.2552818
192	0x3e9b2d89	0.30308178
193	0xbb48e426	-0.0030653565
194	0xbe588d1b	-0.21147577
195	0x3d986927	0.07441931
196	0x3e2c4d7f	0.16826437
197	0xbd48fea2	-0.04907096
198	0x3d4b96b7	0.04970428
199	0x3dc68354	0.096930176
200	0x3d42086d	0.047371317
201	0xbdfd6b30	-0.1237396
202	0xbc846066	-0.016159248
203	0xbe203200	-0.15644073
204	0x3c18d9b5	0.009329249
205	0xbdc6554f	-0.0968424
206	0xbd1a6db4	-0.037702277
207	0xbd6ecab3	-0.058298778
208	0x3d2b860e	0.04187589
209	0xbea0bba5	-0.3139316
210	0x3e27aa5c	0.1637358
211	0xbd8c7f27	-0.0686019
212	0x3d8f7be9	0.07006056
213	0x3c63a62b	0.013894598
214	0x3e2eb0d2	0.17059639
215	0xbdab9184	-0.08377364
216	0xbce6f853	-0.028194582
217	0x3de251ca	0.11050756
218	0x3c5bb5ee	0.013410075
219	0x3d85fc25	0.065422334
220	0xbcb7bbdc	-0.022428446
221	0xbe39ed62	-0.1815696
222	0x3e1d79cc	0.15378493
223	0x3ce623d2	0.028093252
224	0x3e2787a3	0.16360335
225	0xbdbb5a2f	-0.091480605
226	0xbd081876	-0.033226453
227	0xbb668cd6	-0.003517916
228	0xbba0d692	-0.0049083913
229	0x3e249ac6	0.16074666
230	0x3e490560	0.19630957
231	0xbe4a054d	-0.19728585
232	0xbd195350	-0.03743297
233	0x3e064420	0.13111925
234	0x3de88597	0.11353605
235	0x3d52a760	0.051429152
236	0xbe355438	-0.17707908
237	0xbd6b7f03	-0.057494175
238	0x3ce23096	0.027611058
239	0x3e5e7c21	0.21727039
240	0xbe438e74	-0.1909731
241	0x3d275a9c	0.040857896
242	0x3d99222f	0.07477223
243	0x3eb27ea3	0.3486224
244	0xbe40c259	-0.18824138
245	0x3d9c9437	0.07645457
246	0xbcc8b616	-0.024500888
247	0x3d21b65b	0.03948055
248	0xbe058673	-0.1303957
249	0x3d133a02	0.035943992
250	0x3daee4d0	0.08539736
251	0xbcb04746	-0.02151836
252	0xbc4651f5	-0.012104501
253	0x3e2c7f0c	0.1684534
254	0x3dc921ff	0.09820937
255	0xbe824f06	-0.25450915

network_body._body_endoder.seq_layers.0.bias f4 [256]
0	0xbce2c913	-0.02768377
1	0x3cec0efb	0.028815737
2	0xbbe615fb	-0.0070216632
3	0x3d51d627	0.051229622
4	0x3c803979	0.015652405
5	0xbbe1238e	-0.0068706935
6	0xbc3d8c57	-0.011569104
7	0xbc839262	-0.016061012
8	0xbd15c3cd	-0.036563683
9	0x3cc56a9d	0.024098689
10	0xbc2abc4c	-0.01042087
11	0x3c6cfb0e	0.014464153
12	0x3d5a0110	0.05322367
13	0xba745a48	-0.0009321314
14	0xbcaedc4e	-0.021345284
15	0xbc5868bb	-0.013208563
16	0xbc96907d	-0.018379444
17	0x3c47cd79	0.012194985
18	0x3ccabcda	0.024748255
19	0xbc1c289a	-0.009531165
20	0xbc014c3e	-0.007891713
21	0x3d23bdbf	0.039975878
22	0xbcae76cf	-0.021296887
23	0x3d08e53c	0.03342174
24	0xbc88a670	-0.016680926
25	0x3d37811e	0.04480087
26	0x3d57af21	0.05265725
27	0xbcafd4c8	-0.021463767
28	0xbcf31309	-0.029672163
29	0xbb9552d0	-0.004556991
30	0x3d4e58f0	0.050377786
31	0xbbdac744	-0.0066765863
32	0xbcf8f594	-0.030390538
33	0x3c4b313d	0.012401876
34	0xbc5c636e	-0.01345144
35	0x3d2d76f8	0.042349786
36	0xbabf9954	-0.0014617839
37	0x3d5d93c6	0.054096006
38	0x3d29e6ed	0.041479994
39	0xbca4d33e	-0.02012026
40	0xbd22d441	-0.039753202
41	0x3ced2cec	0.028952084
42	0xbbdba3dc	-0.006702883
43	0x3b1006c5	0.0021976691
44	0xbb8ccd2c	-0.0042969193
45	0x3d2d8220	0.042360425
46	0x3d48bbcf	0.049007233
47	0xbd314c88	-0.043285877
48	0x3d7fbf51	0.062438313
49	0x3d14bbee	0.036312036
50	0xbd13105b	-0.03590427
51	0x3d1223d8	0.035678715
52	0xbce39dab	-0.027785143
53	0xbd1fb95d	-0.038995136
54	0x3d806fa5	0.062712945
55	0x3c548c5e	0.012972919
56	0x3d2a44c1	0.041569475
57	0x3c2d6736	0.010583689
58	0x3d1b8127	0.037964966
59	0xbd110f07	-0.03541472
60	0x3d2f1ca9	0.04275194
61	0x3c086283	0.008324268
62	0xbcd4601d	-0.025924737
63	0xbcc235e9	-0.023707347
64	0xbcaab653	-0.020838892
65	0xbcb2585c	-0.021770649
66	0xbc8d14d9	-0.017221855
67	0x3c3a4e9c	0.011371281
68	0x3d5a31ff	0.053270336
69	0x3b481936	0.0030532605
70	0xbd0bc9da	-0.034128048
71	0xbd251d41	-0.0403111
72	0x3ca27fe3	0.019836372
73	0x3d089514	0.033345297
74	0xbc9fb58a	-0.019495744
75	0x3c9e5a67	0.019330217
76	0x3b98cb22	0.004662887
77	0x3d482821	0.048866395
78	0x3c5d6d99	0.0135149
79	0x3d264e6d	0.040602136
80	0x3d08172a	0.033225216
81	0x3cef097d	0.029179329
82	0xbcba9127	-0.022774292
83	0x3d731f07	0.05935576
84	0x3ae9d8dc	0.0017841118
85	0xbd043297	-0.03227481
86	0xbcd1ed61	-0.025625886
87	0x3cb3777d	0.021907562
88	0xbcff1d75	-0.031141976
89	0xbca725a0	-0.020403683
90	0xbcea1322	-0.028573576
91	0x3cfcee25	0.030875275
92	0x3d1f576e	0.03890174
93	0xbcaaf66e	-0.02086946
94	0x3da32a3d	0.07967041
95	0x3d7c4f6e	0.061599188
96	0xbc5c42dd	-0.013443676
97	0xbd28ba35	-0.041193206
98	0xbd2a754a	-0.04161576
99	0xbcd1eaaf	-0.025624601
100	0xbcb70cfd	-0.02234506
101	0x3c6dfdcd	0.014525843
102	0x3d487ec1	0.048949007
103	0x3cd8956a	0.026438434
104	0x3d2deb49	0.042460714
105	0xbc9927fc	-0.018695824
106	0xbcf20f86	-0.029548418
107	0x3ac188c0	0.0014765486
108	0x392a5dde	0.00016247432
109	0x3d16f847	0.03685787
110	0xbc86054c	-0.016359948
111	0xbc711dd1	-0.014716581
112	0x3ce05ada	0.027387071
113	0xbccfd0c6	-0.025368106
114	0x3d451e9d	0.0481249
115	0x3d1937b1	0.037406627
116	0xbca41a37	-0.020032031
117	0x3cdd6a6c	0.027028285
118	0x3c58cfcf	0.013233139
119	0xbcf2142a	-0.02955063
120	0x3cc2e2e9	0.02378984
121	0x3d7d035c	0.061770782
122	0xbbf69ddc	-0.0075261425
123	0x3d44d65e	0.048056
124	0x3d4aab25	0.049479622
125	0x3cf73208	0.030175224
126	0x3ce5a371	0.028032036
127	0xbcf630d2	-0.030052576
128	0x3d0a2803	0.033729564
129	0x3d3d4bf5	0.046215016
130	0xbbeafe85	-0.0071714544
131	0xbbfa1a06	-0.0076324968
132	0xbc34f897	-0.011045597
133	0x3d33a814	0.043861464
134	0x3bc90f6d	0.006135872
135	0xbc74b995	-0.014936824
136	0xbc6addf1	-0.0143351415
137	0x3d3ca0b6	0.046051703
138	0x3cfab1e6	0.030602407
139	0xbb035922	-0.002004214
140	0xbcf2ad6b	-0.029623708
141	0x3d283e5c	0.041075096
142	0xbcaf5ffb	-0.021408072
143	0xbbac594e	-0.0052596694
144	0xbcef18d8	-0.029186651
145	0x3d4d53e7	0.050128844
146	0x3d39f97f	0.045403954
147	0x3c967eea	0.018371064
148	0xbc96d3cc	-0.01841154
149	0x3cea6d42	0.028616551
150	0xbc131e99	-0.008979463
151	0x3dc054eb	0.09391197
152	0x3da0355b	0.07822677
153	0xbc80e2a4	-0.01573307
154	0x3cde25f0	0.0271177
155	0xbcfac42f	-0.030611126
156	0x3d5894c1	0.052876238
157	0x3cb918fe	0.022594925
158	0x3ca8a5d0	0.020586878
159	0x3d2d60e7	0.04232874
160	0x3c8b0b7e	0.016973253
161	0x3b377bec	0.0027997447
162	0x3d2701d3	0.040773224
163	0x3cfed5fb	0.031107893
164	0xbcb8d422	-0.02256209
165	0x3d03445c	0.032047614
166	0xbaf4ed85	-0.0018686509
167	0x3d3b10b4	0.045670226
168	0x3d2af580	0.041738033
169	0x3c93be5d	0.018035108
170	0x3b43dad1	0.0029885063
171	0x3cf1162a	0.029429514
172	0x3d0507fe	0.032478325
173	0x3af5f99f	0.001876641
174	0x3cb27983	0.021786457
175	0x3d8aea91	0.06783021
176	0x3d264b8d	0.040599395
177	0xbd21075f	-0.03931367
178	0xbd0656c1	-0.03279758
179	0x3c303f8d	0.010757339
180	0x3bcc6892	0.0062380517
181	0x3ce6a48a	0.02815463
182	0xbd6bbaeb	-0.057551306
183	0xbbe7a804	-0.0070695896
184	0x3ae49412	0.0017439148
185	0x3cceaf9f	0.025230227
186	0x3ccf8344	0.025331147
187	0xbc8c966c	-0.01716157
188	0x3d744bf6	0.059642754
189	0x3d7c8ebb	0.061659556
190	0x3d233efe	0.039854996
191	0xbc8f71f4	-0.017510392
192	0x3c8cf010	0.017204314
193	0x3c1184c5	0.008881752
194	0x3d0899db	0.033349853
195	0x3cf797e4	0.030223794
196	0x3b4eadc2	0.0031536673
197	0x3ca12d2f	0.019674866
198	0x3d46395c	0.048394546
199	0x3d8dd957	0.0692622
200	0xbcb438cd	-0.021999741
201	0x3d844c84	0.06459907
202	0x3c324fe0	0.0108833015
203	0x3d30ce8d	0.043165732
204	0xbca1ae88	-0.019736543
205	0x3ce5ff5c	0.028075866
206	0x3d347955	0.044061024
207	0x3d303705	0.04302122
208	0x3c3ddbd2	0.011588054
209	0x3d0e174f	0.034690198
210	0x3ccf678b	0.025317928
211	0xbc99daf0	-0.018781155
212	0x3d509901	0.050927166
213	0xbc27e280	-0.010246873
214	0x3cc754de	0.02433246
215	0x3ce67187	0.028130306
216	0xbca67f07	-0.020324243
217	0xbd19912f	-0.037491973
218	0xbb9a1434	-0.0047021154
219	0x3c13074b	0.008973907
220	0x3cd07e47	0.025450839
221	0x3d2e617e	0.042573445
222	0x3d0312d7	0.03200039
223	0x3c0537c4	0.008130971
224	0xbd02b122	-0.03190721
225	0x3c177e8f	0.0092464825
226	0xbc91b4ed	-0.017786467
227	0xbcca80bb	-0.024719587
228	0xbcc19c10	-0.023633987
229	0x3d2b8181	0.04187155
230	0xbc1bba69	-0.009504893
231	0x3d6dccd5	0.05805667
232	0xbcc9b594	-0.024622716
233	0xbcdce1d0	-0.026963145
234	0x3c7e581a	0.015523935
235	0x3d08e11f	0.033417817
236	0xbcccf07a	-0.025017012
237	0xbb03e370	-0.0020124577
238	0xbcd78828	-0.026310042
239	0xbc576225	-0.013145958
240	0x3cf58148	0.029968873
241	0xbc9f9605	-0.019480715
242	0xbce6649c	-0.028124146
243	0x3cc6b41c	0.024255805
244	0x3d053e25	0.03252997
245	0xbbaca666	-0.0052688597
246	0x3bff4779	0.0077905026
247	0x3dae1e34	0.085018545
248	0xbd13500a	-0.035965003
249	0x3d55546d	0.052082468
250	0xbce0a63e	-0.02742302
251	0xbc6f6ebf	-0.014613806
252	0xbcb9943b	-0.02265369
253	0x3cc528ed	0.024067366
254	0xbc24a90c	-0.01005007
255	0x3c60ce0b	0.0137209995

action_model._continuous_distribution.log_sigma f4 [1, 2]
0	0x3ea162f4	0.31520808
1	0x3cc38c57	0.02387063

action_model._continuous_distribution.mu.weight f4 [2, 256]
0	0xbbd83669	-0.006598283
1	0x3cc887d8	0.024478838
2	0xbcd9fce3	-0.026609844
3	0xbcca2f21	-0.024680676
4	0x3d9dfb24	0.07713917
5	0xbc937b9f	-0.018003283
6	0x3da193e3	0.07889535
7	0xbb84192b	-0.0040313206
8	0x3c09c8da	0.008409703
9	0xbddf6734	-0.10908356
10	0x3cb8a5aa	0.022539932
11	0x3d0f65da	0.035009243
12	0x3c1a4f54	0.009418327
13	0xbc0486c3	-0.00808877
14	0xbc4cc88b	-0.012498985
15	0x3d75177a	0.059836842
16	0xbbb5431c	-0.0055316817
17	0xbd0b8ff8	-0.034072846
18	0x3d9b18a2	0.07573058
19	0xbd04b0d6	-0.032395206
20	0x3e02ba9f	0.12766503
21	0xbd794287	-0.06085446
22	0x3ced3ecd	0.02896061
23	0x3d59bd7e	0.05315923
24	0xbc114c69	-0.008868315
25	0x3d349254	0.044084862
26	0xbdaeabaf	-0.0852884
27	0x3d9aac68	0.07552415
28	0xbc3e0e94	-0.011600155
29	0xbcabd979	-0.020977722
30	0xbd37498d	-0.044747878
31	0xbd830bd4	-0.063987404
32	0x3c26ee90	0.010188714
33	0x3b27d09a	0.0025606514
34	0x3c31aa55	0.010843833
35	0xbddf2a65	-0.10896758
36	0xbcd57ef8	-0.02606152
37	0xbcc980db	-0.024597576
38	0x3cdb4842	0.026767854
39	0xbbb5de8e	-0.005550212
40	0x3d08fada	0.033442356
41	0xbcd16a4d	-0.025563383
42	0x3d341af0	0.043971002
43	0xbab8dc65	-0.0014103769
44	0xbc96a7af	-0.018390505
45	0xbcaeed6f	-0.021353452
46	0xbd042651	-0.032263104
47	0x3c3b576f	0.01143442
48	0x3cac5e7f	0.021041153
49	0xbd22b523	-0.039723527
50	0x3c0421ea	0.008064726
51	0xbb2ff25c	-0.0026847338
52	0x3c1bd93a	0.00951224
53	0x3bf147cf	0.0073632966
54	0xbd815966	-0.063158795
55	0x3d0d1a8c	0.034449145
56	0x3d35360e	0.044241004
57	0x3d08576f	0.03328651
58	0x3d5ef2bc	0.05443071
59	0x3d77a419	0.06045923
60	0x3dd50fe5	0.10403422
61	0x3d72f0b3	0.05931158
62	0xbc3cc60a	-0.011521826
63	0x3d37f75f	0.044913646
64	0x3cb64bf3	0.022253012
65	0x3d7a3d73	0.06109376
66	0xba81793f	-0.0009878053
67	0x3c61df83	0.0137861995
68	0x3d00b273	0.031420182
69	0x3cbfa817	0.023395581
70	0x3c466f85	0.012111549
71	0x3bfad0b4	0.007654274
72	0x3d86aab1	0.065755256
73	0xbca858af	-0.0205501
74	0xbc52e097	-0.012870929
75	0xbcefa0fc	-0.029251568
76	0xbd39c2b5	-0.045351703
77	0xbbdc78d1	-0.0067282696
78	0xbd14bebc	-0.03631471
79	0xbd5bacc4	-0.05363156
80	0xbd482c21	-0.04887021
81	0xbd926ae2	-0.071492925
82	0xbbfd386c	-0.0077276733
83	0x3ca3f77a	0.020015467
84	0xbd3445a3	-0.044011723
85	0x3cd996fc	0.026561253
86	0x3cb24d3f	0.02176535
87	0x3d459a13	0.04824264
88	0x39fc5be8	0.0004813366
89	0xbd14918c	-0.036271617
90	0x3bcaaac0	0.006184906
91	0xbd7acda5	-0.061231274
92	0xbcc1353d	-0.023584956
93	0x3bdc8dd8	0.0067307763
94	0x3c6e152c	0.014531415
95	0xbd726113	-0.05917461
96	0xbc461cbd	-0.012091813
97	0x3c862417	0.01637463
98	0x3be35af8	0.0069383346
99	0x3d518e30	0.05116099
100	0x3d234b13	0.03986652
101	0x3d643a7b	0.055719834
102	0x3da06736	0.07832186
103	0xbd3b3958	-0.045708984
104	0xbd2828f6	-0.04105469
105	0xbb93ddd7	-0.0045125294
106	0xbb3c2fd6	-0.0028715036
107	0x3d09564b	0.03352956
108	0xbce9aa75	-0.028523663
109	0x3dd65cf5	0.10466949
110	0xbb69af06	-0.00356573
111	0xbca39525	-0.019968579
112	0xbd28cd50	-0.041211426
113	0x3c764d87	0.015033132
114	0x3cc61a94	0.024182595
115	0x3c5179b2	0.012785362
116	0x3cffa89c	0.031208329
117	0xbdb36065	-0.0875862
118	0xbd86f09c	-0.06588861
119	0x3cb79bba	0.022413123
120	0xbcdf23b9	-0.027238714
121	0x3c263f50	0.010146931
122	0x3c539c28	0.0129156485
123	0x3cfda7e9	0.030963855
124	0xbd9c812c	-0.07641825
125	0x3e05b1e2	0.13056138
126	0xbd880b25	-0.06642751
127	0x3cac9025	0.021064827
128	0x3dfe59ed	0.12419496
129	0x3b828265	0.0039828294
130	0xbd8cc241	-0.068729885
131	0xbcd8f187	-0.026482357
132	0xbd8eb948	-0.06968933
133	0xbc3fd484	-0.0117083825
134	0xbcb20740	-0.021731973
135	0x3d3f48c7	0.046700265
136	0xbd0433c3	-0.032275926
137	0xbc8bb1ba	-0.01705252
138	0x3c8c0773	0.017093396
139	0xbd03c150	-0.03216678
140	0x3cb47697	0.022029204
141	0xbb29c080	-0.0025902092
142	0xbc08770e	-0.008329166
143	0xbd5adee7	-0.053435232
144	0x3d1f9848	0.038963586
145	0x3ca97807	0.020687116
146	0xbd9347c7	-0.07191425
147	0xbb213c20	-0.0024602488
148	0xbcd53769	-0.026027398
149	0x3d3bb4d5	0.04582675
150	0xbc5f7b1a	-0.01364019
151	0x3bef7c8f	0.0073085497
152	0xbcde63bd	-0.027147168
153	0x3d782b12	0.06058795
154	0xbc04fe57	-0.00811728
155	0x3c230176	0.009949079
156	0xbdcc9880	-0.099900246
157	0xbd226061	-0.039642695
158	0xbc2091a5	-0.009800349
159	0x3d529f90	0.051421702
160	0x3da7b6bb	0.0818915
161	0xbd427da9	-0.04748312
162	0x3c8f7455	0.017511526
163	0x3c93fb09	0.018064039
164	0x3d046fd9	0.03233323
165	0x3cdc3e4b	0.026885172
166	0x3d88ce2b	0.066799484
167	0xbd7b6bc1	-0.06138206
168	0x3bc952cb	0.006143903
169	0x3d6699a8	0.05629888
170	0xbc9e8892	-0.019352231
171	0xbc2b6132	-0.010460185
172	0xbcee59ef	-0.029095618
173	0xbd837bba	-0.06420083
174	0x3c3d1cf7	0.01154255
175	0xbda85da7	-0.08220988
176	0xbc8e419a	-0.017365266
177	0x3c3e4683	0.011613491
178	0x3d0e5b29	0.034754906
179	0xbda82b40	-0.08211374
180	0x3b0a9d7f	0.0021151004
181	0x3cbe3355	0.023217836
182	0x3cfb6a7e	0.030690428
183	0xbb51f9a5	-0.003203967
184	0xbcd6b1a9	-0.026207762
185	0x3d1b1377	0.03786036
186	0xbd66dee4	-0.05636491
187	0xbc4f6270	-0.012657747
188	0xbce5dfec	-0.028060876
189	0xbd89b2ba	-0.067235425
190	0xbd9f0074	-0.07763758
191	0xbc8a4841	-0.016880156
192	0xbd5f9840	-0.054588556
193	0x3d4c2386	0.049838565
194	0xbd5d1bb0	-0.053981483
195	0x3d044195	0.032289106
196	0xbd9022dc	-0.07037899
197	0xbd9ed269	-0.07754976
198	0xbd0b820c	-0.03405957
199	0xbd6122fc	-0.054965004
200	0xbc0cae35	-0.008586456
201	0xbd00a32f	-0.031405624
202	0xbcbcd4d8	-0.02305071
203	0x3c7073fd	0.014676091
204	0xbb9dcf00	-0.004815936
205	0x3c86f1f2	0.01647279
206	0x3d861c60	0.06548381
207	0xbc6b64bd	-0.01436728
208	0x3c6813bb	0.01416486
209	0x3d5bba4b	0.05364446
210	0x3dbb2bef	0.09139239
211	0x3dbdb254	0.09262529
212	0x3ddd92cb	0.10819014
213	0xbb578adc	-0.0032889163
214	0x3de1a794	0.11018291
215	0x3d7f0e27	0.062269356
216	0x3d38111f	0.044938203
217	0x3c924d1e	0.017859038
218	0xbc8bd945	-0.017071376
219	0xbd173509	-0.036915813
220	0x3de0c7fe	0.109756455
221	0x3cb28a11	0.02179435
222	0xbcc18063	-0.02362079
223	0xbc774b12	-0.015093582
224	0x3c9b5c21	0.018964829
225	0x3cb4b459	0.022058653
226	0x3db026b3	0.08601131
227	0x3d0e8402	0.03479386
228	0x3c9d9ae8	0.019238904
229	0x3c05f0e7	0.008175111
230	0xbc4c9529	-0.012486734
231	0x3d1e66ca	0.038672246
232	0x3bda4305	0.0066608214
233	0x3ca578fd	0.020199293
234	0xbd34fa45	-0.044183988
235	0xbd800c6a	-0.06252368
236	0x3c92f6ea	0.017940003
237	0x3cddb413	0.027063405
238	0x3d11521f	0.035478707
239	0x3cfa6fc4	0.030570872
240	0x3d29024f	0.041261967
241	0x3c601555	0.013676961
242	0x3c599443	0.013279977
243	0x3cb49916	0.022045653
244	0xbd50f919	-0.051018808
245	0xbcaba03c	-0.02095043
246	0xbd6695eb	-0.056295317
247	0x3b84823e	0.0040438464
248	0x3c93128d	0.017953182
249	0x3d87bfcb	0.066283785
250	0x3b137df9	0.0022505505
251	0xbcc105fd	-0.023562426
252	0x3c7ba7a7	0.015359796
253	0xbd1387c0	-0.036018133
254	0xbcb44c8d	-0.022009159
255	0xbca15948	-0.019695893

action_model._continuous_distribution.mu.bias f4 [2]
0	0xbc48e641	-0.012261928
1	0x3cea94a3	0.028635329

exp_avg f4 [256, 44]
0	0x00000000	0.0
1	0x00000000	0.0
2	0x1654f791	1.7203342e-25
3	0x3334909b	4.2041034e-08
4	0x00000000	0.0
5	0x00000000	0.0
6	0x1654f791	1.7203342e-25
7	0x336b8ee1	5.484515e-08
8	0x00000000	0.0
9	0x00000000	0.0
10	0x1654f791	1.7203342e-25
11	0x331e4ebd	3.6858854e-08
12	0xb61ba40c	-2.3192288e-06
13	0x00000000	0.0
14	0x36c99cda	6.0085267e-06
15	0x3788b87c	1.629837e-05
16	0x00000000	0.0
17	0x00000000	0.0
18	0x1654f791	1.7203342e-25
19	0x331982e8	3.5742147e-08
20	0x33b055f4	8.2112734e-08
21	0x00000000	0.0
22	0x36dea45f	6.635251e-06
23	0x3784fb66	1.5852693e-05
24	0x00000000	0.0
25	0x00000000	0.0
26	0x1654f791	1.7203342e-25
27	0x332145eb	3.7549324e-08
28	0xb6dabd0a	-6.5189133e-06
29	0x00000000	0.0
30	0x37ca189e	2.409174e-05
31	0x37f26704	2.8896618e-05
32	0x00000000	0.0
33	0x00000000	0.0
34	0x1654f791	1.7203342e-25
35	0x333d9a1e	4.414516e-08
36	0xb6855e9b	-3.9747224e-06
37	0x00000000	0.0
38	0x37ef7afd	2.8548291e-05
39	0x37cf38aa	2.470271e-05
40	0x00000000	0.0
41	0x00000000	0.0
42	0x1654f791	1.7203342e-25
43	0x33815ce6	6.023929e-08
44	0x00000000	0.0
45	0x00000000	0.0
46	0x973027af	-5.6918755e-25
47	0xb4373041	-1.7060758e-07
48	0x00000000	0.0
49	0x00000000	0.0
50	0x973027af	-5.6918755e-25
51	0xb46b6e66	-2.1926243e-07
52	0x00000000	0.0
53	0x00000000	0.0
54	0x973027af	-5.6918755e-25
55	0xb4208e38	-1.49529e-07
56	0x37cc3c7a	2.4346857e-05
57	0x00000000	0.0
58	0x37578a49	1.2847196e-05
59	0xb86f8364	-5.7104407e-05
60	0x00000000	0.0
61	0x00000000	0.0
62	0x973027af	-5.6918755e-25
63	0xb41c321e	-1.4546865e-07
64	0xb58ea19e	-1.0626861e-06
65	0x00000000	0.0
66	0x347f9166	2.3801621e-07
67	0xb873a95b	-5.809344e-05
68	0x00000000	0.0
69	0x00000000	0.0
70	0x973027af	-5.6918755e-25
71	0xb42402db	-1.5274729e-07
72	0x386d86d2	5.6630764e-05
73	0x00000000	0.0
74	0xb8ec4e0a	-0.00011267893
75	0xb91822e0	-0.00014508842
76	0x00000000	0.0
77	0x00000000	0.0
78	0x973027af	-5.6918755e-25
79	0xb441663a	-1.8011715e-07
80	0x37e709c0	2.7541886e-05
81	0x00000000	0.0
82	0xb91013fb	-0.00013740353
83	0xb8e00603	-0.00010682272
84	0x00000000	0.0
85	0x00000000	0.0
86	0x973027af	-5.6918755e-25
87	0xb4833e69	-2.444606e-07
88	0x00000000	0.0
89	0x00000000	0.0
90	0x177353c1	7.8623247e-25
91	0x347785fb	2.305241e-07
92	0x00000000	0.0
93	0x00000000	0.0
94	0x177353c1	7.8623247e-25
95	0x34a5161b	3.074973e-07
96	0x00000000	0.0
97	0x00000000	0.0
98	0x177353c1	7.8623247e-25
99	0x3457fe2a	2.01159e-07
100	0x36443643	2.923786e-06
101	0x00000000	0.0
102	0x38951887	7.109442e-05
103	0x38b33ee9	8.547103e-05
104	0x00000000	0.0
105	0x00000000	0.0
106	0x177353c1	7.8623247e-25
107	0x344f1820	1.9287154e-07
108	0x3677433e	3.6845008e-06
109	0x00000000	0.0
110	0x389c0f7d	7.4415446e-05
111	0x38bf85d6	9.1325186e-05
112	0x00000000	0.0
113	0x00000000	0.0
114	0x177353c1	7.8623247e-25
115	0x345969a3	2.024813e-07
116	0xb75068f5	-1.2422203e-05
117	0x00000000	0.0
118	0x39023799	0.00012418478
119	0x39076d59	0.00012915338
120	0x00000000	0.0
121	0x00000000	0.0
122	0x177353c1	7.8623247e-25
123	0x347ec61a	2.3727662e-07
124	0xb73cdd47	-1.1257193e-05
125	0x00000000	0.0
126	0x390b940e	0.00013311228
127	0x390ab8ae	0.00013229504
128	0x00000000	0.0
129	0x00000000	0.0
130	0x177353c1	7.8623247e-25
131	0x34b0c3f9	3.2925144e-07
132	0x00000000	0.0
133	0x00000000	0.0
134	0x9738e40d	-5.9741447e-25
135	0x340b09de	1.2948973e-07
136	0x00000000	0.0
137	0x00000000	0.0
138	0x9738e40d	-5.9741447e-25
139	0x344483ce	1.8301873e-07
140	0x00000000	0.0
141	0x00000000	0.0
142	0x9738e40d	-5.9741447e-25
143	0x33f1a67e	1.1252722e-07
144	0x37d594f9	2.546095e-05
145	0x00000000	0.0
146	0x38ef129f	0.000113998765
147	0x38664822	5.4903452e-05
148	0x00000000	0.0
149	0x00000000	0.0
150	0x9738e40d	-5.9741447e-25
151	0x33dff566	1.04288844e-07
152	0xb72401fd	-9.775625e-06
153	0x00000000	0.0
154	0x3906d663	0.00012859101
155	0x38aad41e	8.1457416e-05
156	0x00000000	0.0
157	0x00000000	0.0
158	0x9738e40d	-5.9741447e-25
159	0x33ec7c98	1.101227e-07
160	0x373e517f	1.1343857e-05
161	0x00000000	0.0
162	0x3884d42e	6.333772e-05
163	0x3805394a	3.1763026e-05
164	0x00000000	0.0
165	0x00000000	0.0
166	0x9738e40d	-5.9741447e-25
167	0x3409ceaf	1.283431e-07
168	0xb7406cac	-1.1469394e-05
169	0x00000000	0.0
170	0x384812cc	4.770122e-05
171	0x38c1aaec	9.234794e-05
172	0x00000000	0.0
173	0x00000000	0.0
174	0x9738e40d	-5.9741447e-25
175	0x34489864	1.8681891e-07
176	0x00000000	0.0
177	0x00000000	0.0
178	0x976f6419	-7.7351406e-25
179	0xb4a6d3a7	-3.1073907e-07
180	0x00000000	0.0
181	0x00000000	0.0
182	0x976f6419	-7.7351406e-25
183	0xb4dd0b82	-4.117283e-07
184	0x00000000	0.0
185	0x00000000	0.0
186	0x976f6419	-7.7351406e-25
187	0xb4931179	-2.7393597e-07
188	0xb6f3400e	-7.2494213e-06
189	0x00000000	0.0
190	0xb8cad9a5	-9.67265e-05
191	0xb8cf4afd	-9.884497e-05
192	0x00000000	0.0
193	0x00000000	0.0
194	0x976f6419	-7.7351406e-25
195	0xb48c4a6f	-2.613119e-07
196	0x36a6e469	4.973776e-06
197	0x00000000	0.0
198	0xb906b1e9	-0.00012845513
199	0xb90cf28c	-0.00013441796
200	0x00000000	0.0
201	0x00000000	0.0
202	0x976f6419	-7.7351406e-25
203	0xb494e279	-2.773193e-07
204	0x38570ef2	5.1273913e-05
205	0x00000000	0.0
206	0xb94b04af	-0.00019361333
207	0xb949bbeb	-0.00019238859
208	0x00000000	0.0
209	0x00000000	0.0
210	0x976f6419	-7.7351406e-25
211	0xb4aecdba	-3.255971e-07
212	0x3835958c	4.329304e-05
213	0x00000000	0.0
214	0xb956f67c	-0.00020500453
215	0xb95d8110	-0.00021124282
216	0x00000000	0.0
217	0x00000000	0.0
218	0x976f6419	-7.7351406e-25
219	0xb4f512eb	-4.564857e-07
220	0x00000000	0.0
221	0x00000000	0.0
222	0x17011ce2	4.1718603e-25
223	0x343cba23	1.757658e-07
224	0x00000000	0.0
225	0x00000000	0.0
226	0x17011ce2	4.1718603e-25
227	0x347cd8b2	2.3548162e-07
228	0x00000000	0.0
229	0x00000000	0.0
230	0x17011ce2	4.1718603e-25
231	0x34246ace	1.5312546e-07
232	0x3670a31e	3.5857734e-06
233	0x00000000	0.0
234	0x3873ac5d	5.809624e-05
235	0x388aef5c	6.624937e-05
236	0x00000000	0.0
237	0x00000000	0.0
238	0x17011ce2	4.1718603e-25
239	0x341d60e1	1.4657009e-07
240	0x368ffd37	4.29121e-06
241	0x00000000	0.0
242	0x38834309	6.259053e-05
243	0x38979165	7.227323e-05
244	0x00000000	0.0
245	0x00000000	0.0
246	0x17011ce2	4.1718603e-25
247	0x342514ea	1.5374431e-07
248	0xb6e8eeb6	-6.9419284e-06
249	0x00000000	0.0
250	0x38c17a97	9.225791e-05
251	0x38c6824e	9.465647e-05
252	0x00000000	0.0
253	0x00000000	0.0
254	0x17011ce2	4.1718603e-25
255	0x3441680f	1.8012382e-07

exp_avg_sq f4 [256, 44]
0	0x00000000	0.0
1	0x00000000	0.0
2	0x280c6dec	7.795397e-15
3	0x299bae99	6.9136706e-14
4	0x00000000	0.0
5	0x00000000	0.0
6	0x280c6dec	7.795397e-15
7	0x2a09b3a6	1.2230372e-13
8	0x00000000	0.0
9	0x00000000	0.0
10	0x280c6dec	7.795397e-15
11	0x2970ed43	5.3496497e-14
12	0x30547dc6	7.7303886e-10
13	0x00000000	0.0
14	0x3238bade	1.0752698e-08
15	0x32464c28	1.1542433e-08
16	0x00000000	0.0
17	0x00000000	0.0
18	0x280c6dec	7.795397e-15
19	0x295fd465	4.970017e-14
20	0x304228fc	7.063503e-10
21	0x00000000	0.0
22	0x322c7f65	1.0040684e-08
23	0x323c669d	1.0966372e-08
24	0x00000000	0.0
25	0x00000000	0.0
26	0x280c6dec	7.795397e-15
27	0x2972ea53	5.3938038e-14
28	0x302f0771	6.3675204e-10
29	0x00000000	0.0
30	0x3221b096	9.411584e-09
31	0x32354c71	1.0552967e-08
32	0x00000000	0.0
33	0x00000000	0.0
34	0x280c6dec	7.795397e-15
35	0x299ec9ed	7.051638e-14
36	0x2ffd6fa1	4.609975e-10
37	0x00000000	0.0
38	0x32334eb4	1.0437066e-08
39	0x3245127d	1.1471113e-08
40	0x00000000	0.0
41	0x00000000	0.0
42	0x280c6dec	7.795397e-15
43	0x2a10d1a6	1.2862506e-13
44	0x00000000	0.0
45	0x00000000	0.0
46	0x2a28c82b	1.4990845e-13
47	0x2babdd49	1.22117e-12
48	0x00000000	0.0
49	0x00000000	0.0
50	0x2a28c82b	1.4990845e-13
51	0x2c17759f	2.1523683e-12
52	0x00000000	0.0
53	0x00000000	0.0
54	0x2a28c82b	1.4990845e-13
55	0x2b855cb3	9.475948e-13
56	0x331a66db	3.5949466e-08
57	0x00000000	0.0
58	0x343641b7	1.6973978e-07
59	0x3444a9e3	1.8315727e-07
60	0x00000000	0.0
61	0x00000000	0.0
62	0x2a28c82b	1.4990845e-13
63	0x2b77f401	8.809065e-13
64	0x331942ce	3.5683847e-08
65	0x00000000	0.0
66	0x34353f1e	1.68799e-07
67	0x344348e5	1.8187309e-07
68	0x00000000	0.0
69	0x00000000	0.0
70	0x2a28c82b	1.4990845e-13
71	0x2b8673fd	9.553466e-13
72	0x32fe3630	2.9594133e-08
73	0x00000000	0.0
74	0x343415b7	1.6771706e-07
75	0x3444fdc3	1.834624e-07
76	0x00000000	0.0
77	0x00000000	0.0
78	0x2a28c82b	1.4990845e-13
79	0x2baf58df	1.2459165e-12
80	0x32c538b7	2.295961e-08
81	0x00000000	0.0
82	0x343dfe29	1.769446e-07
83	0x34500d68	1.9376387e-07
84	0x00000000	0.0
85	0x00000000	0.0
86	0x2a28c82b	1.4990845e-13
87	0x2c1f5424	2.2641966e-12
88	0x00000000	0.0
89	0x00000000	0.0
90	0x2ab84620	3.2733625e-13
91	0x2b3eada2	6.7742524e-13
92	0x00000000	0.0
93	0x00000000	0.0
94	0x2ab84620	3.2733625e-13
95	0x2b8a3535	9.820258e-13
96	0x00000000	0.0
97	0x00000000	0.0
98	0x2ab84620	3.2733625e-13
99	0x2b25780c	5.8786374e-13
100	0x31039048	1.9145023e-09
101	0x00000000	0.0
102	0x338d2553	6.5726134e-08
103	0x339566cb	6.957051e-08
104	0x00000000	0.0
105	0x00000000	0.0
106	0x2ab84620	3.2733625e-13
107	0x2b1f634b	5.6625944e-13
108	0x310c7bf5	2.0443143e-09
109	0x00000000	0.0
110	0x33893c17	6.39049e-08
111	0x33922ed2	6.8071714e-08
112	0x00000000	0.0
113	0x00000000	0.0
114	0x2ab84620	3.2733625e-13
115	0x2b263e2c	5.906133e-13
116	0x30e14885	1.6391516e-09
117	0x00000000	0.0
118	0x33890c19	6.38176e-08
119	0x3393bf58	6.880026e-08
120	0x00000000	0.0
121	0x00000000	0.0
122	0x2ab84620	3.2733625e-13
123	0x2b410f8e	6.858896e-13
124	0x30bce3d1	1.374355e-09
125	0x00000000	0.0
126	0x338e2abd	6.620164e-08
127	0x339c195b	7.268928e-08
128	0x00000000	0.0
129	0x00000000	0.0
130	0x2ab84620	3.2733625e-13
131	0x2b8f82f1	1.0197105e-12
132	0x00000000	0.0
133	0x00000000	0.0
134	0x2aa4c1bd	2.9266685e-13
135	0x2b7b5eb5	8.9304546e-13
136	0x00000000	0.0
137	0x00000000	0.0
138	0x2aa4c1bd	2.9266685e-13
139	0x2bc789ec	1.4178081e-12
140	0x00000000	0.0
141	0x00000000	0.0
142	0x2aa4c1bd	2.9266685e-13
143	0x2b500c27	7.391331e-13
144	0x32a9bb57	1.9759382e-08
145	0x00000000	0.0
146	0x33b8c2a0	8.60357e-08
147	0x33c9005f	9.3598594e-08
148	0x00000000	0.0
149	0x00000000	0.0
150	0x2aa4c1bd	2.9266685e-13
151	0x2b45832c	7.0170497e-13
152	0x32abdb16	2.0006649e-08
153	0x00000000	0.0
154	0x33a63c82	7.740984e-08
155	0x33b917f6	8.619092e-08
156	0x00000000	0.0
157	0x00000000	0.0
158	0x2aa4c1bd	2.9266685e-13
159	0x2b51535d	7.4367406e-13
160	0x32a44846	1.9124979e-08
161	0x00000000	0.0
162	0x339a445b	7.1836176e-08
163	0x33b2f961	8.334133e-08
164	0x00000000	0.0
165	0x00000000	0.0
166	0x2aa4c1bd	2.9266685e-13
167	0x2b7f557d	9.071284e-13
168	0x32889e0d	1.5904357e-08
169	0x00000000	0.0
170	0x33b1e6e4	8.2842035e-08
171	0x33c83f87	9.324781e-08
172	0x00000000	0.0
173	0x00000000	0.0
174	0x2aa4c1bd	2.9266685e-13
175	0x2bd06691	1.4807757e-12
176	0x00000000	0.0
177	0x00000000	0.0
178	0x2a278131	1.4877402e-13
179	0x2b387d23	6.5543594e-13
180	0x00000000	0.0
181	0x00000000	0.0
182	0x2a278131	1.4877402e-13
183	0x2b99b04a	1.0920234e-12
184	0x00000000	0.0
185	0x00000000	0.0
186	0x2a278131	1.4877402e-13
187	0x2b1458ab	5.2703214e-13
188	0x3306b76e	3.1366135e-08
189	0x00000000	0.0
190	0x330fcf01	3.348305e-08
191	0x33359543	4.22781e-08
192	0x00000000	0.0
193	0x00000000	0.0
194	0x2a278131	1.4877402e-13
195	0x2b0bc852	4.966072e-13
196	0x32ee4df6	2.77423e-08
197	0x00000000	0.0
198	0x332c1aa5	4.0071104e-08
199	0x334b7ad9	4.737635e-08
200	0x00000000	0.0
201	0x00000000	0.0
202	0x2a278131	1.4877402e-13
203	0x2b15be39	5.319942e-13
204	0x32b6b6e4	2.1270758e-08
205	0x00000000	0.0
206	0x334a1f39	4.7060187e-08
207	0x336e0d25	5.5425648e-08
208	0x00000000	0.0
209	0x00000000	0.0
210	0x2a278131	1.4877402e-13
211	0x2b3c79a4	6.695983e-13
212	0x327e446c	1.4800303e-08
213	0x00000000	0.0
214	0x3376e6a4	5.7486105e-08
215	0x3394330a	6.901071e-08
216	0x00000000	0.0
217	0x00000000	0.0
218	0x2a278131	1.4877402e-13
219	0x2ba1e8ba	1.1504333e-12
220	0x00000000	0.0
221	0x00000000	0.0
222	0x29e23e1d	1.0047191e-13
223	0x2aa584dc	2.9402078e-13
224	0x00000000	0.0
225	0x00000000	0.0
226	0x29e23e1d	1.0047191e-13
227	0x2b02353a	4.6259145e-13
228	0x00000000	0.0
229	0x00000000	0.0
230	0x29e23e1d	1.0047191e-13
231	0x2a899ecb	2.4446273e-13
232	0x30b97abb	1.3495404e-09
233	0x00000000	0.0
234	0x3320bdb8	3.742545e-08
235	0x332a2840	3.9617817e-08
236	0x00000000	0.0
237	0x00000000	0.0
238	0x29e23e1d	1.0047191e-13
239	0x2a82e9e9	2.3254947e-13
240	0x3087dbc5	9.885005e-10
241	0x00000000	0.0
242	0x3320351d	3.730121e-08
243	0x3329cf81	3.9537102e-08
244	0x00000000	0.0
245	0x00000000	0.0
246	0x29e23e1d	1.0047191e-13
247	0x2a8a80a1	2.4602979e-13
248	0x30420ba8	7.0593353e-10
249	0x00000000	0.0
250	0x331f5856	3.7100413e-08
251	0x332a5ef3	3.9667565e-08
252	0x00000000	0.0
253	0x00000000	0.0
254	0x29e23e1d	1.0047191e-13
255	0x2aa8393f	2.9882517e-13

exp_avg f4 [256]
0	0x37c4e3bb	2.3471066e-05
1	0xb8c93072	-9.5934505e-05
2	0x39048ac4	0.00012640195
3	0x389296a1	6.989879e-05
4	0xb9380af2	-0.00017551685
5	0x38c94990	9.598129e-05
6	0xb9b21af0	-0.00033970876
7	0x380de40a	3.3829398e-05
8	0xb67d084d	-3.770477e-06
9	0x39b0fae9	0.0003375628
10	0xb8e139ab	-0.000107395776
11	0xb8eb07c9	-0.00011207123
12	0xb7ad7e0e	-2.0681906e-05
13	0x3800a345	3.0669635e-05
14	0x3882b96f	6.233423e-05
15	0xb8d16620	-9.984919e-05
16	0x37b613d1	2.1705318e-05
17	0x38dbe8bd	0.00010486085
18	0xb95f1884	-0.0002127607
19	0x38aea7ce	8.3282226e-05
20	0xb9e576c4	-0.0004376677
21	0x394672c2	0.00018925502
22	0xb8ecb264	-0.00011286585
23	0xb90f6d18	-0.00013678183
24	0x371b3969	9.252087e-06
25	0xb8f11a2e	-0.00011496652
26	0x397853f1	0.00023682394
27	0xb95a9fa1	-0.00020849566
28	0x387667c9	5.8747628e-05
29	0x382f0457	4.1727293e-05
30	0x38c8bb03	9.571577e-05
31	0x394ea4ab	0.00019707035
32	0xb7ed83dd	-2.8314005e-05
33	0xb75923f6	-1.2942581e-05
34	0xb82faea0	-4.1885884e-05
35	0x3996780c	0.0002869967
36	0x38c2336b	9.260218e-05
37	0x386fa872	5.7138917e-05
38	0xb8855f02	-6.359631e-05
39	0x380ab04e	3.306596e-05
40	0xb8c6116e	-9.444622e-05
41	0x38477f8d	4.7564088e-05
42	0xb94936fe	-0.0001918934
43	0x358ef784	1.0651861e-06
44	0x38c8907e	9.563657e-05
45	0x386b4ee1	5.6101828e-05
46	0x388b9ec6	6.65761e-05
47	0xb8133706	-3.5098776e-05
48	0xb8149b00	-3.5430305e-05
49	0x389614a8	7.156405e-05
50	0xb6a3aac0	-4.8776565e-06
51	0xb70ba96e	-8.324494e-06
52	0xb7b387a0	-2.1401618e-05
53	0xb7c85b72	-2.388444e-05
54	0x38bcbcf1	8.999732e-05
55	0xb8ff4524	-0.00012172226
56	0xb8df18fd	-0.00010638123
57	0xb8b52e91	-8.639426e-05
58	0xb91d0f7d	-0.00014978457
59	0xb9349887	-0.00017222959
60	0xb99de527	-0.00030116105
61	0xb98ab439	-0.00026455687
62	0x379d1bf1	1.872887e-05
63	0xb8e6ddaa	-0.00011008543
64	0xb86f41ef	-5.7043446e-05
65	0xb95639c5	-0.00020430151
66	0x33b59e0f	8.45722e-08
67	0xb8511c01	-4.9855564e-05
68	0xb8b766ef	-8.745293e-05
69	0xb9053d4f	-0.00012706708
70	0xb718e696	-9.1135935e-06
71	0x3640806a	2.8684976e-06
72	0xb993311a	-0.00028074608
73	0x389fd93b	7.622173e-05
74	0x38840eb5	6.29699e-05
75	0x391ae5e7	0.0001477223
76	0x3909932b	0.00013120162
77	0x372af3c7	1.0189548e-05
78	0x39171761	0.00014409191
79	0x39296224	0.00016153656
80	0x390a780e	0.0001320543
81	0x3956cf10	0.00020485767
82	0x37c2350c	2.3151304e-05
83	0xb7eadb3a	-2.7997059e-05
84	0x39337156	0.00017112991
85	0xb8818cc2	-6.1774175e-05
86	0xb845ade7	-4.713042e-05
87	0xb928a55e	-0.00016083333
88	0x360e6672	2.121928e-06
89	0x38dd8bc0	0.00010564132
90	0xb79b1c43	-1.84906e-05
91	0x394b318e	0.00019378049
92	0x3886d01d	6.428382e-05
93	0xb8128ef4	-3.4942248e-05
94	0xb881f4ba	-6.196783e-05
95	0x38e429f8	0.000108797045
96	0x3830db12	4.2165695e-05
97	0xb8a556d7	-7.883988e-05
98	0xb65392bb	-3.1526858e-06
99	0xb8e8c2f9	-0.000110989386
100	0xb9059a9c	-0.00012741465
101	0xb94bb03b	-0.0001942524
102	0xb988d227	-0.00026096517
103	0x392a9606	0.00016268351
104	0x38e279ce	0.00010799208
105	0x37a933e5	2.0170535e-05
106	0x3861dd4a	5.385027e-05
107	0xb9261614	-0.00015839218
108	0x3903d9fe	0.00012574342
109	0xb9c9bc23	-0.0003847788
110	0x37648813	1.3621541e-05
111	0x386244fc	5.3946846e-05
112	0x38c285cf	9.275565e-05
113	0xb72dbf85	-1.0356195e-05
114	0xb844f3d9	-4.6957142e-05
115	0xb81542cf	-3.558659e-05
116	0xb892172d	-6.966139e-05
117	0x3986ec57	0.0002573456
118	0x3967cdf9	0.00022106608
119	0xb87b99aa	-5.9986174e-05
120	0x38885275	6.500344e-05
121	0xb7cbb16a	-2.42821e-05
122	0xb7cbb8eb	-2.4285595e-05
123	0xb8f5598e	-0.00011699191
124	0x39253f9a	0.0001575932
125	0xb9cb9a5a	-0.00038834178
126	0x398c5d2f	0.00026772308
127	0xb8c1b3e0	-9.2364615e-05
128	0xb9d0db00	-0.0003983602
129	0xb8819aa0	-6.1800005e-05
130	0x398d90be	0.00027001457
131	0x389b0f91	7.3938754e-05
132	0x398660d9	0.0002563063
133	0x3780b52a	1.534315e-05
134	0x3809adab	3.2825086e-05
135	0xb965fec9	-0.00021934057
136	0x38c45e28	9.363546e-05
137	0x37d6b429	2.5594682e-05
138	0xb846ddb3	-4.7413352e-05
139	0x3915eada	0.00014297236
140	0xb88618dc	-6.394248e-05
141	0x35ca822c	1.5088058e-06
142	0x38131315	3.5065303e-05
143	0x391ca62b	0.00014939222
144	0xb82cccbf	-4.119868e-05
145	0xb87fbdbd	-6.0973445e-05
146	0x39540976	0.0002022142
147	0x368dc2eb	4.224819e-06
148	0x38a84047	8.022837e-05
149	0xb94e90d2	-0.0001969964
150	0x3822d487	3.882174e-05
151	0x35ad214e	1.2899197e-06
152	0x388469bb	6.313944e-05
153	0xb93e92e1	-0.00018174529
154	0xb60a37ad	-2.059601e-06
155	0x373cb42f	1.12476255e-05
156	0x39ab2723	0.0003264482
157	0x390b17d6	0.00013264953
158	0x38306be2	4.2062144e-05
159	0xb934018d	-0.00017166715
160	0xb96887ef	-0.00022175883
161	0x38d43e52	0.00010120556
162	0xb88b07f6	-6.629519e-05
163	0xb89adb32	-7.3841205e-05
164	0xb87269f9	-5.779599e-05
165	0xb8b7b8bd	-8.76053e-05
166	0xb94c2aa7	-0.00019470845
167	0x395bff81	0.0002098065
168	0xb81c10e9	-3.7209047e-05
169	0xb91e64db	-0.00015105626
170	0x3816a1b0	3.591337e-05
171	0x37d0987c	2.4866538e-05
172	0x38c83176	9.545956e-05
173	0x3940ab1a	0.00018374287
174	0xb84cc61d	-4.8821898e-05
175	0x3965769e	0.0002188333
176	0x374217ec	1.1568871e-05
177	0xb850b061	-4.975533e-05
178	0xb8ef9bb0	-0.00011425407
179	0x39a123ee	0.00030735083
180	0xb7541413	-1.2640859e-05
181	0xb8a4ea19	-7.8637335e-05
182	0xb8e978a4	-0.00011132777
183	0x3728a865	1.0052788e-05
184	0x390d13ef	0.00013454234
185	0xb891b481	-6.94776e-05
186	0x394ff98e	0.00019834025
187	0x384e554d	4.919367e-05
188	0x3867eb63	5.5293913e-05
189	0x39411832	0.00018414928
190	0x393be716	0.00017919796
191	0x3823407d	3.8922288e-05
192	0x394548a6	0.00018814448
193	0xb95ae7d9	-0.0002087647
194	0x393b2b1a	0.00017849766
195	0xb8efeb9e	-0.00011440295
196	0x396e8798	0.00022747961
197	0x398d1e62	0.00026916253
198	0x38982a5e	7.255816e-05
199	0x38c135cd	9.212978e-05
200	0x386d1648	5.6525954e-05
201	0x3879d212	5.956187e-05
202	0x38c883ec	9.5613155e-05
203	0xb852ec1f	-5.0287807e-05
204	0x3836e0a0	4.360138e-05
205	0xb7a48b76	-1.9615265e-05
206	0xb8ef2533	-0.00011403337
207	0x388a633c	6.5988366e-05
208	0xb86cc718	-5.6452205e-05
209	0xb905ed1b	-0.00012772197
210	0xb9beebf0	-0.0003641541
211	0xb9b1ebc8	-0.00033935742
212	0xb9b5859f	-0.00034622566
213	0x3735546f	1.0808099e-05
214	0xb9c4fb13	-0.00037571098
215	0xb98b675e	-0.0002658916
216	0xb8f4903d	-0.00011661693
217	0xb888a1ec	-6.515146e-05
218	0x3859929a	5.1873365e-05
219	0x38a3933b	7.7998695e-05
220	0xb9a2d950	-0.00031060958
221	0xb8474f3e	-4.7519097e-05
222	0x38ad87f1	8.274604e-05
223	0x3849ff73	4.816004e-05
224	0xb87944f0	-5.943043e-05
225	0xb8e07a1b	-0.00010703896
226	0xb99d701f	-0.0003002891
227	0xb89dab8b	-7.518296e-05
228	0x3741a509	1.1542122e-05
229	0xb62cc620	-2.5745321e-06
230	0x3887829a	6.461628e-05
231	0xb8797faa	-5.9485123e-05
232	0xb6f981cf	-7.43589e-06
233	0xb8415b3a	-4.6099747e-05
234	0x38c7cbf6	9.52705e-05
235	0x39276c3b	0.0001596668
236	0xb80c1ae5	-3.340365e-05
237	0xb8d4f8fa	-0.00010155323
238	0xb8ac48c9	-8.2151564e-05
239	0xb9077b3c	-0.00012920512
240	0xb9170113	-0.00014400882
241	0x36ad401d	5.1632655e-06
242	0xb7b5911c	-2.1644453e-05
243	0xb89cd972	-7.479162e-05
244	0x38cf9216	9.89774e-05
245	0x38710a4d	5.746847e-05
246	0x396b6f42	0.00022452793
247	0xb7d6cf20	-2.5607238e-05
248	0xb82dcd91	-4.1437863e-05
249	0xb94ba986	-0.00019422741
250	0xb70e8ff4	-8.497376e-06
251	0x38a86765	8.030123e-05
252	0xb7e28fd5	-2.7008276e-05
253	0x38ef1a7d	0.00011401342
254	0x39007b68	0.00012253004
255	0x389c8dee	7.465096e-05

exp_avg_sq f4 [256]
0	0x32903208	1.6786558e-08
1	0x349e053a	2.9433596e-07
2	0x33cfc36c	9.674736e-08
3	0x3432a0cf	1.6636044e-07
4	0x34146c38	1.3822944e-07
5	0x33664e5e	5.3622323e-08
6	0x34b1901b	3.307367e-07
7	0x338a33f3	6.435575e-08
8	0x33db53d5	1.0213231e-07
9	0x34d80ad1	4.0241005e-07
10	0x3341c303	4.5113676e-08
11	0x33e4ad53	1.0648605e-07
12	0x33d5b7ea	9.952039e-08
13	0x332c7d37	4.0160753e-08
14	0x3387ecb3	6.329483e-08
15	0x33d61087	9.968158e-08
16	0x330acda8	3.2317672e-08
17	0x33caf293	9.450482e-08
18	0x34f2a412	4.519539e-07
19	0x34a559b1	3.0798904e-07
20	0x3505ae21	4.979975e-07
21	0x3408f616	1.2755513e-07
22	0x34490949	1.8722962e-07
23	0x34c0aaf4	3.5887172e-07
24	0x31966e55	4.378118e-09
25	0x34ac0334	3.2039827e-07
26	0x34afe070	3.275959e-07
27	0x34bca81e	3.514005e-07
28	0x33b95f40	8.63206e-08
29	0x32bb9bc6	2.1840503e-08
30	0x330eb579	3.3227e-08
31	0x34646889	2.1272184e-07
32	0x33dcf4f0	1.0289102e-07
33	0x328bb3ad	1.6263437e-08
34	0x318d4b60	4.1122092e-09
35	0x34ab24ec	3.1878096e-07
36	0x3344f9d4	4.5862024e-08
37	0x343ea69a	1.7755738e-07
38	0x348f3c6d	2.667979e-07
39	0x332f3159	4.0790244e-08
40	0x339c3d09	7.275418e-08
41	0x3247a8f8	1.1621744e-08
42	0x33f1c182	1.1257636e-07
43	0x32457ee0	1.1495757e-08
44	0x333711ed	4.262431e-08
45	0x33f14821	1.1235557e-07
46	0x3450312a	1.9389395e-07
47	0x3267db1f	1.3495792e-08
48	0x34853253	2.4809796e-07
49	0x32d628c4	2.4931417e-08
50	0x31d6af3d	6.248142e-09
51	0x32cddd53	2.3965788e-08
52	0x3367c2c3	5.3961013e-08
53	0x33076179	3.1520788e-08
54	0x34819fa1	2.4144268e-07
55	0x33becd1f	8.884876e-08
56	0x34e3f32a	4.245897e-07
57	0x33a0e728	7.492628e-08
58	0x3542add7	7.25236e-07
59	0x33f7da24	1.1541513e-07
60	0x34f9e1ee	4.654425e-07
61	0x346fae3b	2.2321994e-07
62	0x3445ade8	1.8410321e-07
63	0x33650178	5.3319553e-08
64	0x3442bf1f	1.8137187e-07
65	0x33fe2f86	1.1836441e-07
66	0x31368ec8	2.6565647e-09
67	0x32f07fb4	2.799775e-08
68	0x341427df	1.3798079e-07
69	0x33831625	6.104191e-08
70	0x349f29f6	2.9646588e-07
71	0x3244cd42	1.1455372e-08
72	0x34fc41bc	4.6986486e-07
73	0x341fa4fd	1.4868051e-07
74	0x347d2be4	2.3578428e-07
75	0x33e48ad5	1.0642331e-07
76	0x33c2a5d3	9.063992e-08
77	0x320848d4	7.932801e-09
78	0x33ce7ba0	9.61511e-08
79	0x34291f2f	1.5750696e-07
80	0x3365b38d	5.3481518e-08
81	0x34364462	1.6974948e-07
82	0x32b6459a	2.121924e-08
83	0x3419fdf0	1.4341617e-07
84	0x34734c62	2.2658926e-07
85	0x33c41054	9.129931e-08
86	0x32d2b7e1	2.4530836e-08
87	0x347fe1af	2.3830829e-07
88	0x32ac2365	2.0039531e-08
89	0x3436f0e6	1.7037709e-07
90	0x33987d49	7.100841e-08
91	0x34982e0e	2.8345715e-07
92	0x32527e9a	1.2252395e-08
93	0x321a82d6	8.993728e-09
94	0x340e22fc	1.3237508e-07
95	0x34048bba	1.234429e-07
96	0x33f6f1e1	1.1499265e-07
97	0x328c1464	1.6307418e-08
98	0x32886287	1.5877289e-08
99	0x34040d82	1.2298372e-07
100	0x3375543b	5.7120115e-08
101	0x349166c8	2.7083138e-07
102	0x3531f244	6.629018e-07
103	0x33dfc41c	1.0419919e-07
104	0x336b42e5	5.477604e-08
105	0x33ff77dd	1.1896166e-07
106	0x343ae66b	1.7406425e-07
107	0x33f1e65e	1.12643406e-07
108	0x338cd487	6.5579165e-08
109	0x354d260c	7.6423817e-07
110	0x33a7b702	7.8098324e-08
111	0x32f68ddb	2.8702678e-08
112	0x332e24ff	4.054618e-08
113	0x34857c35	2.4863553e-07
114	0x34ad7d3e	3.2314887e-07
115	0x3476db54	2.2990326e-07
116	0x331e7283	3.689139e-08
117	0x346cb9c7	2.2046798e-07
118	0x3469c312	2.1770782e-07
119	0x338f1488	6.662691e-08
120	0x32a42ab2	1.9111528e-08
121	0x350a740d	5.157788e-07
122	0x320bf845	8.147315e-09
123	0x35312f25	6.600624e-07
124	0x34db55bd	4.0854312e-07
125	0x352ebe11	6.5096634e-07
126	0x3481c3a2	2.4170464e-07
127	0x33b03683	8.205554e-08
128	0x35908a8f	1.0769162e-06
129	0x3487b129	2.527461e-07
130	0x35049820	4.9395203e-07
131	0x338cb092	6.551376e-08
132	0x34dfebaf	4.170847e-07
133	0x335e198d	5.171164e-08
134	0x32573a59	1.2527914e-08
135	0x34ab0b60	3.1859508e-07
136	0x3353ca24	4.931111e-08
137	0x33cdb12d	9.5782845e-08
138	0x333661e7	4.246422e-08
139	0x34634b58	2.1168432e-07
140	0x346424a5	2.1247486e-07
141	0x32632969	1.3222555e-08
142	0x328b6086	1.6225624e-08
143	0x342eda49	1.6284424e-07
144	0x331d7e72	3.6669412e-08
145	0x3500e949	4.802319e-07
146	0x343afda8	1.741488e-07
147	0x31165a3c	2.1879165e-09
148	0x33f69896	1.1483023e-07
149	0x34853510	2.4811789e-07
150	0x3430834c	1.6439043e-07
151	0x33a0a8e9	7.481305e-08
152	0x324c0257	1.1874895e-08
153	0x340c99f5	1.3094525e-07
154	0x33832ed7	6.108683e-08
155	0x3319e482	3.5830915e-08
156	0x35092b1f	5.1099227e-07
157	0x33a2e088	7.584555e-08
158	0x330c14c0	3.2615162e-08
159	0x3500a5df	4.792509e-07
160	0x34675c17	2.1547054e-07
161	0x338c3f7c	6.530806e-08
162	0x33cdcf90	9.583812e-08
163	0x3491d8c3	2.716607e-07
164	0x326955e3	1.3581913e-08
165	0x346c32af	2.1997651e-07
166	0x3407cf92	1.2648368e-07
167	0x342fffe2	1.6391235e-07
168	0x34fd056e	4.7128873e-07
169	0x348a1290	2.571801e-07
170	0x32380c29	1.07129745e-08
171	0x34477ada	1.8578012e-07
172	0x342f1a74	1.6307769e-07
173	0x34604b58	2.0889036e-07
174	0x341267e5	1.3635106e-07
175	0x34cb61a8	3.788275e-07
176	0x327e7fae	1.4813777e-08
177	0x31e3e354	6.6324137e-09
178	0x33fb24f6	1.16948215e-07
179	0x350e8045	5.308578e-07
180	0x32ee893c	2.7769254e-08
181	0x33c7cece	9.304277e-08
182	0x32d93bae	2.5289264e-08
183	0x3264e4e8	1.3323394e-08
184	0x33936e63	6.8653e-08
185	0x3358f4ef	5.0514185e-08
186	0x3418a3cd	1.4215694e-07
187	0x32f32ef9	2.8310284e-08
188	0x32661da4	1.33945015e-08
189	0x3453bbbe	1.9719207e-07
190	0x340cce99	1.3113676e-07
191	0x33305240	4.1053e-08
192	0x340d2329	1.314444e-07
193	0x345c5290	2.0519133e-07
194	0x341cfe0c	1.4621054e-07
195	0x34f110d5	4.4901995e-07
196	0x34778094	2.3050444e-07
197	0x349559ad	2.781866e-07
198	0x33c7fadd	9.3122914e-08
199	0x33a39d25	7.6188634e-08
200	0x33f4d136	1.1400191e-07
201	0x33c667ce	9.2389755e-08
202	0x3306dbeb	3.139932e-08
203	0x3466a6fb	2.1481166e-07
204	0x33b1a942	8.2729926e-08
205	0x3407fbbe	1.2664438e-07
206	0x34478854	1.8582915e-07
207	0x3452314c	1.9575708e-07
208	0x33373c32	4.2662755e-08
209	0x3485367b	2.481282e-07
210	0x3536c1f3	6.8082517e-07
211	0x34a5fa20	3.0915635e-07
212	0x357fcd4c	9.529365e-07
213	0x3116bf72	2.1936697e-09
214	0x35591b71	8.087873e-07
215	0x34ec1805	4.3975902e-07
216	0x34564fc6	1.9959325e-07
217	0x33a1ea2f	7.5397445e-08
218	0x3315ff02	3.4923694e-08
219	0x33190566	3.5628e-08
220	0x34b80c19	3.4281473e-07
221	0x330c39d1	3.2648874e-08
222	0x331f2d40	3.7061227e-08
223	0x3278e144	1.4486719e-08
224	0x343728ae	1.7058002e-07
225	0x3399a437	7.154488e-08
226	0x3454d3a2	1.982103e-07
227	0x34046d5a	1.233324e-07
228	0x34c9280a	3.74683e-07
229	0x34d36976	3.9378546e-07
230	0x3420ca63	1.4974789e-07
231	0x346430a4	2.125185e-07
232	0x30ebe2db	1.7162977e-09
233	0x323aed35	1.088056e-08
234	0x33311319	4.1228393e-08
235	0x348f6712	2.671082e-07
236	0x348dd718	2.6419798e-07
237	0x33157540	3.4798404e-08
238	0x3324e8b2	3.839586e-08
239	0x333a0d93	4.3318845e-08
240	0x3496df13	2.8101985e-07
241	0x34b269b4	3.3231993e-07
242	0x32cf4ae7	2.4132033e-08
243	0x33cfd1c9	9.677348e-08
244	0x33b2c47d	8.324512e-08
245	0x32dfbe0d	2.6047042e-08
246	0x34434f05	1.8189537e-07
247	0x3361c22a	5.2563486e-08
248	0x33aed8e4	8.1419586e-08
249	0x34ec92c7	4.406522e-07
250	0x31fb3424	7.310989e-09
251	0x3362da7e	5.2818443e-08
252	0x345ce2ef	2.0571655e-07
253	0x3350c976	4.8612e-08
254	0x33b7a59b	8.551725e-08
255	0x32d274e1	2.4500368e-08

exp_avg f4 [1, 2]
0	0xbcacc183	-0.021088367
1	0x3c3d6beb	0.011561374

exp_avg_sq f4 [1, 2]
0	0x3a1d160c	0.000599236
1	0x39fce2d4	0.00048234186
