IAV_FINAL/results/results/SheepsRedo5/Sheeps/Sheeps-372057.onnx (onnx, 33382 bytes, 5 tensors)

action_model._continuous_distribution.log_sigma f4 [1, 2]
0	0x3de1fbb9	0.110343404
1	0x3d0f3e9f	0.03497183

action_model._continuous_distribution.mu.bias f4 [2]
0	0x3ad05518	0.00158945
1	0x3b8fc65f	0.0043876613

action_model._continuous_distribution.mu.weight f4 [2, 256]
0	0x3cb3534a	0.021890301
1	0xba802706	-0.0009777255
2	0xbcb274df	-0.021784244
3	0xbb918943	-0.0044414117
4	0xbb5b97ea	-0.0033507296
5	0xbc410db1	-0.011783049
6	0x3d17ace8	0.03703013
7	0x3bbdad83	0.0057885065
8	0x3b90fd39	0.0044247177
9	0xbcfa9174	-0.030586936
10	0x3c136443	0.008996072
11	0xbd059bc6	-0.03261926
12	0x3c74836a	0.01492391
13	0xbc99f3f2	-0.01879308
14	0xbc338e25	-0.010959183
15	0x3ba9602c	0.0051689353
16	0xbb4b6181	-0.0031033459
17	0xbc1502a6	-0.00909487
18	0x3bbaf589	0.0057055396
19	0x3b3d9393	0.0028927072
20	0x3cacf9dd	0.021115238
21	0x3ac0a26d	0.0014696844
22	0x3c83798a	0.016049165
23	0x3d49ef8f	0.049300727
24	0x3d1c3ef0	0.03814596
25	0xbc9fc268	-0.01950188
26	0x3cf8fc28	0.030393675
27	0xbc9df1b7	-0.019280298
28	0x3cc6ab26	0.024251532
29	0xbc330458	-0.010926329
30	0x3b8f6914	0.00437654
31	0x3b97fd45	0.0046383464
32	0x3c34647f	0.011010288
33	0xbd48bbb0	-0.049007118
34	0xbb08f68e	-0.0020898911
35	0x3d2f3cc8	0.042782575
36	0x3d1838ab	0.037163418
37	0x3cb47be0	0.022031724
38	0xbbb6ade8	-0.0055749305
39	0xbd5ad78b	-0.053428214
40	0xbc856365	-0.016282747
41	0xbd01fc96	-0.031735025
42	0x3c8633dd	0.016382152
43	0xbc7ab300	-0.015301466
44	0x3cb87af2	0.022519562
45	0x3c6c97b2	0.014440464
46	0x3c3fbce2	0.011702748
47	0x3cbf3efd	0.023345465
48	0xb914af5a	-0.00014179703
49	0xbc5e710c	-0.013576757
50	0xbc9421c0	-0.0180825
51	0x3ca399d4	0.019970812
52	0xbbed0a76	-0.007233913
53	0x3c2f08e1	0.010683269
54	0xbcd9f727	-0.02660711
55	0xbcb86c4f	-0.022512583
56	0xbae8fdeb	-0.0017775869
57	0x3c01ff12	0.007934349
58	0x3c0a411e	0.008438377
59	0x3a11a6be	0.00055561576
60	0xbcacef90	-0.021110326
61	0x3beb6a7c	0.007184325
62	0xbd04f3f7	-0.032459226
63	0x3cd55e07	0.026045812
64	0x3d0a0923	0.03370012
65	0x3c842106	0.016129028
66	0xbabef737	-0.0014569525
67	0x3d023aa4	0.031794205
68	0xbb1f76cb	-0.002433228
69	0xbd308fcd	-0.04310589
70	0x3ba8a5dd	0.0051467256
71	0x3c7b4ed3	0.015338617
72	0x390ab59c	0.0001322836
73	0x3cdded6e	0.027090754
74	0x3c2b5a33	0.010458517
75	0xbcc3712a	-0.023857672
76	0xbc9b9d42	-0.018995885
77	0xbce2fd65	-0.027708719
78	0x3cd32475	0.02577422
79	0x3cc8af76	0.024497729
80	0xbc8ca790	-0.017169744
81	0xbca39ad2	-0.019971285
82	0x3c1ba344	0.009499375
83	0x3beae93d	0.0071689175
84	0xbc8f22ba	-0.017472614
85	0xbc36f921	-0.011167795
86	0xbd0944d9	-0.033512924
87	0xbbae7daa	-0.005325039
88	0xbc86ef55	-0.016471544
89	0xbaddbe7a	-0.0016917728
90	0xbd0398bb	-0.032128077
91	0xbcf25fea	-0.029586751
92	0xbcc2f152	-0.023796711
93	0x3d113ddd	0.035459388
94	0xb932580d	-0.00017008204
95	0x3cc88222	0.024476115
96	0x3b0ede5f	0.0021800024
97	0x3bd67857	0.0065451073
98	0x39909517	0.000275769
99	0x3b734cf0	0.0037124716
100	0x3c4e0ef3	0.012576806
101	0x3c14c12d	0.00907926
102	0xbc72da97	-0.014822624
103	0xbbbae151	-0.0057031293
104	0x3d01944e	0.031635575
105	0x3cd41a02	0.025891308
106	0x3c9ef4d0	0.019403845
107	0xbc42d4c5	-0.0118915485
108	0xbab2a7c3	-0.0013630319
109	0xbcd01795	-0.02540187
110	0xbbaf9093	-0.0053578108
111	0xbd1c6352	-0.038180657
112	0xbc33540a	-0.010945329
113	0xbc062604	-0.008187775
114	0x3bc3e9a7	0.0059787813
115	0x3ca5a488	0.020220056
116	0x3d0aee3d	0.033918608
117	0x3c70223c	0.0146566
118	0xbc38ddae	-0.011283321
119	0xbc969ea5	-0.018386194
120	0xbc6eae92	-0.014567988
121	0x3b988e2b	0.0046556196
122	0x3b7a2be8	0.0038173143
123	0xbaac2a6e	-0.0013135204
124	0xbb82e8f8	-0.003995057
125	0x3cc38831	0.023868652
126	0x3cab9d8e	0.020949151
127	0x3c11fb61	0.008910031
128	0xb95e5993	-0.00021204939
129	0xbc694d2b	-0.01423959
130	0x3af3f4e1	0.0018612408
131	0xbd131ab5	-0.03591414
132	0x3c8ace33	0.016944027
133	0x3c2eb1e4	0.01066253
134	0x3b7069b2	0.0036684093
135	0x3ca4492d	0.020054424
136	0xbc6792d6	-0.0141341295
137	0xbbf93f9f	-0.007606461
138	0xbc155b33	-0.009115982
139	0xbc4293eb	-0.011876087
140	0x3ccd1d44	0.025038369
141	0xbc6e998e	-0.0145629775
142	0x3be727e2	0.007054315
143	0xbc94ed96	-0.018179696
144	0xbb86c3e2	-0.0041127065
145	0xbc001936	-0.007818511
146	0x3cbdc121	0.02316338
147	0xbced0773	-0.028934216
148	0xbb689363	-0.003548824
149	0xbcbf56d6	-0.023356836
150	0x3ad62d58	0.0016340418
151	0x3c16bbde	0.009200064
152	0x3c4d9aec	0.012549143
153	0xbc89bac9	-0.016812699
154	0x3d12ca1f	0.03583729
155	0xbc9a7205	-0.018853197
156	0xbba6c8e5	-0.0050898665
157	0xbcbc258b	-0.02296712
158	0x3c26bc51	0.010176734
159	0x3c2657fd	0.010152814
160	0xbb96b1b3	-0.00459882
161	0x3c2bff6d	0.01049791
162	0xbb258c79	-0.002526073
163	0x3c82617e	0.015915629
164	0xbbd7df5b	-0.0065879053
165	0x3bab0c6d	0.005219987
166	0x3b4b1ff4	0.0030994387
167	0xbc024b64	-0.007952545
168	0xbd480b89	-0.048839126
169	0x3c398c67	0.011324978
170	0xbd02f9f7	-0.031976666
171	0xbc76f00f	-0.015071883
172	0xbb23c99c	-0.0024991995
173	0x3be65332	0.0070289606
174	0xbbcc3e3c	-0.006233005
175	0x3bb45432	0.005503201
176	0x3d3d4d38	0.04621622
177	0x3c7462c0	0.014916122
178	0x3be3e8d3	0.006955245
179	0xbcdccf1a	-0.026954222
180	0x3c59b5f4	0.01328801
181	0xbd0ce45c	-0.034397468
182	0xbb7ce07c	-0.0038585952
183	0xbc246ebf	-0.01003617
184	0xbc6ec23d	-0.014572677
185	0xbc869b81	-0.016431572
186	0xbca5478e	-0.020175721
187	0x3d0dd695	0.03462847
188	0xbd1180d5	-0.035523254
189	0xbc6ac862	-0.014330002
190	0x3d4325a3	0.047643315
191	0xbbbfc8af	-0.005852781
192	0x3c9b7e5e	0.018981155
193	0xbc28b345	-0.010296647
194	0xbd03fcd8	-0.032223552
195	0xba1f1c81	-0.0006069616
196	0xbca2c6f6	-0.019870263
197	0x3c2966cd	0.010339451
198	0xbc19f5a2	-0.009396942
199	0xbc3e5032	-0.0116158
200	0x3c084794	0.008317847
201	0xbc223ebd	-0.009902653
202	0x3d2df4dd	0.042469848
203	0x3a92bf2a	0.0011195887
204	0xbb4586f5	-0.0030140255
205	0x3c900c9f	0.017584143
206	0x3b8a1de8	0.004214991
207	0x3bdca990	0.0067340806
208	0x3ce32709	0.027728574
209	0x3c8660a8	0.016403511
210	0x3c6d90aa	0.014499823
211	0x3d44f903	0.04808904
212	0x391d0c08	0.00014977169
213	0xbd2163fe	-0.039402
214	0x3bddd69e	0.006769969
215	0x3beb1816	0.007174502
216	0xbc72e0a3	-0.014824065
217	0xbb3ccd16	-0.0028808764
218	0xbce13f54	-0.027496018
219	0xbc632aa8	-0.0138651505
220	0xbb98b549	-0.0046602827
221	0x3cafe524	0.021471567
222	0x3b97cdac	0.0046326723
223	0x3c2ec1ce	0.010666324
224	0x3b6dda9d	0.0036293634
225	0x3c996b44	0.018727906
226	0x3b7a2bb7	0.0038173029
227	0xbc3ccc22	-0.011523278
228	0x3c79f71b	0.015256668
229	0x3c0839f2	0.0083145965
230	0xbb640b89	-0.0034796915
231	0x3b3646b5	0.002781314
232	0x3b089b9e	0.0020844708
233	0x3c2729fe	0.010202883
234	0x3d32fcd0	0.043698132
235	0xbbaf0291	-0.005340882
236	0xbc1e1530	-0.009648606
237	0x3c1bdce7	0.009513116
238	0x3a67a452	0.00088364363
239	0x3bf7db58	0.0075639896
240	0x3c737dca	0.014861533
241	0xbcfd5db2	-0.030928466
242	0xbcb424dc	-0.021990232
243	0xbb6fe7f1	-0.0036606754
244	0xbb83d113	-0.0040227263
245	0x3cb4e505	0.022081861
246	0x3b911397	0.004427384
247	0xbcc14029	-0.023590164
248	0x3b8402f6	0.0040286733
249	0x3c03d3c0	0.008046091
250	0xbc2612fc	-0.010136362
251	0x3b478129	0.0030441976
252	0xbcf286ae	-0.029605236
253	0xbc965324	-0.018350191
254	0x3a11306e	0.00055385276
255	0x3c611f71	0.013740406

network_body._body_endoder.seq_layers.0.bias f4 [256]
0	0x3a4c5ae0	0.0007795524
1	0xbc9b9cb9	-0.01899563
2	0x398c99ac	0.00026817375
3	0x3b31c2c1	0.002712414
4	0x3c1c45c0	0.009538114
5	0x3c888d82	0.016669039
6	0xbc302e8d	-0.010753286
7	0xbbd517dd	-0.006503089
8	0xbba816b2	-0.0051296586
9	0x3c7e7c47	0.01553256
10	0xbc318183	-0.010834101
11	0x3bb0d90c	0.0053969678
12	0xb8e236db	-0.000107867374
13	0x3b1f2c61	0.0024287926
14	0x3c1a5f1b	0.009422089
15	0xbb9b6d67	-0.0047432664
16	0x3be0e898	0.006863665
17	0x3c89e7b4	0.016834117
18	0xbc95eb8d	-0.018300796
19	0xbc8e0097	-0.017334266
20	0xbaaca819	-0.0013172656
21	0xbc4ddd78	-0.012565009
22	0xbc005518	-0.007832788
23	0xbb038675	-0.0020069156
24	0xbbd88ca6	-0.0066085635
25	0xbb7b41bd	-0.0038338744
26	0x3a76bb49	0.0009412063
27	0xb93f0a02	-0.00018218908
28	0xbb869748	-0.0041073896
29	0xbb85e3d3	-0.0040859967
30	0x3bdad384	0.0066780467
31	0x3be715dd	0.007052167
32	0xbcc8962a	-0.024485666
33	0x3c28498d	0.010271442
34	0xba8f61c2	-0.0010939168
35	0x3bb39f30	0.005481623
36	0xb9c7681a	-0.000380338
37	0xbb4499c4	-0.0029998878
38	0xbbab1f0b	-0.0052222065
39	0x3c5af8d9	0.013364994
40	0x3c597a1b	0.013273741
41	0x3b839770	0.0040158555
42	0xbb16fc1f	-0.002303846
43	0x3c9e78f0	0.019344777
44	0xbb9b3e09	-0.00473762
45	0xbad2ab03	-0.0016072694
46	0x3b72539d	0.0036976107
47	0xbb9a376f	-0.004706315
48	0x3c2c5edb	0.010520662
49	0xbb869bb0	-0.004107915
50	0x3cb8704d	0.022514487
51	0xba27db36	-0.00064032094
52	0xbb300612	-0.0026859087
53	0xbb3a43e1	-0.0028421807
54	0x3cac9fdf	0.021072326
55	0x3c428e79	0.011874788
56	0xbc02eb7d	-0.007990715
57	0xbc2bdc30	-0.0104895085
58	0xbba26a35	-0.0049565085
59	0x3c4bc6ad	0.012437505
60	0xba793987	-0.00095071684
61	0xbc00a14b	-0.007850955
62	0x3af545ce	0.001871282
63	0xbb1ff038	-0.0024404656
64	0xbb99e53b	-0.004696516
65	0xbc95e442	-0.018297318
66	0x3c0111b6	0.007877758
67	0xba4300a4	-0.0007438755
68	0x3c22e025	0.0099411355
69	0x3bd7dc50	0.0065875426
70	0x3a5d0fa4	0.00084328116
71	0xbb57a130	-0.0032902472
72	0xbc1ec6bb	-0.009690936
73	0x3a95c2e7	0.0011425883
74	0xbbcb26fd	-0.006199716
75	0x3cb28466	0.021791648
76	0x3b1c8971	0.0023885632
77	0x3bc87fa3	0.006118731
78	0xba5f8499	-0.00085265335
79	0x3ac0a722	0.0014698247
80	0x3ba58b56	0.0050520105
81	0x3ca94676	0.020663481
82	0xbaa0791f	-0.0012243128
83	0xbb406317	-0.0029355937
84	0xba882b5a	-0.0010388896
85	0x3c04a66d	0.00809632
86	0x3bdda4f6	0.0067640496
87	0xba9679d3	-0.0011480398
88	0x3c5faac3	0.013651553
89	0x3c0895cb	0.008336495
90	0x3c2f84d8	0.010712825
91	0x3cdcd922	0.026959006
92	0x3b19c71b	0.0023464623
93	0xbb4db25d	-0.003138683
94	0xb93bf29c	-0.00017924089
95	0xbb8ef8b1	-0.0043631424
96	0xbb5f5228	-0.0034076069
97	0x3c050cf2	0.008120762
98	0xbc316cfe	-0.010829208
99	0xbc0edd2a	-0.008719722
100	0xbabb6b82	-0.0014299008
101	0xbb37b201	-0.0028029683
102	0xba548f91	-0.0008108551
103	0xba88be76	-0.0010432738
104	0xbb08c894	-0.0020871507
105	0xbc0bf03e	-0.008541165
106	0x3abc489c	0.0014364901
107	0xbb2f407c	-0.0026741317
108	0xbc60593a	-0.013693148
109	0x3c29bc23	0.010359797
110	0xbbb73b98	-0.005591821
111	0x3ca068b2	0.019581173
112	0xbb75a362	-0.0037481417
113	0xbc097464	-0.008389566
114	0x3ba58ecf	0.0050524245
115	0xbc4ee523	-0.012627873
116	0xbb983a49	-0.00464562
117	0xbc5d672e	-0.0135133695
118	0xbbdb0397	-0.0066837776
119	0xbbe39c9f	-0.006946161
120	0x3c09db8c	0.00841416
121	0xbb27ef63	-0.0025624863
122	0xbb929602	-0.0044734487
123	0xbbab63a0	-0.005230382
124	0xbab73fe3	-0.0013980832
125	0xbb058ac7	-0.0020376907
126	0xbb914238	-0.0044329427
127	0xba54b09b	-0.00081134745
128	0x3b53830d	0.0032274157
129	0xbad5d557	-0.001631419
130	0x3bb172b9	0.0054152873
131	0x3ab0ec93	0.0013498239
132	0x3a7e904e	0.0009710834
133	0xb984ca3b	-0.00025327675
134	0xbc5ee3ce	-0.013604118
135	0xbb1e301c	-0.0024137562
136	0xbbdfeb2f	-0.006833456
137	0x3c813a3e	0.015774842
138	0x3cccdfae	0.025009003
139	0xbac6ae20	-0.0015158094
140	0xb9bfd312	-0.00036587619
141	0x3a5f2b9b	0.00085132726
142	0x3b1cb72c	0.002391289
143	0x3c10f2a9	0.008846917
144	0xbc27af8a	-0.010234723
145	0x3bc8bf4f	0.0061263214
146	0x3b1e0b9f	0.0024115813
147	0x3bfd6266	0.0077326773
148	0xbc14b06e	-0.009075267
149	0xbad9428f	-0.0016575622
150	0xbc315dd0	-0.010825589
151	0x3bc083e0	0.0058750957
152	0xbc1f48a1	-0.009721906
153	0x3c9fc94d	0.019505167
154	0x3ae0f375	0.00171624
155	0xbb8fbe5f	-0.0043867077
156	0xbb2e177a	-0.0026564286
157	0x3bf45af1	0.00745713
158	0xbc25cf6a	-0.010120252
159	0xbc28dcb1	-0.010306523
160	0xbc142f79	-0.0090445215
161	0xbbaf826d	-0.005356124
162	0x3c5f842a	0.01364235
163	0xbc7fd5ab	-0.015614907
164	0x3c29d995	0.010366817
165	0xbc6020bb	-0.013679679
166	0x3c4feba3	0.0126904575
167	0xbc0594cf	-0.0081531545
168	0x3b99d99c	0.0046951305
169	0xb95cea19	-0.00021068043
170	0x3ca3c722	0.019992415
171	0x3c286916	0.010278961
172	0xbba97466	-0.0051713465
173	0xbb0ea9e4	-0.0021768743
174	0xba438edf	-0.0007459949
175	0xbbb02537	-0.00537553
176	0x3b90b9f8	0.0044167005
177	0xbb6bbe28	-0.0035971496
178	0x3ab4e104	0.001379997
179	0x3b76172d	0.0037550435
180	0xbcc1e4d8	-0.023668692
181	0xbb885b13	-0.0041612475
182	0xbbc02611	-0.005863913
183	0x3c8d71e6	0.017266225
184	0xbb47af31	-0.0030469412
185	0x3cb5844f	0.022157816
186	0x3bb1369b	0.005408121
187	0x39be4d52	0.00036297232
188	0x3b97d194	0.004633138
189	0x3c70dc0a	0.014700899
190	0x39211359	0.00015361364
191	0xbb611f9b	-0.0034351114
192	0xbbafb03a	-0.005361584
193	0x3c3a04d0	0.011353686
194	0x3b82ce56	0.0039918823
195	0xbb387b80	-0.0028149784
196	0x3bf36dbd	0.0074288533
197	0xbb53d19b	-0.003232098
198	0x3b5f2ee4	0.0034055049
199	0xbb36d97f	-0.0027900634
200	0xba5d7c3b	-0.0008448993
201	0x3b3edcb2	0.0029123244
202	0x3ad05fa6	0.0015897646
203	0x3c18ced6	0.009326657
204	0xbc5c4a10	-0.013445392
205	0xbb31baad	-0.0027119324
206	0x3bd6915d	0.0065480904
207	0x3b966dbc	0.004590718
208	0xbb4bc639	-0.0031093492
209	0xbb8717d6	-0.0041227145
210	0xbc6638ec	-0.014051657
211	0xbb6c2f0a	-0.003603878
212	0xbb224cde	-0.0024765055
213	0x3cb35c63	0.02189464
214	0x3abffdd6	0.0014647793
215	0xbbfae16f	-0.0076562683
216	0x3c6ae27e	0.0143362265
217	0x3b9f155e	0.004854842
218	0x3c94bab8	0.01815544
219	0x3c86b576	0.01644395
220	0xbbf06520	-0.007336274
221	0xbc5ba455	-0.013405879
222	0x3c1bb251	0.009502963
223	0x39a9077d	0.0003223977
224	0xbc8c6234	-0.01713667
225	0xba77af37	-0.00094484113
226	0xbc2edc60	-0.010672659
227	0xbb2613d1	-0.0025341401
228	0xbc79d7cc	-0.015249204
229	0xbb52a81e	-0.0032143663
230	0xbbb04d91	-0.0053803404
231	0x3bc8839f	0.006119206
232	0xbbec852a	-0.007218023
233	0xbc091724	-0.008367334
234	0x396b2713	0.00022425903
235	0x3ccb1b5d	0.024793321
236	0x3c7955ab	0.015218179
237	0xbca98661	-0.02069396
238	0xbb7f067c	-0.0038913777
239	0x38fffeb6	0.00012206791
240	0xbc02dcd8	-0.007987224
241	0x3c9ca14b	0.01911988
242	0x3b925962	0.0044662217
243	0xbbbad8ef	-0.00570213
244	0x3b8a2a96	0.0042165024
245	0xb99eae77	-0.00030266095
246	0xbb773951	-0.0037723372
247	0xbbc86120	-0.006115094
248	0xb97b16d3	-0.00023945728
249	0xbae4fde4	-0.0017470685
250	0xbbac48c3	-0.0052576973
251	0x3b588608	0.0033038873
252	0x3c1044d3	0.0088054715
253	0x3b127477	0.002234725
254	0x3c96f6ac	0.01842817
255	0x3a470267	0.00075916055

network_body._body_endoder.seq_layers.0.weight f4 [256, 28]
0	0xbe6db3f6	-0.23213181
1	0x3d3293e4	0.04359807
2	0x3e2b5884	0.16732985
3	0x3edfe8af	0.4373221
4	0xbeb62be2	-0.35580355
5	0xbdfaa50e	-0.12238513
6	0xbdcd8b37	-0.10036319
7	0x3e5f3dfc	0.21800989
8	0x3e26c726	0.16286907
9	0x3c4244dc	0.011857238
10	0x3e8a5cc4	0.270239
11	0xbe756184	-0.2396298
12	0xbea4f4fd	-0.3221816
13	0xbe1ab47b	-0.1510791
14	0x3dd7dc50	0.10540068
15	0xbe911536	-0.28336495
16	0xbda69b41	-0.08135081
17	0xbd2654b9	-0.04060814
18	0xbeeb741e	-0.45987028
19	0x3d569add	0.052393783
20	0x3edbaa31	0.42903283
21	0xbe180fa9	-0.14849724
22	0xbe630a26	-0.2217184
23	0xbe83e458	-0.2576015
24	0xbe83d9c3	-0.25752077
25	0x3e49525f	0.19660328
26	0xbc8c6021	-0.017135682
27	0xbe1cdec0	-0.15319347
28	0xbd9096c2	-0.07060005
29	0x3cb00d8f	0.02149084
30	0x3df0a516	0.11750238
31	0xbe036359	-0.12830867
32	0x3e35acb4	0.17741662
33	0xbc45f655	-0.012082656
34	0x3e4522e9	0.19251598
35	0xbe03c90c	-0.12869662
36	0xbce7363c	-0.028224103
37	0x3da9d705	0.08292965
38	0x3d97c975	0.07411472
39	0xbe4ac92e	-0.19803306
40	0xbda9e2ea	-0.082952335
41	0xbe12e806	-0.14346322
42	0xbec3348b	-0.38126025
43	0xbea8443e	-0.32864565
44	0x3ddf8a1d	0.10915015
45	0xbdc68866	-0.09693985
46	0xbe0d5f8a	-0.13805977
47	0x3d599c8b	0.053127807
48	0xbd4df67b	-0.05028389
49	0x3cbfdf68	0.023421958
50	0xbdd7ec33	-0.10543098
51	0xbda72fb3	-0.08163395
52	0xbcea64cd	-0.028612519
53	0xbd51d918	-0.051232427
54	0x3e3c72ce	0.1840317
55	0xbea786d8	-0.32720065
56	0x3dd34972	0.10316743
57	0xbe84cf1a	-0.25939256
58	0xba9b3740	-0.0011842027
59	0x3e3b2999	0.18277587
60	0x3e5f9798	0.21835172
61	0xbe23908c	-0.15973109
62	0xbce28511	-0.027651342
63	0xbf155e22	-0.5834676
64	0xbdd9886e	-0.10621725
65	0xbe68e3e1	-0.22743179
66	0x3e8b8e43	0.27256975
67	0x3db240b1	0.08703745
68	0xbead8044	-0.3388692
69	0xbdc752bf	-0.097325794
70	0x3e7ca016	0.24670443
71	0x3e7980b0	0.24365497
72	0x3e08cb37	0.1335877
73	0x3d420b2e	0.047373943
74	0x3ebd5ab9	0.36983278
75	0xbd6e4edb	-0.05818067
76	0x3da5169b	0.08060952
77	0x3c6310c8	0.013858981
78	0x3daa2bda	0.08309145
79	0x3e821fcb	0.2541488
80	0x3d6e75b5	0.058217723
81	0x3e621469	0.22078098
82	0xbd87f6f6	-0.06638901
83	0x3eb2277c	0.3479575
84	0xbda05fb1	-0.07830752
85	0xbea9cb5e	-0.3316297
86	0x3ec33e89	0.38133648
87	0x3e136c49	0.14396776
88	0xbeb19ebd	-0.3469142
89	0xbcbc87b5	-0.023013929
90	0xb9fc0191	-0.00048066353
91	0x3e7ba074	0.24572927
92	0x3e4893a9	0.19587578
93	0x3e27a1aa	0.16370264
94	0xbe3dd711	-0.18539073
95	0xbe0bf589	-0.13667883
96	0x3e6f0c8c	0.2334463
97	0xbea569c9	-0.3230727
98	0xbf01a76e	-0.506461
99	0xbd96dda4	-0.07366493
100	0xbef9324d	-0.4867119
101	0x3e19c312	0.1501582
102	0xbeb472bc	-0.35243785
103	0xbd2c9190	-0.042131007
104	0x3d2b9a30	0.04189509
105	0x3dacd50e	0.084390745
106	0xbee6b0c7	-0.45056745
107	0xbe096e5f	-0.1342101
108	0xbd47b910	-0.048760474
109	0x3e591c67	0.21202241
110	0xbdef7e8c	-0.11694059
111	0x3d8d8fa1	0.06912161
112	0x3e1e4886	0.15457353
113	0x3de2f7ae	0.110823974
114	0xbdd8510d	-0.10562334
115	0xbdfbd028	-0.12295562
116	0x3e8d300f	0.27575728
117	0x3bc0acd6	0.0058799786
118	0x3e8a12f9	0.269676
119	0x3d85a846	0.06526236
120	0xbd55b5c7	-0.05217531
121	0x3ea9dbc1	0.3317547
122	0x3ccbcbd2	0.024877463
123	0x3da89a7e	0.08232592
124	0x3e42a09f	0.19006585
125	0x3e951e75	0.291248
126	0x3e503487	0.20332538
127	0xbe110739	-0.14162911
128	0xbe761a6a	-0.24033514
129	0xbe1e4eb8	-0.15459716
130	0xbdd0de47	-0.10198646
131	0x3e036865	0.12832792
132	0x3e092be7	0.13395654
133	0x3e3f4dfd	0.18682094
134	0xbd0e3ec7	-0.034727838
135	0xbdb77196	-0.08957212
136	0x3d9aeb2f	0.07564389
137	0xbd035a8f	-0.032068785
138	0xbe830c32	-0.25595242
139	0x3cf15f4d	0.029464388
140	0x3e198256	0.14991125
141	0xbe690041	-0.22754003
142	0xbdc629b8	-0.09675926
143	0xbd241de3	-0.040067565
144	0x3e77cf55	0.24200185
145	0x3dfae37a	0.12250419
146	0x3e96e2da	0.2946995
147	0x3e1e9a77	0.15488611
148	0x3e8d6211	0.2761388
149	0x3e84faff	0.25972745
150	0x3e6948a3	0.22781615
151	0xbeb5fafd	-0.3554305
152	0x3dcf3049	0.101166315
153	0x3daabbd5	0.08336607
154	0xbd5862df	-0.052828666
155	0x3eae8814	0.34088194
156	0x3be3d49b	0.006952835
157	0x3e084399	0.13307036
158	0xbe354711	-0.17702891
159	0x3edaad98	0.42710567
160	0x3e6bbac3	0.23020463
161	0xbe44304f	-0.19159053
162	0x3e632b17	0.22184406
163	0xbe9de359	-0.30837515
164	0xbe7d6b5e	-0.24747989
165	0x3dacf05e	0.08444284
166	0x3e637291	0.22211672
167	0xbe45aeda	-0.19304982
168	0xbe85b9cd	-0.26118317
169	0xbdc58bca	-0.09645803
170	0xbe325a71	-0.17417313
171	0xbe371996	-0.17880854
172	0x3e1d3ec0	0.15355968
173	0x3e76da56	0.24106726
174	0xbe4f1612	-0.20223263
175	0xbd4ef75b	-0.050528865
176	0x3c05ba88	0.008162148
177	0xbd639cea	-0.055569567
178	0x3d39cfb5	0.0453641
179	0xbbc5eb37	-0.0060400027
180	0xbd9cc245	-0.076542415
181	0xbe6ed1fc	-0.2332229
182	0xbdb1ce9c	-0.08681986
183	0xbdd70d36	-0.10500567
184	0x3e3909ad	0.18070097
185	0x3e6c7669	0.23092045
186	0x3dc1820b	0.09448632
187	0x3e8b5882	0.27215964
188	0x3c9cd4e7	0.019144488
189	0x3e0d4a6c	0.13797921
190	0xbd8a291b	-0.067461215
191	0x3e41159f	0.18855904
192	0xbb9e8501	-0.0048376326
193	0x3c83b04c	0.016075276
194	0x3eb4b95b	0.35297665
195	0x3eea55b4	0.4576851
196	0x3df45dec	0.11931977
197	0x3d287a3a	0.04113219
198	0xbe262926	-0.16226634
199	0x3d16796b	0.036736887
200	0xbed027a5	-0.40655246
201	0x3e81ba8a	0.2533763
202	0x3d6e3dbd	0.058164347
203	0xbe095a3f	-0.13413332
204	0x3e80ce97	0.25157616
205	0xbe837b60	-0.25680065
206	0xbeb0b081	-0.34509662
207	0xb9e81fbd	-0.00044274135
208	0xbc123475	-0.00892364
209	0xbf19fc7f	-0.60150903
210	0xbe095473	-0.13411121
211	0xbe9c8232	-0.3056808
212	0xbddcc03b	-0.107788526
213	0xbe89ea7d	-0.26936713
214	0x3df76ffa	0.12081905
215	0x3e16a16e	0.14710018
216	0x3d6981ec	0.05700867
217	0xbd4ab14e	-0.049485497
218	0xbd8c7969	-0.06859095
219	0xbe22ea40	-0.15909672
220	0x3e867d92	0.26267678
221	0x3c8364c9	0.016039269
222	0x3e6c3d4b	0.23070256
223	0x3daef5d9	0.085429855
224	0x3e411905	0.188572
225	0xbe7c2fb1	-0.24627568
226	0x3e99a009	0.3000491
227	0xbedd1c9b	-0.43185887
228	0x3cdeacad	0.027181948
229	0x3de2636f	0.11054122
230	0xbe7df00f	-0.24798606
231	0xbb3abb05	-0.002849282
232	0x3e7bf83b	0.24606411
233	0xbd9a52eb	-0.075353466
234	0xbe85674d	-0.26055375
235	0xbc8130ca	-0.015770335
236	0xbdaac83e	-0.083389744
237	0x3c228849	0.009920188
238	0xbdfb06dd	-0.122571684
239	0x3dc626a0	0.09675336
240	0xbdee82f0	-0.11646068
241	0xbd2bdb6e	-0.04195731
242	0xbe08d5a9	-0.13362755
243	0x3e5cfb32	0.21580198
244	0xbd45a350	-0.04825145
245	0xbe83085c	-0.25592315
246	0xbebbaa76	-0.3665349
247	0x3e075162	0.13214639
248	0x3c32dbf9	0.010916703
249	0x3da938f1	0.08262814
250	0xbe35cab5	-0.17753108
251	0x3cbd9e56	0.02314679
252	0x3cb1021e	0.021607455
253	0x3aa15e9f	0.0012311524
254	0x3e1d18e3	0.15341525
255	0x3e8164bb	0.25272164
