IAV_FINAL/results/results/SheepsRedo5/Sheeps/Sheeps-8022.onnx (onnx, 83903 bytes, 7 tensors)

action_model._continuous_distribution.log_sigma f4 [1, 2]
0	0xbb0af693	-0.0021204099
1	0x3baaef02	0.00521648

action_model._continuous_distribution.mu.bias f4 [2]
0	0x3b8a3945	0.004218253
1	0x3b4a4c64	0.0030868286

action_model._continuous_distribution.mu.weight f4 [2, 128]
0	0x3b77b103	0.0037794716
1	0xbcd7a43c	-0.02632343
2	0xbc6f08fd	-0.014589545
3	0xbc34d6db	-0.011037554
4	0x3b99fe9a	0.0046995403
5	0x3b8a887c	0.004227696
6	0xbcb0f417	-0.021600766
7	0x3c369418	0.011143707
8	0xbc57ec42	-0.013178887
9	0xbc817dda	-0.015807081
10	0xbc2e8c02	-0.010653498
11	0xbc244806	-0.010026937
12	0x3c86da63	0.016461557
13	0x3c0ad69b	0.0084740175
14	0x3c9842ce	0.018586542
15	0x3c96e8b9	0.018421518
16	0xb97e1634	-0.00024231599
17	0xbd0cb33a	-0.03435061
18	0xbc6c59e1	-0.014425726
19	0x3c7cc88e	0.015428675
20	0xbbba952a	-0.0056940513
21	0x3c42af14	0.011882562
22	0x3cc01063	0.023445314
23	0x3bae871b	0.0053261644
24	0xbc6b44bc	-0.014359649
25	0x3c018bd1	0.00790687
26	0xbaae8f1d	-0.0013317798
27	0x3c751f4c	0.014961075
28	0xbcbd9042	-0.023140077
29	0xbc1981db	-0.009369339
30	0x3a24e431	0.00062901067
31	0x3c29f503	0.010373357
32	0x384949d2	4.7990885e-05
33	0x3caf45d7	0.021395607
34	0x3cab6855	0.020923773
35	0xbc462fb5	-0.012096335
36	0x3cba1f94	0.022720136
37	0x3bd08d0e	0.0063644713
38	0xbcb5aa5a	-0.022175957
39	0xbb305562	-0.002690636
40	0xbc1b843b	-0.009491975
41	0x3ba8144f	0.005129374
42	0xbd04341e	-0.032276265
43	0xbc248908	-0.010042436
44	0xbc06ee6f	-0.008235558
45	0xba87607a	-0.0010328435
46	0xbca1d5ac	-0.019755207
47	0x3d346747	0.044043805
48	0xbb382ee9	-0.0028104133
49	0xbb47943f	-0.0030453352
50	0x3c39b601	0.011334897
51	0xbc91e71b	-0.017810395
52	0x3cbbeaf3	0.022939181
53	0xbc845998	-0.016156003
54	0x3ba158c6	0.0049239127
55	0xbcfdc268	-0.03097649
56	0xbc2c3860	-0.010511488
57	0xbd142ff3	-0.03617854
58	0xbbf6651b	-0.007519377
59	0x3d1e6f45	0.038680334
60	0xbc2e8b01	-0.010653258
61	0xbc5d910a	-0.01352335
62	0x3c3edae4	0.011648867
63	0x3cae7caa	0.021299679
64	0xbd24b061	-0.04020727
65	0xbc923861	-0.01784915
66	0x3c09da89	0.008413919
67	0x3bbdd944	0.0057937223
68	0xb91c8b3a	-0.00014929185
69	0x3cc1b6be	0.023646709
70	0x3cdb0a05	0.026738176
71	0x3b64d1b7	0.003491504
72	0xbc7a9d0b	-0.015296231
73	0x3c04f78b	0.0081156595
74	0xbc76e5db	-0.01506945
75	0xbb4a7e56	-0.0030898056
76	0x3cf6aae0	0.030110776
77	0xbd32a84f	-0.043617543
78	0xbc0064a1	-0.007836492
79	0x3cbc42df	0.022981105
80	0xbc08a905	-0.008341079
81	0xbbf0f383	-0.0073532476
82	0xbc5a09f4	-0.013308037
83	0x3c39e184	0.011345271
84	0x3d2460a1	0.040131215
85	0xba975bee	-0.0011547783
86	0xbc812242	-0.015763406
87	0xbc46ab29	-0.012125769
88	0x3d05b03b	0.03263877
89	0xbc33ef3b	-0.01098233
90	0x3cd253f8	0.025674805
91	0x3c5bd282	0.013416888
92	0xbc935927	-0.017986847
93	0xbc904cd3	-0.017614758
94	0x39a49b77	0.00031396348
95	0x3c5ca9c0	0.013468206
96	0xbbc04620	-0.0058677346
97	0xbd03e222	-0.03219808
98	0xbc32777b	-0.010892744
99	0x3d0efedd	0.034911025
100	0xbca70788	-0.020389333
101	0x3c015e40	0.007896006
102	0x3a0a258e	0.00052698783
103	0x3b994f78	0.004678663
104	0x39f8a24d	0.0004742317
105	0x3b876569	0.004131962
106	0x3d14ffdf	0.03637683
107	0xbcc3e1a2	-0.023911301
108	0x3c39b9bf	0.011335789
109	0x3c8c38a9	0.017116861
110	0xbc9eabef	-0.019369094
111	0x3bda58ed	0.006663433
112	0xbbf1eef5	-0.007383222
113	0xbb4107af	-0.0029454043
114	0xbad07804	-0.0015904908
115	0x3c5b0a23	0.013369116
116	0x3c162a8a	0.009165416
117	0x3c9227cc	0.017841242
118	0x3c256f4c	0.010097336
119	0x3d00bd92	0.03143079
120	0xbc985e23	-0.018599575
121	0xbb86f114	-0.004118094
122	0x3ccfb6db	0.025355747
123	0x3c0f20cf	0.0087358495
124	0x3d2549b2	0.040353484
125	0x3c88a3ad	0.01667961
126	0x3cc232d9	0.023705887
127	0xbc55d095	-0.013050218
128	0x3c6abfcb	0.014327954
129	0xbc92e2a5	-0.017930338
130	0x3b8b46f1	0.0042504002
131	0x3c6b5044	0.014362399
132	0x3c8315c8	0.016001597
133	0x3c4f7ab0	0.012663528
134	0x3c114138	0.008865647
135	0x3c937b10	0.018003017
136	0x3d04972a	0.032370724
137	0xbc4977cd	-0.012296629
138	0xbc818c01	-0.01581383
139	0xbca168a0	-0.01970321
140	0x3c9fde0b	0.019515058
141	0x3c47631f	0.012169628
142	0xbc8b99a6	-0.017041039
143	0xbc296ae5	-0.010340427
144	0xbc53ae5e	-0.01291999
145	0xbbf9b81a	-0.0076208236
146	0xbb627d08	-0.0034559388
147	0xbc2eccf3	-0.010668981
148	0x3a5a5b67	0.000832966
149	0x3cace915	0.021107236
150	0xbc3f6705	-0.011682277
151	0xbcda2539	-0.026629077
152	0xbc9f0883	-0.019413238
153	0xbbdf077a	-0.006806311
154	0xbbc58268	-0.0060275085
155	0xbc5541b7	-0.013016156
156	0xba7cdc9e	-0.00096459116
157	0xbd159d01	-0.036526684
158	0x3c91bfc6	0.01779164
159	0xbd30bf6c	-0.043151304
160	0x3ca1d6d8	0.019755766
161	0xbb4ac16a	-0.0030938038
162	0xbbe3160e	-0.0069301194
163	0xbc708d92	-0.0146821905
164	0xbb8df554	-0.004332224
165	0x3c751c57	0.01496037
166	0xbd0f51d3	-0.034990143
167	0x3a08512a	0.00052000827
168	0xbc1c2518	-0.009530328
169	0xbc7b79e6	-0.015348887
170	0x3c8a783b	0.016903033
171	0xbc26cc19	-0.010180497
172	0xbbf4912e	-0.007463596
173	0xbcb4fa0a	-0.022091884
174	0x3c8fe246	0.01756395
175	0xbc95ec08	-0.018301025
176	0x3c9c4dbd	0.019080037
177	0x3ca9c493	0.020723617
178	0x3bb708e4	0.0055857766
179	0x3be57a04	0.007003071
180	0x3b834856	0.004006426
181	0x3c71d957	0.0147612905
182	0xbd324bfc	-0.043529496
183	0xbcbfc4d0	-0.023409277
184	0xbbf12918	-0.007359635
185	0x3ce41a3f	0.027844546
186	0xbd136c19	-0.03599176
187	0x3c250e91	0.010074274
188	0x3cb55e34	0.022139646
189	0x3cde903c	0.027168386
190	0xbcf6a673	-0.030108666
191	0x3c091514	0.008366842
192	0xbcb0bff8	-0.021575913
193	0xbc75807e	-0.014984248
194	0x3b5543e2	0.0032541682
195	0xbbdd0e50	-0.006746091
196	0xbc0c6f7b	-0.008571501
197	0xbca50a77	-0.020146592
198	0xbc06de24	-0.008231673
199	0x3b5de464	0.0033858055
200	0xbca201ee	-0.01977631
201	0xbc5683e7	-0.013092971
202	0xbc01badd	-0.007918087
203	0x3c83e8db	0.016102245
204	0xbb40e5b1	-0.0029433782
205	0xbb3ad012	-0.0028505367
206	0xbc7c9e67	-0.015418625
207	0x3cf371cc	0.029717349
208	0xbba1d153	-0.0049382835
209	0x3c57f6c6	0.013181394
210	0xbb365b7b	-0.0027825523
211	0x3c2ad29c	0.01042619
212	0x3cbe670b	0.023242494
213	0xbb8b0aac	-0.0042432155
214	0xbc180430	-0.009278342
215	0xbc6c70f3	-0.014431226
216	0xbd14bad6	-0.036310993
217	0x3c406d1a	0.011744762
218	0x3cf43920	0.029812396
219	0xbcaa9e5a	-0.020827461
220	0xbcf5ce16	-0.030005496
221	0xbc5b81fe	-0.013397692
222	0x3ccd857a	0.02508806
223	0x3ca08e52	0.019599114
224	0xb9445e76	-0.00018727206
225	0xbd1ad2b5	-0.037798602
226	0xbc240d80	-0.010012984
227	0x3c3bbf61	0.0114592025
228	0xbc57f021	-0.01317981
229	0xbd1c33fa	-0.038135506
230	0x3ad78fd0	0.0016446058
231	0xbcd57240	-0.026055455
232	0xbc5c1101	-0.013431788
233	0x3cf6ad40	0.030111909
234	0x3c38ab06	0.011271244
235	0xb9d6fe53	-0.00041006747
236	0x3cca27fd	0.024677271
237	0xbc01858b	-0.007905374
238	0xb9d1c2aa	-0.00040008622
239	0x3ba51880	0.005038321
240	0xbb0fd058	-0.002194425
241	0x3bb176f7	0.005415793
242	0x3bfca8e0	0.007710561
243	0x3b8b25b2	0.004246437
244	0x3b14ffce	0.002273548
245	0x3ce1eae9	0.027577834
246	0x3b2fd618	0.002683049
247	0x3c8e0fcb	0.017341515
248	0x3c1dbaca	0.0096270535
249	0x3bb5ac27	0.005544204
250	0x3c4a2c6a	0.012339691
251	0x3c1be609	0.009515294
252	0x3bd6ba95	0.006553004
253	0x3c0168c4	0.007898513
254	0xbc6e2718	-0.014535688
255	0x3c2510dd	0.010074821

network_body._body_endoder.seq_layers.0.bias f4 [128]
0	0xbb6ab6c9	-0.0035814515
1	0x3ad5deda	0.0016317025
2	0xbba894ad	-0.0051446767
3	0xbb3a48d5	-0.002842476
4	0x3b99c6aa	0.004692872
5	0x3b8a7708	0.0042256154
6	0x3a0743aa	0.0005159924
7	0xbab087ad	-0.0013468169
8	0xbbac6b3b	-0.0052618063
9	0xbb00e93c	-0.0019670269
10	0xbb50f6a8	-0.00318853
11	0xbbb767c6	-0.0055970876
12	0x3b95586e	0.004557661
13	0xbb49a910	-0.0030770935
14	0xbb997ba0	-0.0046839267
15	0x3a579b0e	0.0008224704
16	0x3a88375b	0.0010392474
17	0xbb4cc1fb	-0.003124355
18	0x3b5687c8	0.003273474
19	0x3927cfb3	0.00016003735
20	0x3b451247	0.0030070709
21	0x3b8aef39	0.0042399433
22	0x3a458db5	0.00075360696
23	0xbbaec3e5	-0.005333411
24	0x3b3a1964	0.0028396482
25	0xbb82b2f8	-0.00398862
26	0xbaa169b3	-0.0012314826
27	0x3bbc9fc2	0.0057563493
28	0x3baa4ba0	0.0051970035
29	0xbba26d5f	-0.0049568857
30	0xbb9d5bf8	-0.0048022233
31	0x3a322b03	0.00067965704
32	0x3b49e695	0.0030807604
33	0xbb3e9e14	-0.002908592
34	0x3b6404ec	0.0034792973
35	0x39821c0a	0.00024816423
36	0x3b3ffdfc	0.0029295674
37	0x3a4b821e	0.00077632244
38	0xbb17c808	-0.002316
39	0x399a0cda	0.00029382744
40	0x3b9c2601	0.0047652726
41	0xbb3f23c1	-0.0029165598
42	0xbaeef07e	-0.0018229631
43	0xbb371d2b	-0.002794097
44	0xbb9c7c1b	-0.0047755367
45	0xbb846f98	-0.0040416233
46	0x3b521316	0.0032054833
47	0xb9b75dfb	-0.000349745
48	0xbb9a1f5b	-0.004703445
49	0x3adff47a	0.001708641
50	0xbb8fdbf1	-0.0043902327
51	0x3ba032f9	0.004888889
52	0x3b568eaf	0.0032738855
53	0xbb3d42a0	-0.0028878823
54	0xbad9031c	-0.0016556713
55	0x38d88d44	0.000103259954
56	0x38faf387	0.000119662895
57	0xbb5496e2	-0.0032438566
58	0xbb301ae4	-0.0026871497
59	0x3ba0113c	0.004884867
60	0xbb26b53b	-0.0025437612
61	0x3b8c7527	0.0042864266
62	0x3b9c4635	0.0047691115
63	0xbb9fa997	-0.0048725116
64	0x3a0f3279	0.0005462538
65	0x3a08f475	0.0005224415
66	0xbbb28eeb	-0.005449166
67	0xb9ef0c9e	-0.00045595033
68	0x38afab59	8.376566e-05
69	0xbbadf9bb	-0.005309311
70	0x3b92a4af	0.004475198
71	0x3b80ab97	0.003926705
72	0xbb372e9a	-0.002795136
73	0xbb5054be	-0.0031788792
74	0xbbb25f22	-0.0054434696
75	0xbb5ed891	-0.0034003595
76	0xba37ed70	-0.0007016277
77	0x3b42127e	0.0029613073
78	0xbb71ee36	-0.0036915666
79	0xbab4ea39	-0.0013802714
80	0xbb8b14f5	-0.0042444416
81	0xbb94f2a2	-0.0045455256
82	0xbba9d7fb	-0.0051832176
83	0xb84e86cd	-4.923977e-05
84	0x3a4d7756	0.0007837912
85	0xbb01147c	-0.0019696048
86	0xbb63bf07	-0.0034751312
87	0xbb1450fe	-0.0022631283
88	0x3ba5a89f	0.0050555016
89	0xb99caa1a	-0.00029881374
90	0x3b51124a	0.003190177
91	0x3a39e956	0.00070919597
92	0x3aa1b9fa	0.001233875
93	0xbba34117	-0.0049821245
94	0x3b073974	0.002063361
95	0x3982c511	0.00024942358
96	0xbb01edd0	-0.0019825585
97	0xbb338975	-0.0027395163
98	0x3b0e98ab	0.0021758478
99	0x3b9a4b58	0.0047086887
100	0x3b930c25	0.0044875317
101	0x3ba6529d	0.0050757662
102	0x3bab2db8	0.005223956
103	0x3ba2b042	0.004964859
104	0xba7b1d0f	-0.000957922
105	0xbb824fcf	-0.003976799
106	0xb8a12ee2	-7.685811e-05
107	0x3b73f50e	0.0037224921
108	0xba1c9c17	-0.0005974187
109	0xbb8b4766	-0.0042504547
110	0xbb6d04f5	-0.0036166285
111	0x3b286186	0.0025692894
112	0xbbb2bc73	-0.005454594
113	0x3b8fc906	0.0043879775
114	0xbb48d37e	-0.0030643637
115	0x3b3c4d6c	0.002873267
116	0x3b5d4f8a	0.0033769333
117	0x3b8347cd	0.004006362
118	0xbbafb3f4	-0.0053620283
119	0x3b8ea08f	0.004352636
120	0x3b9c01c7	0.004760954
121	0x3b47180d	0.0030379326
122	0xbb4aa1c3	-0.0030919171
123	0x3a6c5e8d	0.0009016775
124	0xbbb728d4	-0.005589584
125	0x3a012a24	0.0004927239
126	0x3b8f2d2f	0.0043694
127	0x3b93d5ba	0.004511562

network_body._body_endoder.seq_layers.0.weight f4 [128, 28]
0	0x3dedd035	0.11611978
1	0x3d588a9b	0.05286656
2	0xbdb8676d	-0.09004102
3	0x3ed3fd4a	0.41404182
4	0xbbdc777f	-0.006728112
5	0xbd0f549d	-0.034992803
6	0x3c8c321f	0.017113743
7	0xbe9202e4	-0.2851783
8	0x3cc70ee6	0.024299096
9	0x3e573da5	0.2101961
10	0x3dece18d	0.11566458
11	0x3d1a1354	0.03761609
12	0xbe104946	-0.14090452
13	0x3e651cf2	0.22374323
14	0xbf01d2df	-0.5071239
15	0x3e756361	0.23963691
16	0xbe8e397c	-0.27778232
17	0xbe286208	-0.16443646
18	0x3d989dc7	0.07451969
19	0xbe815068	-0.25256658
20	0x3dda0f52	0.10647453
21	0x3dc9aa88	0.098469794
22	0x3e7be99f	0.24600838
23	0xbc6f96e3	-0.014623377
24	0x3e9b3bcc	0.3031906
25	0x3dc2ccb8	0.09511703
26	0x3ec7ccbd	0.3902339
27	0xbe1f90f1	-0.15582635
28	0xbedeb9fc	-0.4350127
29	0x3d67ecc7	0.056622293
30	0xbdd362c1	-0.1032157
31	0xbe9c88ea	-0.30573207
32	0x3b72f08c	0.0037069647
33	0xbea63f98	-0.32470393
34	0x3d075920	0.03304398
35	0x3c7f911e	0.0155985635
36	0xbe0a0c03	-0.13481145
37	0xb9b1aabf	-0.00033887287
38	0xbe919c3c	-0.2843951
39	0x3e3d0058	0.18457162
40	0x3dd9892c	0.106218666
41	0x3d586f9d	0.052840818
42	0x3e36bd5c	0.17845672
43	0x3df84afa	0.12123676
44	0xbecc2e79	-0.39879206
45	0xbdb87c24	-0.09008053
46	0xbe30f821	-0.17282154
47	0xbe1e732c	-0.15473622
48	0x3d51203d	0.051056135
49	0xbf13057b	-0.5743024
50	0xbdb5cdcc	-0.08877143
51	0x3ea07a46	0.31343287
52	0x3e5c39d4	0.21506435
53	0xbc7a4c51	-0.015276984
54	0xbdd8a523	-0.10578372
55	0x3cfba2f7	0.030717356
56	0x3e54d166	0.20783004
57	0x3d21e45e	0.03952443
58	0x3ea5d1b8	0.32386565
59	0xbea0f34e	-0.31435627
60	0x3da7af7c	0.08187768
61	0x3db43946	0.087999865
62	0x3d70cedc	0.058791026
63	0xbe545ffd	-0.20739742
64	0xbbe873ca	-0.0070938813
65	0xbde91cb4	-0.11382428
66	0xbe161093	-0.1465476
67	0xbce8a71a	-0.028399993
68	0x3eb88ddb	0.36045727
69	0x3e86b9e7	0.26313707
70	0x3e53f57c	0.20699114
71	0x3e4753a5	0.19465502
72	0x3e27af1c	0.16375393
73	0x3cb7e739	0.022449123
74	0xbdb2eb4e	-0.08736287
75	0x3eb7d5d7	0.35905334
76	0xbe16dcb2	-0.14732626
77	0xbe3cd127	-0.1843916
78	0x3d8e66cf	0.06953203
79	0xbd517a35	-0.051141936
80	0xbe96afbb	-0.29430947
81	0xbf03828a	-0.5137106
82	0x3d467b80	0.048457623
83	0xbefda0a7	-0.4953663
84	0x3d7836d5	0.060599167
85	0x3d990a3e	0.07472657
86	0x3e313593	0.17305593
87	0x3e4cad47	0.19987975
88	0xbdc37e10	-0.09545529
89	0xbdf2294e	-0.118242845
90	0x3e32904c	0.17437857
91	0xbe534055	-0.2063001
92	0x3e2f8224	0.17139488
93	0xbd9ca403	-0.0764847
94	0xbda2634a	-0.07929094
95	0xbc1a9aea	-0.009436348
96	0xbf190f61	-0.5978909
97	0xbd118f3c	-0.03553699
98	0xbc091a75	-0.008368124
99	0x3da72dca	0.081630304
100	0xbdd87106	-0.105684325
101	0x3dfbea15	0.12300507
102	0xbdd532c6	-0.10410075
103	0x3ddd6408	0.10810095
104	0x3e9973e6	0.29971236
105	0x3d31fea1	0.043455724
106	0x3e351f49	0.17687716
107	0x3dacf014	0.08444229
108	0x3e8895ca	0.2667678
109	0xbd04eea7	-0.03245416
110	0xbe90cd63	-0.28281698
111	0xbea16f43	-0.31530198
112	0xbe1cb8bf	-0.1530485
113	0xbe699a39	-0.22812738
114	0x3dbd1eea	0.09234412
115	0xbd7e2634	-0.062048152
116	0x3e00082e	0.1250312
117	0x3e83ba66	0.25728148
118	0x3e339ec7	0.17541037
119	0xbdd18efd	-0.10232351
120	0x3e9b3502	0.3031388
121	0xbe44644a	-0.19178882
122	0xbdf7cbf5	-0.120994486
123	0x3e96c01c	0.29443443
124	0xbdb0795c	-0.086168975
125	0xbe38cb8b	-0.18046395
126	0xbd734adf	-0.059397575
127	0x3d94b051	0.07260192
128	0x3e5cfd73	0.21581058
129	0x3e36491c	0.17801327
130	0xbe219b92	-0.15782002
131	0xbd03722d	-0.03209131
132	0x3e831cd8	0.25607944
133	0x3ca8af83	0.020591503
134	0x3e8f1533	0.2794586
135	0xbd973e40	-0.0738492
136	0xbd284135	-0.04107781
137	0x3e5d5dc9	0.21617807
138	0xbe337892	-0.17526463
139	0x3d9d3713	0.0767652
140	0xbeea1f18	-0.45726848
141	0xbe7a056a	-0.24416128
142	0x3edec419	0.43508986
143	0x3d98a987	0.0745421
144	0xbe1bbe93	-0.15209417
145	0xbe3aa9d8	-0.18228853
146	0xbd806250	-0.062687516
147	0x3c218db4	0.009860445
148	0xbe0731d6	-0.13202605
149	0xbe84be04	-0.2592622
150	0xbd3d1730	-0.04616469
151	0xbea23495	-0.31680742
152	0xbdeb55e2	-0.1149099
153	0xbe0e0d88	-0.1387235
154	0xbe91459b	-0.28373417
155	0x3da51238	0.080601156
156	0x3daf90f8	0.085725725
157	0x3d8e5358	0.0694949
158	0x3d19f65f	0.037588473
159	0x3e15c3dc	0.14625496
160	0xbe93e3a3	-0.2888461
161	0xbec0eadb	-0.3767918
162	0xbd5aa2a3	-0.05337776
163	0xbde04fc1	-0.10952712
164	0xbedf89bc	-0.4365977
165	0xbcd5509d	-0.026039416
166	0xbed0e4eb	-0.4079965
167	0xbeaa647d	-0.3327979
168	0x3e027dfb	0.1274337
169	0x3def8080	0.11694431
170	0x3e495f8f	0.19665359
171	0xbb64f6ec	-0.0034937216
172	0x3ea05090	0.31311464
173	0x3db525aa	0.088450745
174	0x3dadfc1f	0.08495354
175	0xbe8289d0	-0.25495768
176	0x3defb08c	0.117035955
177	0xbd736193	-0.059419226
178	0xbdaa3e99	-0.08312721
179	0xbe0eb97a	-0.13937941
180	0xbe83a620	-0.2571268
181	0x3d72e763	0.0593027
182	0xbd8f2bff	-0.069908135
183	0x3d49075c	0.049079284
184	0x3db7c954	0.08973947
185	0xbe94acc8	-0.29038072
186	0x3e4fe373	0.20301609
187	0x3e7721de	0.24134013
188	0xbe2850b7	-0.1643704
189	0xbe65155a	-0.22371426
190	0xbd810596	-0.062998936
191	0x3d67805f	0.05651891
192	0x3dcb6fd9	0.099334426
193	0x3de075c4	0.10959962
194	0x3d0aebeb	0.033916395
195	0xbefad6e7	-0.48992082
196	0x3ef91337	0.48647472
197	0xbe90de0c	-0.28294408
198	0xbe2fb936	-0.17160496
199	0xbeabf3de	-0.33584493
200	0xbe4061cc	-0.18787307
201	0x3d818c67	0.06325608
202	0x3d876060	0.06610179
203	0x3e4cc293	0.19996099
204	0x3e32603b	0.17419522
205	0xbe1dd78e	-0.15414259
206	0xbe2af7f8	-0.16696155
207	0x3d31a971	0.043374483
208	0x3ea4299c	0.32062995
209	0x39cc8ac4	0.000390133
210	0x3e4230ff	0.18964003
211	0xbdde1476	-0.10843746
212	0xbcdeb34f	-0.02718511
213	0x3e0f7e1e	0.14012954
214	0x3d657ea7	0.05602899
215	0x3d8724fd	0.06598852
216	0xbe94f6b4	-0.2909447
217	0x3e11fd0a	0.14256683
218	0xbe904c99	-0.2818344
219	0xbeabddf7	-0.33567783
220	0xbcf2805b	-0.02960222
221	0xbe185069	-0.14874424
222	0x3d453b21	0.048152093
223	0xbdc6060f	-0.09669124
224	0xbc819bec	-0.01582142
225	0xbca92031	-0.020645233
226	0x3ec3e4be	0.38260454
227	0xbe2fff6c	-0.1718728
228	0xbe80fb7c	-0.25191867
229	0x3ccc78c1	0.024959924
230	0xbe2ffa43	-0.17185311
231	0x3eacc183	0.33741388
232	0xbeb36590	-0.35038424
233	0x3d96159d	0.07328341
234	0xbeaeefd1	-0.3416734
235	0xbd2aa2a9	-0.04165903
236	0xbd80e98e	-0.06294547
237	0xbdfe06e7	-0.1240366
238	0xbe075260	-0.13215017
239	0x3db6f23e	0.08932923
240	0x3eb55804	0.35418713
241	0x3c740f93	0.014896291
242	0xbcfc9dfa	-0.030837048
243	0xbec7a158	-0.38990283
244	0xbd04d464	-0.032429114
245	0x3d75ef2a	0.060042538
246	0x3dfe0a42	0.124043
247	0xbe146a56	-0.14493689
248	0xbd87cb91	-0.06630624
249	0xbd964d81	-0.073390014
250	0x3eef6a5e	0.4676084
251	0xbda02c95	-0.07821003
252	0x3ea43bd0	0.32076883
253	0xbe8d65ff	-0.2761688
254	0xbcacac4f	-0.021078257
255	0x3e8095da	0.25114328

network_body._body_endoder.seq_layers.2.bias f4 [128]
0	0x3b4b95a5	0.0031064537
1	0xbb9b14c4	-0.0047327
2	0xb9992978	-0.0002921333
3	0x3ab79a7f	0.0014007835
4	0x3b59f109	0.003325524
5	0x3b503858	0.0031771865
6	0xbaa26609	-0.0012390028
7	0x3b8cbdc8	0.0042950846
8	0x3ae8ece9	0.00177708
9	0xbb999ba6	-0.004687744
10	0xbb99800b	-0.0046844534
11	0xbb822d79	-0.003972706
12	0x3b972436	0.004612471
13	0x3b887a6d	0.004164985
14	0xba9d0e61	-0.0011982435
15	0xb9b2b44f	-0.00034085146
16	0xbb08ce81	-0.002087504
17	0xbb9ee8dd	-0.004849537
18	0xbb976540	-0.0046202242
19	0xba7f1cd2	-0.00097317726
20	0xbba4db10	-0.005030997
21	0x3b815cb4	0.0039478187
22	0x3a257b30	0.0006312607
23	0xbb03daa7	-0.002011934
24	0xbb8780ce	-0.0041352278
25	0xbafea743	-0.001942851
26	0xbb348af7	-0.002754865
27	0xbab7489a	-0.0013983429
28	0xbb566221	-0.0032712298
29	0xbb6a7cfb	-0.003578006
30	0x3b59ae92	0.0033215624
31	0xbb10cb48	-0.0022093821
32	0x3b2d9f75	0.002649275
33	0x3a3bdf16	0.0007166726
34	0x39369b5a	0.00017414746
35	0xbba2f18d	-0.0049726428
36	0x3a48ed26	0.00076647324
37	0x3b81f85a	0.0039663734
38	0xbb8920e3	-0.0041848286
39	0xbbafc10e	-0.00536359
40	0xbb8e1391	-0.0043358286
41	0xbaadc90c	-0.0013258769
42	0x38805942	6.120141e-05
43	0xbb8c5c3c	-0.004283456
44	0xbb8b4b3a	-0.004250911
45	0xbb676f8b	-0.0035314288
46	0x381512ae	3.5541765e-05
47	0x39a3b2b4	0.00031222927
48	0x3b0f798e	0.002189252
49	0x3b32c498	0.0027277824
50	0x3ba5485b	0.005044026
51	0x375b28b8	1.3062898e-05
52	0x3ba6d5cb	0.005091404
53	0x38c83b89	9.5478325e-05
54	0xbb4e13d4	-0.0031444924
55	0xbba2b9e2	-0.0049660066
56	0xbb93b6cf	-0.0045078765
57	0xb99045f1	-0.0002751793
58	0xbb4a9e98	-0.0030917283
59	0x3ba1a75c	0.004933281
60	0x3b0bc113	0.0021324798
61	0x3ad8d3df	0.0016542635
62	0xbb061188	-0.0020457227
63	0x3ba5a2fd	0.00505483
64	0xbbaa442c	-0.005196115
65	0xbb95c954	-0.0045711193
66	0x3b8f608b	0.0043755225
67	0x3aecfd52	0.0018080866
68	0xbb107f0d	-0.0022048384
69	0xba34b082	-0.0006892757
70	0x3b2d1891	0.0026412348
71	0x3b50cdef	0.0031861027
72	0xbb8c9a77	-0.0042908746
73	0xbb0a00b5	-0.002105755
74	0xbbac767f	-0.0052631493
75	0x3adccbdc	0.0016845423
76	0x3b87a99a	0.004140091
77	0xbba10b01	-0.004914642
78	0xbb5ce449	-0.0033705404
79	0x3b984d72	0.004647904
80	0xbb976c49	-0.004621063
81	0x3b0f19a8	0.002183536
82	0xbb9207d5	-0.0044565
83	0x3b9a6311	0.0047115167
84	0x3ba47e9d	0.0050199763
85	0xbb927361	-0.0044693206
86	0xbbac5d09	-0.005260114
87	0xbb8eb013	-0.004354486
88	0xbaa5a992	-0.0012639037
89	0xb93341fe	-0.00017095354
90	0x3b97d756	0.0046338243
91	0xbb06dc62	-0.0020578136
92	0xbb6e5d0e	-0.0036371383
93	0xbb9c4494	-0.0047689173
94	0x3b4fed6f	0.0031727215
95	0x3b8e41e8	0.0043413527
96	0xbbad5151	-0.0052892347
97	0xbb9aa0f0	-0.0047188923
98	0xbb85eaf0	-0.0040868446
99	0x3ba1b9f7	0.004935499
100	0xbb9bf380	-0.004759252
101	0xbb3a2ff1	-0.0028409923
102	0x3a158e6f	0.0005705123
103	0xbb143e7f	-0.0022620258
104	0xbb7417e4	-0.0037245685
105	0x3b59c977	0.0033231655
106	0x3ba194f0	0.004931085
107	0xbb5a66a4	-0.0033325339
108	0x3b89efaa	0.0042094784
109	0x3a1f30b1	0.0006072624
110	0xbba43642	-0.005011351
111	0x3ba33ac9	0.004981373
112	0xbb84826a	-0.004043867
113	0xba0f4cb0	-0.00054664444
114	0x3a6a8ed9	0.00089476776
115	0x3baf4a5f	0.005349442
116	0x3aaf9c21	0.001339797
117	0x3b89dd3b	0.004207281
118	0x3baddb04	0.0053056497
119	0x3bac3cb7	0.005256261
120	0x39b6649d	0.00034788708
121	0x3b24bbfb	0.002513646
122	0x3bade807	0.005307201
123	0x3b993156	0.0046750708
124	0x3bab8882	0.005234779
125	0x3ba4226c	0.005008986
126	0x3a338ac3	0.0006848985
127	0xb9c2d743	-0.00037162946

network_body._body_endoder.seq_layers.2.weight f4 [128, 128]
0	0xbea7d37a	-0.3277853
1	0x3e087b35	0.1332825
2	0x3cd1667c	0.025561564
3	0x3e2e1383	0.1699963
4	0x3df492f7	0.11942094
5	0xbdbd5561	-0.092448
6	0xbd18377a	-0.03716228
7	0x3cf5a7bd	0.02998721
8	0xbba7f2d3	-0.0051253824
9	0xbdecac94	-0.11556354
10	0xbcbd4290	-0.023103029
11	0xbc768c2a	-0.015048066
12	0x3d114260	0.03546369
13	0x3ced6476	0.028978568
14	0xbb0e205d	-0.002168677
15	0xbd2e924b	-0.042619985
16	0xbd0edaf6	-0.034876786
17	0x3e38eed2	0.18059853
18	0x3d0e8e1a	0.034803487
19	0xbc2394af	-0.009984179
20	0x3da12727	0.07868796
21	0x3d0b4908	0.034005195
22	0x3db16d64	0.08663443
23	0x3d936975	0.07197849
24	0x3dd6856e	0.104746684
25	0x3cfbc2ee	0.030732598
26	0x3c1333c7	0.008984513
27	0xbc86db89	-0.016462104
28	0xbe228170	-0.15869689
29	0x3de9332e	0.11386715
30	0xbc981fdb	-0.018569877
31	0x3dc55dde	0.09637044
32	0x3d93706f	0.071991794
33	0x3de2e0b1	0.11078013
34	0x3ca27758	0.019832298
35	0xbd8683a5	-0.06568078
36	0x3b212369	0.0024587756
37	0x3e0a6791	0.1351607
38	0xbcfcae24	-0.030844755
39	0xbd95f6e1	-0.07322479
40	0x3e39a947	0.1813098
41	0xbe139c01	-0.1441498
42	0x3e3d234d	0.18470497
43	0xbdc88496	-0.09790914
44	0x3d545bc8	0.051845342
45	0x3da577a3	0.080794595
46	0xbb07b4bf	-0.0020707098
47	0xbd2a26ba	-0.04154084
48	0x3d90c9fe	0.07069777
49	0x3c30b27c	0.0107847415
50	0x3de7b31a	0.11313458
51	0xbde2c973	-0.1107358
52	0xbd680630	-0.056646526
53	0x3c8cca00	0.017186165
54	0x3e1fa2c5	0.15589435
55	0xbd5a2597	-0.053258505
56	0x3d2089fb	0.03919409
57	0xbbe79eae	-0.0070684766
58	0xbdec998b	-0.115527235
59	0xbe462a1d	-0.19352002
60	0xbd8f77a3	-0.07005241
61	0xbca49a3a	-0.020093072
62	0xbdbb91a3	-0.091586374
63	0xbd5a40e5	-0.053284544
64	0xbd0d802b	-0.03454606
65	0xbe642db9	-0.22283067
66	0x3b6b62a9	0.003591696
67	0x3b9bb1e0	0.004751429
68	0x3cf5b4a8	0.02999337
69	0x3cf96024	0.030441351
70	0x3e52c2e4	0.20582157
71	0xbd95653f	-0.07294702
72	0xbd9f0c95	-0.07766072
73	0x3d630e92	0.055433817
74	0xbe1367d5	-0.14395078
75	0xbdc48d65	-0.09597281
76	0x3db53684	0.08848289
77	0x3dc45e72	0.095883265
78	0x3dc6d711	0.097089894
79	0x3dfdb139	0.12387318
80	0x3e24c074	0.1608904
81	0x3bea5f2e	0.0071524596
82	0xbbab3fb5	-0.0052261003
83	0x3d995024	0.07485989
84	0x3d4b19e6	0.049585246
85	0xbce76bf4	-0.028249718
86	0x3ddacb13	0.106832646
87	0xbda0c864	-0.078507215
88	0x39abad87	0.0003274495
89	0x3cf152b8	0.029458389
90	0xbded08eb	-0.115739666
91	0xbd3027ce	-0.04300671
92	0xbbf07177	-0.007337745
93	0xbe322f6c	-0.17400903
94	0xbcab62d3	-0.020921146
95	0xba068845	-0.0005132
96	0x3d5bd5d6	0.053670727
97	0xbd8d5a66	-0.06902008
98	0xbe1b4562	-0.15163186
99	0xbd3cd956	-0.046105705
100	0x3d2222b1	0.039583866
101	0x3d729b6d	0.059230257
102	0xbd962673	-0.07331552
103	0x3d97fb7c	0.07421014
104	0xbe296f28	-0.16546309
105	0xbe4a600d	-0.19763203
106	0x3d653709	0.05596069
107	0x3d1d5f89	0.038421188
108	0x3caf1639	0.021372901
109	0xbdff41cd	-0.124637224
110	0x3e30ddb4	0.17272073
111	0xbe04e869	-0.12979282
112	0xbd8cc31a	-0.0687315
113	0xbd8a3d16	-0.067499325
114	0xbdb4971f	-0.088178866
115	0x3daca762	0.08430363
116	0xbcbd8e82	-0.023139242
117	0x3d57aa08	0.05265239
118	0xbd9a6572	-0.075388804
119	0x3c4efee5	0.012634014
120	0x3c6d8824	0.0144977905
121	0x3e6b56bc	0.22982305
122	0xbbd89e76	-0.006610687
123	0xbd3beace	-0.045878224
124	0x3d9d5059	0.07681341
125	0xbd3b4363	-0.04571856
126	0x3ddebe24	0.1087611
127	0x3d874116	0.06604211
128	0x3e413855	0.18869145
129	0xbe12065e	-0.14260241
130	0x3e2634c6	0.16231069
131	0xbd0a28b0	-0.03373021
132	0xbd7c5c36	-0.061611377
133	0x3dd0d5b9	0.10197014
134	0x3da4d338	0.08048099
135	0x3d984a69	0.074360676
136	0x3d0b62aa	0.03402964
137	0x3dbbabc9	0.09163625
138	0x3d0ebc80	0.034847736
139	0xbcac3dca	-0.021025557
140	0x3dc078c9	0.09398038
141	0xbd5f4700	-0.05451107
142	0x3b40a044	0.00293924
143	0x3d8cb729	0.068708725
144	0xbdac1ec7	-0.08404308
145	0xbe4250f2	-0.1897619
146	0x3e29a62c	0.16567296
147	0xbcb86b10	-0.022511989
148	0xbd880931	-0.06642378
149	0x3e084456	0.13307318
150	0x3d687007	0.056747463
151	0xbdc2ca37	-0.09511226
152	0xbc8eae85	-0.017417202
153	0xbe0a129d	-0.13483663
154	0x3dafcdf5	0.08584205
155	0xbe03bf13	-0.12865858
156	0xbda5b4e4	-0.08091143
157	0xbdc8150c	-0.097696394
158	0x3d9319d0	0.07182658
159	0x3cc982e1	0.02459854
160	0xbd26f83e	-0.040764086
161	0x3d31ec51	0.04343826
162	0xbd8f8b08	-0.0700894
163	0xbe74993e	-0.23886582
164	0x3b2ab790	0.0026049353
165	0x3d10b9a0	0.035333276
166	0xbe25a972	-0.1617792
167	0x3d139082	0.036026485
168	0xbd92cd0c	-0.07168016
169	0xbd5eddb4	-0.05441065
170	0x3d5d3e33	0.054014396
171	0xbdc8a940	-0.09797907
172	0x3d26c812	0.040718146
173	0x3e13a9c8	0.14420235
174	0x3ab7ad95	0.0014013523
175	0x3cc38e3a	0.02387153
176	0xbcf45303	-0.02982474
177	0xbe0b766a	-0.1361939
178	0xbe40dffb	-0.18835442
179	0xbc4dc754	-0.012559731
180	0x3cced1df	0.025246559
181	0x3cd6d3ae	0.026223984
182	0xbd5fc7d4	-0.05463393
183	0x3daa77aa	0.08323605
184	0x3d19eef6	0.037581407
185	0xbd420aa9	-0.047373448
186	0xbd7c119a	-0.061540224
187	0x3df7cf7e	0.12100123
188	0xbd77e2d4	-0.060519055
189	0xbd4d7341	-0.050158743
190	0xbcf91d1c	-0.030409388
191	0xbda18ee0	-0.07888579
192	0xbd0f57de	-0.034995906
193	0xbdf462a6	-0.11932878
194	0x3d01b030	0.031662166
195	0xbc8bea67	-0.017079545
196	0x3d528329	0.051394615
197	0x3d9d3ab4	0.07677212
198	0xbd951faa	-0.0728143
199	0x3bb5b102	0.0055447826
200	0xbc8bb2b0	-0.017052978
201	0xbb2b9e3c	-0.0026186844
202	0xbd4ba3de	-0.049716823
203	0xbdd53b1b	-0.10411664
204	0xbcfd0dbd	-0.03089034
205	0x3cf20e7a	0.029547919
206	0x3e13b782	0.14425471
207	0x3b9c8206	0.004776242
208	0xbcf1d953	-0.029522574
209	0x3cef030e	0.029176261
210	0x3d9167d7	0.07099884
211	0xbd83bb16	-0.06432168
212	0xbd3e76aa	-0.046499886
213	0xbdec7ae6	-0.115468785
214	0x3d378c23	0.04481138
215	0x3e189161	0.14899208
216	0xbcaba3e7	-0.020952178
217	0x3ca5a4fd	0.020220274
218	0x3c9f9845	0.019481787
219	0x3cefd948	0.029278412
220	0x3d97378e	0.07383643
221	0xbdc25f1e	-0.094907984
222	0xbdad8292	-0.0847217
223	0xbcebab8b	-0.028768321
224	0x3dc1e3eb	0.094673
225	0x3d570574	0.052495435
226	0xbc273ee7	-0.010207868
227	0xbc52c50b	-0.0128643615
228	0x3dd565dc	0.10419819
229	0x3c5aa856	0.0133457985
230	0x3d24c776	0.040229283
231	0x3d17e58b	0.037084144
232	0x3d92c06b	0.07165607
233	0xbdac6fd7	-0.08419769
234	0xbd8a039c	-0.0673897
235	0xbcf6fd0b	-0.030149957
236	0xbd55a35e	-0.052157752
237	0xbd08a175	-0.033357102
238	0xbe2176f1	-0.15768029
239	0xbce3fa54	-0.027829327
240	0x3d08e376	0.03342005
241	0xbdb725ea	-0.089427784
242	0xbdc9fe3c	-0.098629445
243	0xbdd43b75	-0.10362903
244	0xbd41abf2	-0.04728312
245	0x3e231ef0	0.1592977
246	0xbdb89f9a	-0.090148166
247	0xbd025b6c	-0.031825468
248	0x3dcd9cf5	0.10039703
249	0x3e20836a	0.1567513
250	0xbd564f0c	-0.05232148
251	0xbd017b27	-0.031611588
252	0xbdc5b85b	-0.09654304
253	0x3e735dff	0.23766325
254	0xbbabf4bf	-0.005247682
255	0xbde9cbca	-0.11415823
