IAV_FINAL/results/results/SheepsRedo5/Sheeps/Sheeps-372057.pt (torch, 200063 bytes, 24 tensors)

network_body._body_endoder.seq_layers.0.weight f4 [256, 28]
000000 f6 b3 6d be e4 93 32 3d 84 58 2b 3e af e8 df 3e
       -0.23213181 0.04359807 0.16732985 0.4373221
000010 e2 2b b6 be 0e a5 fa bd 37 8b cd bd fc 3d 5f 3e
       -0.35580355 -0.12238513 -0.10036319 0.21800989
000020 26 c7 26 3e dc 44 42 3c c4 5c 8a 3e 84 61 75 be
       0.16286907 0.011857238 0.270239 -0.2396298
000030 fd f4 a4 be 7b b4 1a be 50 dc d7 3d 36 15 91 be
       -0.3221816 -0.1510791 0.10540068 -0.28336495
000040 41 9b a6 bd b9 54 26 bd 1e 74 eb be dd 9a 56 3d
       -0.08135081 -0.04060814 -0.45987028 0.052393783
000050 31 aa db 3e a9 0f 18 be 26 0a 63 be 58 e4 83 be
       0.42903283 -0.14849724 -0.2217184 -0.2576015
000060 c3 d9 83 be 5f 52 49 3e 21 60 8c bc c0 de 1c be
       -0.25752077 0.19660328 -0.017135682 -0.15319347
000070 c2 96 90 bd 8f 0d b0 3c 16 a5 f0 3d 59 63 03 be
       -0.07060005 0.02149084 0.11750238 -0.12830867
000080 b4 ac 35 3e 55 f6 45 bc e9 22 45 3e 0c c9 03 be
       0.17741662 -0.012082656 0.19251598 -0.12869662
000090 3c 36 e7 bc 05 d7 a9 3d 75 c9 97 3d 2e c9 4a be
       -0.028224103 0.08292965 0.07411472 -0.19803306
0000a0 ea e2 a9 bd 06 e8 12 be 8b 34 c3 be 3e 44 a8 be
       -0.082952335 -0.14346322 -0.38126025 -0.32864565
0000b0 1d 8a df 3d 66 88 c6 bd 8a 5f 0d be 8b 9c 59 3d
       0.10915015 -0.09693985 -0.13805977 0.053127807
0000c0 7b f6 4d bd 68 df bf 3c 33 ec d7 bd b3 2f a7 bd
       -0.05028389 0.023421958 -0.10543098 -0.08163395
0000d0 cd 64 ea bc 18 d9 51 bd ce 72 3c 3e d8 86 a7 be
       -0.028612519 -0.051232427 0.1840317 -0.32720065
0000e0 72 49 d3 3d 1a cf 84 be 40 37 9b ba 99 29 3b 3e
       0.10316743 -0.25939256 -0.0011842027 0.18277587
0000f0 98 97 5f 3e 8c 90 23 be 11 85 e2 bc 22 5e 15 bf
       0.21835172 -0.15973109 -0.027651342 -0.5834676
000100 6e 88 d9 bd e1 e3 68 be 43 8e 8b 3e b1 40 b2 3d
       -0.10621725 -0.22743179 0.27256975 0.08703745
000110 44 80 ad be bf 52 c7 bd 16 a0 7c 3e b0 80 79 3e
       -0.3388692 -0.097325794 0.24670443 0.24365497
000120 37 cb 08 3e 2e 0b 42 3d b9 5a bd 3e db 4e 6e bd
       0.1335877 0.047373943 0.36983278 -0.05818067
000130 9b 16 a5 3d c8 10 63 3c da 2b aa 3d cb 1f 82 3e
       0.08060952 0.013858981 0.08309145 0.2541488
000140 b5 75 6e 3d 69 14 62 3e f6 f6 87 bd 7c 27 b2 3e
       0.058217723 0.22078098 -0.06638901 0.3479575
000150 b1 5f a0 bd 5e cb a9 be 89 3e c3 3e 49 6c 13 3e
       -0.07830752 -0.3316297 0.38133648 0.14396776
000160 bd 9e b1 be b5 87 bc bc 91 01 fc b9 74 a0 7b 3e
       -0.3469142 -0.023013929 -0.00048066353 0.24572927
000170 a9 93 48 3e aa a1 27 3e 11 d7 3d be 89 f5 0b be
       0.19587578 0.16370264 -0.18539073 -0.13667883
000180 8c 0c 6f 3e c9 69 a5 be 6e a7 01 bf a4 dd 96 bd
       0.2334463 -0.3230727 -0.506461 -0.07366493
000190 4d 32 f9 be 12 c3 19 3e bc 72 b4 be 90 91 2c bd
       -0.4867119 0.1501582 -0.35243785 -0.042131007
0001a0 30 9a 2b 3d 0e d5 ac 3d c7 b0 e6 be 5f 6e 09 be
       0.04189509 0.084390745 -0.45056745 -0.1342101
0001b0 10 b9 47 bd 67 1c 59 3e 8c 7e ef bd a1 8f 8d 3d
       -0.048760474 0.21202241 -0.11694059 0.06912161
0001c0 86 48 1e 3e ae f7 e2 3d 0d 51 d8 bd 28 d0 fb bd
       0.15457353 0.110823974 -0.10562334 -0.12295562
0001d0 0f 30 8d 3e d6 ac c0 3b f9 12 8a 3e 46 a8 85 3d
       0.27575728 0.0058799786 0.269676 0.06526236
0001e0 c7 b5 55 bd c1 db a9 3e d2 cb cb 3c 7e 9a a8 3d
       -0.05217531 0.3317547 0.024877463 0.08232592
0001f0 9f a0 42 3e 75 1e 95 3e 87 34 50 3e 39 07 11 be
       0.19006585 0.291248 0.20332538 -0.14162911
000200 6a 1a 76 be b8 4e 1e be 47 de d0 bd 65 68 03 3e
       -0.24033514 -0.15459716 -0.10198646 0.12832792
000210 e7 2b 09 3e fd 4d 3f 3e c7 3e 0e bd 96 71 b7 bd
       0.13395654 0.18682094 -0.034727838 -0.08957212
000220 2f eb 9a 3d 8f 5a 03 bd 32 0c 83 be 4d 5f f1 3c
       0.07564389 -0.032068785 -0.25595242 0.029464388
000230 56 82 19 3e 41 00 69 be b8 29 c6 bd e3 1d 24 bd
       0.14991125 -0.22754003 -0.09675926 -0.040067565
000240 55 cf 77 3e 7a e3 fa 3d da e2 96 3e 77 9a 1e 3e
       0.24200185 0.12250419 0.2946995 0.15488611
000250 11 62 8d 3e ff fa 84 3e a3 48 69 3e fd fa b5 be
       0.2761388 0.25972745 0.22781615 -0.3554305
000260 49 30 cf 3d d5 bb aa 3d df 62 58 bd 14 88 ae 3e
       0.101166315 0.08336607 -0.052828666 0.34088194
000270 9b d4 e3 3b 99 43 08 3e 11 47 35 be 98 ad da 3e
       0.006952835 0.13307036 -0.17702891 0.42710567
000280 c3 ba 6b 3e 4f 30 44 be 17 2b 63 3e 59 e3 9d be
       0.23020463 -0.19159053 0.22184406 -0.30837515
000290 5e 6b 7d be 5e f0 ac 3d 91 72 63 3e da ae 45 be
       -0.24747989 0.08444284 0.22211672 -0.19304982
0002a0 cd b9 85 be ca 8b c5 bd 71 5a 32 be 96 19 37 be
       -0.26118317 -0.09645803 -0.17417313 -0.17880854
0002b0 c0 3e 1d 3e 56 da 76 3e 12 16 4f be 5b f7 4e bd
       0.15355968 0.24106726 -0.20223263 -0.050528865
0002c0 88 ba 05 3c ea 9c 63 bd b5 cf 39 3d 37 eb c5 bb
       0.008162148 -0.055569567 0.0453641 -0.0060400027
0002d0 45 c2 9c bd fc d1 6e be 9c ce b1 bd 36 0d d7 bd
       -0.076542415 -0.2332229 -0.08681986 -0.10500567
0002e0 ad 09 39 3e 69 76 6c 3e 0b 82 c1 3d 82 58 8b 3e
       0.18070097 0.23092045 0.09448632 0.27215964
0002f0 e7 d4 9c 3c 6c 4a 0d 3e 1b 29 8a bd 9f 15 41 3e
       0.019144488 0.13797921 -0.067461215 0.18855904
000300 01 85 9e bb 4c b0 83 3c 5b b9 b4 3e b4 55 ea 3e
       -0.0048376326 0.016075276 0.35297665 0.4576851
000310 ec 5d f4 3d 3a 7a 28 3d 26 29 26 be 6b 79 16 3d
       0.11931977 0.04113219 -0.16226634 0.036736887
000320 a5 27 d0 be 8a ba 81 3e bd 3d 6e 3d 3f 5a 09 be
       -0.40655246 0.2533763 0.058164347 -0.13413332
000330 97 ce 80 3e 60 7b 83 be 81 b0 b0 be bd 1f e8 b9
       0.25157616 -0.25680065 -0.34509662 -0.00044274135
000340 75 34 12 bc 7f fc 19 bf 73 54 09 be 32 82 9c be
       -0.00892364 -0.60150903 -0.13411121 -0.3056808
000350 3b c0 dc bd 7d ea 89 be fa 6f f7 3d 6e a1 16 3e
       -0.107788526 -0.26936713 0.12081905 0.14710018
000360 ec 81 69 3d 4e b1 4a bd 69 79 8c bd 40 ea 22 be
       0.05700867 -0.049485497 -0.06859095 -0.15909672
000370 92 7d 86 3e c9 64 83 3c 4b 3d 6c 3e d9 f5 ae 3d
       0.26267678 0.016039269 0.23070256 0.085429855
000380 05 19 41 3e b1 2f 7c be 09 a0 99 3e 9b 1c dd be
       0.188572 -0.24627568 0.3000491 -0.43185887
000390 ad ac de 3c 6f 63 e2 3d 0f f0 7d be 05 bb 3a bb
       0.027181948 0.11054122 -0.24798606 -0.002849282
0003a0 3b f8 7b 3e eb 52 9a bd 4d 67 85 be ca 30 81 bc
       0.24606411 -0.075353466 -0.26055375 -0.015770335
0003b0 3e c8 aa bd 49 88 22 3c dd 06 fb bd a0 26 c6 3d
       -0.083389744 0.009920188 -0.122571684 0.09675336
0003c0 f0 82 ee bd 6e db 2b bd a9 d5 08 be 32 fb 5c 3e
       -0.11646068 -0.04195731 -0.13362755 0.21580198
0003d0 50 a3 45 bd 5c 08 83 be 76 aa bb be 62 51 07 3e
       -0.04825145 -0.25592315 -0.3665349 0.13214639
0003e0 f9 db 32 3c f1 38 a9 3d b5 ca 35 be 56 9e bd 3c
       0.010916703 0.08262814 -0.17753108 0.02314679
0003f0 1e 02 b1 3c 9f 5e a1 3a e3 18 1d 3e bb 64 81 3e
       0.021607455 0.0012311524 0.15341525 0.25272164

network_body._body_endoder.seq_layers.0.bias f4 [256]
000000 e0 5a 4c 3a b9 9c 9b bc ac 99 8c 39 c1 c2 31 3b
       0.0007795524 -0.01899563 0.00026817375 0.002712414
000010 c0 45 1c 3c 82 8d 88 3c 8d 2e 30 bc dd 17 d5 bb
       0.009538114 0.016669039 -0.010753286 -0.006503089
000020 b2 16 a8 bb 47 7c 7e 3c 83 81 31 bc 0c d9 b0 3b
       -0.0051296586 0.01553256 -0.010834101 0.0053969678
000030 db 36 e2 b8 61 2c 1f 3b 1b 5f 1a 3c 67 6d 9b bb
       -0.000107867374 0.0024287926 0.009422089 -0.0047432664
000040 98 e8 e0 3b b4 e7 89 3c 8d eb 95 bc 97 00 8e bc
       0.006863665 0.016834117 -0.018300796 -0.017334266
000050 19 a8 ac ba 78 dd 4d bc 18 55 00 bc 75 86 03 bb
       -0.0013172656 -0.012565009 -0.007832788 -0.0020069156
000060 a6 8c d8 bb bd 41 7b bb 49 bb 76 3a 02 0a 3f b9
       -0.0066085635 -0.0038338744 0.0009412063 -0.00018218908
000070 48 97 86 bb d3 e3 85 bb 84 d3 da 3b dd 15 e7 3b
       -0.0041073896 -0.0040859967 0.0066780467 0.007052167
000080 2a 96 c8 bc 8d 49 28 3c c2 61 8f ba 30 9f b3 3b
       -0.024485666 0.010271442 -0.0010939168 0.005481623
000090 1a 68 c7 b9 c4 99 44 bb 0b 1f ab bb d9 f8 5a 3c
       -0.000380338 -0.0029998878 -0.0052222065 0.013364994
0000a0 1b 7a 59 3c 70 97 83 3b 1f fc 16 bb f0 78 9e 3c
       0.013273741 0.0040158555 -0.002303846 0.019344777
0000b0 09 3e 9b bb 03 ab d2 ba 9d 53 72 3b 6f 37 9a bb
       -0.00473762 -0.0016072694 0.0036976107 -0.004706315
0000c0 db 5e 2c 3c b0 9b 86 bb 4d 70 b8 3c 36 db 27 ba
       0.010520662 -0.004107915 0.022514487 -0.00064032094
0000d0 12 06 30 bb e1 43 3a bb df 9f ac 3c 79 8e 42 3c
       -0.0026859087 -0.0028421807 0.021072326 0.011874788
0000e0 7d eb 02 bc 30 dc 2b bc 35 6a a2 bb ad c6 4b 3c
       -0.007990715 -0.0104895085 -0.0049565085 0.012437505
0000f0 87 39 79 ba 4b a1 00 bc ce 45 f5 3a 38 f0 1f bb
       -0.00095071684 -0.007850955 0.001871282 -0.0024404656
000100 3b e5 99 bb 42 e4 95 bc b6 11 01 3c a4 00 43 ba
       -0.004696516 -0.018297318 0.007877758 -0.0007438755
000110 25 e0 22 3c 50 dc d7 3b a4 0f 5d 3a 30 a1 57 bb
       0.0099411355 0.0065875426 0.00084328116 -0.0032902472
000120 bb c6 1e bc e7 c2 95 3a fd 26 cb bb 66 84 b2 3c
       -0.009690936 0.0011425883 -0.006199716 0.021791648
000130 71 89 1c 3b a3 7f c8 3b 99 84 5f ba 22 a7 c0 3a
       0.0023885632 0.006118731 -0.00085265335 0.0014698247
000140 56 8b a5 3b 76 46 a9 3c 1f 79 a0 ba 17 63 40 bb
       0.0050520105 0.020663481 -0.0012243128 -0.0029355937
000150 5a 2b 88 ba 6d a6 04 3c f6 a4 dd 3b d3 79 96 ba
       -0.0010388896 0.00809632 0.0067640496 -0.0011480398
000160 c3 aa 5f 3c cb 95 08 3c d8 84 2f 3c 22 d9 dc 3c
       0.013651553 0.008336495 0.010712825 0.026959006
000170 1b c7 19 3b 5d b2 4d bb 9c f2 3b b9 b1 f8 8e bb
       0.0023464623 -0.003138683 -0.00017924089 -0.0043631424
000180 28 52 5f bb f2 0c 05 3c fe 6c 31 bc 2a dd 0e bc
       -0.0034076069 0.008120762 -0.010829208 -0.008719722
000190 82 6b bb ba 01 b2 37 bb 91 8f 54 ba 76 be 88 ba
       -0.0014299008 -0.0028029683 -0.0008108551 -0.0010432738
0001a0 94 c8 08 bb 3e f0 0b bc 9c 48 bc 3a 7c 40 2f bb
       -0.0020871507 -0.008541165 0.0014364901 -0.0026741317
0001b0 3a 59 60 bc 23 bc 29 3c 98 3b b7 bb b2 68 a0 3c
       -0.013693148 0.010359797 -0.005591821 0.019581173
0001c0 62 a3 75 bb 64 74 09 bc cf 8e a5 3b 23 e5 4e bc
       -0.0037481417 -0.008389566 0.0050524245 -0.012627873
0001d0 49 3a 98 bb 2e 67 5d bc 97 03 db bb 9f 9c e3 bb
       -0.00464562 -0.0135133695 -0.0066837776 -0.006946161
0001e0 8c db 09 3c 63 ef 27 bb 02 96 92 bb a0 63 ab bb
       0.00841416 -0.0025624863 -0.0044734487 -0.005230382
0001f0 e3 3f b7 ba c7 8a 05 bb 38 42 91 bb 9b b0 54 ba
       -0.0013980832 -0.0020376907 -0.0044329427 -0.00081134745
000200 0d 83 53 3b 57 d5 d5 ba b9 72 b1 3b 93 ec b0 3a
       0.0032274157 -0.001631419 0.0054152873 0.0013498239
000210 4e 90 7e 3a 3b ca 84 b9 ce e3 5e bc 1c 30 1e bb
       0.0009710834 -0.00025327675 -0.013604118 -0.0024137562
000220 2f eb df bb 3e 3a 81 3c ae df cc 3c 20 ae c6 ba
       -0.006833456 0.015774842 0.025009003 -0.0015158094
000230 12 d3 bf b9 9b 2b 5f 3a 2c b7 1c 3b a9 f2 10 3c
       -0.00036587619 0.00085132726 0.002391289 0.008846917
000240 8a af 27 bc 4f bf c8 3b 9f 0b 1e 3b 66 62 fd 3b
       -0.010234723 0.0061263214 0.0024115813 0.0077326773
000250 6e b0 14 bc 8f 42 d9 ba d0 5d 31 bc e0 83 c0 3b
       -0.009075267 -0.0016575622 -0.010825589 0.0058750957
000260 a1 48 1f bc 4d c9 9f 3c 75 f3 e0 3a 5f be 8f bb
       -0.009721906 0.019505167 0.00171624 -0.0043867077
000270 7a 17 2e bb f1 5a f4 3b 6a cf 25 bc b1 dc 28 bc
       -0.0026564286 0.00745713 -0.010120252 -0.010306523
000280 79 2f 14 bc 6d 82 af bb 2a 84 5f 3c ab d5 7f bc
       -0.0090445215 -0.005356124 0.01364235 -0.015614907
000290 95 d9 29 3c bb 20 60 bc a3 eb 4f 3c cf 94 05 bc
       0.010366817 -0.013679679 0.0126904575 -0.0081531545
0002a0 9c d9 99 3b 19 ea 5c b9 22 c7 a3 3c 16 69 28 3c
       0.0046951305 -0.00021068043 0.019992415 0.010278961
0002b0 66 74 a9 bb e4 a9 0e bb df 8e 43 ba 37 25 b0 bb
       -0.0051713465 -0.0021768743 -0.0007459949 -0.00537553
0002c0 f8 b9 90 3b 28 be 6b bb 04 e1 b4 3a 2d 17 76 3b
       0.0044167005 -0.0035971496 0.001379997 0.0037550435
0002d0 d8 e4 c1 bc 13 5b 88 bb 11 26 c0 bb e6 71 8d 3c
       -0.023668692 -0.0041612475 -0.005863913 0.017266225
0002e0 31 af 47 bb 4f 84 b5 3c 9b 36 b1 3b 52 4d be 39
       -0.0030469412 0.022157816 0.005408121 0.00036297232
0002f0 94 d1 97 3b 0a dc 70 3c 59 13 21 39 9b 1f 61 bb
       0.004633138 0.014700899 0.00015361364 -0.0034351114
000300 3a b0 af bb d0 04 3a 3c 56 ce 82 3b 80 7b 38 bb
       -0.005361584 0.011353686 0.0039918823 -0.0028149784
000310 bd 6d f3 3b 9b d1 53 bb e4 2e 5f 3b 7f d9 36 bb
       0.0074288533 -0.003232098 0.0034055049 -0.0027900634
000320 3b 7c 5d ba b2 dc 3e 3b a6 5f d0 3a d6 ce 18 3c
       -0.0008448993 0.0029123244 0.0015897646 0.009326657
000330 10 4a 5c bc ad ba 31 bb 5d 91 d6 3b bc 6d 96 3b
       -0.013445392 -0.0027119324 0.0065480904 0.004590718
000340 39 c6 4b bb d6 17 87 bb ec 38 66 bc 0a 2f 6c bb
       -0.0031093492 -0.0041227145 -0.014051657 -0.003603878
000350 de 4c 22 bb 63 5c b3 3c d6 fd bf 3a 6f e1 fa bb
       -0.0024765055 0.02189464 0.0014647793 -0.0076562683
000360 7e e2 6a 3c 5e 15 9f 3b b8 ba 94 3c 76 b5 86 3c
       0.0143362265 0.004854842 0.01815544 0.01644395
000370 20 65 f0 bb 55 a4 5b bc 51 b2 1b 3c 7d 07 a9 39
       -0.007336274 -0.013405879 0.009502963 0.0003223977
000380 34 62 8c bc 37 af 77 ba 60 dc 2e bc d1 13 26 bb
       -0.01713667 -0.00094484113 -0.010672659 -0.0025341401
000390 cc d7 79 bc 1e a8 52 bb 91 4d b0 bb 9f 83 c8 3b
       -0.015249204 -0.0032143663 -0.0053803404 0.006119206
0003a0 2a 85 ec bb 24 17 09 bc 13 27 6b 39 5d 1b cb 3c
       -0.007218023 -0.008367334 0.00022425903 0.024793321
0003b0 ab 55 79 3c 61 86 a9 bc 7c 06 7f bb b6 fe ff 38
       0.015218179 -0.02069396 -0.0038913777 0.00012206791
0003c0 d8 dc 02 bc 4b a1 9c 3c 62 59 92 3b ef d8 ba bb
       -0.007987224 0.01911988 0.0044662217 -0.00570213
0003d0 96 2a 8a 3b 77 ae 9e b9 51 39 77 bb 20 61 c8 bb
       0.0042165024 -0.00030266095 -0.0037723372 -0.006115094
0003e0 d3 16 7b b9 e4 fd e4 ba c3 48 ac bb 08 86 58 3b
       -0.00023945728 -0.0017470685 -0.0052576973 0.0033038873
0003f0 d3 44 10 3c 77 74 12 3b ac f6 96 3c 67 02 47 3a
       0.0088054715 0.002234725 0.01842817 0.00075916055

action_model._continuous_distribution.log_sigma f4 [1, 2]
000000 b9 fb e1 3d 9f 3e 0f 3d
       0.110343404 0.03497183

action_model._continuous_distribution.mu.weight f4 [2, 256]
000000 4a 53 b3 3c 06 27 80 ba df 74 b2 bc 43 89 91 bb
       0.021890301 -0.0009777255 -0.021784244 -0.0044414117
000010 ea 97 5b bb b1 0d 41 bc e8 ac 17 3d 83 ad bd 3b
       -0.0033507296 -0.011783049 0.03703013 0.0057885065
000020 39 fd 90 3b 74 91 fa bc 43 64 13 3c c6 9b 05 bd
       0.0044247177 -0.030586936 0.008996072 -0.03261926
000030 6a 83 74 3c f2 f3 99 bc 25 8e 33 bc 2c 60 a9 3b
       0.01492391 -0.01879308 -0.010959183 0.0051689353
000040 81 61 4b bb a6 02 15 bc 89 f5 ba 3b 93 93 3d 3b
       -0.0031033459 -0.00909487 0.0057055396 0.0028927072
000050 dd f9 ac 3c 6d a2 c0 3a 8a 79 83 3c 8f ef 49 3d
       0.021115238 0.0014696844 0.016049165 0.049300727
000060 f0 3e 1c 3d 68 c2 9f bc 28 fc f8 3c b7 f1 9d bc
       0.03814596 -0.01950188 0.030393675 -0.019280298
000070 26 ab c6 3c 58 04 33 bc 14 69 8f 3b 45 fd 97 3b
       0.024251532 -0.010926329 0.00437654 0.0046383464
000080 7f 64 34 3c b0 bb 48 bd 8e f6 08 bb c8 3c 2f 3d
       0.011010288 -0.049007118 -0.0020898911 0.042782575
000090 ab 38 18 3d e0 7b b4 3c e8 ad b6 bb 8b d7 5a bd
       0.037163418 0.022031724 -0.0055749305 -0.053428214
0000a0 65 63 85 bc 96 fc 01 bd dd 33 86 3c 00 b3 7a bc
       -0.016282747 -0.031735025 0.016382152 -0.015301466
0000b0 f2 7a b8 3c b2 97 6c 3c e2 bc 3f 3c fd 3e bf 3c
       0.022519562 0.014440464 0.011702748 0.023345465
0000c0 5a af 14 b9 0c 71 5e bc c0 21 94 bc d4 99 a3 3c
       -0.00014179703 -0.013576757 -0.0180825 0.019970812
0000d0 76 0a ed bb e1 08 2f 3c 27 f7 d9 bc 4f 6c b8 bc
       -0.007233913 0.010683269 -0.02660711 -0.022512583
0000e0 eb fd e8 ba 12 ff 01 3c 1e 41 0a 3c be a6 11 3a
       -0.0017775869 0.007934349 0.008438377 0.00055561576
0000f0 90 ef ac bc 7c 6a eb 3b f7 f3 04 bd 07 5e d5 3c
       -0.021110326 0.007184325 -0.032459226 0.026045812
000100 23 09 0a 3d 06 21 84 3c 37 f7 be ba a4 3a 02 3d
       0.03370012 0.016129028 -0.0014569525 0.031794205
000110 cb 76 1f bb cd 8f 30 bd dd a5 a8 3b d3 4e 7b 3c
       -0.002433228 -0.04310589 0.0051467256 0.015338617
000120 9c b5 0a 39 6e ed dd 3c 33 5a 2b 3c 2a 71 c3 bc
       0.0001322836 0.027090754 0.010458517 -0.023857672
000130 42 9d 9b bc 65 fd e2 bc 75 24 d3 3c 76 af c8 3c
       -0.018995885 -0.027708719 0.02577422 0.024497729
000140 90 a7 8c bc d2 9a a3 bc 44 a3 1b 3c 3d e9 ea 3b
       -0.017169744 -0.019971285 0.009499375 0.0071689175
000150 ba 22 8f bc 21 f9 36 bc d9 44 09 bd aa 7d ae bb
       -0.017472614 -0.011167795 -0.033512924 -0.005325039
000160 55 ef 86 bc 7a be dd ba bb 98 03 bd ea 5f f2 bc
       -0.016471544 -0.0016917728 -0.032128077 -0.029586751
000170 52 f1 c2 bc dd 3d 11 3d 0d 58 32 b9 22 82 c8 3c
       -0.023796711 0.035459388 -0.00017008204 0.024476115
000180 5f de 0e 3b 57 78 d6 3b 17 95 90 39 f0 4c 73 3b
       0.0021800024 0.0065451073 0.000275769 0.0037124716
000190 f3 0e 4e 3c 2d c1 14 3c 97 da 72 bc 51 e1 ba bb
       0.012576806 0.00907926 -0.014822624 -0.0057031293
0001a0 4e 94 01 3d 02 1a d4 3c d0 f4 9e 3c c5 d4 42 bc
       0.031635575 0.025891308 0.019403845 -0.0118915485
0001b0 c3 a7 b2 ba 95 17 d0 bc 93 90 af bb 52 63 1c bd
       -0.0013630319 -0.02540187 -0.0053578108 -0.038180657
0001c0 0a 54 33 bc 04 26 06 bc a7 e9 c3 3b 88 a4 a5 3c
       -0.010945329 -0.008187775 0.0059787813 0.020220056
0001d0 3d ee 0a 3d 3c 22 70 3c ae dd 38 bc a5 9e 96 bc
       0.033918608 0.0146566 -0.011283321 -0.018386194
0001e0 92 ae 6e bc 2b 8e 98 3b e8 2b 7a 3b 6e 2a ac ba
       -0.014567988 0.0046556196 0.0038173143 -0.0013135204
0001f0 f8 e8 82 bb 31 88 c3 3c 8e 9d ab 3c 61 fb 11 3c
       -0.003995057 0.023868652 0.020949151 0.008910031
000200 93 59 5e b9 2b 4d 69 bc e1 f4 f3 3a b5 1a 13 bd
       -0.00021204939 -0.01423959 0.0018612408 -0.03591414
000210 33 ce 8a 3c e4 b1 2e 3c b2 69 70 3b 2d 49 a4 3c
       0.016944027 0.01066253 0.0036684093 0.020054424
000220 d6 92 67 bc 9f 3f f9 bb 33 5b 15 bc eb 93 42 bc
       -0.0141341295 -0.007606461 -0.009115982 -0.011876087
000230 44 1d cd 3c 8e 99 6e bc e2 27 e7 3b 96 ed 94 bc
       0.025038369 -0.0145629775 0.007054315 -0.018179696
000240 e2 c3 86 bb 36 19 00 bc 21 c1 bd 3c 73 07 ed bc
       -0.0041127065 -0.007818511 0.02316338 -0.028934216
000250 63 93 68 bb d6 56 bf bc 58 2d d6 3a de bb 16 3c
       -0.003548824 -0.023356836 0.0016340418 0.009200064
000260 ec 9a 4d 3c c9 ba 89 bc 1f ca 12 3d 05 72 9a bc
       0.012549143 -0.016812699 0.03583729 -0.018853197
000270 e5 c8 a6 bb 8b 25 bc bc 51 bc 26 3c fd 57 26 3c
       -0.0050898665 -0.02296712 0.010176734 0.010152814
000280 b3 b1 96 bb 6d ff 2b 3c 79 8c 25 bb 7e 61 82 3c
       -0.00459882 0.01049791 -0.002526073 0.015915629
000290 5b df d7 bb 6d 0c ab 3b f4 1f 4b 3b 64 4b 02 bc
       -0.0065879053 0.005219987 0.0030994387 -0.007952545
0002a0 89 0b 48 bd 67 8c 39 3c f7 f9 02 bd 0f f0 76 bc
       -0.048839126 0.011324978 -0.031976666 -0.015071883
0002b0 9c c9 23 bb 32 53 e6 3b 3c 3e cc bb 32 54 b4 3b
       -0.0024991995 0.0070289606 -0.006233005 0.005503201
0002c0 38 4d 3d 3d c0 62 74 3c d3 e8 e3 3b 1a cf dc bc
       0.04621622 0.014916122 0.006955245 -0.026954222
0002d0 f4 b5 59 3c 5c e4 0c bd 7c e0 7c bb bf 6e 24 bc
       0.01328801 -0.034397468 -0.0038585952 -0.01003617
0002e0 3d c2 6e bc 81 9b 86 bc 8e 47 a5 bc 95 d6 0d 3d
       -0.014572677 -0.016431572 -0.020175721 0.03462847
0002f0 d5 80 11 bd 62 c8 6a bc a3 25 43 3d af c8 bf bb
       -0.035523254 -0.014330002 0.047643315 -0.005852781
000300 5e 7e 9b 3c 45 b3 28 bc d8 fc 03 bd 81 1c 1f ba
       0.018981155 -0.010296647 -0.032223552 -0.0006069616
000310 f6 c6 a2 bc cd 66 29 3c a2 f5 19 bc 32 50 3e bc
       -0.019870263 0.010339451 -0.009396942 -0.0116158
000320 94 47 08 3c bd 3e 22 bc dd f4 2d 3d 2a bf 92 3a
       0.008317847 -0.009902653 0.042469848 0.0011195887
000330 f5 86 45 bb 9f 0c 90 3c e8 1d 8a 3b 90 a9 dc 3b
       -0.0030140255 0.017584143 0.004214991 0.0067340806
000340 09 27 e3 3c a8 60 86 3c aa 90 6d 3c 03 f9 44 3d
       0.027728574 0.016403511 0.014499823 0.04808904
000350 08 0c 1d 39 fe 63 21 bd 9e d6 dd 3b 16 18 eb 3b
       0.00014977169 -0.039402 0.006769969 0.007174502
000360 a3 e0 72 bc 16 cd 3c bb 54 3f e1 bc a8 2a 63 bc
       -0.014824065 -0.0028808764 -0.027496018 -0.0138651505
000370 49 b5 98 bb 24 e5 af 3c ac cd 97 3b ce c1 2e 3c
       -0.0046602827 0.021471567 0.0046326723 0.010666324
000380 9d da 6d 3b 44 6b 99 3c b7 2b 7a 3b 22 cc 3c bc
       0.0036293634 0.018727906 0.0038173029 -0.011523278
000390 1b f7 79 3c f2 39 08 3c 89 0b 64 bb b5 46 36 3b
       0.015256668 0.0083145965 -0.0034796915 0.002781314
0003a0 9e 9b 08 3b fe 29 27 3c d0 fc 32 3d 91 02 af bb
       0.0020844708 0.010202883 0.043698132 -0.005340882
0003b0 30 15 1e bc e7 dc 1b 3c 52 a4 67 3a 58 db f7 3b
       -0.009648606 0.009513116 0.00088364363 0.0075639896
0003c0 ca 7d 73 3c b2 5d fd bc dc 24 b4 bc f1 e7 6f bb
       0.014861533 -0.030928466 -0.021990232 -0.0036606754
0003d0 13 d1 83 bb 05 e5 b4 3c 97 13 91 3b 29 40 c1 bc
       -0.0040227263 0.022081861 0.004427384 -0.023590164
0003e0 f6 02 84 3b c0 d3 03 3c fc 12 26 bc 29 81 47 3b
       0.0040286733 0.008046091 -0.010136362 0.0030441976
0003f0 ae 86 f2 bc 24 53 96 bc 6e 30 11 3a 71 1f 61 3c
       -0.029605236 -0.018350191 0.00055385276 0.013740406

action_model._continuous_distribution.mu.bias f4 [2]
000000 18 55 d0 3a 5f c6 8f 3b
       0.00158945 0.0043876613

exp_avg f4 [256, 28]
000000 00 00 00 00 00 00 00 00 07 6f 96 15 8b 42 41 32
       0.0 0.0 6.075969e-26 1.1249209e-08
000010 00 00 00 00 00 00 00 00 07 6f 96 15 0d 99 ad 32
       0.0 0.0 6.075969e-26 2.020945e-08
000020 00 00 00 00 00 00 00 00 07 6f 96 15 af 38 27 32
       0.0 0.0 6.075969e-26 9.733568e-09
000030 d1 92 63 b6 00 00 00 00 83 ee b2 b6 e7 6b da 34
       -3.3911094e-06 0.0 -5.33258e-06 4.0684174e-07
000040 00 00 00 00 00 00 00 00 07 6f 96 15 d2 3f 24 32
       0.0 0.0 6.075969e-26 9.5605674e-09
000050 c5 54 01 36 00 00 00 00 49 8e b1 35 93 73 70 36
       1.927184e-06 0.0 1.3228938e-06 3.583006e-06
000060 00 00 00 00 00 00 00 00 07 6f 96 15 fa c9 47 32
       0.0 0.0 6.075969e-26 1.1629249e-08
000070 00 00 00 00 00 00 00 00 b5 2f 93 93 70 fb d1 b2
       0.0 0.0 -3.715506e-27 -2.4445143e-08
000080 00 00 00 00 00 00 00 00 b5 2f 93 93 c7 36 3f b3
       0.0 0.0 -3.715506e-27 -4.4520473e-08
000090 00 00 00 00 00 00 00 00 b5 2f 93 93 09 fe af b2
       0.0 0.0 -3.715506e-27 -2.0488203e-08
0000a0 35 d8 36 33 00 00 00 00 7d 58 81 b6 ac b7 00 b7
       4.2571816e-08 0.0 -3.854801e-06 -7.672159e-06
0000b0 00 00 00 00 00 00 00 00 b5 2f 93 93 ca 06 b3 b2
       0.0 0.0 -3.715506e-27 -2.084143e-08
0000c0 e8 56 ef 34 00 00 00 00 a5 8c bf b6 a4 74 25 b7
       4.4580452e-07 0.0 -5.7086168e-06 -9.861924e-06
0000d0 00 00 00 00 00 00 00 00 b5 2f 93 93 03 15 e6 b2
       0.0 0.0 -3.715506e-27 -2.6785079e-08
0000e0 00 00 00 00 00 00 00 00 86 af c4 97 c9 d9 0b 34
       0.0 0.0 -1.2710511e-24 1.3024614e-07
0000f0 00 00 00 00 00 00 00 00 86 af c4 97 ba 71 7c 34
       0.0 0.0 -1.2710511e-24 2.3510702e-07
000100 00 00 00 00 00 00 00 00 86 af c4 97 37 58 e9 33
       0.0 0.0 -1.2710511e-24 1.0865954e-07
000110 b2 76 05 b6 00 00 00 00 40 e3 94 38 6a e5 93 38
       -1.9887634e-06 0.0 7.0995186e-05 7.052238e-05
000120 00 00 00 00 00 00 00 00 86 af c4 97 77 69 f1 33
       0.0 0.0 -1.2710511e-24 1.1241621e-07
000130 44 f6 1f b6 00 00 00 00 e0 64 3a 38 0b 87 80 38
       -2.3836192e-06 0.0 4.4439803e-05 6.128669e-05
000140 00 00 00 00 00 00 00 00 86 af c4 97 e2 3b 1d 34
       0.0 0.0 -1.2710511e-24 1.464355e-07
000150 00 00 00 00 00 00 00 00 1d 8a ae 94 6b ee de 32
       0.0 0.0 -1.7623986e-26 2.5952621e-08
000160 00 00 00 00 00 00 00 00 1d 8a ae 94 32 3b 4c 33
       0.0 0.0 -1.7623986e-26 4.755129e-08
000170 00 00 00 00 00 00 00 00 1d 8a ae 94 7c 4e ba 32
       0.0 0.0 -1.7623986e-26 2.168894e-08
000180 c8 41 9a 34 00 00 00 00 52 67 8c 36 8f 36 0a 37
       2.8732597e-07 0.0 4.184353e-06 8.238144e-06
000190 00 00 00 00 00 00 00 00 1d 8a ae 94 6f 17 be 32
       0.0 0.0 -1.7623986e-26 2.2129568e-08
0001a0 4c 7e 9c 34 00 00 00 00 66 02 28 36 bf 8a 10 37
       2.9149157e-07 0.0 2.5035347e-06 8.615373e-06
0001b0 00 00 00 00 00 00 00 00 1d 8a ae 94 78 fb f4 32
       0.0 0.0 -1.7623986e-26 2.8519693e-08
0001c0 00 00 00 00 00 00 00 00 a7 8f fc 14 81 55 df b2
       0.0 0.0 2.5502158e-26 -2.59995e-08
0001d0 00 00 00 00 00 00 00 00 a7 8f fc 14 79 45 4a b3
       0.0 0.0 2.5502158e-26 -4.7094975e-08
0001e0 00 00 00 00 00 00 00 00 a7 8f fc 14 aa 49 bb b2
       0.0 0.0 2.5502158e-26 -2.1803164e-08
0001f0 e0 bc e7 33 00 00 00 00 44 f6 d4 b6 19 1d 20 b7
       1.0791132e-07 0.0 -6.3467614e-06 -9.543518e-06
000200 00 00 00 00 00 00 00 00 a7 8f fc 14 54 1c bf b2
       0.0 0.0 2.5502158e-26 -2.2248209e-08
000210 c2 2f b9 b4 00 00 00 00 b9 b7 0c b7 fb e1 44 b7
       -3.4493684e-07 0.0 -8.3874265e-06 -1.1735126e-05
000220 00 00 00 00 00 00 00 00 a7 8f fc 14 cb 44 f5 b2
       0.0 0.0 2.5502158e-26 -2.8553037e-08
000230 00 00 00 00 00 00 00 00 50 f3 33 97 ce 42 23 34
       0.0 0.0 -5.8145123e-25 1.5204861e-07
000240 00 00 00 00 00 00 00 00 50 f3 33 97 8d 95 93 34
       0.0 0.0 -5.8145123e-25 2.7489696e-07
000250 00 00 00 00 00 00 00 00 50 f3 33 97 ff 72 08 34
       0.0 0.0 -5.8145123e-25 1.2707822e-07
000260 90 9f 94 b5 00 00 00 00 4a 4f 83 38 be 7f 93 38
       -1.1073298e-06 0.0 6.2613355e-05 7.0333e-05
000270 00 00 00 00 00 00 00 00 50 f3 33 97 02 5d 0c 34
       0.0 0.0 -5.8145123e-25 1.3072352e-07
000280 a9 9c 2a 36 00 00 00 00 50 2d 53 38 a5 e0 8e 38
       2.5423162e-06 0.0 5.034852e-05 6.812931e-05
000290 00 00 00 00 00 00 00 00 50 f3 33 97 3a bc 35 34
       0.0 0.0 -5.8145123e-25 1.6925415e-07
0002a0 00 00 00 00 00 00 00 00 92 c4 cd 17 09 b9 b1 b3
       0.0 0.0 1.3297436e-24 -8.2758625e-08
0002b0 00 00 00 00 00 00 00 00 92 c4 cd 17 7c dd 20 b4
       0.0 0.0 1.3297436e-24 -1.4981737e-07
0002c0 00 00 00 00 00 00 00 00 92 c4 cd 17 72 a0 93 b3
       0.0 0.0 1.3297436e-24 -6.874406e-08
0002d0 38 56 3b 36 00 00 00 00 f3 93 67 b8 25 2f 55 b8
       2.7915357e-06 0.0 -5.521248e-05 -5.0827064e-05
0002e0 00 00 00 00 00 00 00 00 92 c4 cd 17 10 3e 99 b3
       0.0 0.0 1.3297436e-24 -7.135907e-08
0002f0 40 81 0c b5 00 00 00 00 da d4 e8 b7 a6 11 24 b8
       -5.234215e-07 0.0 -2.7755672e-05 -3.9117083e-05
000300 00 00 00 00 00 00 00 00 92 c4 cd 17 50 e1 c8 b3
       0.0 0.0 1.3297436e-24 -9.35421e-08
000310 00 00 00 00 00 00 00 00 f7 2f b8 16 72 97 81 b3
       0.0 0.0 2.9757073e-25 -6.034578e-08
000320 00 00 00 00 00 00 00 00 f7 2f b8 16 08 aa eb b3
       0.0 0.0 2.9757073e-25 -1.0973969e-07
000330 00 00 00 00 00 00 00 00 f7 2f b8 16 48 b2 58 b3
       0.0 0.0 2.9757073e-25 -5.0453565e-08
000340 0d ca e7 34 00 00 00 00 bd 86 93 b7 f6 2e c5 b7
       4.3174114e-07 0.0 -1.7586508e-05 -2.3506098e-05
000350 00 00 00 00 00 00 00 00 f7 2f b8 16 74 61 5d b3
       0.0 0.0 2.9757073e-25 -5.1544205e-08
000360 92 12 24 b5 00 00 00 00 7c ab 88 b7 a1 63 d4 b7
       -6.1121784e-07 0.0 -1.6292317e-05 -2.5318763e-05
000370 00 00 00 00 00 00 00 00 f7 2f b8 16 ea ec 8e b3
       0.0 0.0 2.9757073e-25 -6.655485e-08
000380 00 00 00 00 00 00 00 00 29 35 93 16 5b 06 0b b4
       0.0 0.0 2.378268e-25 -1.2947696e-07
000390 00 00 00 00 00 00 00 00 29 35 93 16 22 03 7c b4
       0.0 0.0 2.378268e-25 -2.3470469e-07
0003a0 00 00 00 00 00 00 00 00 29 35 93 16 79 99 e8 b3
       0.0 0.0 2.378268e-25 -1.08312584e-07
0003b0 31 7b 20 b5 00 00 00 00 71 89 30 b8 c5 70 5f b8
       -5.978391e-07 0.0 -4.2089672e-05 -5.3272368e-05
0003c0 00 00 00 00 00 00 00 00 29 35 93 16 e4 f3 ee b3
       0.0 0.0 2.378268e-25 -1.1127102e-07
0003d0 2f b3 0f b6 00 00 00 00 01 b3 13 b8 83 77 68 b8
       -2.141296e-06 0.0 -3.521424e-05 -5.5424414e-05
0003e0 00 00 00 00 00 00 00 00 29 35 93 16 8f 43 1a b4
       0.0 0.0 2.378268e-25 -1.4366945e-07
0003f0 00 00 00 00 00 00 00 00 78 ed 48 97 49 49 35 33
       0.0 0.0 -6.4923213e-25 4.2209e-08

exp_avg_sq f4 [256, 28]
000000 00 00 00 00 00 00 00 00 e6 d6 16 26 3b 90 22 29
       0.0 0.0 5.2332946e-16 3.6096326e-14
000010 00 00 00 00 00 00 00 00 e6 d6 16 26 89 a2 02 2a
       0.0 0.0 5.2332946e-16 1.160271e-13
000020 00 00 00 00 00 00 00 00 e6 d6 16 26 ce b9 e4 28
       0.0 0.0 5.2332946e-16 2.5393665e-14
000030 23 bf 3d 2f 00 00 00 00 74 6d 1f 31 e9 c1 64 31
       1.7257355e-10 0.0 2.3199762e-09 3.3288592e-09
000040 00 00 00 00 00 00 00 00 e6 d6 16 26 f8 57 f2 28
       0.0 0.0 5.2332946e-16 2.6905548e-14
000050 92 2b d8 2f 00 00 00 00 46 3f 04 31 57 61 50 31
       3.932113e-10 0.0 1.9244495e-09 3.0323315e-09
000060 00 00 00 00 00 00 00 00 e6 d6 16 26 85 36 49 29
       0.0 0.0 5.2332946e-16 4.4678254e-14
000070 00 00 00 00 00 00 00 00 ca 29 b3 21 ac be 7c 27
       0.0 0.0 1.2140573e-18 3.5075389e-15
000080 00 00 00 00 00 00 00 00 ca 29 b3 21 84 b0 4c 28
       0.0 0.0 1.2140573e-18 1.13625506e-14
000090 00 00 00 00 00 00 00 00 ca 29 b3 21 95 d3 30 27
       0.0 0.0 1.2140573e-18 2.4539605e-15
0000a0 71 84 a9 2d 00 00 00 00 3f 9b 4b 2e c1 03 3c 2f
       1.9271891e-11 0.0 4.6294742e-11 1.7099834e-10
0000b0 00 00 00 00 00 00 00 00 ca 29 b3 21 59 7a 3b 27
       0.0 0.0 1.2140573e-18 2.6017788e-15
0000c0 43 35 9c 2d 00 00 00 00 40 36 01 2f e3 77 77 2f
       1.77588e-11 0.0 1.1751755e-10 2.2507111e-10
0000d0 00 00 00 00 00 00 00 00 ca 29 b3 21 9d b3 9c 27
       0.0 0.0 1.2140573e-18 4.3493435e-15
0000e0 00 00 00 00 00 00 00 00 a8 27 25 2a 74 f2 a2 2a
       0.0 0.0 1.4668702e-13 2.8945216e-13
0000f0 00 00 00 00 00 00 00 00 a8 27 25 2a 25 bd 2b 2b
       0.0 0.0 1.4668702e-13 6.1013895e-13
000100 00 00 00 00 00 00 00 00 a8 27 25 2a e0 cf 8a 2a
       0.0 0.0 1.4668702e-13 2.4657967e-13
000110 47 09 66 2f 00 00 00 00 07 c7 da 32 fd fa f5 32
       2.0921674e-10 0.0 2.5469047e-08 2.863589e-08
000120 00 00 00 00 00 00 00 00 a8 27 25 2a 59 27 8e 2a
       0.0 0.0 1.4668702e-13 2.525157e-13
000130 61 ce d9 2f 00 00 00 00 09 55 db 32 3d e8 f7 32
       3.961871e-10 0.0 2.5533625e-08 2.8860194e-08
000140 00 00 00 00 00 00 00 00 a8 27 25 2a 33 28 b6 2a
       0.0 0.0 1.4668702e-13 3.2357588e-13
000150 00 00 00 00 00 00 00 00 e7 84 f3 23 be 29 ed 28
       0.0 0.0 2.6402399e-17 2.6330388e-14
000160 00 00 00 00 00 00 00 00 e7 84 f3 23 66 e7 bf 29
       0.0 0.0 2.6402399e-17 8.522245e-14
000170 00 00 00 00 00 00 00 00 e7 84 f3 23 8f bc a5 28
       0.0 0.0 2.6402399e-17 1.8400454e-14
000180 31 32 79 2f 00 00 00 00 bc b1 63 2f e9 ef a7 30
       2.266425e-10 0.0 2.0708674e-10 1.2219036e-09
000190 00 00 00 00 00 00 00 00 e7 84 f3 23 19 a0 af 28
       0.0 0.0 2.6402399e-17 1.9498334e-14
0001a0 82 e0 82 2f 00 00 00 00 ae 52 87 2f 7f e3 af 30
       2.3806385e-10 0.0 2.4615104e-10 1.2797584e-09
0001b0 00 00 00 00 00 00 00 00 e7 84 f3 23 15 d0 12 29
       0.0 0.0 2.6402399e-17 3.2598995e-14
0001c0 00 00 00 00 00 00 00 00 68 08 4a 25 d0 75 71 28
       0.0 0.0 1.7523555e-16 1.3403734e-14
0001d0 00 00 00 00 00 00 00 00 68 08 4a 25 3a 74 41 29
       0.0 0.0 1.7523555e-16 4.295542e-14
0001e0 00 00 00 00 00 00 00 00 68 08 4a 25 ca f3 29 28
       0.0 0.0 1.7523555e-16 9.434248e-15
0001f0 ac be 89 2e 00 00 00 00 3e 3b 01 31 da e2 13 31
       6.263909e-11 0.0 1.8805646e-09 2.1520266e-09
000200 00 00 00 00 00 00 00 00 68 08 4a 25 9b d7 33 28
       0.0 0.0 1.7523555e-16 9.983248e-15
000210 96 67 8d 2e 00 00 00 00 98 ee ff 30 3d ea 15 31
       6.430338e-11 0.0 1.8621504e-09 2.1815503e-09
000220 00 00 00 00 00 00 00 00 68 08 4a 25 3b e7 94 28
       0.0 0.0 1.7523555e-16 1.6531581e-14
000230 00 00 00 00 00 00 00 00 b9 d9 04 29 3f 0a b0 29
       0.0 0.0 2.9498732e-14 7.8177475e-14
000240 00 00 00 00 00 00 00 00 b9 d9 04 29 92 86 51 2a
       0.0 0.0 2.9498732e-14 1.8609617e-13
000250 00 00 00 00 00 00 00 00 b9 d9 04 29 d2 62 8f 29
       0.0 0.0 2.9498732e-14 6.367618e-14
000260 c5 09 b0 2f 00 00 00 00 c9 21 df 31 8d 76 03 32
       3.2021155e-10 0.0 6.493995e-09 7.652159e-09
000270 00 00 00 00 00 00 00 00 b9 d9 04 29 50 c3 93 29
       0.0 0.0 2.9498732e-14 6.561993e-14
000280 d7 a3 c5 2f 00 00 00 00 f6 4b e1 31 e5 03 02 32
       3.5950506e-10 0.0 6.5569976e-09 7.567881e-09
000290 00 00 00 00 00 00 00 00 b9 d9 04 29 3d 87 c9 29
       0.0 0.0 2.9498732e-14 8.949653e-14
0002a0 00 00 00 00 00 00 00 00 a9 2c 36 2a 12 a1 a1 2a
       0.0 0.0 1.6180342e-13 2.871111e-13
0002b0 00 00 00 00 00 00 00 00 a9 2c 36 2a ae 74 20 2b
       0.0 0.0 1.6180342e-13 5.7005344e-13
0002c0 00 00 00 00 00 00 00 00 a9 2c 36 2a 27 5d 8c 2a
       0.0 0.0 1.6180342e-13 2.4933633e-13
0002d0 23 d3 08 30 00 00 00 00 fd 2c 6c 32 41 56 95 32
       4.9776555e-10 0.0 1.3747237e-08 1.7385107e-08
0002e0 00 00 00 00 00 00 00 00 a9 2c 36 2a 13 54 8f 2a
       0.0 0.0 1.6180342e-13 2.546024e-13
0002f0 5c 5c 27 30 00 00 00 00 8c 8b 7b 32 77 b3 9e 32
       6.0885497e-10 0.0 1.4641852e-08 1.8475232e-08
000300 00 00 00 00 00 00 00 00 a9 2c 36 2a 1c 89 b2 2a
       0.0 0.0 1.6180342e-13 3.171429e-13
000310 00 00 00 00 00 00 00 00 00 b2 20 28 b9 60 f3 28
       0.0 0.0 8.920382e-15 2.7020366e-14
000320 00 00 00 00 00 00 00 00 00 b2 20 28 d5 83 98 29
       0.0 0.0 8.920382e-15 6.773025e-14
000330 00 00 00 00 00 00 00 00 00 b2 20 28 16 3d c2 28
       0.0 0.0 8.920382e-15 2.1564818e-14
000340 12 77 0d 2f 00 00 00 00 cc 67 59 30 0b d7 ad 30
       1.2866178e-10 0.0 7.9091644e-10 1.2648526e-09
000350 00 00 00 00 00 00 00 00 00 b2 20 28 b2 0e c9 28
       0.0 0.0 8.920382e-15 2.2321856e-14
000360 82 29 15 2f 00 00 00 00 94 f9 79 30 5c a0 bc 30
       1.3566218e-10 0.0 9.0940344e-10 1.3724377e-09
000370 00 00 00 00 00 00 00 00 00 b2 20 28 86 15 0d 29
       0.0 0.0 8.920382e-15 3.1326958e-14
000380 00 00 00 00 00 00 00 00 cb fa cd 27 18 2d 83 29
       0.0 0.0 5.717084e-15 5.825391e-14
000390 00 00 00 00 00 00 00 00 cb fa cd 27 4c c1 45 2a
       0.0 0.0 5.717084e-15 1.7564178e-13
0003a0 00 00 00 00 00 00 00 00 cb fa cd 27 50 54 3f 29
       0.0 0.0 5.717084e-15 4.248365e-14
0003b0 ef 5b 65 2f 00 00 00 00 98 75 ab 31 94 6d e2 31
       2.086009e-10 0.0 4.990124e-09 6.5899233e-09
0003c0 00 00 00 00 00 00 00 00 cb fa cd 27 9a 01 49 29
       0.0 0.0 5.717084e-15 4.4632355e-14
0003d0 4b 02 93 2f 00 00 00 00 5e 5e 9c 31 60 51 d7 31
       2.6740773e-10 0.0 4.550926e-09 6.266575e-09
0003e0 00 00 00 00 00 00 00 00 cb fa cd 27 35 12 9f 29
       0.0 0.0 5.717084e-15 7.064177e-14
0003f0 00 00 00 00 00 00 00 00 c9 03 29 29 d0 b9 dc 29
       0.0 0.0 3.752882e-14 9.802196e-14

exp_avg f4 [256]
000000 c0 ab a2 36 40 73 58 b7 e5 df 91 38 c7 d1 6b 37
       4.8479706e-06 -1.2901437e-05 6.9558424e-05 1.4055934e-05
000010 86 42 62 b7 2a e8 a8 38 c4 da 3e b8 2d fb 06 b8
       -1.3486138e-05 8.054108e-05 -4.550327e-05 -3.2182015e-05
000020 e3 c6 8f b8 dc 9e c7 37 6b 62 94 37 1a 7b 2e 39
       -6.855817e-05 2.3796623e-05 1.7688804e-05 0.00016639792
000030 bf 43 b9 38 7c 5b 83 38 36 12 92 36 16 1e da b8
       8.834106e-05 6.263607e-05 4.353259e-06 -0.00010400654
000040 ca b8 44 36 1e 95 82 38 2b 4a 18 b8 e7 a7 06 35
       2.9313837e-06 6.226658e-05 -3.63087e-05 5.016322e-07
000050 fb ad 26 b9 00 b8 68 b8 81 11 8f b7 61 ee 3b b9
       -0.00015895806 -5.5484474e-05 -1.705508e-05 -0.00017922513
000060 93 40 1b b9 4f 3c a3 b7 2b ff 92 b8 0b f4 87 b7
       -0.00014806008 -1.9459198e-05 -7.009351e-05 -1.6206895e-05
000070 97 e8 d4 b8 c2 ae 14 36 58 54 a2 37 d3 5c 43 36
       -0.00010152271 2.215544e-06 1.935118e-05 2.9111295e-06
000080 0b d3 53 b8 6a 55 04 39 73 e2 06 b8 de d5 a6 b8
       -5.050287e-05 0.0001262032 -3.2158987e-05 -7.955333e-05
000090 87 20 0d b9 d0 a4 66 38 9e a5 d1 b7 fa 17 1c 39
       -0.00013458925 5.4989767e-05 -2.4991863e-05 0.00014886251
0000a0 7e 19 8e 38 68 d3 4a 38 8c ac 88 b7 ea a4 9a 38
       6.775836e-05 4.835744e-05 -1.6292812e-05 7.37401e-05
0000b0 67 ac f7 b8 09 87 df b7 cd 50 9e 38 aa 4b ce b8
       -0.0001180999 -2.6646552e-05 7.5490774e-05 -9.836939e-05
0000c0 3f 3e 84 38 3f e8 a3 b7 25 d8 5c 38 29 8e 2d 38
       6.305845e-05 -1.9539262e-05 5.2653388e-05 4.137881e-05
0000d0 b2 63 b2 37 90 81 5f b8 ed 2d ff 38 f5 ec bd 38
       2.1265678e-05 -5.3288008e-05 0.00012167902 9.056359e-05
0000e0 28 31 c2 b7 60 7a 9d b8 43 0a 1b 37 d0 db 98 38
       -2.3149492e-05 -7.5091375e-05 9.241109e-06 7.288868e-05
0000f0 e7 37 9e 36 5a 83 70 b7 95 3f 1f b7 6e 5b e6 b8
       4.715275e-06 -1.4335697e-05 -9.491942e-06 -0.00010984285
000100 ce 02 19 b9 e3 a3 af b8 5a dc 30 37 64 17 91 b8
       -0.00014592262 -8.3751765e-05 1.0541722e-05 -6.918496e-05
000110 dc d4 90 38 b4 3d 15 39 aa fe f7 b7 6d f8 21 b8
       6.906103e-05 0.00014232734 -2.9563282e-05 -3.8616756e-05
000120 3a a3 8d 37 3a 27 5b 38 69 b9 b2 b7 21 88 06 38
       1.6884518e-05 5.22502e-05 -2.1305592e-05 3.207487e-05
000130 b7 8a 9e 37 37 d9 94 38 b6 8a 6d b8 b7 65 b6 b6
       1.8899662e-05 7.097649e-05 -5.6634388e-05 -5.435864e-06
000140 31 bf e1 38 5a 43 e3 37 3d c1 d9 38 5c 5d 50 38
       0.00010764448 2.7091872e-05 0.0001038336 4.9678012e-05
000150 d6 90 47 38 a2 32 ad 37 af e3 96 38 47 07 a5 37
       4.7580186e-05 2.0646785e-05 7.194967e-05 1.9672922e-05
000160 6d 00 56 38 ed 2a d0 37 39 bf cd 37 94 bb f9 38
       5.1021972e-05 2.4815521e-05 2.452695e-05 0.000119081844
000170 c2 1b b7 37 d4 c7 12 b9 5e 27 b9 37 f6 1b 8b b7
       2.1828226e-05 -0.00013998087 2.207205e-05 -1.6583112e-05
000180 65 89 46 b8 70 bc b8 38 cd e0 65 b8 b9 8e 95 b8
       -4.7334837e-05 8.808903e-05 -5.4807217e-05 -7.131458e-05
000190 92 67 b7 b7 6c cc 26 b8 9a 87 bf b5 6f 0b f4 38
       -2.1863529e-05 -3.9767867e-05 -1.4270074e-06 0.00011636956
0001a0 af 44 14 b9 f3 2b 32 b8 7d ea 8d b7 d7 3a 02 32
       -0.00014139967 -4.2479438e-05 -1.6917702e-05 7.5803746e-09
0001b0 b8 bc fd b7 8d 8e 86 38 39 75 44 b8 05 68 57 39
       -3.024783e-05 6.41617e-05 -4.6839214e-05 0.00020542748
0001c0 0c d3 4e b7 bf 37 ff b7 b1 11 b3 36 c6 64 c0 b8
       -1.2327695e-05 -3.0424328e-05 5.3366753e-06 -9.174044e-05
0001d0 9e 39 b4 b8 1d 28 8d b8 4d ed 46 b8 1d 06 b1 b7
       -8.593801e-05 -6.7308756e-05 -4.7427882e-05 -2.1102891e-05
0001e0 71 46 cd 37 fc 2c 09 b7 ec 49 42 b8 4d c3 b4 36
       2.4470706e-05 -8.17631e-06 -4.632205e-05 5.387154e-06
0001f0 5c 9d be 35 11 c3 f8 b8 63 5c cd b6 f4 23 1d 36
       1.4201901e-06 -0.000118618955 -6.1202313e-06 2.341575e-06
000200 cb 6f d3 37 a5 64 09 38 91 f0 b6 37 7c dc 7a 38
       2.5205218e-05 3.2757078e-05 2.1808113e-05 5.9809987e-05
000210 64 ba c8 b7 6a a1 27 37 db da 83 b7 cf c6 32 38
       -2.3928653e-05 9.991558e-06 -1.571833e-05 4.2623662e-05
000220 75 e1 3a 36 9f a0 30 38 8f a1 a1 38 4b 1e 44 b8
       2.7847393e-06 4.211126e-05 7.707171e-05 -4.6758254e-05
000230 d1 9b 9f 37 df 73 48 37 dd dd 26 37 fd f5 12 38
       1.9026835e-05 1.1947907e-05 9.946028e-06 3.5038207e-05
000240 a1 b6 dc b8 f7 42 e0 37 25 30 a5 38 0a 2a ce 38
       -0.00010524435 2.6734064e-05 7.876781e-05 9.830676e-05
000250 43 f0 28 37 a1 b5 21 b8 08 85 0d b7 a4 ec b0 37
       1.0069521e-05 -3.8554546e-05 -8.435229e-06 2.109103e-05
000260 ef f3 2d b8 8a 94 86 38 ea 15 95 b7 66 aa fa b7
       -4.1473595e-05 6.4172855e-05 -1.7772389e-05 -2.988167e-05
000270 08 e7 54 38 9f cf ea 38 16 45 63 b6 ce ea ec b8
       5.0759903e-05 0.00011196662 -3.386585e-06 -0.00011297093
000280 fe 6a 66 36 0d f3 61 b8 1d 63 e1 37 b6 e7 4a b8
       3.4334948e-06 -5.387054e-05 2.6868243e-05 -4.837635e-05
000290 8c b6 fe 37 75 97 f3 b7 8c b2 17 38 8f e3 06 35
       3.0364165e-05 -2.9038385e-05 3.616749e-05 5.025003e-07
0002a0 b1 db 30 37 f0 85 af 37 0d e8 36 38 73 d5 1d 38
       1.0541568e-05 2.0923995e-05 4.3608296e-05 3.7630507e-05
0002b0 95 0e 1a b7 cc 1a 82 38 27 67 8f b7 82 b1 3e 38
       -9.18251e-06 6.203874e-05 -1.7094962e-05 4.5464847e-05
0002c0 26 62 ed b8 ed 3e a5 b8 9d f9 fd 36 34 dc 94 38
       -0.00011319322 -7.879534e-05 7.5690464e-06 7.098206e-05
0002d0 f7 13 8d b8 29 ec e5 b6 9d 6f d2 b6 40 89 1b 38
       -6.727123e-05 -6.8522245e-06 -6.271481e-06 3.7082704e-05
0002e0 f1 87 e1 b4 a2 4f 56 37 76 d8 00 b7 35 12 50 b8
       -4.2008426e-07 1.2773935e-05 -7.679793e-06 -4.960802e-05
0002f0 4e bd e9 37 46 7f a8 38 60 84 b5 b8 83 6a 1a 36
       2.7863916e-05 8.034571e-05 -8.655409e-05 2.3009786e-06
000300 b9 50 79 b8 ba 80 98 38 22 b4 97 38 bd e3 13 b7
       -5.9441405e-05 7.271902e-05 7.2337934e-05 -8.814907e-06
000310 29 91 c0 38 bf 27 60 b8 e0 b6 be 38 c5 9b ba 35
       9.1823116e-05 -5.3442778e-05 9.093969e-05 1.3903415e-06
000320 a3 fa be b7 25 75 08 b7 32 41 f1 b8 59 eb 5f 38
       -2.2766477e-05 -8.1335065e-06 -0.00011503919 5.3386528e-05
000330 4f 6a 1e b8 40 4b d5 b8 49 24 1a b6 ce dc b3 38
       -3.7769143e-05 -0.00010170648 -2.296891e-06 8.576513e-05
000340 68 ca a8 b8 bd 7a 01 b9 24 d5 58 b8 ca 38 ff b7
       -8.048565e-05 -0.00012348122 -5.1696916e-05 -3.0424813e-05
000350 84 2e e9 35 10 86 ae 38 b3 5f 8a 36 47 1c 4a b8
       1.7373391e-06 8.321938e-05 4.1238613e-06 -4.818689e-05
000360 ed 12 cb 38 c3 f9 10 38 7c d1 fe 38 53 85 52 38
       9.6833195e-05 3.4564884e-05 0.00012150683 5.019207e-05
000370 0e 3e 1c b8 e9 c8 b9 b8 ac 21 f5 38 72 e7 f2 37
       -3.725109e-05 -8.85891e-05 0.00011688782 2.8956423e-05
000380 21 c6 66 36 a0 67 07 b9 52 77 11 b8 3f 32 c9 b7
       3.4387997e-06 -0.00012913207 -3.468182e-05 -2.3984465e-05
000390 24 9a 58 b8 bc 99 c8 b8 c3 b6 02 b9 ba 07 8b 38
       -5.1641968e-05 -9.5653784e-05 -0.0001246585 6.629476e-05
0003a0 fa 16 2b b8 67 93 6e b8 48 69 88 b8 89 47 0d 38
       -4.0790976e-05 -5.68809e-05 -6.5045955e-05 3.3683642e-05
0003b0 d0 e5 0d 39 58 0c 7c b8 d2 57 e0 b8 91 2e 75 b7
       0.0001353242 -6.0092978e-05 -0.0001069751 -1.461398e-05
0003c0 3a 37 49 b7 a2 6f 17 39 ce 97 cf 37 5a d1 8e b8
       -1.1993392e-05 0.00014442069 2.4747013e-05 -6.8100824e-05
0003d0 d8 6a 38 35 fe f8 1e 36 71 56 ab b8 a7 75 64 b8
       6.870082e-07 2.3688767e-06 -8.1700164e-05 -5.446901e-05
0003e0 0a cf 1b 37 a3 56 d4 b3 ec 4c a1 b7 9b a8 a0 35
       9.286925e-06 -9.8877784e-08 -1.9228515e-05 1.197e-06
0003f0 6c 39 db 38 4d e2 a0 38 b8 55 a9 38 c8 ea a9 38
       0.000104534294 7.671546e-05 8.074514e-05 8.1022794e-05

exp_avg_sq f4 [256]
000000 6e ef 28 32 46 17 85 30 b1 dd 28 33 69 42 f9 31
       9.833327e-09 9.683638e-10 3.9317175e-08 7.2544037e-09
000010 de 84 79 31 43 c6 61 32 3f f4 14 33 ad 1e ac 31
       3.6309795e-09 1.3141803e-08 3.4681076e-08 5.0093463e-09
000020 36 58 77 32 b3 cc 8e 32 d8 1c a3 31 a5 b7 e7 33
       1.4397349e-08 1.6624062e-08 4.7472035e-09 1.07901805e-07
000030 c0 c3 0a 33 38 c9 09 33 70 c0 2f 31 71 11 83 33
       3.2308662e-08 3.2080806e-08 2.557524e-09 6.1033354e-08
000040 29 d2 5c 30 7a 19 bb 32 ce 69 44 31 b9 fd af 30
       8.033419e-10 2.178125e-08 2.8581897e-09 1.2805038e-09
000050 c2 6e ee 33 a8 7d 89 32 9a 19 c4 31 d3 bb 13 34
       1.11028854e-07 1.6006041e-08 5.7072613e-09 1.3758772e-07
000060 d8 6b 96 33 62 47 00 32 8e 07 14 33 25 d8 94 32
       7.004536e-08 7.466811e-09 3.4465806e-08 1.7327759e-08
000070 e9 78 76 33 02 57 8e 31 12 8c 46 32 9d 66 14 31
       5.7386305e-08 4.1426356e-09 1.1556965e-08 2.1595163e-09
000080 18 94 0c 32 8a cc a9 33 c6 5e 93 31 6e b7 7f 33
       8.182745e-09 7.906881e-08 4.2890376e-09 5.9538642e-08
000090 a3 b0 f5 33 48 75 a4 32 47 9a 32 31 44 09 bd 33
       1.14408316e-07 1.9145446e-08 2.5990106e-09 8.802684e-08
0000a0 e3 d3 f8 32 2c 6b 1e 33 6e f2 a0 31 9f fc 37 32
       2.8967355e-08 3.6884714e-08 4.684174e-09 1.0709441e-08
0000b0 dc 2b 58 33 2e 78 80 32 8f 0d 1c 33 e3 c7 23 33
       5.033131e-08 1.4955813e-08 3.6333912e-08 3.813319e-08
0000c0 59 10 d9 31 c7 a5 ce 32 a4 a7 15 32 42 0b d2 32
       6.3173897e-09 2.4056943e-08 8.7110585e-09 2.4452337e-08
0000d0 60 98 cb 31 0c 3c fc 32 0e 9c 4c 33 cb 6c e5 32
       5.9254006e-09 2.9363967e-08 4.7639382e-08 2.6708582e-08
0000e0 ca f7 22 31 63 51 4b 32 cb 47 e3 31 a1 ba b4 32
       2.3714954e-09 1.183466e-08 6.6147314e-09 2.1039627e-08
0000f0 19 ea 73 32 44 07 14 31 a2 00 9f 32 ca ab 8d 33
       1.4197689e-08 2.1540965e-09 1.8510324e-08 6.5970724e-08
000100 ab 96 bf 33 31 c9 b7 32 dc 6a 1b 31 c5 ac ec 32
       8.921537e-08 2.1395495e-08 2.2616211e-09 2.7552582e-08
000110 83 32 f7 31 c9 8e c5 33 e5 7b c7 32 17 71 07 32
       7.1943886e-09 9.1995e-08 2.322299e-08 7.883748e-09
000120 a4 df f7 30 de 81 60 33 1f dc 4b 31 82 2b 27 32
       1.8035178e-09 5.2272178e-08 2.9665512e-09 9.730572e-09
000130 48 7b 4f 32 20 05 2c 33 7f 3e 3a 33 74 09 39 32
       1.2077017e-08 4.0051532e-08 4.336334e-08 1.0770567e-08
000140 86 65 2a 33 0a 97 0b 32 79 44 35 33 c7 7f 5d 32
       3.9673544e-08 8.125207e-09 4.2204622e-08 1.2892946e-08
000150 35 fb b5 32 4d 05 c5 31 cc 4b 16 33 d9 e5 e5 31
       2.1185409e-08 5.7340572e-09 3.4993533e-08 6.690908e-09
000160 de cc 86 32 de 0b 8a 31 b9 7b 86 32 18 33 0e 33
       1.5692816e-08 4.0176777e-09 1.5655916e-08 3.310842e-08
000170 47 b9 f0 32 7b d3 9b 33 50 8e d8 30 4d e7 d0 32
       2.8023932e-08 7.256218e-08 1.5756516e-09 2.431957e-08
000180 31 13 e3 32 33 e5 d5 32 98 e7 ed 31 a6 8f 23 32
       2.6435005e-08 2.4900691e-08 6.923937e-09 9.520511e-09
000190 47 dc 6d 32 ff 95 8e 32 85 27 9f 31 0e 23 43 33
       1.3845301e-08 1.6599186e-08 4.632002e-09 4.5433858e-08
0001a0 28 f2 b8 33 b4 bc 8e 32 75 31 46 32 48 a6 9e 31
       8.612216e-08 1.6616788e-08 1.1536362e-08 4.617309e-09
0001b0 53 83 d6 30 af e8 d3 32 7b 77 92 32 dd b1 e4 33
       1.5607874e-09 2.4669445e-08 1.705097e-08 1.06494305e-07
0001c0 d6 b9 24 31 79 76 f3 31 f8 9e f1 30 78 bf 08 33
       2.3970776e-09 7.0856996e-09 1.758024e-09 3.1839107e-08
0001d0 5e c3 18 33 c5 fb 5d 32 ea a7 3f 32 26 1f 31 32
       3.5567943e-08 1.2921139e-08 1.11558425e-08 1.0309838e-08
0001e0 78 4b 30 32 c7 83 16 32 2a 43 0d 33 eb 8c ad 31
       1.0261708e-08 8.761112e-09 3.2890206e-08 5.050983e-09
0001f0 33 4b 14 31 5e 34 c0 33 85 48 12 32 d8 c7 18 31
       2.157958e-09 8.950222e-08 8.5148075e-09 2.223251e-09
000200 d9 df d7 31 71 b6 22 32 9f 50 be 31 ce c7 47 33
       6.282772e-09 9.471123e-09 5.5388933e-09 4.651502e-08
000210 54 b4 e4 31 0e e8 81 31 4f e3 82 30 5c 85 a6 32
       6.6561743e-09 3.7807757e-09 9.52335e-10 1.9385588e-08
000220 b7 bd 5a 32 80 b5 33 32 fe cb 07 32 7e cb e2 32
       1.2732406e-08 1.046044e-08 7.904417e-09 2.64024e-08
000230 41 e0 c9 32 02 87 e3 31 db 97 e8 31 e6 e5 63 32
       2.3501459e-08 6.621918e-09 6.7693526e-09 1.3265412e-08
000240 9b 65 1b 33 98 33 15 32 91 2d 80 33 28 f7 f8 32
       3.618116e-08 8.6846725e-09 5.968753e-08 2.8983393e-08
000250 e9 e0 81 31 97 15 ba 32 f9 f1 53 30 d1 cc cf 31
       3.7799635e-09 2.1663068e-08 7.7105217e-10 6.047778e-09
000260 f3 14 b1 31 e1 49 28 32 3d 80 25 33 45 59 01 33
       5.1537596e-09 9.795685e-09 3.853369e-08 3.0116343e-08
000270 a2 d2 e4 31 8f b7 23 33 52 9c 72 31 77 6a f5 32
       6.6596195e-09 3.811834e-08 3.5304493e-09 2.8570168e-08
000280 3c 35 71 31 5e 95 53 32 50 36 d1 31 91 c8 31 32
       3.5100376e-09 1.2315779e-08 6.088875e-09 1.03483595e-08
000290 d7 92 2d 31 e7 9c 11 32 75 e0 23 32 ca a3 49 31
       2.5258282e-09 8.475786e-09 9.538884e-09 2.9342453e-09
0002a0 57 e2 89 33 4d a6 3c 32 55 5b 90 32 bb 28 13 32
       6.4207306e-08 1.0980853e-08 1.680534e-08 8.565787e-09
0002b0 1d e3 f6 31 72 f7 39 32 20 b4 23 31 f4 52 d6 31
       7.185362e-09 1.082468e-08 2.382201e-09 6.2376504e-09
0002c0 da 7a 62 33 cd 0d 19 33 d9 95 97 31 34 47 f9 32
       5.273146e-08 3.563564e-08 4.411714e-09 2.9019795e-08
0002d0 5e a4 3c 32 a3 b1 ab 33 f6 aa 4c 30 c8 80 02 32
       1.0980413e-08 7.99512e-08 7.445772e-10 7.596277e-09
0002e0 9c 8b 94 31 b7 9c 7d 31 f0 37 f2 31 9c 84 15 33
       4.3232387e-09 3.6905428e-09 7.0494863e-09 3.4812373e-08
0002f0 8e 8b f2 32 a0 d7 68 32 17 9a b7 33 c8 c2 f3 30
       2.823597e-08 1.3553205e-08 8.54963e-08 1.7735937e-09
000300 61 47 6d 32 69 95 c0 32 3c e5 5c 33 9b 4f 15 30
       1.3811445e-08 2.2419686e-08 5.143123e-08 5.431901e-10
000310 e3 55 df 32 97 73 e3 32 17 fd a4 32 1c a8 b7 31
       2.5999674e-08 2.6478842e-08 1.9207205e-08 5.345113e-09
000320 82 0e 18 31 b8 a0 dd 30 50 b4 cb 33 28 a3 c7 32
       2.2127158e-09 1.6125545e-09 9.485723e-08 2.3240844e-08
000330 65 d7 da 31 45 9f a9 33 10 ca 17 31 55 2e 8a 32
       6.3691226e-09 7.898647e-08 2.2088251e-09 1.6086384e-08
000340 63 ff 21 33 f0 9a 9e 33 f9 47 5c 32 af d2 59 33
       3.7718006e-08 7.385631e-08 1.282205e-08 5.0715865e-08
000350 f8 0d 82 31 33 4f 10 33 b5 e1 4d 31 29 89 0a 32
       3.785086e-09 3.3599644e-08 2.9959726e-09 8.063844e-09
000360 3b b0 d8 32 9e 49 f8 31 eb 93 6b 33 8e c3 6a 32
       2.522585e-08 7.2261193e-09 5.4849732e-08 1.3665057e-08
000370 b9 8e 7b 31 53 3a 0d 33 57 9d 10 33 63 46 54 32
       3.6606436e-09 3.2882166e-08 3.3670712e-08 1.2356028e-08
000380 70 84 ba 30 de e1 eb 33 0a 92 84 31 df 89 a7 31
       1.3570922e-09 1.0984125e-07 3.8583083e-09 4.876014e-09
000390 3a be 6b 32 90 47 56 33 74 c6 6b 33 fd 37 36 32
       1.3722053e-08 4.9890843e-08 5.4895693e-08 1.06065245e-08
0003a0 0a 07 62 32 e8 c0 3e 32 98 72 bd 33 47 e4 1e 31
       1.3156532e-08 1.1103317e-08 8.821843e-08 2.3121787e-09
0003b0 9e 35 25 33 29 17 23 32 77 aa a2 33 3a 47 c5 31
       3.846582e-08 9.493115e-09 7.57472e-08 5.741552e-09
0003c0 9b e8 56 31 31 ce 95 33 61 30 1c 32 85 ad 17 33
       3.127332e-09 6.975859e-08 9.091395e-09 3.5315242e-08
0003d0 8f 51 d9 30 04 c3 9f 32 f0 66 21 33 81 c1 86 33
       1.5812008e-09 1.8598719e-08 3.7579355e-08 6.2750594e-08
0003e0 13 9e a3 31 ff 47 05 32 b4 e2 4a 31 67 b4 83 31
       4.7618953e-09 7.757989e-09 2.9523735e-09 3.833111e-09
0003f0 b7 71 41 33 01 d0 d0 32 c1 0e 14 32 a4 c7 c1 32
       4.5039737e-08 2.4308976e-08 8.6180885e-09 2.2558943e-08

exp_avg f4 [1, 2]
000000 1a fe 7c bc af a2 0e 3c
       -0.015441442 0.008705779

exp_avg_sq f4 [1, 2]
000000 5b b6 c5 39 f3 69 a9 39
       0.00037710633 0.0003231313
