IAV_FINAL/results/results/SheepsRedo5/Sheeps/Sheeps-228086.pt (torch, 200063 bytes, 24 tensors)

network_body._body_endoder.seq_layers.0.weight f4 [256, 28]
-0.23213181 0.04359807 0.17584556 0.44258198 -0.35580355 -0.12238513 -0.09184757 0.22277912
0.16286907 0.011857238 0.27875456 -0.23422264 -0.32063863 -0.1510791 0.10852195 -0.27543864
-0.08135081 -0.04060814 -0.4513547 0.05778158 0.43956143 -0.14849724 -0.2231253 -0.25903663
-0.25752077 0.19660328 -0.008620021 -0.14822264 -0.07060005 0.02149084 0.11588108 -0.1278181
0.17741662 -0.012082656 0.19089472 -0.12785003 -0.028224103 0.08292965 0.07249342 -0.1977288
-0.08509653 -0.14346322 -0.38077697 -0.33696365 0.10915015 -0.09693985 -0.13968103 0.053322874
-0.04806135 0.023421958 -0.09993526 -0.08391994 -0.028612519 -0.051232427 0.18241043 -0.3270043
0.10316743 -0.25939256 -0.013483145 0.16871671 0.21835172 -0.15973109 -0.039950278 -0.59660643
-0.10621725 -0.22743179 0.26027083 0.072875194 -0.32063788 -0.097325794 0.24128059 0.23689526
0.1335877 0.047373943 0.35753387 -0.07235386 0.064940974 0.013858981 0.082104 0.25410455
0.058217723 0.22078098 -0.0786879 0.33409184 -0.07830752 -0.3316297 0.37612453 0.13689946
-0.3469142 -0.023013929 -0.0056927814 0.2387356 0.19587578 0.16370264 -0.19060273 -0.1436714
0.24497862 -0.3230727 -0.52077097 -0.08367987 -0.4867119 0.1501582 -0.3576498 -0.04909197
0.035910785 0.084390745 -0.4490697 -0.13489574 -0.048760474 0.21202241 -0.122152686 0.062174838
0.15457353 0.110823974 -0.09888368 -0.12342957 0.27575728 0.0058799786 0.27641547 0.06423442
-0.05217531 0.3317547 0.03161712 0.08206965 0.18723726 0.291248 0.20480976 -0.14256607
-0.24033514 -0.15459716 -0.0952468 0.12800847 0.13065413 0.18682094 -0.033469945 -0.09017483
0.07564389 -0.032068785 -0.24921294 0.028860392 0.14991125 -0.22754003 -0.108850665 -0.057366822
0.24200185 0.12250419 0.28260803 0.13693038 0.2761388 0.25972745 0.21572474 -0.3723359
0.11099163 0.08336607 -0.064406775 0.33069476 0.006952835 0.13307036 -0.18912032 0.41016042
0.22182119 -0.19159053 0.21505864 -0.31244665 -0.24747989 0.08444284 0.21002531 -0.21037398
-0.26118317 -0.09645803 -0.16189726 -0.16356003 0.15355968 0.24106726 -0.18995675 -0.035603687
0.008162148 -0.055569567 0.057639983 0.009071263 -0.09459357 -0.2332229 -0.08083753 -0.095926106
0.18070097 0.23092045 0.10676217 0.2873023 0.036908288 0.13797921 -0.06570698 0.18882021
-0.0048376326 0.016075276 0.36525255 0.47280592 0.11931977 0.04113219 -0.15090044 0.05138585
-0.40655246 0.2533763 0.0695303 -0.11988072 0.25157616 -0.25680065 -0.33373097 0.01404603
-0.022484412 -0.60150903 -0.12201586 -0.2955984 -0.107788526 -0.26936713 0.132185 0.16153815
0.0674511 -0.049485497 -0.06280268 -0.15708643 0.26267678 0.016039269 0.24206847 0.09981392
0.188572 -0.24627568 0.3112175 -0.4189771 0.027181948 0.11054122 -0.2368178 0.009068734
0.24606411 -0.075353466 -0.24938536 -0.0026509336 -0.09514464 0.009920188 -0.1131244 0.10608764
-0.11646068 -0.04195731 -0.122459285 0.22881363 -0.039525714 -0.25592315 -0.3622241 0.13491093
0.010916703 0.08262814 -0.16636282 0.035634235 0.021607455 0.0012311524 0.14127997 0.23381737
00000000: f6b3 6dbe e493 323d dc10 343e 1b9a e23e
00000010: e22b b6be 0ea5 fabd 941a bcbd 3620 643e
00000020: 26c7 263e dc44 423c ebb8 8e3e 0fd8 6fbe
00000030: bf2a a4be 7bb4 1abe c240 de3d 4b06 8dbe
00000040: 419b a6bd b954 26bd f717 e7be 61ac 6c3d
00000050: 320e e13e a90f 18be f57a 64be 73a0 84be
00000060: c3d9 83be 5f52 493e fd3a 0dbc adc7 17be
00000070: c296 90bd 8f0d b03c 0f53 ed3d bfe2 02be
00000080: b4ac 353e 55f6 45bc e879 433e 1eeb 02be
00000090: 3c36 e7bc 05d7 a93d 6e77 943d 6b79 4abe
000000a0: 1747 aebd 06e8 12be 33f5 c2be 8086 acbe
000000b0: 1d8a df3d 6688 c6bd 8b08 0fbe 1669 5a3d
000000c0: fadb 44bd 68df bf3c dcaa ccbd 38de abbd
000000d0: cd64 eabc 18d9 51bd cdc9 3a3e 1c6d a7be
000000e0: 7249 d33d 1acf 84be 69e8 5cbc 13c4 2c3e
000000f0: 9897 5f3e 8c90 23be e7a2 23bd 33bb 18bf
00000100: 6e88 d9bd e1e3 68be 3842 853e 973f 953d
00000110: a62a a4be bf52 c7bd 4212 773e ac94 723e
00000120: 37cb 083e 2e0b 423d ae0e b73e 432e 94bd
00000130: c6ff 843d c810 633c 2426 a83d fe19 823e
00000140: b575 6e3d 6914 623e 1f27 a1bd 160e ab3e
00000150: b15f a0bd 5ecb a9be 6593 c03e 5f2f 0c3e
00000160: bd9e b1be b587 bcbc 838a babb 1b77 743e
00000170: a993 483e aaa1 273e 5d2d 43be 981e 13be
00000180: addb 7a3e c969 a5be 3f51 05bf 5a60 abbd
00000190: 4d32 f9be 12c3 193e e01d b7be a914 49bd
000001a0: 3017 133d 0ed5 ac3d 77ec e5be 1c22 0abe
000001b0: 10b9 47bd 671c 593e 302b fabd 0bab 7e3d
000001c0: 8648 1e3e aef7 e23d 8783 cabd a4c8 fcbd
000001d0: 0f30 8d3e d6ac c03b 5486 8d3e 568d 833d
000001e0: c7b5 55bd c1db a93e f480 013d 2214 a83d
000001f0: 20bb 3f3e 751e 953e a6b9 513e d7fc 11be
00000200: 6a1a 76be b84e 1ebe c110 c3bd a714 033e
00000210: 32ca 053e fd4d 3f3e c817 09bd 95ad b8bd
00000220: 2feb 9a3d 8f5a 03bd ad31 7fbe a16c ec3c
00000230: 5682 193e 4100 69be 19ed debd 79f9 6abd
00000240: 55cf 773e 7ae3 fa3d 00b2 903e 7a37 0c3e
00000250: 1162 8d3e fffa 843e f2e6 5c3e d0a2 bebe
00000260: 944f e33d d5bb aa3d b3e7 83bd d350 a93e
00000270: 9bd4 e33b 9943 083e c2a8 41be 8c00 d23e
00000280: 1825 633e 4f30 44be 5538 5c3e 02f9 9fbe
00000290: 5e6b 7dbe 5ef0 ac3d e010 573e 476c 57be
000002a0: cdb9 85be ca8b c5bd 65c8 25be 487c 27be
000002b0: c03e 1d3e 56da 763e 0684 42be 2cd5 11bd
000002c0: 88ba 053c ea9c 63bd e717 6c3d a29f 143c
000002d0: 46ba c1bd fcd1 6ebe 268e a5bd e874 c4bd
000002e0: ad09 393e 6976 6c3e 20a6 da3d 4919 933e
000002f0: 252d 173d 6c4a 0d3e 6291 86bd 165a 413e
00000300: 0185 9ebb 4cb0 833c 6202 bb3e 9e13 f23e
00000310: ec5d f43d 3a7a 283d a585 1abe f879 523d
00000320: a527 d0be 8aba 813e e765 8e3d 0684 f5bd
00000330: 97ce 803e 607b 83be c9de aabe 5221 663c
00000340: 3b31 b8bc 7ffc 19bf 74e3 f9bd ac58 97be
00000350: 3bc0 dcbd 7dea 89be 815b 073e 426a 253e
00000360: cd23 8a3d 4eb1 4abd b19e 80bd 44db 20be
00000370: 927d 863e c964 833c cce0 773e 3e6b cc3d
00000380: 0519 413e b12f 7cbe e657 9f3e 2b84 d6be
00000390: adac de3c 6f63 e23d 5e80 72be 0795 143c
000003a0: 3bf8 7b3e eb52 9abd e05e 7fbe 49bb 2dbb
000003b0: 31db c2bd 4988 223c c4ad e7bd 7a44 d93d
000003c0: f082 eebd 6edb 2bbd efcb fabd 1f4e 6a3e
000003d0: b7e5 21bd 5c08 83be 7075 b9be 1726 0a3e
000003e0: f9db 323c f138 a93d 045b 2abe 34f5 113d
000003f0: 1e02 b13c 9f5e a13a b2ab 103e d26d 6f3e

network_body._body_endoder.seq_layers.0.bias f4 [256]
0.004417557 -0.018296476 -0.0071485154 -0.004232769 0.007873245 0.0029034882 -0.0019873357 0.0036167295
0.0044045383 0.00080003485 -0.0061366465 -0.0068339636 -0.0027883425 -0.009169605 -0.0022993076 0.004829306
-0.007721803 0.0034865972 -0.0042630034 -0.0055428725 0.009196296 -0.0022259015 -0.0051400745 0.011521715
0.008806651 -0.009058789 0.012317739 -0.00239788 0.008560475 -0.013809268 0.002849799 0.001273069
-0.0095542455 -0.007571469 0.0039701327 0.01786902 0.010593572 -0.0029593601 -0.0057009724 -0.0062565226
-0.00023094816 -0.0037110448 0.0075974157 -0.0049388567 0.008374836 0.00850839 0.0008636262 0.00881967
0.0023058753 -0.0013005981 0.0003420725 0.0027951915 -0.00362403 0.0073092305 0.0038455308 -0.0025317972
-0.0033861264 0.0036905746 0.0028961585 0.001001767 -0.01078875 0.00015460055 -0.0066821137 0.008823033
0.009169989 -0.0024071815 -0.0027476922 0.013806526 -0.0026889122 -0.008034657 0.0073929536 0.0074076965
-0.0012088168 0.003747502 0.0063326587 0.000965104 -0.010445758 -0.007868015 0.009755235 0.006047418
-0.0069816257 0.0027682527 -0.0055990047 -0.0045371624 -0.0074809315 -0.006874929 -0.009972601 -0.010482314
-0.0026757917 -0.0044452725 -0.0062143216 0.003665512 -0.0019459644 0.009481436 0.0057892743 0.005411963
0.0055743246 0.0036494622 -0.00035024146 0.004003237 0.0092309285 0.008887144 -0.01316524 -0.008634153
0.010675107 0.0028490077 0.0067659146 -0.012782972 -0.0065705837 -0.0062167314 0.0027853828 0.000850004
-0.012758257 -0.010469784 0.0009070668 0.00325376 0.01019595 0.0023017887 -0.005109211 -0.0074541206
0.004567402 0.0068133557 0.0047045625 -0.010858329 -0.01086438 0.0089162 -0.0027414432 -0.0036393935
-0.0057239733 -0.014886756 -0.0035482664 -0.0077966643 0.011269608 -0.0045308913 -0.014477413 0.00057799363
-0.0071536247 0.001615436 0.0033418813 0.003810914 -8.3965795e-05 -0.010014235 -3.358415e-05 -0.0065911184
-0.002556991 -0.005474566 0.0030636678 -0.011775518 -0.007436233 -0.0038219253 -0.015976995 -0.00030232803
0.0062722145 0.0055522155 0.010110133 -0.0026761808 -0.008595274 -0.007333001 -0.010269253 0.0032550022
-0.004189014 0.0056681996 0.0027557234 -0.0022072745 -0.003205751 -0.004670834 0.0026365032 -0.01556946
-0.0022939611 0.006473774 -0.003379324 -0.0037516549 0.0010300203 -0.0050495793 -0.0035972253 -0.005151133
0.021459473 0.008086084 -0.000648455 -0.007939091 -0.007250753 -0.005221941 -0.01947213 0.0011382388
-0.017109433 0.0030260335 -0.0039238567 0.010390568 -0.009988503 -0.0044753477 0.010864332 -0.014288781
0.009050183 -0.0026689938 -0.00845467 -0.0116019575 -0.006981915 0.0075184465 -0.007999307 -0.012656864
0.0048563504 -0.008699501 0.014043147 0.0041165943 -0.0070966976 0.007531696 0.0052562146 -0.0023138379
0.009591778 0.0073479693 0.0008333977 0.003824866 -0.0078032245 0.0027843607 -0.0024606031 0.004851164
0.0012703327 -0.006944062 0.0011401612 2.8490065e-05 -0.0044836244 -0.00020672883 0.0014914639 0.006046016
-0.0052986504 0.009319851 -0.0004764653 -0.005744115 6.5316544e-06 0.006923 0.0025068468 0.0007438734
0.0033228877 0.0037862463 0.010631791 0.0046991548 0.0015142494 -0.0063990895 0.00502936 0.004574414
-0.0034416795 0.0018616851 -0.013997771 0.0027284336 9.0338335e-06 0.0029575296 0.0060136546 -0.0036115104
-0.0053403215 0.008707309 -0.010398532 0.0011242012 -0.005888986 -0.008959717 0.0050753364 -0.0027205043
00000000: 27c1 903b 7ee2 95bc 183e eabb 0ab3 8abb
00000010: c8fe 003c 7348 3e3b f63d 02bb a706 6d3b
00000020: f253 903b 6eb9 513a ec15 c9bb 71ef dfbb
00000030: a0bc 36bb 1c3c 16bc fbaf 16bb 283f 9e3b
00000040: 2e07 fdbb 657f 643b aab0 8bbb fca0 b5bb
00000050: 10ac 163c 6ee0 11bb 126e a8bb 93c5 3c3c
00000060: c649 103c 516b 14bc 58d0 493c c025 1dbb
00000070: 3c41 0c3c 4540 62bc b2c3 3a3b 1bdd a63a
00000080: 6989 1cbc 161a f8bb e317 823b 0d62 923c
00000090: a990 2d3c d3f1 41bb 39cf babb 8403 cdbb
000000a0: ad2a 72b9 0035 73bb bef3 f83b 22d6 a1bb
000000b0: 9c36 093c c666 0b3c f964 623a 6180 103c
000000c0: 2b1e 173b d578 aaba 3258 b339 882f 373b
000000d0: 2281 6dbb 4582 ef3b 4d05 7c3b 82ec 25bb
000000e0: c6e9 5dbb 91dd 713b 7acd 3d3b b94d 833a
000000f0: 4cc3 30bc 451c 2239 a2f5 dabb 7c8e 103c
00000100: b93d 163c cec1 1dbb a012 34bb c434 623c
00000110: 7638 30bb cba3 03bc 9740 f23b 43bc f23b
00000120: 2971 9eba a798 753b 3182 cf3b 08ff 7c3a
00000130: af24 2bbc d9e8 00bc 6cd4 1f3c 6b29 c63b
00000140: 1fc6 e4bb 936b 353b db77 b7bb 7aac 94bb
00000150: 9a22 f5bb 1647 e1bb 1f64 23bc 03be 2bbc
00000160: 565c 2fbb a6a9 91bb 82a1 cbbb 1639 703b
00000170: bb0f ffba 0658 1b3c f4b3 bd3b d656 b13b
00000180: d3a8 b63b d12b 6f3b 9da0 b7b9 962d 833b
00000190: 523d 173c 629b 113c 05b3 57bc 4376 0dbc
000001a0: a5e6 2e3c 6bb6 3a3b 9bb4 dd3b ac6f 51bc
000001b0: 0d4e d7bb b9b5 cbbb f88a 363b ced2 5e3a
000001c0: 0208 51bc 7589 2bbc 39c8 6d3a 093d 553b
000001d0: ea0c 273c 9bd9 163b 2b6b a7bb b241 f4bb
000001e0: 25aa 953b 9242 df3b bb28 9a3b 22e7 31bc
000001f0: 8300 32bc 4115 123c c9a9 33bb e482 6ebb
00000200: 2b90 bbbb 95e7 73bc 088a 68bb 297b ffbb
00000210: 29a4 383c df77 94bb ac32 6dbc 7f84 173a
00000220: f468 eabb 0abd d33a 7703 5b3b 87c0 793b
00000230: cb16 b0b8 bf12 24bc b5dc 0cb8 4ffa d7bb
00000240: 3193 27bb fd63 b3bb d1c7 483b 1aee 40bc
00000250: a5ab f3bb 4479 7abb 30e2 82bc c881 9eb9
00000260: 2687 cd3b 5cef b53b f9a4 253c dd62 2fbb
00000270: 31d3 0cbc ac49 f0bb 5e40 28bc e051 553b
00000280: ff43 89bb 4ebc b93b 5e99 343b eca7 10bb
00000290: 9417 52bb cc0d 99bb 2fc9 2c3b 0c17 7fbc
000002a0: 4856 16bb f421 d43b a677 5dbb 53de 75bb
000002b0: bf01 873a f176 a5bb 6dbf 6bbb d6ca a8bb
000002c0: c7cb af3c 7f7b 043c 14fd 29ba f612 02bc
000002d0: ba97 edbb d11c abbb 0484 9fbc f530 953a
000002e0: 1529 8cbc 6b50 463b b293 80bb 333d 2a3c
000002f0: d1a6 23bc f0a5 92bb 5000 323c 7e1b 6abc
00000300: 3847 143c 49ea 2ebb 7585 0abc 2316 3ebc
00000310: 8cc8 e4bb 4d5d f63b 860f 03bc bc5e 4fbc
00000320: 0522 9f3b 5a88 0ebc 3a15 663c 7fe4 863b
00000330: 6a8b e8bb 72cc f63b 533c ac3b c2a3 17bb
00000340: d526 1d3c 3cc7 f03b 5f78 5a3a 9aaa 7a3b
00000350: 31b2 ffbb d279 363b 1242 21bb 83f6 9e3b
00000360: 4b81 a63a 048b e3bb 7671 953a f3fd ee37
00000370: 5eeb 92bb 59c5 58b9 397d c33a a81d c63b
00000380: 4da0 adbb 4ab2 183c 17ce f9b9 2139 bcbb
00000390: 7c2a db36 55da e23b e949 243b 8000 433a
000003a0: cec4 593b ac22 783b f730 2e3c 5efb 993b
000003b0: c779 c63a 74af d1bb 54cd a43b f7e4 953b
000003c0: cd8d 61bb c903 f43a e856 65bc 85cf 323b
000003d0: 0590 1737 1dd3 413b 310e c53b 17af 6cbb
000003e0: ddfd aebb 1aa9 0e3c 9b5e 2abc ef59 933a
000003f0: 65f8 c0bb c7cb 12bc 024f a63b 7d4a 32bb

action_model._continuous_distribution.log_sigma f4 [1, 2]
0.067526974 0.015642455
00000000: 954b 8a3d 9b24 803c

action_model._continuous_distribution.mu.weight f4 [2, 256]
0.021004884 -0.0067857313 -0.018462952 -0.008346259 -0.003999973 0.0031729774 0.02661734 0.00097583694
0.006407893 -0.01640368 0.0067915074 -0.027470121 0.014788906 -0.015354756 -0.008667304 -0.001109178
-0.0033383707 -0.0035053724 6.726907e-05 0.0019449259 0.017503694 -0.0015892348 0.006629642 0.032465577
0.022468943 -0.0229159 0.02492888 -0.02199935 0.016941207 -0.014088596 0.010133406 0.0027990807
0.012275499 -0.025757192 -0.004512889 0.030098487 0.033850618 0.015599434 -0.009033629 -0.035819028
-0.00688157 -0.025175504 0.009916983 -0.0036221312 0.019236267 0.017356537 0.015736846 0.012109256
0.0051467577 -0.010608649 -0.005892523 0.021370633 -0.0072668716 0.013752277 -0.014292254 -0.018533297
-0.0047456766 0.0053791045 0.012838464 0.0041149273 -0.02434981 0.0061059706 -0.033097334 0.027640428
0.025404299 0.011288603 -0.00094057724 0.017391037 0.00053563406 -0.029584449 0.008192158 0.01052458
0.0016658377 0.027064212 0.006329591 -0.012177036 -0.020011688 -0.024390364 0.02580875 0.017791416
-0.008254348 -0.013067757 0.008873309 0.0103808595 -0.016136289 -0.011924364 -0.02639588 -0.009777391
-0.011578998 -0.0044867797 -0.028495336 -0.013187815 -0.018352112 0.027059162 0.0027074171 0.02155415
0.0035198096 0.0155336 -0.0033449174 0.0019662895 0.0113178715 0.009832722 -0.016500048 -0.004402334
0.024277896 0.017685054 0.017240351 -0.015576973 -0.0024062996 -0.024153085 0.0013634963 -0.022071742
-0.013373078 -0.010659139 0.0038204875 0.015248662 0.0131400665 0.0047015254 -0.013347471 -0.012788536
-0.0075046686 0.008511492 0.010160328 -0.0052971737 -0.0079465285 0.019548547 0.009508607 0.0029406236
-0.0005392465 -0.0093216915 -0.0010589375 -0.034485675 0.009984937 0.0019659887 0.0007570018 0.019155411
-0.012478262 -0.00042101025 -0.0027313244 -0.0050651953 0.019324437 -0.019401465 0.008479866 -0.013330022
-0.009675851 -0.009456558 0.025338197 -0.012765676 -0.0048521566 -0.024372477 -0.0013107343 0.0048778844
0.0047077877 -0.007475239 0.0273807 -0.014491044 -0.005557696 -0.012724621 -0.00034473193 0.0051006954
-0.0024564525 0.0011184626 0.0027036953 0.01507862 -0.006367021 -0.0040963064 0.003135124 -0.013407997
-0.042726383 0.016107796 -0.019221472 -0.005126504 -0.0019640087 0.006919591 -0.010136825 0.0066299643
0.016264906 0.016275432 0.0062464387 -0.018580655 0.0110630095 -0.036075987 -0.005917468 -0.006086264
-0.00993735 -0.011507437 -0.019802757 0.030797686 -0.023700641 -0.0052932017 0.04281286 -0.009410118
0.011167369 -0.0067162937 -0.025555892 -0.0051238253 -0.015829599 0.011918886 -0.008634941 -0.01561049
0.0017404265 -0.011873368 0.036874 0.015581649 -0.011659877 0.020261597 0.005595584 0.008259249
0.025771488 0.014180459 0.00646749 0.03515652 -0.0006583181 -0.024342436 0.0015415704 0.0020518831
0.0010369093 -0.008180753 -0.010990189 -0.008437315 -0.008500844 0.0036263107 0.0116884615 0.012734191
0.0035804084 0.019633897 -0.0022254272 -0.015371393 0.0137249855 0.00817184 -0.01225023 0.008244438
0.0031066507 0.014093764 0.040838335 -0.0018808274 0.0033023383 0.003589019 0.0052461703 0.0118404105
0.005923159 -0.016435226 -0.012180798 -0.0018604243 0.0027517607 0.021216815 0.0033611683 -0.022536147
0.001579921 0.010909847 -0.013247972 0.0054463884 -0.027294844 -0.010979796 0.004320889 0.013316529
00000000: 6f12 ac3c d75a debb 9e3f 97bc bfbe 08bc
00000010: 3512 83bb baf1 4f3b 9c0c da3c 4fcf 7f3a
00000020: 4df9 d13b 0361 86bc 4b8b de3b 0509 e1bc
00000030: 2b4d 723c 8492 7bbc 4f01 0ebc d661 91ba
00000040: 91c8 5abb 64ba 65bb cf12 8d38 e2ec fe3a
00000050: e863 8f3c df4d d0ba 783d d93b a0fa 043d
00000060: ca10 b83c 20ba bbbc a737 cc3c fb37 b4bc
00000070: 49c8 8a3c dbd3 66bc 9606 263c c870 373b
00000080: 2d1f 493c bf00 d3bc dbe0 93bb 1a91 f63c
00000090: f2a6 0a3d c594 7f3c c901 14bc f9b6 12bd
000000a0: cb7e e1bb dc3c cebc d77a 223c 4761 6dbb
000000b0: 6095 9d3c 4c2f 8e3c 8fea 803c e765 463c
000000c0: 22a6 a83b e6cf 2dbc 1116 c1bb 7711 af3c
000000d0: f01e eebb 3b51 613c 0f2a 6abc 24d3 97bc
000000e0: 9f81 9bbb 3343 b03b 6c58 523c 83d6 863b
000000f0: 4179 c7bc 9814 c83b 1291 07bd 2e6e e23c
00000100: ad1c d03c d5f3 383c 1291 76ba a677 8e3c
00000110: cb69 0c3a 165b f2bc 6738 063c 4a6f 2c3c
00000120: 3d58 da3a c4b5 dd3c 7568 cf3b 3182 47bc
00000130: 8def a3bc 4dce c7bc df6c d33c 4ebf 913c
00000140: 3f3d 07bc 251a 56bc 5b61 113c 7b14 2a3c
00000150: 4030 84bc 685e 43bc 2c3c d8bc 5a31 20bc
00000160: d6b5 3dbc d605 93bb 0d6f e9bc b511 58bc
00000170: 2b57 96bc 2dab dd3c ec6e 313b 5492 b03c
00000180: 9bac 663b a480 7e3c 6736 5bbb dddc 003b
00000190: 986e 393c 6d19 213c 1c2b 87bc 7441 90bb
000001a0: 70e2 c63c 3fe0 903c a33b 8d3c 8f36 7fbc
000001b0: 02b3 1dbb b1dc c5bc 58b7 b23a cccf b4bc
000001c0: c11a 5bbc aba3 2ebc 2561 7a3b 86d5 793c
000001d0: 6f49 573c 410f 9a3b 5aaf 5abc 0287 51bc
000001e0: b9e9 f5bb c973 0b3c 8177 263c ea93 adbb
000001f0: 2832 02bc 4624 a03c fdc9 1b3c 7ab7 403b
00000200: 385c 0dba 02ba 18bc 0ccc 8aba da40 0dbd
00000210: dc97 233c d1d7 003b 8871 463a cfeb 9c3c
00000220: a071 4cbc 0abb dcb9 0500 33bb f0f9 a5bb
00000230: 484e 9e3c d2ef 9ebc 23ef 0a3c 2a66 5abc
00000240: 7687 1ebc aeef 1abc 0d92 cf3c 2027 51bc
00000250: d7fe 9ebb caa8 c7bc f2cc abba a9d6 9f3b
00000260: c943 9a3b daf2 f4bb 7d4d e03c d86b 6dbc
00000270: 551d b6bb ee7a 50bc 23bd b4b9 bc23 a73b
00000280: 6ffc 20bb 6199 923a 7b30 313b 510c 773c
00000290: 71a2 d0bb 4f3a 86bb a776 4d3b 37ad 5bbc
000002a0: dc01 2fbd 7ff4 833c 5976 9dbc 3cfc a7bb
000002b0: 99b6 00bb bdbd e23b ed14 26bc 2c40 d93b
000002c0: fb3d 853c 0e54 853c edae cc3b 7536 98bc
000002d0: a041 353c 6ac4 13bd 52e7 c1bb 486f c7bb
000002e0: 44d0 22bc b089 3cbc 6439 a2bc 6e4b fc3c
000002f0: d927 c2bc 9872 adbb 8a5c 2f3d e52c 1abc
00000300: 57f7 363c 5b14 dcbb 975a d1bc c3e5 a7bb
00000310: 13ad 81bc 6e47 433c 9179 0dbc 24c3 7fbc
00000320: 061f e43a 8488 42bc 3109 173d 2c4a 7f3c
00000330: 1209 3fbc a6fb a53c 295b b73b cd51 073c
00000340: ba1e d33c 2855 683c 3ded d33b 4800 103d
00000350: fb92 2cba ca69 c7bc 850e ca3a e378 063b
00000360: e7e8 873a 9108 06bc 3210 34bc aa3c 0abc
00000370: 2047 0bbc 66a7 6d3b f680 3f3c 11a3 503c
00000380: 49a5 6a3b 44d7 a03c 79d8 11bb 4cd8 7bbc
00000390: c3de 603c 2ee3 053c 30b5 48bc ae13 073c
000003a0: f398 4b3b 88e9 663c 1946 273d 1886 f6ba
000003b0: 0b6c 583b bf35 6b3b 11e8 ab3b 48fe 413c
000003c0: 0f17 c23b 2ba3 86bc f891 47bc 7bd9 f3ba
000003d0: e256 343b e3ce ad3c 0c47 5c3b ba9d b8bc
000003e0: 5a15 cf3a 37bf 323c 060e 59bc 9e77 b23b
000003f0: 7099 dfbc 9ae4 33bc 3e96 8d3b 922d 5a3c

action_model._continuous_distribution.mu.bias f4 [2]
0.007946338 -0.0046110833
00000000: 5b31 023c 9218 97bb

exp_avg f4 [256, 28]
0.0 0.0 2.1961587e-37 9.254065e-08 0.0 0.0 2.1961587e-37 1.687909e-07
0.0 0.0 2.1961587e-37 7.7776996e-08 -1.5355157e-07 0.0 1.4597337e-05 2.7334108e-05
0.0 0.0 2.1961587e-37 8.142743e-08 -4.239759e-06 0.0 -2.899603e-06 1.4601898e-05
0.0 0.0 2.1961587e-37 1.0487199e-07 0.0 0.0 -5.82016e-39 -1.9985555e-08
0.0 0.0 -5.82016e-39 -3.6717726e-08 0.0 0.0 -5.82016e-39 -1.6726583e-08
2.392257e-07 0.0 -1.99824e-06 -5.991766e-06 0.0 0.0 -5.82016e-39 -1.7530438e-08
5.102496e-07 0.0 -2.744102e-07 -5.1685006e-06 0.0 0.0 -5.82016e-39 -2.2561382e-08
0.0 0.0 -4.442312e-37 -9.9506e-08 0.0 0.0 -4.442312e-37 -1.8139824e-07
0.0 0.0 -4.442312e-37 -8.325322e-08 1.4672307e-06 0.0 -3.104856e-05 -4.3083466e-05
0.0 0.0 -4.442312e-37 -8.6714614e-08 1.7356672e-06 0.0 -1.709973e-05 -3.3551707e-05
0.0 0.0 -4.442312e-37 -1.1196748e-07 0.0 0.0 5.497011e-39 7.8815894e-08
0.0 0.0 5.497011e-39 1.4062564e-07 0.0 0.0 5.497011e-39 6.694602e-08
2.5991144e-06 0.0 6.8651993e-06 7.5660973e-06 0.0 0.0 5.497011e-39 6.9720855e-08
-2.1237172e-06 0.0 -6.380354e-07 4.3837344e-06 0.0 0.0 5.497011e-39 8.9663395e-08
0.0 0.0 3.3819582e-38 -2.778898e-08 0.0 0.0 3.3819582e-38 -5.0662234e-08
0.0 0.0 3.3819582e-38 -2.342157e-08 -1.6543433e-08 0.0 -3.2014746e-06 -6.764377e-06
0.0 0.0 3.3819582e-38 -2.4572715e-08 1.1114305e-06 0.0 3.2891676e-06 -2.586305e-06
0.0 0.0 3.3819582e-38 -3.163913e-08 0.0 0.0 2.403582e-37 4.0025256e-08
0.0 0.0 2.403582e-37 7.281634e-08 0.0 0.0 2.403582e-37 3.3997633e-08
7.3445494e-07 0.0 -1.1281201e-06 2.9933492e-06 0.0 0.0 2.403582e-37 3.5921097e-08
-2.4901788e-06 0.0 -1.6277812e-05 -6.4276733e-06 0.0 0.0 2.403582e-37 4.6128843e-08
0.0 0.0 3.6880194e-37 1.0328201e-07 0.0 0.0 3.6880194e-37 1.8907771e-07
0.0 0.0 3.6880194e-37 8.6354135e-08 -1.9695053e-06 0.0 2.448195e-05 4.08676e-05
0.0 0.0 3.6880194e-37 9.016744e-08 -2.3060388e-06 0.0 1.1411899e-05 3.3152377e-05
0.0 0.0 3.6880194e-37 1.1629762e-07 0.0 0.0 -2.5852373e-38 -4.160959e-08
0.0 0.0 -2.5852373e-38 -7.4866406e-08 0.0 0.0 -2.5852373e-38 -3.536432e-08
-8.375022e-07 0.0 5.7469896e-07 -2.3571367e-06 0.0 0.0 -2.5852373e-38 -3.7036273e-08
1.5406415e-06 0.0 7.647424e-06 1.6709765e-06 0.0 0.0 -2.5852373e-38 -4.7579878e-08
0.0 0.0 -1.3038998e-38 -4.3055444e-08 0.0 0.0 -1.3038998e-38 -7.703985e-08
0.0 0.0 -1.3038998e-38 -3.696909e-08 -2.1377145e-06 0.0 6.818231e-06 6.697643e-06
0.0 0.0 -1.3038998e-38 -3.903335e-08 2.7049323e-06 0.0 2.50252e-05 1.6095788e-05
0.0 0.0 -1.3038998e-38 -5.0012883e-08 0.0 0.0 -7.5934783e-38 -6.55627e-08
00000000: 0000 0000 0000 0000 7b76 9502 c3ba c633
00000010: 0000 0000 0000 0000 7b76 9502 e43c 3534
00000020: 0000 0000 0000 0000 7b76 9502 5b06 a733
00000030: efdf 24b4 0000 0000 16e7 7437 8d4b e537
00000040: 0000 0000 0000 0000 7b76 9502 34dd ae33
00000050: 4143 8eb6 0000 0000 cd96 42b6 adfa 7437
00000060: 0000 0000 0000 0000 7b76 9502 fc35 e133
00000070: 0000 0000 0000 0000 3d60 3f80 b3ac abb2
00000080: 0000 0000 0000 0000 3d60 3f80 91b3 1db3
00000090: 0000 0000 0000 0000 3d60 3f80 25ae 8fb2
000000a0: ee6e 8034 0000 0000 8019 06b6 e10c c9b6
000000b0: 0000 0000 0000 0000 3d60 3f80 d795 96b2
000000c0: 16f8 0835 0000 0000 a752 93b4 156d adb6
000000d0: 0000 0000 0000 0000 3d60 3f80 01cd c1b2
000000e0: 0000 0000 0000 0000 ff29 1783 01b0 d5b3
000000f0: 0000 0000 0000 0000 ff29 1783 5ec6 42b4
00000100: 0000 0000 0000 0000 ff29 1783 f1c8 b2b3
00000110: aaed c435 0000 0000 233a 02b8 85b4 34b8
00000120: 0000 0000 0000 0000 ff29 1783 dd37 bab3
00000130: 12f5 e835 0000 0000 6471 8fb7 dfb9 0cb8
00000140: 0000 0000 0000 0000 ff29 1783 c672 f0b3
00000150: 0000 0000 0000 0000 6edb 3b00 7f41 a933
00000160: 0000 0000 0000 0000 6edb 3b00 e2fe 1634
00000170: 0000 0000 0000 0000 6edb 3b00 f7c3 8f33
00000180: 726c 2e36 0000 0000 9d5b e636 48e0 fd36
00000190: 0000 0000 0000 0000 6edb 3b00 72b9 9533
000001a0: 2f85 0eb6 0000 0000 7545 2bb5 fe17 9336
000001b0: 0000 0000 0000 0000 6edb 3b00 f98c c033
000001c0: 0000 0000 0000 0000 9e21 3801 9db4 eeb2
000001d0: 0000 0000 0000 0000 9e21 3801 b797 59b3
000001e0: 0000 0000 0000 0000 9e21 3801 9430 c9b2
000001f0: 651b 8eb2 0000 0000 ead8 56b6 8ef9 e2b6
00000200: 0000 0000 0000 0000 9e21 3801 f913 d3b2
00000210: 762c 9535 0000 0000 78bb 5c36 6290 2db6
00000220: 0000 0000 0000 0000 9e21 3801 97e3 07b3
00000230: 0000 0000 0000 0000 4e94 a302 3ce8 2b33
00000240: 0000 0000 0000 0000 4e94 a302 355f 9c33
00000250: 0000 0000 0000 0000 4e94 a302 cb04 1233
00000260: 5c27 4535 0000 0000 e969 97b5 59e1 4836
00000270: 0000 0000 0000 0000 4e94 a302 aa47 1a33
00000280: f21c 27b6 0000 0000 568c 88b7 4bad d7b6
00000290: 0000 0000 0000 0000 4e94 a302 331f 4633
000002a0: 0000 0000 0000 0000 5cfe fa02 e3cb dd33
000002b0: 0000 0000 0000 0000 5cfe fa02 4905 4b34
000002c0: 0000 0000 0000 0000 5cfe fa02 b071 b933
000002d0: d82b 04b6 0000 0000 965e cd37 4069 2b38
000002e0: 0000 0000 0000 0000 5cfe fa02 13a2 c133
000002f0: 72c1 1ab6 0000 0000 bc75 3f37 180d 0b38
00000300: 0000 0000 0000 0000 5cfe fa02 4bbf f933
00000310: 0000 0000 0000 0000 f3c0 0c81 3ab6 32b3
00000320: 0000 0000 0000 0000 f3c0 0c81 3ec6 a0b3
00000330: 0000 0000 0000 0000 f3c0 0c81 7be3 17b3
00000340: b7d0 60b5 0000 0000 0345 1a35 4d2f 1eb6
00000350: 0000 0000 0000 0000 f3c0 0c81 d011 1fb3
00000360: 0ac8 ce35 0000 0000 704d 0037 5146 e035
00000370: 0000 0000 0000 0000 f3c0 0c81 a15a 4cb3
00000380: 0000 0000 0000 0000 6cfb 8d80 f6eb 38b3
00000390: 0000 0000 0000 0000 6cfb 8d80 1b71 a5b3
000003a0: 0000 0000 0000 0000 6cfb 8d80 f2c7 1eb3
000003b0: a875 0fb6 0000 0000 29c8 e436 51bc e036
000003c0: 0000 0000 0000 0000 6cfb 8d80 9fa5 27b3
000003d0: 6286 3536 0000 0000 35ed d137 7105 8737
000003e0: 0000 0000 0000 0000 6cfb 8d80 bfcd 56b3
000003f0: 0000 0000 0000 0000 d2b6 ce81 7acb 8cb3

exp_avg_sq f4 [256, 28]
0.0 0.0 6.269484e-17 2.8262154e-14 0.0 0.0 6.269484e-17 9.123919e-14
0.0 0.0 6.269484e-17 1.9805062e-14 1.1277035e-10 0.0 1.9387525e-09 2.7898055e-09
0.0 0.0 6.269484e-17 2.1018826e-14 2.4335603e-10 0.0 1.7652878e-09 2.6600022e-09
0.0 0.0 6.269484e-17 3.5141107e-14 0.0 0.0 1.02630884e-19 1.795032e-15
0.0 0.0 1.02630884e-19 5.814221e-15 0.0 0.0 1.02630884e-19 1.2554868e-15
6.4119604e-12 0.0 2.6841088e-11 1.036236e-10 0.0 0.0 1.02630884e-19 1.330917e-15
6.38021e-12 0.0 8.506662e-11 1.4760321e-10 0.0 0.0 1.02630884e-19 2.2278142e-15
0.0 0.0 1.8267656e-16 9.314602e-14 0.0 0.0 1.8267656e-16 3.0153397e-13
0.0 0.0 1.8267656e-16 6.519013e-14 7.730379e-11 0.0 1.6930112e-08 1.9243409e-08
0.0 0.0 1.8267656e-16 6.911026e-14 1.7243715e-10 0.0 1.7946395e-08 2.000086e-08
0.0 0.0 1.8267656e-16 1.1548954e-13 0.0 0.0 1.3666121e-19 2.5913763e-14
0.0 0.0 1.3666121e-19 8.388012e-14 0.0 0.0 1.3666121e-19 1.8088224e-14
1.8325698e-10 0.0 1.8215e-10 1.1518957e-09 0.0 0.0 1.3666121e-19 1.915177e-14
2.1146578e-10 0.0 2.898208e-10 1.4226004e-09 0.0 0.0 1.3666121e-19 3.201204e-14
0.0 0.0 1.1328072e-17 1.7490636e-14 0.0 0.0 1.1328072e-17 5.655972e-14
0.0 0.0 1.1328072e-17 1.2241429e-14 7.528421e-11 0.0 2.5268714e-09 2.8710838e-09
0.0 0.0 1.1328072e-17 1.2970077e-14 7.7046654e-11 0.0 2.5125175e-09 2.9262792e-09
0.0 0.0 1.1328072e-17 2.1625156e-14 0.0 0.0 1.1700012e-16 1.6732672e-14
0.0 0.0 1.1700012e-16 5.3803906e-14 0.0 0.0 1.1700012e-16 1.17478735e-14
6.066308e-11 0.0 2.4322533e-09 2.9212333e-09 0.0 0.0 1.1700012e-16 1.24518875e-14
6.8038145e-11 0.0 2.719824e-09 3.1054255e-09 0.0 0.0 1.1700012e-16 2.0732636e-14
0.0 0.0 5.2333565e-16 6.890588e-14 0.0 0.0 5.2333565e-16 2.2112966e-13
0.0 0.0 5.2333565e-16 4.845591e-14 1.4506589e-10 0.0 8.057752e-09 1.0056865e-08
0.0 0.0 5.2333565e-16 5.1345955e-14 1.6233052e-10 0.0 9.269587e-09 1.0972476e-08
0.0 0.0 5.2333565e-16 8.528861e-14 0.0 0.0 9.703799e-18 9.157871e-15
0.0 0.0 9.703799e-18 2.9618774e-14 0.0 0.0 9.703799e-18 6.401981e-15
4.1853906e-11 0.0 4.7209475e-10 7.172376e-10 0.0 0.0 9.703799e-18 6.782345e-15
4.9733936e-11 0.0 5.674921e-10 8.288677e-10 0.0 0.0 9.703799e-18 1.13119344e-14
0.0 0.0 3.5903042e-18 3.655878e-14 0.0 0.0 3.5903042e-18 1.184131e-13
0.0 0.0 3.5903042e-18 2.555218e-14 9.6071456e-11 0.0 3.899306e-09 4.9837325e-09
0.0 0.0 3.5903042e-18 2.7085864e-14 1.5323014e-10 0.0 3.7124646e-09 4.98038e-09
0.0 0.0 3.5903042e-18 4.5249293e-14 0.0 0.0 5.0042323e-17 9.910274e-15
00000000: 0000 0000 0000 0000 8090 9024 1790 fe28
00000010: 0000 0000 0000 0000 8090 9024 d073 cd29
00000020: 0000 0000 0000 0000 8090 9024 5d63 b228
00000030: 10fc f72e 0000 0000 e53a 0531 c7b6 3f31
00000040: 0000 0000 0000 0000 8090 9024 1d52 bd28
00000050: 51c9 852f 0000 0000 8b9e f230 41cb 3631
00000060: 0000 0000 0000 0000 8090 9024 f042 1e29
00000070: 0000 0000 0000 0000 9054 f21f 7f58 0127
00000080: 0000 0000 0000 0000 9054 f21f b97a d127
00000090: 0000 0000 0000 0000 9054 f21f 4aef b426
000000a0: ce99 e12c 0000 0000 c218 ec2d e7de e32e
000000b0: 0000 0000 0000 0000 9054 f21f 2cce bf26
000000c0: d37b e02c 0000 0000 4010 bb2e 9c4a 222f
000000d0: 0000 0000 0000 0000 9054 f21f eb87 2027
000000e0: 0000 0000 0000 0000 9b9c 5225 06bf d129
000000f0: 0000 0000 0000 0000 9b9c 5225 a0bf a92a
00000100: 0000 0000 0000 0000 9b9c 5225 8dcb 9229
00000110: 2afe a92e 0000 0000 b66d 9132 b44c a532
00000120: 0000 0000 0000 0000 9b9c 5225 5a9f 9b29
00000130: be98 3d2f 0000 0000 8a28 9a32 5bce ab32
00000140: 0000 0000 0000 0000 9b9c 5225 9807 022a
00000150: 0000 0000 0000 0000 5157 2120 1269 e928
00000160: 0000 0000 0000 0000 5157 2120 99e1 bc29
00000170: 0000 0000 0000 0000 5157 2120 9bec a228
00000180: 417e 492f 0000 0000 ab46 482f ba50 9e30
00000190: 0000 0000 0000 0000 5157 2120 fa80 ac28
000001a0: 5382 682f 0000 0000 a754 9f2f 4d85 c330
000001b0: 0000 0000 0000 0000 5157 2120 5f2b 1029
000001c0: 0000 0000 0000 0000 4ff7 5023 a98a 9d28
000001d0: 0000 0000 0000 0000 4ff7 5023 ebb8 7e29
000001e0: 0000 0000 0000 0000 4ff7 5023 a185 5c28
000001f0: 3e8d a52e 0000 0000 31a5 2d31 a44c 4531
00000200: 0000 0000 0000 0000 4ff7 5023 eca5 6928
00000210: 696d a92e 0000 0000 ada8 2c31 a617 4931
00000220: 0000 0000 0000 0000 4ff7 5023 37c8 c228
00000230: 0000 0000 0000 0000 57e4 0625 eab6 9628
00000240: 0000 0000 0000 0000 57e4 0625 ae4f 7229
00000250: 0000 0000 0000 0000 57e4 0625 81a1 5328
00000260: 4766 852e 0000 0000 a724 2731 e1be 4831
00000270: 0000 0000 0000 0000 57e4 0625 3250 6028
00000280: 129e 952e 0000 0000 a6e7 3a31 3967 5531
00000290: 0000 0000 0000 0000 57e4 0625 34be ba28
000002a0: 0000 0000 0000 0000 5bd7 1626 8929 9b29
000002b0: 0000 0000 0000 0000 5bd7 1626 49f8 782a
000002c0: 0000 0000 0000 0000 5bd7 1626 dc39 5a29
000002d0: 6b80 1f2f 0000 0000 5e6e 0a32 8fc6 2c32
000002e0: 0000 0000 0000 0000 5bd7 1626 db3d 6729
000002f0: fb7b 322f 0000 0000 1340 1f32 7681 3c32
00000300: 0000 0000 0000 0000 5bd7 1626 890d c029
00000310: 0000 0000 0000 0000 e500 3323 3af9 2428
00000320: 0000 0000 0000 0000 e500 3323 1f64 0529
00000330: 0000 0000 0000 0000 e500 3323 daa7 e627
00000340: 4f13 382e 0000 0000 b7c4 0130 1c27 4530
00000350: 0000 0000 0000 0000 e500 3323 175c f427
00000360: 6fbb 5a2e 0000 0000 b5fd 1b30 61d6 6330
00000370: 0000 0000 0000 0000 e500 3323 17c7 4b28
00000380: 0000 0000 0000 0000 7775 8422 67a5 2429
00000390: 0000 0000 0000 0000 7775 8422 4152 052a
000003a0: 0000 0000 0000 0000 7775 8422 5127 e628
000003b0: 6c43 d32e 0000 0000 a9fa 8531 603d ab31
000003c0: 0000 0000 0000 0000 7775 8422 c0f7 f328
000003d0: 737a 282f 0000 0000 5e1e 7f31 e31f ab31
000003e0: 0000 0000 0000 0000 7775 8422 e2c8 4b29
000003f0: 0000 0000 0000 0000 8cc7 6624 1287 3228

exp_avg f4 [256]
4.8325182e-05 -1.0365489e-05 -5.217827e-05 4.1702293e-05 -1.458262e-05 2.112068e-05 5.3928754e-05 -2.1952868e-05
-2.2901824e-05 -3.424388e-05 1.8354787e-05 -5.201769e-05 5.6687266e-05 1.3019116e-05 -1.4974581e-05 -2.699815e-05
9.404421e-06 6.4047934e-05 -1.1001328e-05 1.1397571e-07 -5.4113025e-06 -2.6007858e-05 2.3066983e-05 2.4395888e-06
-3.6753875e-06 -4.6498364e-05 1.4230155e-05 -5.172167e-05 -3.2601797e-06 3.3562833e-06 4.5882865e-05 1.8718069e-05
1.4516178e-05 -1.8635226e-05 -2.5647367e-05 2.8092076e-05 3.000144e-05 5.21579e-05 -2.4723367e-05 -3.2614254e-05
4.9122755e-05 -5.8754373e-05 7.090132e-06 -2.6101327e-06 2.218262e-06 3.0183306e-05 7.632467e-05 -1.5854459e-05
2.1155178e-05 -4.393205e-05 6.5237773e-06 6.037927e-05 -2.0894238e-05 1.4664011e-05 1.7665052e-05 -2.6382626e-05
-2.2176622e-05 -1.4545412e-05 2.5192472e-05 5.437426e-05 -3.157426e-05 7.523099e-07 -5.874952e-05 1.7601767e-05
-2.4218948e-06 -7.006765e-06 2.437059e-05 9.817211e-06 1.1523228e-05 -3.0441126e-05 -8.116098e-06 -1.6314871e-06
3.0012363e-06 9.2252485e-05 2.5691209e-06 -2.3726625e-05 -1.1743277e-05 2.6763584e-07 3.712287e-05 3.716317e-05
9.180289e-06 -1.709616e-05 5.1576662e-05 3.7926853e-05 -3.7620026e-05 6.709272e-06 -1.6474589e-05 1.7410834e-05
1.6347229e-05 1.8287572e-05 -3.5765966e-05 -1.3183742e-05 -6.2965686e-05 4.5315296e-06 5.184467e-06 4.5450026e-05
-6.821691e-06 6.299618e-05 -2.73865e-05 -2.2798533e-05 6.9831344e-06 1.3819437e-05 -1.6450731e-05 1.3488976e-05
7.0199276e-06 2.2663793e-05 3.9953407e-05 -1.1837762e-05 -1.1625822e-05 -7.4919603e-06 -2.292958e-05 1.6430662e-05
-1.9226687e-05 -3.0025183e-05 2.9259016e-05 3.5134337e-07 -3.0710917e-06 -1.4239421e-05 -4.4146618e-05 -3.941135e-05
-2.7587601e-05 1.3783633e-05 9.934262e-06 1.4128501e-05 9.162265e-06 -3.0714966e-06 3.5994985e-05 2.2467362e-05
2.2209699e-05 3.6165516e-06 3.366918e-05 -5.939313e-05 -9.023244e-06 2.5202025e-05 5.257974e-06 4.5192235e-05
-3.3899796e-05 3.8956583e-05 2.5149775e-06 -4.5371653e-05 7.108946e-05 1.6698948e-05 3.0728334e-05 8.045477e-06
-7.001753e-05 2.4117955e-05 8.9362446e-05 -1.3816482e-05 -1.4525826e-05 -6.9282316e-05 5.468041e-06 4.450272e-05
-3.2311132e-06 -1.0626257e-05 5.413449e-05 -5.8492267e-05 -1.02158465e-05 1.3500279e-06 1.1913854e-05 -3.5471236e-05
-1.32586165e-05 -2.9556802e-05 3.157743e-05 2.3177146e-05 -7.1264917e-06 -1.9971934e-05 5.310876e-05 4.0136188e-06
-0.00010481231 4.0520754e-05 -2.628977e-05 8.577365e-06 -1.8556777e-05 3.0346842e-05 -2.2250973e-05 2.6896772e-05
4.7503917e-07 7.905944e-06 3.5805075e-05 -3.473214e-05 2.7774201e-06 -9.495187e-05 -4.280084e-06 1.1751011e-05
-1.0682471e-05 -1.5654123e-05 -3.7245405e-05 3.6150544e-05 -4.375577e-05 -1.8930667e-06 6.695894e-05 7.008552e-06
-3.6414683e-06 3.3775974e-05 -2.3073937e-05 -3.390971e-06 -1.7103499e-05 1.1998449e-05 -1.9691954e-06 -8.95875e-06
3.4197142e-06 -1.5449274e-05 4.3153323e-05 6.631043e-05 -3.1732154e-05 -8.47725e-06 1.958639e-05 3.7901224e-05
3.0388972e-05 -1.6414493e-05 -4.585972e-06 6.415892e-05 1.5451225e-05 -4.1309086e-05 1.563024e-05 -1.21587545e-05
3.196015e-05 9.243672e-06 4.3803717e-05 2.4359191e-05 -2.9773102e-05 -2.4352998e-05 5.3159976e-05 4.2267573e-05
4.179982e-06 4.3022133e-05 -2.2000419e-05 -3.5888188e-05 1.5931413e-05 -1.717613e-05 -7.993441e-05 3.5731817e-05
-6.0591856e-06 1.2645812e-05 6.193268e-05 -1.4063494e-07 4.7072248e-05 -8.664777e-06 -2.605971e-05 2.9463987e-05
1.3462475e-05 3.7469013e-05 -7.755297e-06 -3.080811e-05 7.420786e-06 5.7898567e-05 -2.027995e-05 -8.222835e-05
2.9735138e-05 2.617816e-05 -2.6687792e-05 3.0399691e-05 -3.101214e-05 -3.1909126e-06 2.793839e-05 4.1650022e-05
00000000: c5b0 4a38 70e7 2db7 fed9 5ab8 7fe9 2e38
00000010: e0a7 74b7 512c b137 8f31 6238 6d27 b8b7
00000020: 4b1d c0b7 16a1 0fb8 9bf8 9937 922d 5ab8
00000030: 7dc3 6d38 ad6c 5a37 563b 7bb7 167a e2b7
00000040: aec7 1d37 7951 8638 5892 38b7 cfc2 f433
00000050: bc92 b5b6 732b dab7 f87f c137 d1b7 2336
00000060: ada6 76b6 3d07 43b8 0dbe 6e37 b8ef 58b8
00000070: 76c9 5ab6 823c 6136 5a72 4038 bf04 9d37
00000080: 838a 7337 d852 9cb7 4d25 d7b7 46a7 eb37
00000090: 9aab fb37 1ec4 5a38 0765 cfb7 4acb 08b8
000000a0: 2809 4e38 076f 76b8 c5e7 ed36 bd29 2fb6
000000b0: 73dd 1436 2832 fd37 7f10 a038 31ff 84b7
000000c0: 6676 b137 ae43 38b8 d2e6 da36 bf3f 7d38
000000d0: 0946 afb7 7305 7637 692f 9437 4250 ddb7
000000e0: ef07 bab7 1208 74b7 6c54 d337 eb0f 6438
000000f0: 9b6e 04b8 58f2 4935 d169 76b8 82a7 9337
00000100: d687 22b6 a71b ebb6 726f cc37 9ab4 2437
00000110: e353 4137 d25b ffb7 602a 08b7 78f9 dab5
00000120: d968 4936 ad77 c138 2969 2c36 8a08 c7b7
00000130: fe04 45b7 97af 8f34 61b4 1b38 a6df 1b38
00000140: 0b05 1a37 b969 8fb7 0554 5838 a613 1f38
00000150: 32ca 1db8 3520 e136 e932 8ab7 7b0d 9237
00000160: 6821 8937 4368 9937 6a03 16b8 be2f 5db7
00000170: 720c 84b8 8b0d 9836 3cf6 ad36 98a1 3e38
00000180: e1e5 e4b6 d11c 8438 10bc e5b7 7a3f bfb7
00000190: ab50 ea36 08da 6737 adff 89b7 b64e 6237
000001a0: b88c eb36 201e be37 a593 2738 cd9a 46b7
000001b0: 860c 43b7 7363 fbb6 e658 c0b7 94d4 8937
000001c0: ff48 a1b7 97de fbb7 4271 f537 44a0 bc34
000001d0: f418 4eb6 d9e5 6eb7 122a 39b8 9d4d 25b8
000001e0: ec6b e7b7 4140 6737 55ab 2637 7309 6d37
000001f0: a1b7 1937 e91f 4eb6 52f9 1638 4b78 bc37
00000200: f74e ba37 e2b3 7236 0238 0d38 e31c 79b8
00000210: 8a62 17b7 f068 d337 a76d b036 cb8c 3d38
00000220: a12f 0eb8 5065 2338 fcc6 2836 714d 3eb8
00000230: dd15 9538 b814 8c37 4ce2 0038 10fb 0637
00000240: 60d6 92b8 ea50 ca37 1968 bb38 57cd 67b7
00000250: f3b3 73b7 a94b 91b8 1d7a b736 6fa8 3a38
00000260: 1ad6 58b6 6d47 32b7 770e 6338 9855 75b8
00000270: ba64 2bb7 9b32 b535 9de1 4737 f3c6 14b8
00000280: 5371 5eb7 c0f0 f7b7 0272 0438 8b6c c237
00000290: 1920 efb6 6789 a7b7 19c1 5e38 b9ac 8636
000002a0: aece dbb8 d4f4 2938 da88 dcb7 81e7 0f37
000002b0: 60aa 9bb7 5991 fe37 9aa7 bab7 61a0 e137
000002c0: e308 ff34 c5a3 0437 682d 1638 5aad 11b8
000002d0: b763 3a36 e620 c7b8 a49d 8fb6 3526 4537
000002e0: dd38 33b7 f950 83b7 f337 1cb8 5aa0 1738
000002f0: 6686 37b8 4715 feb5 4f6c 8c38 012b eb36
00000300: f35f 74b6 adaa 0d38 e78e c1b7 7090 63b6
00000310: 7c79 8fb7 f24c 4937 8526 04b6 8a4d 16b7
00000320: 3e7e 6536 1099 81b7 87ff 3438 2410 8b38
00000330: 2418 05b8 8339 0eb7 744d a437 21f8 1e38
00000340: d2eb fe37 dbb1 89b7 33e1 99b6 0f8d 8638
00000350: 419d 8137 4b43 2db8 af1d 8337 74fd 4bb7
00000360: f30c 0638 4515 1b37 e2b9 3738 f756 cc37
00000370: 40c1 f9b7 aa49 ccb7 17f8 5e38 7648 3138
00000380: c641 8c36 aa72 3438 8a8d b8b7 a686 16b8
00000390: 73a4 8537 7515 90b7 76a2 a7b8 bfde 1538
000003a0: 0250 cbb6 5929 5437 dbe1 8138 7001 17b4
000003b0: 716f 4538 ef5e 11b7 cd9a dab7 6e29 f737
000003c0: e4dc 6137 0c28 1d38 bf1c 02b7 f537 01b8
000003d0: 1100 f936 1dd8 7238 dc1e aab7 0272 acb8
000003e0: b96f f937 2c99 db37 99df dfb7 d702 ff37
000003f0: 0813 02b8 7623 56b6 3c5d ea37 5fb1 2e38

exp_avg_sq f4 [256]
7.798906e-09 4.9593624e-10 2.5640212e-08 7.1335577e-09 4.807858e-09 4.5599897e-09 1.865829e-08 2.511995e-09
1.0058036e-08 2.6927283e-09 3.7371213e-09 6.3020615e-08 2.219077e-08 2.5948754e-08 1.80314e-09 5.0332034e-08
7.915773e-10 1.5168347e-08 5.503565e-10 1.4593242e-09 8.22722e-08 1.2775111e-08 3.8787955e-09 5.986338e-08
2.5004367e-08 5.0231734e-09 1.5495282e-08 1.5639806e-08 3.5088174e-08 4.15552e-09 1.2239007e-08 2.1342945e-09
3.357978e-09 2.465127e-08 3.0997953e-09 2.2708262e-08 8.012746e-08 1.1403611e-08 1.4752259e-09 2.4602457e-08
1.9605706e-08 2.4229196e-08 1.2060867e-09 6.3333655e-10 2.751755e-08 1.1946225e-08 2.987655e-08 1.6244922e-08
2.3295943e-09 2.1816788e-08 2.5927036e-09 1.6845433e-08 5.937385e-09 2.8422642e-08 1.7261172e-08 9.406262e-09
1.1795945e-09 4.5224353e-09 4.9623092e-09 1.5054413e-08 1.0673923e-08 1.4895168e-09 1.2196609e-08 5.0117706e-08
4.1173262e-08 6.482701e-09 2.2174034e-09 6.9033637e-09 1.8263129e-09 4.0462016e-08 2.819302e-08 4.0523416e-09
1.9780966e-09 3.696314e-08 8.3737733e-10 1.3671156e-09 9.041523e-09 2.6054849e-08 3.354307e-08 6.2382717e-09
2.0911544e-08 2.6771478e-09 3.3836308e-08 1.0688553e-08 1.3832227e-08 4.173117e-09 1.5352468e-08 7.081031e-09
9.051825e-09 3.4136354e-09 7.588784e-09 4.3659654e-09 1.640635e-08 4.0183384e-08 1.4912112e-09 1.254894e-08
2.7501684e-08 1.626451e-08 2.4761637e-09 3.522556e-09 1.1041148e-08 1.3361987e-08 3.2166136e-09 3.689857e-08
4.266575e-08 5.71246e-09 8.44635e-09 4.2330193e-09 3.106663e-10 1.3756606e-08 1.6158836e-08 3.679876e-08
1.5793229e-09 5.816811e-09 1.6173487e-09 1.3073455e-08 1.1117101e-08 3.1037957e-09 7.943588e-09 8.663831e-09
8.484323e-09 9.85139e-09 3.6829814e-08 6.3651036e-09 2.3916036e-09 6.964432e-08 5.450953e-09 1.9464446e-09
6.3351875e-09 6.484015e-09 5.2674105e-09 3.3843328e-08 2.3397095e-09 3.4185679e-09 6.3774563e-10 1.1538736e-08
1.2711866e-08 7.379964e-09 8.016721e-10 2.5781652e-08 1.9606103e-08 5.831547e-09 6.7216477e-09 8.15873e-09
2.021848e-08 7.569325e-09 4.2633115e-08 5.4406635e-09 4.6845283e-09 1.529349e-08 7.956089e-10 5.2533915e-09
7.139967e-10 3.9531467e-09 2.211e-08 2.4445852e-08 4.427134e-09 1.494367e-08 3.62464e-09 1.1695201e-08
3.638461e-09 5.484893e-09 5.3055382e-09 4.572458e-09 1.1893382e-09 8.142186e-09 7.609156e-09 3.302379e-09
4.2417106e-08 8.807761e-09 4.0188795e-09 5.306282e-09 8.150213e-09 6.8614225e-09 1.7977917e-09 4.0027706e-09
1.08777e-08 2.7885521e-08 4.477251e-09 1.2270742e-08 3.3671275e-09 6.9707006e-08 6.0012806e-10 4.333857e-09
2.5155058e-09 1.5616801e-09 4.336586e-09 1.9358072e-08 8.301375e-09 2.1068163e-09 4.7595588e-08 1.824749e-09
3.811976e-09 1.4835196e-08 2.7238563e-08 4.6329104e-10 1.026635e-08 2.4027626e-08 1.1195781e-08 4.9658437e-09
9.383339e-10 9.612616e-10 4.8228767e-08 2.288698e-08 4.0038066e-09 7.083294e-08 2.4784772e-09 8.191687e-09
2.228925e-08 5.4225662e-08 4.5656052e-09 2.3393126e-08 4.726839e-09 9.15223e-09 2.5942382e-09 3.5489731e-09
1.0291663e-08 6.8206814e-09 2.6247148e-08 8.104665e-09 1.5803713e-09 1.6445634e-08 1.878178e-08 9.315013e-09
1.3952474e-09 9.0127145e-08 1.1903277e-09 3.232201e-09 6.1605214e-09 4.3473126e-08 3.7804767e-08 5.72423e-09
1.1993814e-08 6.9406134e-09 5.8693725e-08 8.9368773e-10 1.5886704e-08 4.8116786e-09 7.371386e-08 5.9106178e-09
1.1395556e-09 3.05834e-08 3.9228176e-09 3.236386e-08 2.2602666e-09 1.5251741e-08 3.299588e-08 5.476821e-08
5.3659543e-09 6.6568506e-09 1.8187044e-09 4.3558392e-09 1.9318243e-08 1.29623645e-08 1.9981983e-09 1.34163045e-08
00000000: f4fb 0532 6952 0830 6c3f dc32 701b f531
00000010: 5e32 a531 18ae 9c31 0346 a032 7c9f 2c31
00000020: b6cb 2c32 fa0a 3931 1168 8031 f355 8733
00000030: 059e be32 eae5 de32 59d2 f730 a82c 5833
00000040: 4d96 5930 8c4b 8232 e547 1730 6891 c830
00000050: 9fad b033 8879 5b32 3f46 8531 3e8e 8033
00000060: 2fc9 d632 4d98 ac31 7c1a 8532 4c58 8632
00000070: dbb3 1633 57c8 8e31 b943 5232 e8aa 1231
00000080: 2cc2 6631 b7c0 d332 2d04 5531 ff0f c332
00000090: 8912 ac33 9de9 4332 e6c0 ca30 6055 d332
000000a0: 6769 a832 9120 d032 67c3 a530 1917 2e30
000000b0: bb5f ec32 0e3c 4d32 9d51 0033 f68a 8b32
000000c0: a816 2031 a067 bb32 532b 3231 80b3 9032
000000d0: ca01 cc31 0d26 f432 b845 9432 2e99 2132
000000e0: 4b1f a230 c363 9b31 ef80 aa31 0151 8132
000000f0: 6960 3732 b7b7 cc30 4189 5132 0041 5733
00000100: 7bd6 3033 71be de31 f960 1831 a132 ed31
00000110: ac01 fb30 75c8 2d33 1b2d f232 c63c 8b31
00000120: 0bef 0731 67c1 1e33 312d 6630 1be5 bb30
00000130: 0a55 1b32 38cf df32 ff10 1033 6b58 d631
00000140: f9a0 b332 e2f8 3731 6a53 1133 c1a0 3732
00000150: c7a2 6d32 2063 8f31 6fe0 8332 684d f331
00000160: 5982 1b32 4f95 6a31 d35f 0232 7003 9631
00000170: f2ed 8c32 1996 2c33 54f3 cc30 d296 5732
00000180: d83c ec32 09b6 8b32 2229 2a31 7611 7231
00000190: 7caf 3d32 a48e 6532 440b 5d31 687a 1e33
000001a0: 7d3f 3733 5447 c431 711b 1132 0872 9131
000001b0: 65ca aa2f 3156 6c32 a8cd 8a32 aa0c 1e33
000001c0: 7c0f d930 36dd c731 6649 de30 aa99 6032
000001d0: 87fd 3e32 8d4a 5531 4578 0832 efd7 1432
000001e0: 72c2 1132 df3e 2932 cf2e 1e33 0bb4 da31
000001f0: 8959 2431 5f8f 9533 174b bb31 37c2 0531
00000200: e6ac d931 00ca de31 a2fc b431 225b 1133
00000210: 9bc8 2031 15ec 6a31 5c4d 2f30 e63b 4632
00000220: 6163 5a32 da92 fd31 a95c 5c30 7476 dd32
00000230: 476a a832 d45e c831 3df4 e631 792a 0c32
00000240: e8ac ad32 3e0a 0232 9b1b 3733 95f0 ba31
00000250: 8cf5 a031 bd5e 8332 00b2 5a30 5281 b431
00000260: 0d43 4430 3fd4 8731 67ec bd32 fffc d132
00000270: 7c1d 9831 7a5d 8032 5715 7931 0aec 4832
00000280: 7c08 7a31 a175 bc31 024c b631 c41b 9d31
00000290: 1e76 a330 b6e1 0b32 6cb9 0232 11f0 6231
000002a0: 1a2e 3633 f150 1732 7016 8a31 8d52 b631
000002b0: 0405 0c32 b6c1 eb31 2c16 f730 be88 8931
000002c0: a1e0 3a32 e988 ef32 51d6 9931 4bcf 5232
000002d0: 2263 6731 d5b1 9533 42f6 2430 02e9 9431
000002e0: 3fdd 2c31 bca2 d630 0401 9531 da48 a632
000002f0: d59d 0e32 81c7 1031 e76b 4c33 a6ca fa30
00000300: 7ffa 8231 e2dd 7e32 3cfa e932 6bb2 fe2f
00000310: e35f 3032 4f65 ce32 9157 4032 06a0 aa31
00000320: b0f6 8030 631d 8430 1724 4f33 0099 c432
00000330: db91 8931 d21c 9833 d551 2a31 6cbb 0c32
00000340: 9476 bf32 bfe5 6833 7ddf 9c31 07f2 c832
00000350: b769 a231 ef3b 1d32 5246 3231 32e2 7331
00000360: 36cf 3032 595b ea31 1776 e132 b23c 0b32
00000370: 5f34 d930 5544 8d32 9255 a132 dc07 2032
00000380: e7c2 bf30 ec8b c133 ef98 a330 7b1d 5e31
00000390: 85ac d331 35b7 3a33 c85e 2233 dcae c431
000003a0: 5a0d 4e32 487a ee31 6f16 7c33 afa7 7530
000003b0: 3b77 8832 f953 a531 a04c 9e33 5816 cb31
000003c0: 8c9e 9c30 ce5a 0333 78c9 8631 7100 0b33
000003d0: 0853 1b31 ef02 8332 5bb7 0d33 493a 6b33
000003e0: 6f5f b831 47ba e431 f9f5 f930 5eaa 9531
000003f0: 44f1 a532 15b1 5e32 ad50 0931 887d 6632

exp_avg f4 [1, 2]
-0.0047894698 -0.0047639403
00000000: fcf0 9cbb d41a 9cbb

exp_avg_sq f4 [1, 2]
0.00028859038 0.00025105753
00000000: f24d 9739 5fa0 8339
