IAV_FINAL/results/results/SheepsRedo5/Sheeps/Sheeps-999996.pt (torch, 298367 bytes, 24 tensors)

network_body._body_endoder.seq_layers.0.weight f4 [256, 44]
-0.109380126 -0.076891474 -0.0889747 0.08678418 0.17503361 0.12691472 -0.165266 -0.21618934
-0.01166354 -0.02998545 -0.32506695 0.076926775 -0.020929966 0.05913392 0.12692127 0.17975791
0.008254218 0.05521737 0.20305903 -0.22697842 -0.10109292 -0.09461995 0.12940654 0.07703192
-0.10470398 0.041844357 -0.07520908 0.1058959 0.04785693 0.080828 -0.4264638 0.1677681
0.06907582 -0.17179604 0.29598778 -0.066410206 -0.037666757 0.07214825 0.048932306 0.099644065
0.08793019 -0.11813596 0.16096957 0.053489577 -0.09844709 0.15440775 0.11866469 -0.044983905
0.12895693 -0.26926216 -0.18381515 -0.13083811 -0.15551524 -0.043518454 -0.22760628 0.3708608
0.19935411 0.18053298 -0.09998313 0.24078427 0.19167085 0.053336862 -0.16715539 -0.09885659
0.33373633 -0.22101954 -0.056702618 0.33675227 -0.10232475 0.050629865 0.034936965 0.061523665
0.2117772 -0.094304755 0.026162378 0.019945607 -0.3156086 -0.12172726 -0.021541664 -0.26777312
0.16618182 0.2530382 -0.2479744 0.018300466 -0.050887894 0.045462146 0.03688193 -0.08797457
0.07012809 0.21334781 0.22634198 0.10592915 -0.06610394 -0.0907351 0.1778304 -0.08267823
-0.037255384 0.053232677 0.27303115 -0.014843036 -0.3454743 0.10850776 0.17877689 0.041405316
-0.09731729 -0.07926693 0.060901117 0.12082052 -0.076682664 0.08612006 0.07387601 0.030807013
0.07017076 -0.053512648 -0.016407821 0.16365738 -0.09312401 0.059035484 -0.035675522 0.18372473
-0.21342213 0.0050234003 -0.13799044 0.1990154 0.053996675 -0.07915743 -0.011077206 0.24823101
0.26250094 0.068468936 0.099531725 0.143582 0.17806916 -0.11734743 -0.08812482 0.1352925
-0.18636383 -0.17691457 0.17972104 -0.039732166 -0.15098414 0.07200765 0.002163955 0.12095241
0.017663345 0.04433832 0.2566623 0.053734194 -0.06392288 -0.05635543 0.05242292 0.2276696
0.12927131 0.14233741 -0.06813255 0.029068386 -0.05435287 0.016222317 0.16917582 -0.16918047
0.18818326 0.033224527 -0.28644112 0.062709525 -0.060106322 0.13965368 0.0064358423 -0.24738742
0.3354844 -0.09840628 -0.20289187 0.025290519 0.052587964 0.18839389 0.13860472 -0.1086004
-0.19502977 -0.014352669 0.049394377 -0.025684858 -0.10676988 -0.28171766 0.07176393 0.42415982
-0.080579445 0.15149678 0.22004792 -0.022804273 0.544942 -0.064741865 -0.28583547 -0.24839163
0.30308178 -0.0030653565 -0.21486302 0.07563575 0.14804168 -0.04907096 0.026132947 0.09101383
0.047371317 -0.1237396 -0.019546565 -0.15524857 5.03601e-05 -0.0968424 -0.06492195 -0.07006285
0.04187589 -0.3139316 0.16034856 -0.06698953 0.06257017 0.013894598 0.15516901 -0.09172262
-0.028194582 0.11050756 0.010022749 0.06754829 -0.022428446 -0.1815696 0.15592624 0.033200994
0.16360335 -0.091480605 -0.031085074 0.0016380992 -0.0049083913 0.16074666 0.19845088 -0.19237666
-0.02340809 0.13111925 0.12457032 0.059010223 -0.17707908 -0.057494175 0.029752426 0.2221568
-0.18045072 0.040857896 0.09120155 0.35973936 -0.18824138 0.07645457 -0.02235952 0.044506244
-0.13536853 0.035943992 0.10327142 -0.00936194 -0.012104501 0.1684534 0.10035072 -0.24938762
00000000: b002 e0bd 4779 9dbd 5e38 b6bd e7bb b13d
00000010: 033c 333e eff5 013e 7e3b 29be bd60 5dbe
00000020: 6f18 3fbc 0ca4 f5bc 2d6f a6be c98b 9d3d
00000030: 5275 abbc 6936 723d a6f7 013e 7512 383e
00000040: b33c 073c 9c2b 623d b5ee 4f3e 086d 68be
00000050: ce09 cfbd 1bc8 c1bd 2683 043e e9c2 9d3d
00000060: 0a6f d6bd fd64 2b3d 3807 9abd f3df d83d
00000070: a105 443d 2789 a53d 7759 dabe 67cb 2b3e
00000080: a077 8d3d 4deb 2fbe b68b 973e 1302 88bd
00000090: 7548 1abd 76c2 933d 3e6d 483d 3012 cc3d
000000a0: be14 b43d 44f1 f1bd 35d5 243e e317 5b3d
000000b0: a19e c9bd 111d 1e3e 7906 f33d 0b41 38bd
000000c0: 490d 043e bbdc 89be 0a3a 3cbe 6dfa 05be
000000d0: 633f 1fbe 6840 32bd 9f11 69be 77e1 bd3e
000000e0: 7c23 4c3e a3dd 383e f5c3 ccbd 2790 763e
000000f0: 5d45 443e c177 5a3d c82a 2bbe 5375 cabd
00000100: 7ddf aa3e f252 62be 0141 68bd cb6a ac3e
00000110: a38f d1bd 4361 4f3d 101a 0f3d 3d00 7c3d
00000120: 1fdc 583e da22 c1bd 7c52 d63c f864 a33c
00000130: 7397 a1be 244c f9bd 2578 b0bc 8f19 89be
00000140: 912b 2a3e 398e 813e 00ed 7dbe dcea 953c
00000150: d36f 50bd 8436 3a3d 8211 173d 032c b4bd
00000160: 519f 8f3d d977 5a3e 31c6 673e 62f1 d83d
00000170: 8161 87bd 53d3 b9bd 2c19 363e 3453 a9bd
00000180: 1a99 18bd 820a 5a3d bdca 8b3e 3530 73bc
00000190: 02e2 b0be 5139 de3d 4a11 373e 9f98 293d
000001a0: 4a4e c7bd b356 a2bd 7373 793d c070 f73d
000001b0: cd0b 9dbd b75f b03d 4e4c 973d fd5e fc3c
000001c0: b0b5 8f3d 1430 5bbd b269 86bc cd95 273e
000001d0: cdb7 bebd 31cf 713d 7f20 12bd 5622 3c3e
000001e0: 558b 5abe 569b a43b 5e4d 0dbe b1ca 4b3e
000001f0: 9e2b 5d3d 4a1d a2bd 2b7d 35bc 4530 7e3e
00000200: 8666 863e 7139 8c3d 4ad7 cb3d 2907 133e
00000210: c357 363e d953 f0bd c97a b4bd 1e8a 0a3e
00000220: 29d6 3ebe 1829 35be cb08 383e 32be 22bd
00000230: 969b 1abe bf78 933d 24d1 0d3b e6b5 f73d
00000240: b8b2 903c 199c 353d 3e69 833e 6318 5c3d
00000250: 00ea 82bd f4d4 66bd 6ab9 563d 3822 693e
00000260: b35f 043e e6c0 113e 1489 8bbd d320 ee3c
00000270: 1da1 5ebd aae4 843c 6d3c 2d3e a53d 2dbe
00000280: 1db3 403e 7116 083d 69a8 92be da6d 803d
00000290: 0c32 76bd 6001 0f3e c2e3 d23b 2153 7dbe
000002a0: 9cc4 ab3e 3b89 c9bd e3c2 4fbe 102e cf3c
000002b0: 7a66 573d 54ea 403e 65ee 0d3e e369 debd
000002c0: e2b5 47be 7527 6bbc c251 4a3d 0d69 d2bc
000002d0: 2baa dabd 4c3d 90be f8f8 923d 7a2b d93e
000002e0: d606 a5bd f921 1b3e 3e54 613e 07d0 babc
000002f0: 5281 0b3f 6297 84bd 0759 92be 605a 7ebe
00000300: 892d 9b3e 26e4 48bb 0d05 5cbe ebe6 9a3d
00000310: 3d98 173e a2fe 48bd c314 d63c 7565 ba3d
00000320: 6d08 423d 306b fdbd 1e20 a0bc 7bf9 1ebe
00000330: bf39 5338 4f55 c6bd cdf5 84bd 1d7d 8fbd
00000340: 0e86 2b3d a5bb a0be 6a32 243e cf31 89bd
00000350: ca24 803d 2ba6 633c a0e4 1e3e 12d9 bbbd
00000360: 53f8 e6bc ca51 e23d 7536 243c c256 8a3d
00000370: dcbb b7bc 62ed 39be 21ab 1f3e c4fd 073d
00000380: a387 273e 2f5a bbbd 20a6 febc 7db5 d63a
00000390: 92d6 a0bb c69a 243e b536 4b3e 63fe 44be
000003a0: 53c2 bfbc 2044 063e b91e ff3d b4b4 713d
000003b0: 3854 35be 037f 6bbd 5cbb f33c 127d 633e
000003c0: 13c8 38be 9c5a 273d e1c7 ba3d c22f b83e
000003d0: 59c2 40be 3794 9c3d 502b b7bc 2e4c 363d
000003e0: 0c9e 0abe 023a 133d f77f d33d d362 19bc
000003f0: f551 46bc 0c7f 2c3e ae84 cd3d 785f 7fbe

network_body._body_endoder.seq_layers.0.bias f4 [256]
-0.012483873 0.017649041 -0.0015326814 0.028779002 0.018847713 -0.0012000966 0.0032009121 0.0016251623
-0.0154634975 0.013614708 -0.0041880584 0.008516744 0.03724517 0.012562574 -0.0075872005 0.007856599
-0.003145301 0.019627796 0.021817323 0.003062926 0.0014970124 0.021721035 -0.0016702007 0.022631027
-0.020610964 0.032038826 0.029439906 0.0011583002 -0.013895345 -0.002942049 0.020140337 -0.007245898
-0.011506035 0.0018141947 -0.0018653296 0.020245811 0.0006115053 0.031267468 0.026621064 -0.005970746
-0.016018627 -0.00035273918 -0.005700632 -0.004165027 -0.0033989903 0.020355133 0.02729187 -0.022887979
0.04992985 0.0063190837 -0.014226229 0.013274273 -0.0071461312 -0.018827364 0.03192144 0.013741537
0.030732565 0.006926857 0.02701454 -0.013382136 0.037305854 0.0065699336 -0.009850332 0.0002843313
0.0010187661 -0.009801602 -0.01695115 0.00536163 0.042180564 -0.0044396683 -0.01488301 -0.017915389
0.015145285 0.013901378 -0.005500443 0.0065509756 0.0007491985 0.021137863 0.0149784135 0.02026624
0.0215429 0.0035811225 -0.009465739 0.046657257 0.008288363 -0.009640547 -0.0019380196 0.013229883
-0.012754706 -0.00994974 -0.009248313 0.00972642 0.008118497 -0.0039791847 0.06347789 0.030651066
0.0023905868 -0.02358874 -0.02150759 -0.001671144 -0.011304769 0.008765259 0.038616993 0.021118943
0.038209874 -0.002491451 -0.0111376215 0.00143674 0.0021563536 0.031558905 0.00013336202 -0.011098951
0.012707594 -0.004742053 0.03237547 0.023047462 0.0046376856 0.011863295 0.010526413 -0.006538116
0.004246139 0.0448067 0.0016256965 0.03448273 0.020893307 0.030991271 0.015703179 -0.010447615
0.030469473 0.025806367 -0.0006434523 -0.001209107 -0.005859465 0.0211444 -0.0056685107 0.0034688
-0.012788077 0.021073604 0.016837597 0.008016839 -0.00924381 0.02015825 -0.011058018 -0.0033434727
-0.0010472322 0.035250265 0.02320519 -0.005186924 -0.007237019 0.019043356 0.0067576566 0.078504995
0.054130703 -0.0091665 0.010142626 -0.008358468 0.030578269 0.01706336 0.0048315716 0.029682117
0.02261952 -0.008296672 0.028803378 0.015582624 -0.0033806472 0.018061083 0.008414383 0.020082945
0.02398424 0.009558538 -0.007618372 0.008559608 0.013200626 0.0023716486 0.008068235 0.042018503
0.007672585 -0.021161262 -0.011256709 0.013387925 -0.0058900663 0.016285673 -0.038558975 0.0053932136
0.0014779695 0.025453584 0.008492482 -0.006934412 0.037344493 0.039463732 0.01680123 -0.008821885
0.00859827 0.006174582 0.011859237 0.01724269 0.0012193732 0.0131498175 0.021813478 0.03304432
-0.0062024496 0.039028008 0.0014903181 0.02637695 -0.005132721 0.020333951 0.043279838 0.024655195
-0.0008503954 0.029018668 0.019272849 -0.005324984 0.042956498 -0.003632617 0.021866567 0.018275509
0.0030274035 -0.017425546 0.0071979044 -0.0033572789 0.02838649 0.034346573 0.016643036 -0.0068972376
-0.011316034 0.0017489216 -0.011387836 -0.0022463065 -0.0029278686 0.024179457 0.006045318 0.047766514
-0.0056265164 -0.010669464 -0.0025046777 0.007510777 -0.004626502 -0.0032282213 -0.002002821 -0.01260845
0.016884867 0.00079357903 -0.0056586275 0.012604292 0.023848183 -0.0036281445 0.0046342784 0.066369615
-0.013482866 0.046897776 -0.011649308 -0.0080665555 -0.0023935605 0.006840052 -0.0039625135 -0.003601302
00000000: 2989 4cbc b994 903c 41e4 c8ba f1c1 eb3c
00000010: 8566 9a3c 8f4c 9dba 65c6 513b 6603 d53a
00000020: 9c5a 7dbc 3910 5f3c fb3b 89bb d089 0b3c
00000030: 648e 183d 41d3 4d3c 0d9e f8bb f7b8 003c
00000040: 6521 4ebb 79ca a03c 3eba b23c 5fbb 483b
00000050: 6737 c43a 50f0 b13c a3ea daba b464 b93c
00000060: 53d8 a8bc 253b 033d f52b f13c 1bd2 973a
00000070: 4da9 63bc 64cf 40bb 59fd a43c ff6e edbb
00000080: cf83 3cbc 46ca ed3a 137e f4ba 8bda a53c
00000090: 6d4d 203a 5112 003d 6b14 da3c 3fa6 c3bb
000000a0: 7f39 83bc daef b8b9 5ecc babb c77a 88bb
000000b0: 98c1 5ebb cfbf a63c 3393 df3c 927f bbbc
000000c0: 3e83 4c3d 5110 cf3b 2115 69bc 567c 593c
000000d0: 182a eabb d83b 9abc 0ec0 023d 2f24 613c
000000e0: dcc2 fb3c b0fa e23b 994d dd3c bf40 5bbc
000000f0: 06ce 183d 9948 d73b 4963 21bc 4d12 9539
00000100: 1e88 853a e696 20bc 23dd 8abc 9db0 af3b
00000110: 87c5 2c3d a37a 91bb ded7 73bc 4bc3 92bc
00000120: ee23 783c 9bc2 633c 0f3d b4bb 91a9 d63b
00000130: dc65 443a 5029 ad3c 0568 753c 6305 a63c
00000140: bc7a b03c 44b1 6a3b 3016 1bbc ae1b 3f3d
00000150: eacb 073c 63f3 1dbc 2605 feba 27c2 583c
00000160: 1df9 50bc 3c04 23bc 3c86 17bc 905b 1f3c
00000170: 7203 053c d263 82bb b200 823d f217 fb3c
00000180: 64ab 1c3b 2c3d c1bc af30 b0bc 4a0a dbba
00000190: a337 39bc 299c 0f3c da2c 1e3d a201 ad3c
000001a0: f581 1c3d 9d47 23bb 927a 36bc ff50 bc3a
000001b0: 9c51 0d3b e943 013d 18d7 0b39 60d8 35bc
000001c0: 8333 503c 3963 9bbb 249c 043d 08ce bc3c
000001d0: baf7 973b 445e 423c fa76 2c3c b13d d6bb
000001e0: 3223 8b3b 3b87 373d 5315 d53a c33d 0d3d
000001f0: 7128 ab3c 68e1 fd3c f4a3 803c 792c 2bbc
00000200: 1e9b f93c e067 d33c 5aad 28ba e67a 9eba
00000210: c100 c0bb 0537 ad3c eabe b9bb cf54 633b
00000220: 1585 51bc 8da2 ac3c 00ef 893c 0f59 033c
00000230: 5973 17bc ea22 a53c b02c 35bc 2a1e 5bbb
00000240: 4843 89ba 9562 103d d018 be3c 12f7 a9bb
00000250: 8424 edbb d000 9c3c 556f dd3b 3ac7 a03d
00000260: 28b8 5d3d 162f 16bc 422d 263c f5f1 08bc
00000270: 477f fa3c 76c8 8b3c 2952 9e3b e927 f33c
00000280: 924c b93c c4ee 07bc 10f5 eb3c 434e 7f3c
00000290: d98d 5dbb d6f4 933c 7bdc 093c fd84 a43c
000002a0: 997a c43c 6a9b 1c3c 89a3 f9bb 993d 0c3c
000002b0: 7047 583c a96d 1b3b a130 043c 981b 2c3d
000002c0: 4f6a fb3b 625a adbc 0f6e 38bc 0759 5b3c
000002d0: 7501 c1bb 8869 853c 04f0 1dbd 8eb9 b03b
000002e0: 6db8 c13a 0984 d03c 0d24 0b3c 103a e3bb
000002f0: 8af6 183d b9a4 213d bca2 893c ab89 10bc
00000300: c2df 0c3c 2654 ca3b 3f4d 423c 8b40 8d3c
00000310: 60d3 9f3a 5572 573c 2eb2 b23c 7b59 073d
00000320: eb3d cbbb d5db 1f3d c756 c33a 7914 d83c
00000330: 6230 a8bb 6393 a63c 3346 313d b1f9 c93c
00000340: 12ed 5eba 8fb8 ed3c 18e2 9d3c 347d aebb
00000350: 27f3 2f3d 3311 6ebb 8421 b33c 85b6 953c
00000360: 6767 463b 05c0 8ebc 66dc eb3b cb05 5cbb
00000370: c98a e83c feae 0c3d fa56 883c 3902 e2bb
00000380: e366 39bc 123c e53a 0c94 3abc c536 13bb
00000390: 7ce1 3fbb ff13 c63c ce17 c63b d2a6 433d
000003a0: a45e b8bb face 2ebc 8525 24bb f71c f63b
000003b0: e999 97bb 9190 53bb c341 03bb ac93 4ebc
000003c0: 2252 8a3c 3008 503a 026c b9bb 3b82 4e3c
000003d0: 445d c33c 2ac6 6dbb 25db 973b cbec 873d
000003e0: 3de7 5cbc e217 403d bddc 3ebc 9629 04bc
000003f0: 48dd 1cbb 8422 e03b f9d7 81bb d203 6cbb

action_model._continuous_distribution.log_sigma f4 [1, 2]
0.24952647 0.017058998
00000000: de83 7f3e 50bf 8b3c

action_model._continuous_distribution.mu.weight f4 [2, 256]
0.0011713031 0.027094198 -0.02673982 -0.0042705564 0.057412874 -0.023706814 0.056904435 -0.010400892
0.004736781 -0.103838086 0.018728463 0.022681171 0.011127862 -0.025069175 -0.015623601 0.0652365
-0.007466176 -0.018873166 0.077638164 -0.035670854 0.095118634 -0.054978035 0.018111289 0.043483596
-0.009477654 0.025341576 -0.071827 0.079523794 -0.0039558634 -0.0037183105 -0.019162342 -0.05866171
0.0043500196 -0.0104213655 -0.008954803 -0.089892775 -0.034012955 -0.0033579979 0.0060515613 -0.013554678
0.02637013 -0.018660521 0.029155873 -0.008183463 -0.02579305 0.00018023129 -0.043698233 -0.0019549837
0.02747891 -0.025997667 0.00904396 0.0040575736 0.009483794 0.0013822246 -0.049183395 0.03216346
0.03861121 0.03168348 0.048802715 0.049068578 0.08053951 0.04157425 -0.019107219 0.03385098
0.013616435 0.0537479 0.0034782563 0.012129971 0.028070418 0.0036122994 0.011636462 0.013207944
0.05556089 -0.01957653 -0.010385362 -0.034145646 -0.046937738 -0.002855817 -0.041067768 -0.05765599
-0.015472105 -0.051546462 -0.0015072786 0.022801226 -0.050405882 0.021427158 0.023785053 0.033974092
-0.004563849 -0.014056108 -0.0070691574 -0.05931384 -0.0075893514 -0.002513689 0.01720689 -0.042758748
-0.011810541 0.0044251173 0.0038102064 0.03839741 0.0379366 0.047092613 0.06140524 -0.047257993
-0.025663879 -0.01316693 -0.0007206772 0.028180506 -0.029990578 0.087213404 -0.010603614 -0.0124860965
-0.034430053 0.02694059 0.013203118 0.020456517 0.025066802 -0.06719284 -0.06919748 0.026120186
-0.018382149 0.004351341 0.022133384 0.037709113 -0.043837808 0.10806687 -0.06413521 0.00848621
0.112746306 -0.0010364727 -0.06980598 -0.021057978 -0.044567417 0.0071831266 -0.020608287 0.038218126
-0.0200591 -0.014585568 0.015865948 -0.03922907 0.004279252 0.007300082 -0.018154798 -0.036686536
0.03655367 0.024925599 -0.06600303 -0.0055824104 -0.0056703095 0.029370664 -0.011788998 0.009220856
-0.0104575325 0.05367325 0.015545073 0.0138492575 -0.08638706 -0.043313254 -0.01056198 0.0393105
0.07276933 -0.033334903 0.026807964 0.009984907 0.021500442 0.0068285856 0.059593834 -0.040120877
-0.0062468736 0.04330545 -0.009042849 0.00031517763 -0.038064726 -0.04396536 0.0039255894 -0.06411184
-0.0075353626 0.000986023 0.020634202 -0.08383277 0.010119226 0.027586633 0.006936713 -0.013531722
-0.034587063 0.035190564 -0.04618612 -0.009501071 -0.019926418 -0.06318939 -0.05148659 -0.009332461
-0.0394805 0.040157147 -0.044748943 0.021177273 -0.04700665 -0.081744865 -0.022574153 -0.031364433
-0.021528907 -0.032655526 -0.022744989 0.020595483 -0.013780989 0.033798244 0.05882363 -0.025066385
0.0041643614 0.05512256 0.070712626 0.072503164 0.09017487 0.0016390187 0.095956184 0.041066956
0.042900752 0.009895527 0.0064247116 -0.025509046 0.084292315 0.019731898 -0.027293747 -0.017751206
0.007962976 0.009315109 0.048383076 0.018719742 0.016704503 0.0057195527 -0.016003948 0.033551343
0.0062934477 0.022546567 -0.037115827 -0.041766595 0.0086563155 0.0078006354 0.023243068 0.01201836
0.020005893 0.0068960115 0.013338491 0.0041150996 -0.035510935 -0.0209707 -0.04849549 0.007277973
0.028210895 0.067293465 -0.005633357 -0.017980663 0.01890003 -0.029494075 -0.027266217 -0.012678084
00000000: 6986 993a a7f4 dd3c 780d dbbc 06f0 8bbb
00000010: c329 6b3d cb34 c2bc a014 693d 8168 2abc
00000020: 0037 9b3b 10a9 d4bd 6f6c 993c ddcd b93c
00000030: a351 363c df5d cdbc 22fa 7fbc b79a 853d
00000040: d3a6 f4bb e69b 9abc c200 9f3d 9a1b 12bd
00000050: 8fcd c23d a630 61bd 205e 943c db1b 323d
00000060: 2948 1bbc 2399 cf3c 091a 93bd 5fdd a23d
00000070: 30a0 81bb e6ae 73bb 58fa 9cbc 4347 70bd
00000080: 9c8a 8e3b 60be 2abc 2bb7 12bc b419 b8bd
00000090: 2b51 0bbd db11 5cbb 2d4c c63b 7114 5ebc
000000a0: 2c06 d83c f3dd 98bc 4cd8 ee3c ee13 06bc
000000b0: f24b d3bc 78fc 3c39 ebfc 32bd 2f1f 00bb
000000c0: 731b e13c 0ff9 d4bc 1e2d 143c 65f5 843b
000000d0: ea61 1b3c c32b b53a 8774 49bd d5bd 033d
000000e0: ca26 1e3d 89c6 013d 5be5 473d 22fc 483d
000000f0: e6f1 a43d c349 2a3d be86 9cbc 53a7 0a3d
00000100: 7817 5f3c c226 5c3d 75f3 633b c9bc 463c
00000110: eff3 e53c 54bc 6c3b dca6 3e3c 2266 583c
00000120: d193 633d f65e a0bc 5e27 2abc 4edc 0bbd
00000130: c941 40bd a928 3bbb ad36 28bd b028 6cbd
00000140: b67e 7dbc 6222 53bd e18f c5ba a3c9 ba3c
00000150: 6676 4ebd 0288 af3c dfd8 c23c 6b28 0b3d
00000160: 578c 95bb 974b 66bc 64a4 e7bb 12f3 72bd
00000170: 18b0 f8bb b4bc 24bb 77f5 8c3c cc23 2fbd
00000180: 0081 41bc 9300 913b a8b4 793b 9a46 1d3d
00000190: 6963 1b3d 2fe4 403d 1084 7b3d 9991 41bd
000001a0: 0e3d d2bc 1bba 57bc d4eb 3cba ceda e63c
000001b0: cdae f5bc f19c b23d c8ba 2dbc 7c92 4cbc
000001c0: 8706 0dbd 83b2 dc3c e451 583c 6d94 a73c
000001d0: e558 cd3c 669c 89bd 69b7 8dbd 00fa d53c
000001e0: 2996 96bc b295 8e3b 1251 b53c df74 1a3d
000001f0: 468f 33bd 2a52 dd3d 5259 83bd bf09 0b3c
00000200: 89e7 e63d 41da 87ba 70f6 8ebd c881 acbc
00000210: 538c 36bd 6f60 eb3b b6d2 a8bc 9c8a 1c3d
00000220: fb52 a4bc 4ef8 6ebc 4ef9 813c a9ae 20bd
00000230: f838 8c3b 8735 ef3b 5fb9 94bc 9f44 16bd
00000240: 4db9 153d c530 cc3c 992c 87bd a7ec b6bb
00000250: 01ce b9bb bf9a f03c a426 41bc 1313 173c
00000260: 1256 2bbc 7bd8 5b3d c3b0 7e3c ffe7 623c
00000270: b3eb b0bd 3d69 31bd 280c 2dbc 0c04 213d
00000280: 1608 953d 2e8a 08bd 609c db3c bc97 233c
00000290: b221 b03c 54c2 df3b aa18 743d ca55 24bd
000002a0: 93b2 ccbb 0e61 313d 7528 14bc 6d3e a539
000002b0: c2e9 1bbd 0515 34bd 3ba2 803b 124d 83bd
000002c0: 34eb f6bb 713d 813a 0f09 a93c 84b0 abbd
000002d0: 1ccb 253c 5dfd e13c 5e4d e33b 28b4 5dbc
000002e0: 2aab 0dbd fb23 103d a82d 3dbd 61aa 1bbc
000002f0: ba3c a3bc 7069 81bd 9ae3 52bd 2ee7 18bc
00000300: 4eb6 21bd d27b 243d ab4a 37bd f67b ad3c
00000310: 0c8a 40bd da69 a7bd 6eed b8bc fe77 00bd
00000320: 645d b0bc cdc1 05bd b353 babc dcb7 a83c
00000330: a8c9 61bc 0770 0a3d 0cf1 703d 0558 cdbc
00000340: 3275 883b 32c8 613d c8d1 903d 8a7c 943d
00000350: 9aad b83d 57d4 d63a ad84 c43d d335 283d
00000360: b3b8 2f3d d920 223c 6386 d23b 59f8 d0bc
00000370: 73a1 ac3d caa4 a13c 2397 dfbc fa6a 91bc
00000380: 2477 023c 669e 183c 552d 463d 255a 993c
00000390: e2d7 883c 166b bb3b b61a 83bc 226d 093d
000003a0: 4439 ce3b 94b3 b83c c406 18bd 7313 2bbd
000003b0: 38d3 0d3c 799c ff3b 3f68 be3c a8e8 443c
000003c0: 66e3 a33c f0f7 e13b b089 5a3c f5d7 863b
000003d0: ea73 11bd bfca abbc 35a3 46bd 107c ee3b
000003e0: 891a e73c 28d1 893d 0698 b8bb 2f4c 93bc
000003f0: 3cd4 9a3c 8f9d f1bc 675d dfbc bdb7 4fbc

action_model._continuous_distribution.mu.bias f4 [2]
0.0013648826 0.0118007315
00000000: dce5 b23a db57 413c

exp_avg f4 [256, 44]
0.0 0.0 3.7011722e-35 -2.152715e-08 0.0 0.0 3.7011722e-35 -3.015043e-08
0.0 0.0 3.7011722e-35 -1.8255946e-08 5.404715e-06 0.0 2.8450959e-05 1.6320786e-05
0.0 0.0 3.7011722e-35 -1.7202302e-08 1.2638825e-05 0.0 1.652865e-05 1.2278523e-05
0.0 0.0 3.7011722e-35 -1.794154e-08 7.4441905e-06 0.0 1.0066385e-05 1.6407873e-06
0.0 0.0 3.7011722e-35 -2.1072719e-08 1.0313619e-05 0.0 -9.298872e-06 -1.1992436e-05
0.0 0.0 3.7011722e-35 -2.9264607e-08 0.0 0.0 -2.7139228e-34 1.3033933e-07
0.0 0.0 -2.7139228e-34 1.7953127e-07 0.0 0.0 -2.7139228e-34 1.11885285e-07
-4.569439e-05 0.0 -8.856385e-05 -2.3116689e-05 0.0 0.0 -2.7139228e-34 1.06588516e-07
-6.7848e-05 0.0 -4.950258e-05 -2.6852726e-05 0.0 0.0 -2.7139228e-34 1.1173025e-07
2.1198805e-06 0.0 -6.759767e-05 -2.819977e-05 0.0 0.0 -2.7139228e-34 1.3059439e-07
-8.5832704e-07 0.0 5.6041983e-05 4.1667125e-05 0.0 0.0 -2.7139228e-34 1.814261e-07
0.0 0.0 5.2877726e-34 -1.5858186e-07 0.0 0.0 5.2877726e-34 -2.1749166e-07
0.0 0.0 5.2877726e-34 -1.3664382e-07 1.2596e-05 0.0 6.6736364e-05 1.6163736e-05
0.0 0.0 5.2877726e-34 -1.3061492e-07 1.9234929e-05 0.0 4.0679846e-05 1.5167345e-05
0.0 0.0 5.2877726e-34 -1.370536e-07 -1.3964254e-05 0.0 5.0612485e-05 1.9452662e-05
0.0 0.0 5.2877726e-34 -1.600464e-07 -5.65629e-06 0.0 -4.3989556e-05 -5.0021095e-05
0.0 0.0 5.2877726e-34 -2.2231376e-07 0.0 0.0 -1.6197339e-34 1.1436921e-08
0.0 0.0 -1.6197339e-34 1.7990468e-08 0.0 0.0 -1.6197339e-34 8.81318e-09
-3.1380052e-05 0.0 -7.041305e-05 -4.5339504e-05 0.0 0.0 -1.6197339e-34 7.537726e-09
-5.5492837e-05 0.0 -4.5409914e-05 -3.844957e-05 0.0 0.0 -1.6197339e-34 7.647581e-09
-3.9741866e-05 0.0 -3.2266635e-05 -1.0794326e-05 0.0 0.0 -1.6197339e-34 9.206712e-09
-4.1780117e-05 0.0 2.2734535e-05 2.0476615e-05 0.0 0.0 -1.6197339e-34 1.273597e-08
0.0 0.0 -4.454298e-34 2.598746e-07 0.0 0.0 -4.454298e-34 3.5501898e-07
0.0 0.0 -4.454298e-34 2.245158e-07 -2.4750772e-05 0.0 -2.0627265e-05 4.2049334e-05
0.0 0.0 -4.454298e-34 2.1512442e-07 -3.638052e-05 0.0 -2.7774092e-07 2.8344093e-05
0.0 0.0 -4.454298e-34 2.2593086e-07 5.4521384e-05 0.0 -3.9859286e-05 -6.599846e-06
0.0 0.0 -4.454298e-34 2.6361283e-07 3.608256e-05 0.0 8.711269e-05 6.834132e-05
0.0 0.0 -4.454298e-34 3.6618337e-07 0.0 0.0 3.1622637e-34 -1.2307954e-07
0.0 0.0 3.1622637e-34 -1.6857271e-07 0.0 0.0 3.1622637e-34 -1.0611517e-07
9.726025e-06 0.0 5.4376236e-05 1.2383025e-05 0.0 0.0 3.1622637e-34 -1.0148922e-07
1.9021327e-05 0.0 3.368935e-05 1.4656893e-05 0.0 0.0 3.1622637e-34 -1.0651676e-07
-1.4115234e-05 0.0 4.8675596e-05 2.2612578e-05 0.0 0.0 3.1622637e-34 -1.2435602e-07
00000000: 0000 0000 0000 0000 bfc9 4406 b4ea b8b2
00000010: 0000 0000 0000 0000 bfc9 4406 c07e 01b3
00000020: 0000 0000 0000 0000 bfc9 4406 40d1 9cb2
00000030: 265a b536 0000 0000 f8a9 ee37 9fe8 8837
00000040: 0000 0000 0000 0000 bfc9 4406 43c4 93b2
00000050: 570b 5437 0000 0000 01a7 8a37 dbff 4d37
00000060: 0000 0000 0000 0000 bfc9 4406 dd1d 9ab2
00000070: 1cc9 f936 0000 0000 cbe2 2837 0639 dc35
00000080: 0000 0000 0000 0000 bfc9 4406 6603 b5b2
00000090: a808 2d37 0000 0000 5a02 1cb7 1f33 49b7
000000a0: 0000 0000 0000 0000 bfc9 4406 8d61 fbb2
000000b0: 0000 0000 0000 0000 015f b487 67f3 0b34
000000c0: 0000 0000 0000 0000 015f b487 2ec5 4034
000000d0: 0000 0000 0000 0000 015f b487 9645 f033
000000e0: faa7 3fb8 0000 0000 5bbb b9b8 b6ea c1b7
000000f0: 0000 0000 0000 0000 015f b487 a8e5 e433
00000100: 9e49 8eb8 0000 0000 fea0 4fb8 ca41 e1b7
00000110: 0000 0000 0000 0000 015f b487 5bf0 ef33
00000120: 4543 0e36 0000 0000 39c3 8db8 8c8e ecb7
00000130: 0000 0000 0000 0000 015f b487 8339 0c34
00000140: c967 66b5 0000 0000 9f0e 6b38 bcc3 2e38
00000150: 0000 0000 0000 0000 015f b487 07ce 4234
00000160: 0000 0000 0000 0000 65b7 2f08 a646 2ab4
00000170: 0000 0000 0000 0000 65b7 2f08 a787 69b4
00000180: 0000 0000 0000 0000 65b7 2f08 5eb8 12b4
00000190: 6853 5337 0000 0000 d0f4 8b38 5c97 8737
000001a0: 0000 0000 0000 0000 65b7 2f08 283f 0cb4
000001b0: b25a a137 0000 0000 a79f 2a38 4077 7e37
000001c0: 0000 0000 0000 0000 65b7 2f08 0229 13b4
000001d0: 0448 6ab7 0000 0000 be48 5438 462e a337
000001e0: 0000 0000 0000 0000 65b7 2f08 38d9 2bb4
000001f0: 29cb bdb6 0000 0000 6d81 38b8 becd 51b8
00000200: 0000 0000 0000 0000 65b7 2f08 24b5 6eb4
00000210: 0000 0000 0000 0000 b04c 5787 1c7c 4432
00000220: 0000 0000 0000 0000 b04c 5787 7589 9a32
00000230: 0000 0000 0000 0000 b04c 5787 c768 1732
00000240: 139e 03b8 0000 0000 b8aa 93b8 ec2a 3eb8
00000250: 0000 0000 0000 0000 b04c 5787 457f 0132
00000260: fbc0 68b8 0000 0000 8676 3eb8 e944 21b8
00000270: 0000 0000 0000 0000 b04c 5787 6b62 0332
00000280: 81b0 26b8 0000 0000 0956 07b8 4719 35b7
00000290: 0000 0000 0000 0000 b04c 5787 8c2b 1e32
000002a0: 0f3d 2fb8 0000 0000 0bb6 be37 32c5 ab37
000002b0: 0000 0000 0000 0000 b04c 5787 63cd 5a32
000002c0: 0000 0000 0000 0000 fa04 1488 e584 8b34
000002d0: 0000 0000 0000 0000 fa04 1488 7099 be34
000002e0: 0000 0000 0000 0000 fa04 1488 6f12 7134
000002f0: e19f cfb7 0000 0000 b708 adb7 215e 3038
00000300: 0000 0000 0000 0000 fa04 1488 f3fc 6634
00000310: 4997 18b8 0000 0000 6c1c 95b4 7ac4 ed37
00000320: 0000 0000 0000 0000 fa04 1488 6797 7234
00000330: e4ad 6438 0000 0000 952e 27b8 3f74 ddb6
00000340: 0000 0000 0000 0000 fa04 1488 ac86 8d34
00000350: 5b57 1738 0000 0000 45b0 b638 7752 8f38
00000360: 0000 0000 0000 0000 fa04 1488 dc97 c434
00000370: 0000 0000 0000 0000 212b d207 d927 04b4
00000380: 0000 0000 0000 0000 212b d207 ea00 35b4
00000390: 0000 0000 0000 0000 212b d207 6fe1 e3b3
000003a0: f62c 2337 0000 0000 0a12 6438 b0c0 4f37
000003b0: 0000 0000 0000 0000 212b d207 4af2 d9b3
000003c0: fd8f 9f37 0000 0000 aa4d 0d38 e0e6 7537
000003d0: 0000 0000 0000 0000 212b d207 35be e4b3
000003e0: 78d0 6cb7 0000 0000 0629 4c38 24b0 bd37
000003f0: 0000 0000 0000 0000 212b d207 b986 05b4

exp_avg_sq f4 [256, 44]
0.0 0.0 2.0088899e-14 5.5998083e-14 0.0 0.0 2.0088899e-14 8.746529e-14
0.0 0.0 2.0088899e-14 4.678075e-14 5.756883e-10 0.0 6.1534e-09 6.8488952e-09
0.0 0.0 2.0088899e-14 4.4563586e-14 5.6325966e-10 0.0 5.727766e-09 6.4068764e-09
0.0 0.0 2.0088899e-14 4.706642e-14 6.19171e-10 0.0 5.3098477e-09 6.2658567e-09
0.0 0.0 2.0088899e-14 5.6919164e-14 4.898481e-10 0.0 5.835529e-09 6.5992167e-09
0.0 0.0 2.0088899e-14 9.136455e-14 0.0 0.0 4.755216e-13 1.0681049e-12
0.0 0.0 4.755216e-13 1.5939553e-12 0.0 0.0 4.755216e-13 9.144158e-13
2.4070458e-08 0.0 8.451584e-08 9.827404e-08 0.0 0.0 4.755216e-13 8.7747236e-13
2.5401787e-08 0.0 7.865766e-08 9.1651145e-08 0.0 0.0 4.755216e-13 9.194046e-13
2.4440174e-08 0.0 7.64922e-08 9.129154e-08 0.0 0.0 4.755216e-13 1.0834237e-12
2.1031996e-08 0.0 7.8423625e-08 9.3307925e-08 0.0 0.0 4.755216e-13 1.6592973e-12
0.0 0.0 1.0733763e-12 1.3668281e-12 0.0 0.0 1.0733763e-12 1.6296014e-12
0.0 0.0 1.0733763e-12 1.2902312e-12 1.7690909e-09 0.0 5.7038925e-08 6.153659e-08
0.0 0.0 1.0733763e-12 1.2717791e-12 2.2099236e-09 0.0 5.362917e-08 5.8620568e-08
0.0 0.0 1.0733763e-12 1.2926872e-12 1.9713395e-09 0.0 5.2772833e-08 5.8676953e-08
0.0 0.0 1.0733763e-12 1.3745049e-12 1.7060453e-09 0.0 5.3812272e-08 5.972493e-08
0.0 0.0 1.0733763e-12 1.6614395e-12 0.0 0.0 1.03142e-12 1.3800317e-12
0.0 0.0 1.03142e-12 1.6988317e-12 0.0 0.0 1.03142e-12 1.2872739e-12
1.6505476e-08 0.0 4.5599045e-08 5.3781818e-08 0.0 0.0 1.03142e-12 1.2652607e-12
1.7689267e-08 0.0 3.874789e-08 4.698846e-08 0.0 0.0 1.03142e-12 1.2903899e-12
1.8531098e-08 0.0 3.4665206e-08 4.5248807e-08 0.0 0.0 1.03142e-12 1.3893414e-12
1.6925872e-08 0.0 3.814222e-08 4.866402e-08 0.0 0.0 1.03142e-12 1.7384365e-12
0.0 0.0 3.6968367e-13 6.466743e-13 0.0 0.0 3.6968367e-13 8.869855e-13
0.0 0.0 3.6968367e-13 5.762578e-13 1.8547324e-08 0.0 1.5112608e-08 1.9966151e-08
0.0 0.0 3.6968367e-13 5.5931887e-13 1.7959401e-08 0.0 1.5574829e-08 1.986606e-08
0.0 0.0 3.6968367e-13 5.788299e-13 1.4370123e-08 0.0 1.698092e-08 2.1938593e-08
0.0 0.0 3.6968367e-13 6.5407255e-13 1.1940426e-08 0.0 2.1166509e-08 2.7700384e-08
0.0 0.0 3.6968367e-13 9.162812e-13 0.0 0.0 3.3548034e-13 5.471102e-13
0.0 0.0 3.3548034e-13 7.3518074e-13 0.0 0.0 3.3548034e-13 4.922478e-13
1.3723038e-09 0.0 4.2150052e-08 4.507758e-08 0.0 0.0 3.3548034e-13 4.7902004e-13
1.2611453e-09 0.0 4.053805e-08 4.3733966e-08 0.0 0.0 3.3548034e-13 4.940238e-13
1.0334572e-09 0.0 3.982814e-08 4.344898e-08 0.0 0.0 3.3548034e-13 5.526305e-13
00000000: 0000 0000 0000 0000 d9f1 b428 6531 7c29
00000010: 0000 0000 0000 0000 d9f1 b428 4ff4 c429
00000020: 0000 0000 0000 0000 d9f1 b428 88ae 5229
00000030: 763e 1e30 0000 0000 e16d d331 8553 eb31
00000040: 0000 0000 0000 0000 d9f1 b428 51b2 4829
00000050: e0d3 1a30 0000 0000 f6cd c431 7b23 dc31
00000060: 0000 0000 0000 0000 d9f1 b428 e3f7 5329
00000070: 4932 2a30 0000 0000 ea71 b631 0f4b d731
00000080: 0000 0000 0000 0000 d9f1 b428 aa2b 8029
00000090: ffa5 0630 0000 0000 db81 c831 53bf e231
000000a0: 0000 0000 0000 0000 d9f1 b428 14bc cd29
000000b0: 0000 0000 0000 0000 f1d8 052b 8952 962b
000000c0: 0000 0000 0000 0000 f1d8 052b 4b54 e02b
000000d0: 0000 0000 0000 0000 f1d8 052b 4db1 802b
000000e0: 7fc3 ce32 0000 0000 137f b533 ba0a d333
000000f0: 0000 0000 0000 0000 f1d8 052b 8cfc 762b
00000100: 1f33 da32 0000 0000 82ea a833 c0d1 c433
00000110: 0000 0000 0000 0000 f1d8 052b 0b65 812b
00000120: 83f0 d132 0000 0000 0844 a433 0e0c c433
00000130: 0000 0000 0000 0000 f1d8 052b 747a 982b
00000140: d9a9 b432 0000 0000 d869 a833 9360 c833
00000150: 0000 0000 0000 0000 f1d8 052b 7c86 e92b
00000160: 0000 0000 0000 0000 7510 972b 2c5d c02b
00000170: 0000 0000 0000 0000 7510 972b 9458 e52b
00000180: 0000 0000 0000 0000 7510 972b 7a95 b52b
00000190: 5a24 f330 0000 0000 f6fa 7433 1926 8433
000001a0: 0000 0000 0000 0000 7510 972b acfc b22b
000001b0: 63dd 1731 0000 0000 e555 6633 ffc5 7b33
000001c0: 0000 0000 0000 0000 7510 972b f7ed b52b
000001d0: 2c78 0731 0000 0000 58a8 6233 fe03 7c33
000001e0: 0000 0000 0000 0000 7510 972b c271 c12b
000001f0: 227a ea30 0000 0000 381f 6733 2142 8033
00000200: 0000 0000 0000 0000 7510 972b abd3 e92b
00000210: 0000 0000 0000 0000 d228 912b e238 c22b
00000220: 0000 0000 0000 0000 d228 912b dd16 ef2b
00000230: 0000 0000 0000 0000 d228 912b ee2a b52b
00000240: edc7 8d32 0000 0000 aed8 4333 bcfd 6633
00000250: 0000 0000 0000 0000 d228 912b d211 b22b
00000260: 1cf3 9732 0000 0000 c16b 2633 5cd0 4933
00000270: 0000 0000 0000 0000 d228 912b 329b b52b
00000280: 512e 9f32 0000 0000 cce2 1433 9757 4233
00000290: 0000 0000 0000 0000 d228 912b 4d88 c32b
000002a0: 6364 9132 0000 0000 d0d1 2333 a802 5133
000002b0: 0000 0000 0000 0000 d228 912b c7a9 f42b
000002c0: 0000 0000 0000 0000 081d d02a cb05 362b
000002d0: 0000 0000 0000 0000 081d d02a 0baa 792b
000002e0: 0000 0000 0000 0000 081d d02a c033 222b
000002f0: ff51 9f32 0000 0000 fad0 8132 0882 ab32
00000300: 0000 0000 0000 0000 081d d02a 2c6f 1d2b
00000310: 2445 9a32 0000 0000 69c9 8532 eea5 aa32
00000320: 0000 0000 0000 0000 081d d02a 17ed 222b
00000330: 78e0 7632 0000 0000 70dd 9132 7a73 bc32
00000340: 0000 0000 0000 0000 081d d02a e51a 382b
00000350: 8d22 4d32 0000 0000 a5d1 b532 caf1 ed32
00000360: 0000 0000 0000 0000 081d d02a 82f4 802b
00000370: 0000 0000 0000 0000 d0db bc2a 72ff 192b
00000380: 0000 0000 0000 0000 d0db bc2a 5bef 4e2b
00000390: 0000 0000 0000 0000 d0db bc2a 318e 0a2b
000003a0: a69b bc30 0000 0000 7908 3533 539b 4133
000003b0: 0000 0000 0000 0000 d0db bc2a 08d5 062b
000003c0: 9b54 ad30 0000 0000 0f1c 2e33 01d6 3b33
000003d0: 0000 0000 0000 0000 d0db bc2a 2b0e 0b2b
000003e0: 8b09 8e30 0000 0000 810f 2b33 a99c 3a33
000003f0: 0000 0000 0000 0000 d0db bc2a 398d 1b2b

exp_avg f4 [256]
-1.0887766e-05 6.760086e-05 -8.292229e-05 4.688702e-06 0.0001365803 -6.444055e-05 6.6006636e-05 -5.9697268e-05
-4.417753e-05 -0.00018830999 3.4169283e-05 5.0714916e-05 5.813461e-05 -4.7115835e-05 -6.671782e-05 0.00012631582
-3.33695e-05 -6.472232e-05 0.00025212462 -0.000118506185 0.00016664238 -0.00010017213 -2.7079857e-05 0.00013383156
-2.3834045e-05 6.537792e-05 -7.124477e-05 7.8300014e-05 -6.456809e-05 -2.298762e-05 -2.5966936e-05 -0.00015211433
-3.512352e-05 -1.2413816e-05 -1.7907676e-05 -0.00016083899 -7.0895345e-05 2.5804302e-05 1.28429865e-05 -4.350054e-05
1.455214e-05 -2.7229386e-05 5.6546614e-05 -1.4131499e-05 -5.6057583e-05 4.494615e-06 -4.4055327e-05 -2.3634533e-05
8.00423e-05 -3.8927752e-05 5.8792502e-06 3.599187e-05 -2.3206227e-05 -2.006549e-05 -7.891637e-05 6.152837e-05
0.0001318445 0.000116370415 0.00012329157 6.835669e-05 0.00020165741 6.882929e-05 -0.00010120871 3.606466e-05
-6.0103786e-05 0.00011678581 7.957719e-06 3.6266858e-05 0.0001034608 1.7528708e-05 -6.7511544e-05 5.1169213e-06
0.0001747539 -3.04922e-05 -8.9098576e-05 -6.0995993e-05 -0.00012295306 1.148879e-05 -8.484632e-05 -9.667598e-05
-3.4192122e-05 -8.804596e-05 -3.458478e-05 6.985625e-05 -0.0001221226 5.6814715e-06 2.6710955e-05 8.77827e-05
-3.1809384e-05 -8.29145e-05 -4.8293638e-05 -0.0001119644 -5.6492227e-06 -9.601579e-06 8.22761e-05 -6.651456e-05
-6.214446e-05 -1.5997058e-06 -1.559217e-05 1.6265649e-05 9.178013e-05 0.00015173771 0.00015723865 -7.9839025e-05
-6.0642225e-05 -6.715293e-05 -0.000109235705 6.1052626e-05 -8.488933e-05 0.00023883577 -4.3626016e-05 -4.6363184e-05
-5.1700976e-05 -4.1839605e-05 6.367856e-05 8.56644e-05 2.239245e-05 -0.00014125602 -0.00015651688 7.763618e-06
-1.9812727e-05 3.3433655e-05 6.7354595e-05 0.00013283922 -4.7755537e-05 0.00020799883 -0.0001381227 -1.656302e-05
0.00034677977 4.8559286e-05 -0.00022216213 -6.2143794e-05 -0.00021582437 5.7829824e-05 -4.7074085e-05 -3.708363e-06
-6.682162e-05 8.131357e-06 8.241416e-05 -0.00012196537 -6.600793e-05 2.8403303e-05 -5.5841134e-05 -0.00013904886
2.4521665e-05 0.00011937198 -0.000121355544 -3.70595e-06 -5.990081e-05 8.738911e-05 -9.867686e-05 6.8987174e-05
-1.5972391e-05 0.00013988838 5.6460696e-05 -1.5120511e-05 -0.00017357268 -8.647055e-05 -1.6226584e-05 0.00014010265
0.00017552791 -8.30349e-05 0.0001091327 4.7600173e-05 2.891821e-05 3.019131e-05 0.00014454487 -8.911873e-05
-7.679226e-06 0.00013587259 -2.1032525e-05 3.275499e-05 -6.315484e-05 -0.00015147522 2.3555873e-05 -0.00013248945
1.42449535e-05 -4.5509582e-06 -1.1277275e-05 -0.0001869084 2.9515622e-05 0.000101886835 5.8902606e-06 -2.7807997e-05
-7.561185e-05 8.9543384e-05 -8.624687e-05 -4.1365023e-05 -3.479486e-05 -8.279041e-05 -9.822494e-05 -6.0428727e-05
-9.0025664e-05 9.121438e-05 -7.246595e-05 6.940355e-05 -0.00016533295 -0.00016513391 -3.3018514e-05 -4.405243e-05
-9.193287e-05 -5.164305e-05 -4.7628288e-05 9.09324e-05 -4.443847e-05 0.00012113356 0.00013284523 -3.5730856e-05
1.4432777e-05 0.00017810454 0.00016603967 0.00011448373 0.00021829191 -3.9496337e-07 0.0002338862 9.817808e-05
3.205229e-05 -1.6953642e-05 -8.083759e-06 -5.6569734e-05 0.0001485578 7.431608e-05 -3.9278573e-05 -3.953497e-05
-4.8506885e-05 2.5912388e-05 8.703714e-05 -4.9849616e-05 -0.00012372866 4.4768098e-05 -0.00011263171 0.00012258271
8.438392e-06 5.387616e-05 -7.033719e-05 -4.4404405e-05 -6.1556646e-05 1.8424767e-05 1.3653043e-05 2.896749e-05
6.441336e-05 -0.00010106111 1.7511826e-06 2.6362457e-05 -7.861174e-05 -5.9574926e-05 -0.00012627633 5.351978e-05
1.6526916e-05 0.00022287194 -2.1048909e-05 -4.6370056e-05 -5.6078497e-05 -4.4789726e-05 -8.8176814e-05 -2.4063915e-05
00000000: 99aa 36b7 efc4 8d38 91e6 adb8 a553 9d36
00000010: ff36 0f39 4224 87b8 0b6d 8a38 7463 7ab8
00000020: 434b 39b8 1475 45b9 fd50 0f38 bab6 5438
00000030: 90d5 7338 3e9e 45b8 dbea 8bb8 a573 0439
00000040: 3af6 0bb8 88bb 87b8 982f 8439 8686 f8b8
00000050: b9bc 2e39 8113 d2b8 8d29 e3b7 2355 0c39
00000060: 39ef c7b7 811b 8938 3f69 95b8 0035 a438
00000070: bb68 87b8 8ad5 c0b7 92d3 d9b7 e180 1fb9
00000080: 9851 13b8 ef44 50b7 7138 96b7 e3a6 28b9
00000090: a6ad 94b8 5176 d837 3578 5737 5974 36b8
000000a0: f724 7437 a96a e4b7 772c 6d38 5316 6db7
000000b0: 5f1f 6bb8 73d0 9636 0cc8 38b8 c642 c6b7
000000c0: 62dc a738 5b46 23b8 6046 c536 faf5 1638
000000d0: feaa c2b7 5052 a8b7 e77f a5b8 cb08 8138
000000e0: bd3f 0a39 e40b f438 d447 0139 b85a 8f38
000000f0: 0074 5339 7258 9038 0340 d4b8 2244 1738
00000100: f317 7cb8 e8ea f438 2582 0537 3e1d 1838
00000110: 18f9 d838 9d0a 9337 fc94 8db8 05b2 ab36
00000120: 253e 3739 80c9 ffb7 6fda bab8 f3d5 7fb8
00000130: f6ec 00b9 fabf 4037 85ef b1b8 86be cab8
00000140: 8369 0fb8 51a5 b8b8 200f 11b8 ca7f 9238
00000150: 090e 00b9 78a3 be36 5711 e037 fa17 b838
00000160: 116b 05b8 62e2 adb8 e68e 4ab8 6ece eab8
00000170: 748e bdb6 7816 21b7 a58b ac38 bc7d 8bb8
00000180: 8e53 82b8 79b5 d6b5 eecb 82b7 3772 8837
00000190: 157a c038 c81b 1f39 6ee0 2439 406f a7b8
000001a0: 185a 7eb8 74d4 8cb8 7915 e5b8 6109 8038
000001b0: 9d06 b2b8 fd6f 7a39 14fb 36b8 1776 42b8
000001c0: 80d9 58b8 ef7c 2fb8 2b8b 8538 b9a6 b338
000001d0: 6cd7 bb37 201e 14b9 ae1e 24b9 7c40 0237
000001e0: 8233 a6b7 1d3b 0c38 b940 8d38 c24a 0b39
000001f0: 1e4d 48b8 431a 5a39 08d5 10b9 d1f0 8ab7
00000200: fecf b539 23ac 4b38 31f4 68b9 3253 82b8
00000210: ea4e 62b9 4d8e 7238 6a71 45b8 31dd 78b6
00000220: 9622 8cb8 ea6b 0837 c4d5 ac38 a9c7 ffb8
00000230: bd6d 8ab8 a143 ee37 f636 6ab8 a5cd 11b9
00000240: e0b3 cd37 5857 fa38 4380 feb8 bcb3 78b6
00000250: 013e 7bb8 ac44 b738 bcf0 ceb8 35ad 9038
00000260: 73fc 85b7 00af 1239 36d0 6c38 1aae 7db7
00000270: 1001 36b9 8657 b5b8 531e 88b7 85e8 1239
00000280: ea0d 3839 0623 aeb8 2cde e438 4ca6 4738
00000290: 6295 f237 5843 fd37 f890 1739 41e5 bab8
000002a0: 06d6 00b7 0579 0e39 016f b0b7 6762 0938
000002b0: ff71 84b8 52d5 1eb9 da99 c537 deec 0ab9
000002c0: 9cfd 6e37 6fb4 98b6 8733 3db7 d7fc 43b9
000002d0: 5198 f737 14ac d538 f4a4 c536 3845 e9b7
000002e0: ce91 9eb8 3dc9 bb38 70df b4b8 5b7f 2db8
000002f0: b2f0 11b8 c39f adb8 1dfe cdb8 da74 7db8
00000300: 29cc bcb8 594a bf38 dcf8 97b8 bf8c 9138
00000310: 3a5d 2db9 cc27 2db9 5c7d 0ab8 f0c4 38b8
00000320: 15cc c0b8 4d9b 58b8 7cc4 47b8 f6b2 be38
00000330: 7263 3ab8 1609 fe38 5f4c 0b39 b7dd 15b8
00000340: 4e24 7237 93c1 3a39 ef1a 2e39 fc16 f038
00000350: 4ae5 6439 5a0b d4b4 593f 7539 f5e4 cd38
00000360: e26f 0638 ab37 8eb7 7b9f 07b7 4a45 6db8
00000370: 2ec6 1b39 24da 9b38 0cbf 24b8 5ad2 25b8
00000380: df73 4bb8 6e5e d937 b587 b638 9e15 51b8
00000390: 29bd 01b9 61c5 3b38 b034 ecb8 8c89 0039
000003a0: 9e92 0d37 16f9 6138 fe81 93b8 de3e 3ab8
000003b0: f917 81b8 e38e 9a37 600f 6537 36ff f237
000003c0: a915 8738 c5f0 d3b8 2d0a eb35 f224 dd37
000003d0: 5bdc a4b8 17e0 79b8 0b69 04b9 6d7a 6038
000003e0: 48a3 8a37 bbb2 6939 3092 b0b7 787d 42b8
000003f0: d435 6bb8 9adc 3bb8 91eb b8b8 dddc c9b7

exp_avg_sq f4 [256]
9.988935e-09 1.6862455e-07 8.462765e-08 1.04312065e-07 7.557693e-08 6.0175914e-08 2.0636065e-07 3.2685037e-08
5.7076093e-08 3.4835134e-07 4.8660823e-08 3.6393935e-08 6.203093e-08 3.905695e-08 4.618626e-08 1.2390049e-07
2.5427589e-08 4.657104e-08 3.2870915e-07 2.1171162e-07 2.5269657e-07 1.0503934e-07 1.2705533e-07 2.0532455e-07
4.35284e-09 1.9092329e-07 2.9069486e-07 2.6811304e-07 5.8057953e-08 1.1662502e-08 1.4365055e-08 1.4112945e-07
8.0106915e-08 3.0059525e-08 6.7710033e-09 2.0949923e-07 3.5966618e-08 1.0964086e-07 1.4797038e-07 3.9312972e-08
3.9070272e-08 6.326397e-09 3.1991977e-08 2.2784905e-08 6.3493054e-08 6.566696e-08 1.619002e-07 1.665761e-08
1.7136067e-07 1.4090566e-08 7.405425e-09 1.7219037e-08 3.371542e-08 1.9344533e-08 1.6926222e-07 3.9191363e-08
2.656783e-07 6.171377e-08 4.910119e-07 7.725043e-08 2.6322854e-07 9.7290595e-08 1.0984981e-07 3.3227806e-08
1.1241356e-07 8.365469e-08 4.37216e-09 1.748702e-08 8.922297e-08 4.3185807e-08 2.2982347e-07 1.1372607e-08
2.8065404e-07 1.16568664e-07 1.775011e-07 1.2179663e-07 4.356414e-08 5.0564197e-09 8.529192e-08 1.3114013e-07
1.4730119e-08 9.3214524e-08 1.5799829e-08 9.344188e-08 1.8579284e-07 7.0108904e-08 2.2163304e-08 1.1008861e-07
1.4217439e-08 9.005101e-08 5.0905296e-08 2.395037e-07 4.3205e-09 9.4213535e-09 6.898735e-08 8.079285e-08
6.867468e-08 6.2574976e-09 1.1159681e-08 9.5104106e-08 5.7292798e-08 1.4122172e-07 3.861543e-07 9.3959784e-08
2.3818245e-08 9.0211536e-08 1.0126152e-07 7.969963e-08 5.715159e-08 4.3851026e-07 5.8076534e-08 1.9294282e-08
2.8341146e-08 2.0929262e-07 2.0514503e-07 1.3771644e-07 2.9643953e-08 1.6418659e-07 1.6773664e-07 4.1665178e-08
1.7928233e-08 3.4043214e-07 1.5742362e-08 4.4461353e-07 2.5246467e-07 3.594764e-07 2.073894e-07 5.0526037e-08
7.471854e-07 1.3488771e-07 3.5486306e-07 4.514626e-08 2.7840971e-07 2.8865488e-08 8.2399545e-09 2.2805055e-07
2.160676e-08 6.214279e-08 2.2795405e-08 1.616934e-07 1.4900112e-07 7.952919e-09 1.6071107e-08 7.485905e-08
3.5245115e-08 3.2188655e-07 1.2799256e-07 1.7937076e-09 5.9329967e-08 1.1404897e-07 1.08222125e-07 4.4721553e-08
3.4473138e-09 1.1158556e-07 3.252591e-08 3.3758614e-08 4.1634527e-07 6.751167e-08 3.3374114e-08 2.8621e-07
1.3068188e-07 4.693047e-08 6.4538014e-08 1.4761227e-07 1.2709594e-08 1.2908235e-07 9.70564e-08 1.0778873e-07
3.066995e-07 1.456598e-07 3.4920893e-09 1.041288e-07 1.3578246e-07 8.7480565e-08 9.118076e-08 3.0164387e-07
9.280584e-09 2.8819052e-09 7.947842e-08 4.3371372e-07 1.03650315e-08 4.9861214e-08 6.29964e-09 1.0785404e-08
8.705719e-08 3.210208e-08 1.2140877e-07 2.1024977e-08 5.111901e-09 1.6501997e-07 6.583269e-08 3.1085523e-08
9.680273e-08 1.02087355e-07 1.2481674e-07 2.742209e-07 1.19002316e-07 2.3787341e-07 6.899839e-08 3.9963826e-08
8.719252e-08 7.006553e-08 3.458449e-08 1.2681161e-07 8.1206174e-08 1.1320621e-07 1.1691554e-07 1.6560526e-07
1.3141068e-08 1.820773e-07 3.8218715e-07 1.7326633e-07 6.055861e-07 1.5289031e-09 4.741806e-07 2.1399266e-07
1.4012328e-07 4.6905924e-08 2.2961597e-08 2.2905882e-08 1.8699176e-07 2.1997483e-08 5.04414e-08 1.4632046e-08
1.11713376e-07 4.444199e-08 7.596836e-08 9.172621e-08 2.581737e-07 2.5301844e-07 9.190246e-08 1.3118343e-07
1.7629919e-09 1.2173558e-08 2.9893396e-08 1.8426122e-07 1.7883158e-07 1.0809721e-08 2.7790378e-08 1.2013361e-08
1.2951307e-07 2.3466318e-07 2.464647e-08 6.4307976e-08 4.2925105e-08 1.2567448e-08 1.4456923e-07 2.9272167e-08
5.933826e-08 2.9114577e-07 1.08357305e-08 4.1314895e-08 1.6562392e-07 4.9025125e-08 9.215933e-08 2.6774911e-08
00000000: cd9b 2b32 2a0f 3534 8bbc b533 2a02 e033
00000010: db4c a233 0f3a 8133 fc93 5d34 9461 0c33
00000020: d423 7533 0b05 bb34 24ff 5033 8e4f 1c33
00000030: dd35 8533 92bf 2733 545e 4633 8209 0534
00000040: dc6b da32 6605 4833 7179 b034 d952 6334
00000050: 5aaa 8734 fd91 e133 b46c 0834 2f77 5c34
00000060: fc8f 9531 9800 4d34 cc10 9c34 2df1 8f34
00000070: 655b 7933 3a5c 4832 2eca 7632 5e89 1734
00000080: 3e07 ac33 cc1a 0133 60a6 e831 b6f2 6034
00000090: b779 1a33 b373 eb33 cae1 1e34 12d9 2833
000000a0: 38ce 2733 945f d931 8d67 0933 89b8 c332
000000b0: ad59 8833 cb04 8d33 cad6 2d34 7916 8f32
000000c0: 43ff 3734 f712 7232 cf72 fe31 10e9 9332
000000d0: 7fce 1033 142b a632 72be 3534 5c53 2833
000000e0: 8ca2 8e34 8187 8433 15ce 0335 dfe4 a533
000000f0: db51 8d34 12ee d033 92e6 eb33 5cb6 0e33
00000100: 0268 f133 a7a5 b333 ed39 9631 5d36 9632
00000110: d99a bf33 4c7b 3933 65c5 7634 4161 4332
00000120: ccac 9634 4d54 fa33 2197 3e34 34c7 0234
00000130: 471b 3b33 bdbc ad31 bb29 b733 86cf 0c34
00000140: c00f 7d32 3a2d c833 31b8 8732 37aa c833
00000150: 597e 4734 c78e 9633 9f61 be32 da69 ec33
00000160: f540 7432 1162 c133 f7a2 5a33 2395 8034
00000170: 8573 9431 8ddb 2132 3226 9433 5780 ad33
00000180: 4e7a 9333 8801 d731 ccb8 3f32 093c cc33
00000190: 1912 7633 bba2 1734 a550 cf34 f0c6 c933
000001a0: e098 cc32 51ba c133 1c75 d933 5627 ab33
000001b0: d676 7533 646c eb34 d36f 7933 93bc a532
000001c0: d772 f332 ebb9 6034 d645 5c34 35df 1334
000001d0: bea3 fe32 444b 3034 191b 3434 59f3 3233
000001e0: 9a00 9a32 a3c4 b634 d239 8732 38b3 ee34
000001f0: 7b8a 8734 0ffe c034 c4ae 5e34 f701 5933
00000200: 3192 4835 a7d5 1034 0284 be34 d6e6 4133
00000210: 5778 9534 e1f3 f732 b48f 0d32 0fde 7434
00000220: c599 b932 5c73 8533 a0cf c332 f19d 2d34
00000230: 1efd 1f34 4fa1 0832 bd0c 8a32 33c2 a033
00000240: 6a60 1733 c0cf ac34 546e 0934 7a86 f630
00000250: fdd1 7e33 16eb f433 be67 e833 de13 4033
00000260: c9e5 6c31 cfa0 ef33 9eb2 0b33 fdfd 1033
00000270: 0f86 df34 effa 9033 3a57 0f33 67a8 9934
00000280: 9051 0c34 9990 4933 2698 8a33 5a7f 1e34
00000290: 6359 5a32 e399 0a34 526d d033 7b79 e733
000002a0: 75a8 a434 a966 1c34 7cf9 6f31 6a9d df33
000002b0: 99cb 1134 f3dc bb33 27cf c333 9ef1 a134
000002c0: 7170 1f32 030b 4631 b9ad aa33 29d9 e834
000002d0: e411 3232 fc26 5633 3874 d831 b54a 3932
000002e0: 32f4 ba33 9ce0 0933 975c 0234 6a9a b432
000002f0: c2a4 af31 5830 3134 e75f 8d33 e582 0533
00000300: dde1 cf33 1e3b db33 5d05 0634 a238 9334
00000310: 378e ff33 256a 7f34 442c 9433 b1a4 2b33
00000320: 983e bb33 ef76 9633 0d8a 1433 b629 0834
00000330: 9163 ae33 c61b f333 ff12 fb33 3ad1 3134
00000340: 07c3 6132 0781 4334 672f cd34 160b 3a34
00000350: 8f8f 2235 7f21 d230 e392 fe34 dbc5 6534
00000360: cb74 1634 9c75 4933 163d c532 91c2 c432
00000370: e7c7 4834 faf4 bc32 e8a4 5833 6b60 7b32
00000380: 14e7 ef33 7ce0 3e33 0c24 a333 04fb c433
00000390: 209b 8a34 97d6 8734 e95b c533 6ddb 0c34
000003a0: c34d f230 e023 5132 2364 0033 57d9 4534
000003b0: da04 4034 a8b5 3932 b0b7 ee32 5263 4e32
000003c0: 4810 0b34 b9f7 7b34 29b6 d332 af19 8a33
000003d0: a75c 3833 39e8 5732 e33a 1b34 2d72 fb32
000003e0: 1bdb 7e33 c54e 9c34 0c28 3a32 3572 3133
000003f0: 5bd6 3134 b28f 5233 21e9 c533 a7fe e532

exp_avg f4 [1, 2]
-0.0011810481 -0.0072588017
00000000: 66cd 9aba 3edb edbb

exp_avg_sq f4 [1, 2]
0.0005505633 0.00046082662
00000000: ad53 103a 1a9b f139
