IAV_FINAL/results/results/SheepsRedo5/Sheeps/Sheeps-1499999.pt (torch, 200063 bytes, 24 tensors)

network_body._body_endoder.seq_layers.0.weight f4 [256, 28]
0.43728107 0.06860465 0.18326691 0.11347038 -0.18771516 0.07722467 0.0045794277 0.06888729
0.27994314 0.26588273 0.027069664 0.04208972 -0.15527363 0.05401158 -0.100680895 -0.3941516
-0.25586122 -0.091221325 -0.0068691834 0.109865166 -0.071757644 0.21371546 0.047677584 0.32983002
-0.35968298 0.019539092 0.055193435 0.2683696 -0.22814295 0.0058555594 0.2156366 0.0011718827
0.08543256 -0.12045888 -0.18137302 -0.08416333 0.13990285 -0.10424026 0.23668721 -0.26440325
0.285981 0.055683263 0.10678267 0.4111232 0.040752143 -0.4647396 -0.48218903 -0.30648148
0.34699264 0.13599153 -0.12882836 -0.08845503 0.13809893 0.46156308 -0.04752268 -0.12950303
0.092255265 0.110063866 -0.013190964 -0.061249472 0.10822471 0.100917734 -0.10615835 -0.13568376
0.21084781 -0.18459827 -0.2991043 0.046701133 0.19870411 -0.14769202 0.24971595 0.21161328
-0.18446529 -0.2127246 0.33215955 -0.14978331 0.17942841 -0.32454714 -0.13084811 -0.08914662
-0.057662774 0.40657887 0.35691842 0.23594607 0.122250356 -0.29429623 -0.09676062 -0.16761193
-0.44942617 -0.298805 -0.14014253 0.06400458 0.012920764 0.07718135 -0.21123232 -0.19928241
0.23992282 0.04314228 -0.15433504 -0.22668225 -0.017764334 0.088009775 0.37894607 0.10601158
-0.047437005 0.098476835 -0.26486614 -0.05656754 0.25637373 0.07732036 -0.39636707 -0.014059601
-0.12759908 0.00080066174 0.06859176 -0.034137625 -0.06219887 0.29181394 0.029201278 0.19160046
-0.04352875 0.16173415 -0.050337173 0.020279078 -0.025472922 -0.060854983 -0.249629 -0.077424936
-0.13141683 -0.09840623 -0.07333252 -0.22659703 0.20477521 -0.12802476 0.28868824 -0.14703827
0.022089422 0.39739993 0.027759766 0.03376822 0.09529852 -0.19549666 -0.13355273 0.14161041
-0.062740594 0.16381495 0.12734465 0.07612128 0.21105963 0.089039475 -0.48470753 -0.051948834
0.0020172007 0.0064415736 -0.37988764 -0.04575046 0.0074687507 -0.00093475194 0.07631498 -0.02400051
-0.23627436 0.20686546 -0.1057067 -0.17612661 0.0486354 0.031034505 -0.34793732 0.19479491
0.2289939 -0.043160662 0.1373507 0.11421957 -0.19514748 -0.26309767 -0.113886744 0.15671961
-0.108642206 -0.09298524 -0.014732642 -0.021979207 0.05452747 -0.41169176 0.10456532 0.10780383
0.019092731 0.22173029 0.01207312 -0.028297191 0.19617674 -0.121283896 0.044581417 -0.14564134
-0.0666336 -0.36003333 -0.11327166 0.041423798 -0.009200628 0.12506166 -0.0025240204 0.04867888
0.18083335 -0.09269403 0.011764158 -0.13790378 -0.024203211 -0.042499945 0.14561786 0.03712244
-0.00637761 -0.15759183 -0.07985079 -0.091117546 -0.16864541 -0.071298644 -0.016030824 0.6298951
0.063120075 -0.30761787 0.044773627 0.07623558 0.43881896 0.15881345 -0.5120415 -0.10181632
-0.21219741 0.14640409 -0.080052204 0.19902588 -0.39519516 -0.38064545 0.2763899 0.12405478
0.09646385 -0.025088739 0.13824417 -0.13059819 0.15364298 0.0015120681 -0.055078175 -0.08846206
-0.19138712 0.1040633 -0.07049473 0.011854129 0.22928399 -0.15710361 0.144926 -0.12637329
0.24153931 0.004232428 -0.12525667 0.04391557 -0.2577878 0.31163776 0.18396398 -0.027516415
00000000: 4ee3 df3e 9880 8c3d 52aa 3b3e 2963 e83d
00000010: 6738 40be f827 9e3d 060f 963b c814 8d3d
00000020: b554 8f3e c821 883e 33c1 dd3c 4566 2c3d
00000030: 0d00 1fbe 3f3b 5d3d c931 cebd 3dce c9be
00000040: 3e00 83be 3fd2 babd e316 e1bb fd00 e13d
00000050: acf5 92bd 3ad8 5a3e 9249 433d 7bdf a83e
00000060: 5e28 b8be 7210 a03c 8312 623d bd67 893e
00000070: 4e9e 69be fedf bf3b d7cf 5c3e dc99 993a
00000080: 44f7 ae3d 25b3 f6bd d9b9 39be d35d acbd
00000090: b142 0f3e eb7b d5bd 225e 723e dd5f 87be
000000a0: 1a6c 923e 2214 643d dfb0 da3d bd7e d23e
000000b0: b8eb 263d 59f2 edbe 7be1 f6be 24eb 9cbe
000000c0: 05a9 b13e 5d41 0b3e 95eb 03be e927 b5bd
000000d0: ce69 0d3e ff51 ec3e 24a7 42bd 719c 04be
000000e0: 54f0 bc3d 2a69 e13d ea1e 58bc bae0 7abd
000000f0: eba4 dd3d f5ad ce3d 8d69 d9bd aff0 0abe
00000100: 7de8 573e 5407 3dbe 3324 99be b049 3f3d
00000110: 1779 4b3e 943c 17be 8ab5 7f3e 27b1 583e
00000120: 78e4 3cbe 7ad4 59be d110 aa3e cc60 19be
00000130: 15bc 373e 0b2b a6be 0cfd 05be 8192 b6bd
00000140: cd2f 6cbd 1b2b d03e 03be b63e d99b 713e
00000150: 655e fa3d ffad 96be 6f2a c6bd 76a2 2bbe
00000160: 301b e6be f8fc 98be 8681 0fbe d514 833d
00000170: 9db1 533c 4111 9e3d 494d 58be b010 4cbe
00000180: 54ae 753e f6b5 303d 010a 1ebe 641f 68be
00000190: 8286 91bc 783e b43d 3805 c23e 991c d93d
000001a0: 4e4d 42bd 39ae c93d 899c 87be 5db3 67bd
000001b0: 6b43 833e 235a 9e3d a0f0 cabe 3e5a 66bc
000001c0: 55a9 02be 80e3 513a d679 8c3d e5d3 0bbd
000001d0: 3ec4 7ebd a368 953e 8537 ef3c e932 443e
000001e0: 344b 32bd a39d 253e 5a2e 4ebd 4f20 a63c
000001f0: 97ac d0bc 1343 79bd bf9e 7fbe f790 9ebd
00000200: 2292 06be 3589 c9bd 5c2f 96bd 0d09 68be
00000210: 98b0 513e ec18 03be f2ce 933e 3391 16be
00000220: e0f4 b43c 0178 cb3e 7368 e33c 8c50 0a3d
00000230: df2b c33d 4730 48be 0cc2 08be 5202 113e
00000240: 247e 80bd 1bbf 273e a366 023e 79e5 9b3d
00000250: 0420 583e 545a b63d 962b f8be 4dc8 54bd
00000260: 0333 043b d613 d33b a280 c2be d664 3bbd
00000270: 6cbc f43b 240a 75ba 074b 9c3d b89c c4bc
00000280: e8f1 71be 8ad4 533e c17c d8bd 895a 34be
00000290: ea35 473d 133c fe3c d724 b2be 5178 473e
000002a0: 607d 6a3e 3cc9 30bd a9a5 0c3e f3eb e93d
000002b0: bed4 47be bdb4 86be 743d e9bd 1b7b 203e
000002c0: ce7f debd 0c6f bebd 2e61 71bc bd0d b4bc
000002d0: 3258 5f3d 43c9 d2be 5826 d63d 41c8 dc3d
000002e0: 5c68 9c3c 440d 633e 56ce 453c 83cf e7bc
000002f0: 8ee2 483e b163 f8bd 019b 363d 0123 15be
00000300: 3277 88bd 4a56 b8be f9fa e7bd 00ac 293d
00000310: 3bbe 16bc 2a10 003e 096a 25bb 8163 473d
00000320: 612c 393e 5ed6 bdbd 74be 403c a636 0dbe
00000330: d045 c6bc 6c14 2ebd d91c 153e b30d 183d
00000340: 45fb d0bb c15f 21be d088 a3bd d69b babd
00000350: 62b1 2cbe 0605 92bd 1353 83bc ce40 213f
00000360: 1945 813d 1780 9dbe 8d64 373d 6621 9c3d
00000370: e1ac e03e fe9f 223e 2715 03bf 1385 d0bd
00000380: 474a 59be f4ea 153e 69f2 a3bd 71cd 4b3e
00000390: 0557 cabe f6e3 c2be fa82 8d3e 6f10 fe3d
000003a0: d78e c53d e686 cdbc e18f 0d3e 88bb 05be
000003b0: 9654 1d3e 9630 c63a a799 61bd 992b b5bd
000003c0: fcfa 43be 241f d53d 8a5f 90bd d237 423c
000003d0: 6cc9 6a3e c5df 20be 7b67 143e 0068 01be
000003e0: 1556 773e 2eb0 8a3b 4943 00be d0e0 333d
000003f0: c3fc 83be fc8e 9f3e 0e61 3c3e 1b6a e1bc

network_body._body_endoder.seq_layers.0.bias f4 [256]
0.006808485 -0.018077115 -0.02287853 -0.0032017755 -0.015939653 0.047360286 -0.004271406 -0.00021538611
-0.0020898026 0.0012095302 0.02960214 -0.007939873 0.03905511 0.016409984 -0.021272149 -0.016223788
0.03935688 0.001890445 -0.0012785208 0.035708915 -0.017270885 0.009166311 -0.018556267 -0.021632679
-0.010489129 -0.02244747 -0.017569378 -0.017175782 -0.012321489 -0.015741665 -0.010146607 -0.0094465595
0.009115955 -0.019226208 -0.0066891434 0.00744255 -0.011431124 0.03798745 0.00016403601 -0.01654705
0.020633647 0.0015103678 -0.0022398704 0.013581407 -0.026806109 -0.0026421037 0.040286496 0.014982317
-0.03047541 -0.0065146177 0.005745148 0.023558572 0.01203358 -0.0017971668 0.024062414 0.056709245
-0.007675044 0.033660594 0.02489698 0.05223871 0.00093196594 -0.010253117 0.009351688 0.026314344
0.008793286 -0.0041705943 0.00049545045 -0.0031975363 -0.0027290015 -0.00019946133 0.0015694486 -0.009203823
0.005980193 -0.002262115 0.025021603 0.0010543886 -0.025013376 -0.02008674 0.0078933565 -0.02158075
0.023533955 -0.03708103 -0.007763302 -0.00046465456 -0.024793249 -0.014285865 -0.03235646 0.025167033
-0.019729527 -0.0025712731 0.020553894 -0.0026870787 -0.016988302 0.0024513023 0.0076700253 -0.019579828
-0.0076995236 0.013107126 0.03518753 0.0029277282 0.006351083 0.017064828 -0.013227724 0.0032237899
0.014162568 0.015170681 -0.01530063 0.015571332 0.010470136 0.009375535 -0.0047849896 0.005339608
-0.01851898 0.029043604 0.013963187 0.0047320975 0.022931436 0.014913611 -0.023326132 -0.0039871726
0.041626632 -0.01427407 0.0144570945 -0.009841556 -0.0201224 -0.0063018263 0.013697387 -0.017640863
-0.027239364 -0.026081555 -0.007253756 0.018724086 0.03199546 0.014566856 0.0050075646 -0.007402422
0.033231113 -0.0035684656 0.013216541 -0.01509913 0.0010512923 -0.01928444 -0.011788567 0.0034401428
0.022321157 0.0077774185 0.013079579 0.021108996 -0.0088805575 -0.0026917537 0.005192944 0.0056954273
-0.0007214415 0.0040498576 -0.017308533 -0.004127447 0.024066461 0.014246549 -0.0034611973 0.039460346
0.031177692 0.004621496 0.0019453807 -0.007957947 -0.018023664 -0.03006973 -0.036114432 -0.0033079819
0.0020392493 0.022628289 -0.01841638 0.023922188 0.0023500365 -0.013795658 0.025205068 -0.0039481763
0.0072626784 0.017212773 -0.016743708 0.03319296 0.025361123 0.028834317 0.024425039 0.010338175
0.046964023 -0.008343734 -0.03134699 0.02675251 0.002879508 0.0009483862 0.01040285 0.027091064
-0.020877188 0.00034457826 -0.014262858 -0.008285533 -0.002449123 -0.00046968108 0.011028836 -0.002282367
0.03189282 0.013126452 -0.0016409857 0.0069467966 -0.010711546 0.021472674 0.028693717 -0.010412351
-0.0044504036 0.0020223367 0.0048711337 0.0014521931 -0.018682292 0.024872152 -0.0041195694 0.0377159
0.0011651573 0.013264155 0.005650526 -0.013405764 0.030542266 -0.02553388 -0.022805095 0.009707269
0.010777737 -0.0043068007 -0.022025492 0.0182239 -0.0088426415 -0.00040906135 -0.025428861 0.0015336057
0.036735993 -0.011206573 0.001674863 0.04275342 0.020004215 -0.03149842 0.0059198956 0.057047587
-0.019107444 0.016417151 0.004440384 -0.0055798115 0.0006152455 -0.017419213 0.005405166 0.0118428245
-0.021826211 -0.0012648915 0.019954689 -0.0104032615 0.0101242345 -0.012309241 0.005035439 0.0071171024
00000000: b619 df3b 7516 94bc c16b bbbc e1d4 51bb
00000010: e093 82bc dcfc 413d 27f7 8bbb 45d9 61b9
00000020: 12f5 08bb 1989 9e3a 3080 f23c 3e16 02bc
00000030: 40f8 1f3d 3b6e 863c ee42 aebc c0e7 84bc
00000040: ae34 213d cfc8 f73a 0a94 a7ba 8343 123d
00000050: ac7b 8dbc 4b2e 163c 5003 98bc 0437 b1bc
00000060: 99da 2bbc c2e3 b7bc a8ed 8fbc 3ab4 8cbc
00000070: 12e0 49bc aaf4 80bc f43d 26bc bec5 1abc
00000080: 165b 153c 4880 9dbc 9a30 dbbb a2e0 f33b
00000090: 9c49 3bbc ba98 1b3d 1501 2c39 ae8d 87bc
000000a0: e507 a93c 89f7 c53a caca 12bb 8d84 5e3c
000000b0: 7c98 dbbc 2527 2dbb 7403 253d 6478 753c
000000c0: 91a7 f9bc 9378 d5bb cb41 bc3b e8fd c03c
000000d0: 7e28 453c e98e ebba 8a1e c53c f447 683d
000000e0: ef7e fbbb b1df 093d c0f4 cb3c 42f8 553d
000000f0: 2d4f 743a b1fc 27bc d337 193c 2e91 d73c
00000100: b711 103c 7ba9 88bb 1ee1 013a c28d 51bb
00000110: 0cd9 32bb 7e26 51b9 f5b5 cd3a a2cb 16bc
00000120: 7ff5 c33b fe3f 14bb 1bfa cc3c 6933 8a3a
00000130: dae8 ccbc f28c a4bc 2353 013c 1dca b0bc
00000140: 48ca c03c 47e2 17bd 4c63 febb e19c f3b9
00000150: 361b cbbc 430f 6abc 3588 04bd 182b ce3c
00000160: d19f a1bc ce82 28bb a460 a83c b319 30bb
00000170: 0d2b 8bbc 07a6 203b d654 fb3b e065 a0bc
00000180: 494c fcbb 45bf 563c cd20 103d 21df 3f3b
00000190: bf1c d03b 8acb 8b3c 18b9 58bc 3846 533b
000001a0: 1e0a 683c 738e 783c 7eaf 7abc e61e 7f3c
000001b0: ef8a 2b3c d89b 193c 67cb 9cbb e1f7 ae3b
000001c0: 1eb5 97bc daec ed3c dac5 643c b60f 9b3b
000001d0: b5da bb3c 3858 743c 7216 bfbc d4a6 82bb
000001e0: b080 2a3d cadd 69bc 73dd 6c3c 7a3e 21bc
000001f0: bbd7 a4bc 8d7f cebb 016b 603c 9283 90bc
00000200: 1625 dfbc fca8 d5bc eab0 edbb 4163 993c
00000210: ac0d 033d d3a9 6e3c 7f16 a43b 0490 f2bb
00000220: 591d 083d ebdc 69bb 318a 583c 5762 77bc
00000230: 84cb 893a 67fa 9dbc d524 41bc 0574 613b
00000240: dcda b63c b7d9 fe3b bb4b 563c c6ec ac3c
00000250: c27f 11bc 2268 30bb 9229 aa3b b5a0 ba3b
00000260: 1f1f 3dba abb4 843b a0ca 8dbc 893f 87bb
00000270: 0727 c53c 5c6a 693c 41d5 62bb 2ca1 213d
00000280: 5c68 ff3c eb6f 973b 25fc fe3a 0d62 02bc
00000290: 5da6 93bc cb54 f6bc baec 13bd baca 58bb
000002a0: eda4 053b f65e b93c f3dd 96bc 77f8 c33c
000002b0: 1203 1a3b 2f07 62bc dc7a ce3c b45f 81bb
000002c0: c3fb ed3b cd01 8d3c 1a2a 89bc 57f5 073d
000002d0: 21c2 cf3c f235 ec3c 0517 c83c 7361 293c
000002e0: 595d 403d 28b4 08bc b465 00bd 1428 db3c
000002f0: 21b6 3c3b 1f9d 783a b770 2a3c 14ee dd3c
00000300: a306 abbc 83a8 b439 c3ae 69bc 0bc0 07bc
00000310: 7781 20bb 873f f6b9 4ab2 343c c493 15bb
00000320: 0ca2 023d 5510 573c 5816 d7ba f4a1 e33b
00000330: 7b7f 2fbc 76e7 af3c 160f eb3c 9198 2abc
00000340: b1d4 91bb 2e89 043b 089e 9f3b 8457 be3a
00000350: 9b0b 99bc afc0 cb3c 74fd 86bb fd7b 1a3d
00000360: 31b8 983a e651 593c 0c28 b93b d9a3 5bbc
00000370: c633 fa3c 6d2c d1bc c0d1 babc 3d0b 1f3c
00000380: 1b95 303c 1020 8dbb ce6e b4bc 4a4a 953c
00000390: bae0 10bc 4977 d6b9 3050 d0bc 4503 c93a
000003a0: 7b78 163d c69b 37bc 1487 db3a 361e 2f3d
000003b0: e1df a33c 7d04 01bd affb c13b bbaa 693d
000003c0: 3787 9cbc 437d 863c a480 913b dad6 b6bb
000003d0: 6d48 213a bdb2 8ebc d21d b13b 6808 423c
000003e0: e2cc b2bc b7ca a5ba 0478 a33c 7172 2abc
000003f0: 1ee0 253c b3ac 49bc 5300 a53b 9536 e93b

action_model._continuous_distribution.log_sigma f4 [1, 2]
0.2544749 0.053324595
00000000: 894a 823e e46a 5a3d

action_model._continuous_distribution.mu.weight f4 [2, 256]
-0.000709493 0.027547674 0.02124543 -3.2378028e-07 0.01842751 -0.017916465 0.006885871 0.005852503
0.015176444 -0.003336512 -0.020784745 0.0031422584 -0.023811333 0.016238486 0.0058702608 0.031794116
-0.010159133 0.03362091 -0.014131786 -0.0309117 -0.0015033463 -0.014319316 0.018467318 0.027086485
-0.00036844934 0.010268673 0.027332889 0.035364766 0.0099985115 -0.018181244 -0.0087397685 -0.003302091
-0.017538719 0.028525393 0.008439972 0.0072120437 -0.0027720933 -0.027640346 -0.003939904 0.013451809
-0.042520665 -0.009432452 -0.011290764 -0.013122802 0.024776366 -0.0076827877 -0.022150602 0.020390926
0.001718328 0.06255244 0.008213014 -0.013040777 0.042456023 -0.00238992 0.023879629 0.004462003
0.011659397 -0.032388613 -0.012240896 -0.004707079 -4.979423e-05 -0.0002843802 0.0003098128 -0.019135062
0.0078295795 0.04427747 0.030269518 0.027712299 0.0020596285 -0.0055875774 0.061764054 0.007971054
0.023841316 0.0038836864 -0.0025889205 0.0072381627 0.0143090235 0.031877022 -0.019694882 0.017119274
-0.02140299 0.0070911036 0.038832344 -0.007312333 0.010608176 0.016037364 -0.020812308 -0.041974567
0.027895302 0.01084481 0.014580344 0.0010041347 0.021148602 -0.012100337 -0.007827112 0.023118647
-0.008910989 -0.0002963128 -0.025774019 0.00017453289 -0.008317379 -0.015232371 0.00011913095 -0.0044232775
0.007890824 -0.05239188 0.0084279915 0.02286853 -0.0079970285 0.040647514 -0.012595979 0.012038458
-0.006773476 -0.018835148 -0.008670036 0.010301071 -0.0132888425 0.005064206 0.017861165 -0.0047672046
-0.007960128 0.040040534 -0.011011265 -0.012845725 0.02368386 -0.0067265215 0.020886293 0.0022873895
0.0007721854 0.026272269 0.023419036 -0.013852118 -0.034265853 -0.021761917 0.0013837713 0.0068791765
-0.01665912 0.00084435113 -0.0011019455 -0.00058499654 0.03648715 0.020684734 -0.014466031 -0.0099547375
-0.020593334 -0.023618486 -0.013913774 -0.03641378 0.02047514 -0.016484346 -0.0037547972 -0.016977735
-0.00963378 0.00541386 0.026594726 -0.012087873 -0.027869338 0.0139752515 -0.00025342862 0.015107406
-0.017239459 0.0209303 0.007650053 0.007600436 0.008961941 -0.012798544 0.0036698175 0.014007724
0.0001938256 -0.036030173 0.02078601 -0.012213125 -0.026502958 0.0018221622 -0.025991436 0.024605222
0.010859757 0.015893852 0.027223572 -0.025032362 -0.03480542 -0.0058830413 -0.012023181 -0.018093543
-0.017781252 -0.0053705685 0.003320729 -0.01743449 0.0039663822 0.012883252 0.0029660957 -0.034468606
0.030877557 0.019377021 0.006894612 0.009530995 -0.003185809 -0.003411877 -0.007629798 -0.010341762
-0.021545997 -0.03110717 0.008218022 -0.027759822 0.0067552044 -0.03802616 -0.039540708 0.0062316563
-0.014564752 -0.006952419 -0.00423008 0.006616316 0.014356155 -0.01107536 0.01996692 -0.025211263
-0.023677113 0.0064921714 -0.0007757612 0.041035023 -0.02912095 0.015678419 0.019554276 -0.009217818
0.0019692471 0.0011211635 0.0114967385 0.012470003 0.004881169 0.01651785 -0.0011087985 0.00270364
-0.013192178 -0.025879076 0.014084271 -0.017699677 -0.012257629 0.0064765015 -0.015109081 -0.008292384
0.00067740586 0.013223007 -0.018880669 0.038877115 0.034956343 0.046138864 -0.0016353992 0.0008154484
-0.024742154 0.01174451 0.02629106 0.020569881 0.016805166 0.04456422 -0.004615621 -0.040840466
00000000: 45fd 39ba a9ab e13c e50a ae3c 06d4 adb4
00000010: 4af5 963c 8dc5 92bc dfa2 e13b 5ac6 bf3b
00000020: 9fa6 783c 62a9 5abb c544 aabc 59ee 4d3b
00000030: fc0f c3bc 9306 853c 515b c03b 8c3a 023d
00000040: 7e72 26bc 14b6 093d 0289 67bc 893a fdbc
00000050: ee0b c5ba 909b 6abc c648 973c 7ae4 dd3c
00000060: 6f2c c1b9 f03d 283c 39e9 df3c a5da 103d
00000070: ccd0 233c d5f0 94bc 3f31 0fbc e567 58bb
00000080: 5cad 8fbc 16ae e93c cf47 0a3c 0253 ec3b
00000090: 02ac 35bb 026e e2bc 4f1a 81bb fa64 5c3c
000000a0: 262a 2ebd 928a 1abc e6fc 38bc 0501 57bc
000000b0: cef7 ca3c e5bf fbbb 2e75 b5bc df0a a73c
000000c0: 8539 e13a 7e1b 803d e18f 063c fca8 55bc
000000d0: 5ee6 2d3d 34a0 1cbb 369f c33c fe35 923b
000000e0: 0e07 3f3c eca9 04bd 0a8e 48bc d73d 9abb
000000f0: 26da 50b8 dd18 95b9 5f6e a239 22c1 9cbc
00000100: a347 003c 4b5c 353d c8f7 f73c e704 e33c
00000110: d5fa 063b ff17 b7bb 4efc 7c3d 0699 023c
00000120: dd4e c33c 7285 7e3b e1aa 29bb 1c2e ed3b
00000130: 6570 6a3c 7b91 023d 2957 a1bc b83d 8c3c
00000140: 5355 afbc 7d5c e83b aa0e 1f3d 4c9c efbb
00000150: eacd 2d3c ca60 833c 937e aabc 86ed 2bbd
00000160: b084 e43c 6eae 313c 65e2 6e3c 2b9d 833a
00000170: d53f ad3c 7e40 46bc 4a3d 00bc 5163 bd3c
00000180: 66ff 11bc 6e5a 9bb9 0924 d3bc d102 3739
00000190: 9e45 08bc 3291 79bc f1d5 f938 24f1 90bb
000001a0: 8448 013c de98 56bd 8f15 0a3c c956 bb3c
000001b0: f805 03bc 027e 263d 5d5f 4ebc f43c 453c
000001c0: 09f4 ddbb 2b4c 9abc c40c 0ebc d3c5 283c
000001d0: 72b9 59bc a4f1 a53b 9451 923c 3636 9cbb
000001e0: 326b 02bc 8b01 243d 9868 34bc e076 52bc
000001f0: a804 c23c 276a dcbb bb19 ab3c 07e8 153b
00000200: 7c6c 4a3a f138 d73c 47d9 bf3c fef3 62bc
00000210: 5a5a 0cbd 0c46 b2bc a95f b53a b76a e13b
00000220: b578 88bc 7257 5d3a 286f 90ba 745a 19ba
00000230: 8d73 153d 0873 a93c ef02 6dbc 3219 23bc
00000240: 5ab3 a8bc 8e7b c1bc 99f6 63bc 9e26 15bd
00000250: 7bbb a73c 2e0a 87bc 0b13 76bb e414 8bbc
00000260: 01d7 1dbc c066 b13b 2fdd d93c 370c 46bc
00000270: 3d4e e4bc 74f8 643c 9dde 84b9 0e85 773c
00000280: c439 8dbc 0576 ab3c 4cad fa3b 140d f93b
00000290: 1bd5 123c fcb0 51bc 5281 703b a780 653c
000002a0: aa3d 4b39 6094 13bd 6c47 aa3c 8f19 48bc
000002b0: bb1c d9bc 9ed5 ee3a feeb d4bc e490 c93c
000002c0: 1fed 313c d333 823c f803 df3c ab10 cdbc
000002d0: 2190 0ebd 87c6 c0bb e0fc 44bc e938 94bc
000002e0: fda9 91bc 98fb afbb 96a0 593b c7d2 8ebc
000002f0: 6df8 813b 4714 533c d462 423b f42e 0dbd
00000300: eef2 fc3c 8fbc 9e3c 33ec e13b e427 1c3c
00000310: 01c9 50bb cc99 5fbb 6203 fabb 7e70 29bc
00000320: 3b81 b0bc 77d4 febc e2a4 063c 9168 e3bc
00000330: c35a dd3b 52c1 1bbd 70f5 21bd ec32 cc3b
00000340: ffa0 6ebc 1ed1 e3bb 7c9c 8abb aecd d83b
00000350: 1436 6b3c 6d75 35bc ab91 a33c da87 cebc
00000360: 81f6 c1bc 48bc d43b 745c 4bba 5714 283d
00000370: 0f8f eebc 0770 803c 4a30 a03c 5506 17bc
00000380: 7c0e 013b 01f4 923a d15c 3c3c fc4e 4c3c
00000390: 37f2 9f3b 7150 873c 1b55 91ba 8d2f 313b
000003a0: 0124 58bc 5b00 d4bc b7c1 663c eafe 90bc
000003b0: 39d4 48bc d538 d43b 148c 77bc c8dc 07bc
000003c0: f093 313a 50a5 583c a2ab 9abc 9c3d 1f3d
000003d0: 622e 0f3d 1bfc 3c3d e45a d6ba d1c3 553a
000003e0: 0fb0 cabc 0c6c 403c 5960 d73c 2b82 a83c
000003f0: fdaa 893c f988 363d a33e 97bb 5548 27bd

action_model._continuous_distribution.mu.bias f4 [2]
-0.014145705 -0.006757806
00000000: 63c3 67bc 9670 ddbb

exp_avg f4 [256, 28]
0.0 0.0 -6e-45 -2.242311e-09 6e-45 0.0 -6e-45 -4.099727e-09
0.0 0.0 -6e-45 -1.8318601e-09 1.5046996e-07 0.0 -7.930337e-06 -3.076175e-06
0.0 0.0 -6e-45 -1.7841549e-09 2.6613498e-07 0.0 -5.1346747e-06 -1.4437479e-06
0.0 0.0 -6e-45 -1.8713222e-09 0.0 0.0 6e-45 8.472306e-08
-6e-45 0.0 6e-45 1.5303175e-07 0.0 0.0 6e-45 7.078525e-08
1.04207e-06 0.0 -2.4398107e-05 8.111849e-06 0.0 0.0 6e-45 7.3436304e-08
3.1357918e-06 0.0 7.885643e-06 1.6768077e-05 0.0 0.0 6e-45 8.1140605e-08
0.0 0.0 6e-45 5.6028167e-08 -6e-45 0.0 6e-45 1.0121755e-07
0.0 0.0 6e-45 4.6818055e-08 7.513645e-07 0.0 -2.0595271e-05 2.8922723e-06
0.0 0.0 6e-45 4.8650694e-08 2.114053e-06 0.0 3.337384e-06 9.954269e-06
0.0 0.0 6e-45 5.2913336e-08 0.0 0.0 -6e-45 -1.2082413e-08
6e-45 0.0 -6e-45 -2.1641068e-08 0.0 0.0 -6e-45 -1.0199065e-08
-7.894444e-07 0.0 9.096141e-06 -1.1666725e-06 0.0 0.0 -6e-45 -1.0754459e-08
-1.1827996e-06 0.0 4.4811864e-06 -4.325111e-06 0.0 0.0 -6e-45 -1.4176781e-08
0.0 0.0 6e-45 6.193556e-08 6e-45 0.0 6e-45 1.1171097e-07
0.0 0.0 6e-45 5.1670696e-08 -2.2858843e-07 0.0 1.2623921e-05 1.7459337e-05
0.0 0.0 6e-45 5.3194707e-08 4.8794635e-07 0.0 1.7355598e-05 1.787213e-05
0.0 0.0 6e-45 6.235062e-08 0.0 0.0 -6e-45 -6.231798e-08
6e-45 0.0 -6e-45 -1.1201665e-07 0.0 0.0 -6e-45 -5.210733e-08
-4.2938262e-07 0.0 7.812809e-06 -1.1099853e-05 0.0 0.0 -6e-45 -5.387841e-08
-1.1387656e-06 0.0 -4.032443e-06 -1.5169608e-05 0.0 0.0 -6e-45 -6.709171e-08
0.0 0.0 6e-45 2.714333e-08 6e-45 0.0 6e-45 4.8973593e-08
0.0 0.0 6e-45 2.2635202e-08 -2.0703517e-07 0.0 9.5962005e-06 9.737391e-06
0.0 0.0 6e-45 2.3256282e-08 1.8842009e-07 0.0 1.2189114e-05 9.05459e-06
0.0 0.0 6e-45 2.6676306e-08 0.0 0.0 -6e-45 1.9840105e-08
6e-45 0.0 -6e-45 3.5783856e-08 0.0 0.0 -6e-45 1.6565536e-08
6.0569334e-08 0.0 -4.2222499e-07 3.845608e-06 0.0 0.0 -6e-45 1.7113763e-08
3.40797e-07 0.0 4.006489e-06 5.015384e-06 0.0 0.0 -6e-45 1.9771905e-08
0.0 0.0 6e-45 5.6719482e-08 6e-45 0.0 6e-45 1.0236154e-07
0.0 0.0 6e-45 4.7227534e-08 -1.0457804e-06 0.0 3.14399e-05 2.3724171e-05
0.0 0.0 6e-45 4.8342635e-08 -6.2001976e-07 0.0 2.938216e-05 1.9699202e-05
0.0 0.0 6e-45 5.6036757e-08 0.0 0.0 6e-45 -8.642312e-09
00000000: 0000 0000 0000 0000 0400 0080 2717 1ab1
00000010: 0400 0000 0000 0000 0400 0080 94dd 8cb1
00000020: 0000 0000 0000 0000 0400 0080 d9c4 fbb0
00000030: de90 2134 0000 0000 8a0c 05b7 4970 4eb6
00000040: 0000 0000 0000 0000 0400 0080 5f36 f5b0
00000050: 50e1 8e34 0000 0000 854a acb6 cdc6 c1b5
00000060: 0000 0000 0000 0000 0400 0080 a698 00b1
00000070: 0000 0000 0000 0000 0400 0000 fff0 b533
00000080: 0400 0080 0000 0000 0400 0000 0c51 2434
00000090: 0000 0000 0000 0000 0400 0000 9a02 9833
000000a0: 41dd 8b35 0000 0000 89aa ccb7 2018 0837
000000b0: 0000 0000 0000 0000 0400 0000 09b4 9d33
000000c0: 7e70 5236 0000 0000 944c 0437 2ca9 8c37
000000d0: 0000 0000 0000 0000 0400 0000 853f ae33
000000e0: 0000 0000 0000 0000 0400 0000 9fa3 7033
000000f0: 0400 0080 0000 0000 0400 0000 f05c d933
00000100: 0000 0000 0000 0000 0400 0000 ff14 4933
00000110: 60b1 4935 0000 0000 02c4 acb7 dc18 4236
00000120: 0000 0000 0000 0000 0400 0000 01f4 5033
00000130: 27df 0d36 0000 0000 d2f7 5f36 4301 2737
00000140: 0000 0000 0000 0000 0400 0000 d442 6333
00000150: 0000 0000 0000 0000 0400 0080 0493 4fb2
00000160: 0400 0000 0000 0000 0400 0080 36e5 b9b2
00000170: 0000 0000 0000 0000 0400 0080 f637 2fb2
00000180: 35ea 53b5 0000 0000 a19b 1837 9096 9cb5
00000190: 0000 0000 0000 0000 0400 0080 9cc2 38b2
000001a0: afc0 9eb5 0000 0000 195d 9636 6c20 91b6
000001b0: 0000 0000 0000 0000 0400 0080 248e 73b2
000001c0: 0000 0000 0000 0000 0400 0000 6f01 8533
000001d0: 0400 0000 0000 0000 0400 0000 c1e5 ef33
000001e0: 0000 0000 0000 0000 0400 0000 88ec 5d33
000001f0: e971 75b4 0000 0000 54cb 5337 a475 9237
00000200: 0000 0000 0000 0000 0400 0000 3378 6433
00000210: 6bfb 0235 0000 0000 dd96 9137 1bec 9537
00000220: 0000 0000 0000 0000 0400 0000 9ee5 8533
00000230: 0000 0000 0000 0000 0400 0080 acd3 85b3
00000240: 0400 0000 0000 0000 0400 0080 ce8d f0b3
00000250: 0000 0000 0000 0000 0400 0080 9dcc 5fb3
00000260: e685 e6b4 0000 0000 c213 0337 8139 3ab7
00000270: 0000 0000 0000 0000 0400 0080 f067 67b3
00000280: b0d7 98b5 0000 0000 6c4e 87b6 f880 7eb7
00000290: 0000 0000 0000 0000 0400 0080 0f14 90b3
000002a0: 0000 0000 0000 0000 0400 0000 d028 e932
000002b0: 0400 0000 0000 0000 0400 0000 0957 5233
000002c0: 0000 0000 0000 0000 0400 0000 566f c232
000002d0: 654d 5eb4 0000 0000 5eff 2037 c75d 2337
000002e0: 0000 0000 0000 0000 0400 0000 1bc5 c732
000002f0: 8550 4a34 0000 0000 d97f 4c37 2be9 1737
00000300: 0000 0000 0000 0000 0400 0000 d125 e532
00000310: 0000 0000 0000 0000 0400 0080 da6c aa32
00000320: 0400 0000 0000 0000 0400 0080 c4b0 1933
00000330: 0000 0000 0000 0000 0400 0080 004c 8e32
00000340: 5812 8233 0000 0000 29ae e2b4 8509 8136
00000350: 0000 0000 0000 0000 0400 0080 9001 9332
00000360: c8f6 b634 0000 0000 7a6f 8636 d249 a836
00000370: 0000 0000 0000 0000 0400 0080 e1d6 a932
00000380: 0000 0000 0000 0000 0400 0000 bb9b 7333
00000390: 0400 0000 0000 0000 0400 0000 dad1 db33
000003a0: 0000 0000 0000 0000 0400 0000 39d7 4a33
000003b0: be5c 8cb5 0000 0000 56de 0338 4503 c737
000003c0: 0000 0000 0000 0000 0400 0000 4aa1 4f33
000003d0: 6f6f 26b5 0000 0000 b579 f637 b73f a537
000003e0: 0000 0000 0000 0000 0400 0000 11ad 7033
000003f0: 0000 0000 0000 0000 0400 0000 4a79 14b2

exp_avg_sq f4 [256, 28]
0.0 0.0 9.679554e-16 2.4989037e-14 3.2887584e-16 0.0 9.679554e-16 7.903168e-14
0.0 0.0 9.679554e-16 1.7743716e-14 5.911531e-11 0.0 2.9212528e-09 3.6716143e-09
0.0 0.0 9.679554e-16 1.874804e-14 8.66932e-11 0.0 3.2024248e-09 3.9636463e-09
0.0 0.0 9.679554e-16 3.075962e-14 0.0 0.0 9.060009e-17 1.1852936e-13
6.5299748e-15 0.0 9.060009e-17 3.8420965e-13 0.0 0.0 9.060009e-17 8.2889336e-14
5.798061e-10 0.0 2.02679e-08 2.3670289e-08 0.0 0.0 9.060009e-17 8.784979e-14
7.5948936e-10 0.0 1.7835882e-08 2.1731209e-08 0.0 0.0 9.060009e-17 1.470489e-13
0.0 0.0 1.9249895e-15 6.86138e-14 5.177367e-15 0.0 1.9249895e-15 2.1871693e-13
0.0 0.0 1.9249895e-15 4.8505847e-14 3.1048605e-10 0.0 1.202972e-08 1.3680101e-08
0.0 0.0 1.9249895e-15 5.1303105e-14 3.9939618e-10 0.0 1.0653921e-08 1.2679479e-08
0.0 0.0 1.9249895e-15 8.469287e-14 0.0 0.0 1.8617023e-18 6.1077845e-14
1.419442e-15 0.0 1.8617023e-18 1.9762996e-13 0.0 0.0 1.8617023e-18 4.260104e-14
4.786545e-10 0.0 3.1485e-09 5.59518e-09 0.0 0.0 1.8617023e-18 4.51498e-14
4.8579674e-10 0.0 2.848869e-09 5.3383715e-09 0.0 0.0 1.8617023e-18 7.555511e-14
0.0 0.0 7.597773e-16 1.3450551e-13 3.9242685e-15 0.0 7.597773e-16 4.3409552e-13
0.0 0.0 7.597773e-16 9.409429e-14 6.112122e-10 0.0 1.685829e-08 2.085738e-08
0.0 0.0 7.597773e-16 9.9712956e-14 1.0215842e-09 0.0 1.7856992e-08 2.1115467e-08
0.0 0.0 7.597773e-16 1.665618e-13 0.0 0.0 3.4532204e-18 1.6273395e-14
7.198625e-16 0.0 3.4532204e-18 5.273254e-14 0.0 0.0 3.4532204e-18 1.1390984e-14
8.447486e-11 0.0 8.6010493e-10 1.5652416e-09 0.0 0.0 3.4532204e-18 1.2073949e-14
8.757868e-11 0.0 8.80057e-10 1.5433684e-09 0.0 0.0 3.4532204e-18 2.0192952e-14
0.0 0.0 1.5377287e-15 5.754057e-14 9.071159e-16 0.0 1.5377287e-15 1.8336198e-13
0.0 0.0 1.5377287e-15 4.0642924e-14 1.8273436e-10 0.0 9.273412e-09 1.0691659e-08
0.0 0.0 1.5377287e-15 4.2991696e-14 2.9564576e-10 0.0 8.6582e-09 1.01483275e-08
0.0 0.0 1.5377287e-15 7.100525e-14 0.0 0.0 7.107294e-17 1.3257114e-14
9.181662e-16 0.0 7.107294e-17 4.2801266e-14 0.0 0.0 7.107294e-17 9.282629e-15
6.2408564e-11 0.0 1.7584254e-09 2.1338564e-09 0.0 0.0 7.107294e-17 9.835344e-15
8.6273565e-11 0.0 1.7363022e-09 2.118519e-09 0.0 0.0 7.107294e-17 1.6425651e-14
0.0 0.0 3.19322e-15 3.6274578e-13 9.120277e-15 0.0 3.19322e-15 1.1681812e-12
0.0 0.0 3.19322e-15 2.5418117e-13 1.8955701e-09 0.0 5.0510224e-08 5.997683e-08
0.0 0.0 3.19322e-15 2.6925895e-13 2.7187572e-09 0.0 5.0210364e-08 5.9069837e-08
0.0 0.0 3.19322e-15 4.4883224e-13 0.0 0.0 1.4093355e-16 1.6216254e-14
00000000: 0000 0000 0000 0000 407f 8b26 cc14 e128
00000010: 8295 bd25 0000 0000 407f 8b26 a9f6 b129
00000020: 0000 0000 0000 0000 407f 8b26 39d2 9f28
00000030: f6fe 812e 0000 0000 39bf 4831 b94f 7c31
00000040: 0000 0000 0000 0000 407f 8b26 09de a828
00000050: efa3 be2e 0000 0000 a711 5c31 9a30 8831
00000060: 0000 0000 0000 0000 407f 8b26 6d87 0a29
00000070: 0000 0000 0000 0000 dbe8 d024 c373 052a
00000080: 6344 eb27 0000 0000 dbe8 d024 724a d82a
00000090: 0000 0000 0000 0000 dbe8 d024 73a6 ba29
000000a0: 3a60 1f30 0000 0000 9519 ae32 8453 cb32
000000b0: 0000 0000 0000 0000 dbe8 d024 f5d1 c529
000000c0: 50c4 5030 0000 0000 8535 9932 6fab ba32
000000d0: 0000 0000 0000 0000 dbe8 d024 f68f 252a
000000e0: 0000 0000 0000 0000 cab5 0a27 2a81 9a29
000000f0: c888 ba27 0000 0000 cab5 0a27 dd40 762a
00000100: 0000 0000 0000 0000 cab5 0a27 6f73 5a29
00000110: 07b1 aa2f 0000 0000 45ab 4e32 b805 6b32
00000120: 0000 0000 0000 0000 cab5 0a27 740c 6729
00000130: 0492 db2f 0000 0000 7108 3732 f0d4 5932
00000140: 0000 0000 0000 0000 cab5 0a27 1eb6 be29
00000150: 0000 0000 0000 0000 905e 0922 fb88 8929
00000160: 2b90 cc26 0000 0000 905e 0922 f582 5e2a
00000170: 0000 0000 0000 0000 905e 0922 a8db 3f29
00000180: 5192 0330 0000 0000 ff5c 5831 b93f c031
00000190: 0000 0000 0000 0000 905e 0922 2d56 4b29
000001a0: e888 0530 0000 0000 d5c5 4331 d06c b731
000001b0: 0000 0000 0000 0000 905e 0922 8e22 aa29
000001c0: 0000 0000 0000 0000 abfd 5a26 9370 172a
000001d0: fd62 8d27 0000 0000 abfd 5a26 c25f f42a
000001e0: 0000 0000 0000 0000 abfd 5a26 aae1 d329
000001f0: 3c02 2830 0000 0000 c6cf 9032 dd29 b332
00000200: 0000 0000 0000 0000 abfd 5a26 9b88 e029
00000210: cc67 8c30 0000 0000 f163 9932 6761 b532
00000220: 0000 0000 0000 0000 abfd 5a26 2c88 3b2a
00000230: 0000 0000 0000 0000 7dcd 7e22 e593 9228
00000240: 7a7c 4f26 0000 0000 7dcd 7e22 7b7c 6d29
00000250: 0000 0000 0000 0000 7dcd 7e22 a433 4d28
00000260: 1ec3 b92e 0000 0000 816c 6c30 0b20 d730
00000270: 0000 0000 0000 0000 7dcd 7e22 4381 5928
00000280: 6a96 c02e 0000 0000 82e8 7130 731e d430
00000290: 0000 0000 0000 0000 7dcd 7e22 c7e1 b528
000002a0: 0000 0000 0000 0000 2d9c dd26 e191 8129
000002b0: abba 8226 0000 0000 2d9c dd26 7e72 4e2a
000002c0: 0000 0000 0000 0000 2d9c dd26 1a0a 3729
000002d0: 26eb 482f 0000 0000 e650 1f32 6aae 3732
000002e0: 0000 0000 0000 0000 2d9c dd26 0d9e 4129
000002f0: 7188 a22f 0000 0000 2bbf 1432 d158 2e32
00000300: 0000 0000 0000 0000 2d9c dd26 bde3 9f29
00000310: 0000 0000 0000 0000 0fe2 a324 a6d1 6e28
00000320: 5b52 8426 0000 0000 0fe2 a324 80c2 4029
00000330: 0000 0000 0000 0000 0fe2 a324 9238 2728
00000340: e63c 892e 0000 0000 18ad f130 33a3 1231
00000350: 0000 0000 0000 0000 0fe2 a324 852d 3128
00000360: b3b7 bd2e 0000 0000 b4a2 ee30 6195 1131
00000370: 0000 0000 0000 0000 0fe2 a324 f9f2 9328
00000380: 0000 0000 0000 0000 8318 6627 2d35 cc2a
00000390: db4b 2428 0000 0000 8318 6627 2a68 a42b
000003a0: 0000 0000 0000 0000 8318 6627 5e17 8f2a
000003b0: 3943 0231 0000 0000 94f0 5833 9ccc 8033
000003c0: 0000 0000 0000 0000 8318 6627 4e94 972a
000003d0: e2d4 3a31 0000 0000 e1a6 5733 f9b3 7d33
000003e0: 0000 0000 0000 0000 8318 6627 8bab fc2a
000003f0: 0000 0000 0000 0000 3e7c 2225 2310 9228

exp_avg f4 [256]
-1.3035743e-06 4.5017005e-05 2.9784127e-05 -6.1100413e-06 3.3115055e-05 -3.2870306e-05 1.4494809e-05 1.0564412e-05
3.048558e-05 -4.4948983e-06 -3.8492683e-05 5.0559756e-06 -3.4498386e-05 2.475013e-05 1.2226319e-05 6.165727e-05
-1.8036117e-05 6.258125e-05 -2.923962e-05 -5.3641943e-05 8.164668e-09 -3.1401294e-05 3.0621144e-05 3.5872305e-05
3.8860376e-06 1.8606543e-05 4.3642027e-05 6.285819e-05 1.4798235e-05 -2.6153115e-05 -1.5211661e-05 -4.4022545e-06
-3.7817237e-05 4.4986413e-05 1.3222445e-05 1.1376234e-05 2.0225514e-08 -4.8516813e-05 -1.0209451e-05 1.7556313e-05
-6.250172e-05 -2.1633365e-05 -7.0393007e-06 -1.8151404e-05 4.0948482e-05 -1.1051012e-05 -3.0849398e-05 3.821292e-05
1.6307813e-07 9.484311e-05 1.0234504e-05 -2.8251005e-05 6.589715e-05 -5.1089555e-06 3.577371e-05 8.1500075e-06
1.4979534e-05 -5.264666e-05 -1.8485976e-05 -5.6176787e-06 -5.834754e-07 2.1589939e-08 -4.725299e-06 -3.58022e-05
-7.33756e-07 6.576864e-05 5.058446e-05 5.2411975e-05 -3.511516e-06 -1.3236327e-05 8.611336e-05 4.7009994e-06
4.2149484e-05 5.832045e-06 -2.5944275e-06 1.2243273e-05 2.340136e-05 4.790615e-05 -3.681025e-05 2.8571914e-05
-4.2859006e-05 7.3797164e-06 7.484578e-05 -1.7677374e-05 1.1498645e-05 2.452439e-05 -3.341819e-05 -7.125426e-05
4.5327743e-05 1.1895101e-05 2.931179e-05 8.373303e-07 3.2960386e-05 -2.8101078e-05 -9.7958455e-06 3.4786008e-05
-1.8982715e-05 7.5225375e-07 -3.4203513e-05 2.1933586e-06 -1.9579684e-05 -3.3450375e-05 -2.123791e-06 9.783055e-07
1.588891e-05 -0.00010323054 1.1721921e-05 2.4143763e-05 -2.0246268e-06 6.0326867e-05 -2.3747922e-05 2.0554347e-05
-1.2804861e-05 -3.621085e-05 -2.7336486e-05 1.7293829e-05 -1.0580826e-05 8.2261695e-06 2.6064336e-05 -1.2080506e-05
-1.5172031e-05 5.2306936e-05 -2.376818e-05 -2.3568187e-05 3.6394238e-05 -8.610569e-06 4.52719e-05 6.6257626e-06
1.8011812e-06 3.611772e-05 2.4587625e-05 -2.119487e-05 -5.9167498e-05 -3.29171e-05 -9.964074e-06 1.143118e-05
-2.6147272e-05 1.9804204e-06 -7.906579e-06 -2.2593433e-06 5.8974492e-05 2.7403896e-05 -1.8549552e-05 -2.9409584e-05
-3.7227655e-05 -4.2997934e-05 -3.635402e-05 -7.139758e-05 2.4779314e-05 -3.1584143e-05 -1.9946337e-05 -2.5150988e-05
-8.603316e-06 3.021591e-06 4.6271605e-05 -2.0865396e-05 -5.186877e-05 2.6816304e-05 -1.7582247e-06 2.7323358e-05
-2.7986032e-05 3.5616606e-05 1.1628012e-05 1.4631451e-05 9.720819e-06 -1.93455e-05 3.900515e-06 1.2184027e-05
-6.6147704e-06 -5.4520202e-05 3.1813062e-05 -1.9681489e-05 -3.919851e-05 -3.2175644e-06 -3.8699694e-05 4.3640895e-05
1.9283214e-05 2.8508552e-05 4.5536333e-05 -4.37541e-05 -5.4951983e-05 -1.1299375e-05 -1.4711454e-05 -3.8759496e-05
-3.013398e-05 -9.756692e-06 4.569723e-06 -2.9418481e-05 3.1533624e-08 8.903941e-06 3.9306956e-06 -5.656922e-05
5.232947e-05 3.143902e-05 1.2702536e-05 1.5250753e-05 -7.4998143e-06 -7.397262e-06 -1.0487934e-05 -2.1715281e-05
-3.1454514e-05 -5.227005e-05 1.3823101e-05 -5.547643e-05 1.1975697e-05 -7.817376e-05 -6.9353584e-05 1.0086829e-05
-2.6040043e-05 -8.2591405e-06 -1.3244864e-05 1.2364912e-05 2.7814875e-05 -2.2160179e-05 2.5355177e-05 -4.0980958e-05
-4.425877e-05 1.0435867e-05 -3.9558708e-07 5.6423043e-05 -5.1377327e-05 1.7439103e-05 2.940853e-05 -3.1043866e-05
-8.385996e-07 2.5188576e-06 2.3335924e-05 2.0270487e-05 9.1933197e-07 2.5795383e-05 -5.8576184e-06 6.659256e-06
-2.2777547e-05 -4.5346216e-05 -9.696574e-07 -2.9888213e-05 -1.9280269e-05 1.02197555e-05 -2.6772721e-05 -1.1279002e-05
-5.7674754e-07 2.2569095e-05 -3.700353e-05 7.023536e-05 5.3279968e-05 7.236305e-05 -1.5406646e-05 -1.210636e-07
-4.462873e-05 1.2134347e-05 4.4207347e-05 3.098125e-05 2.4729974e-05 7.400129e-05 -1.1476838e-05 -7.043611e-05
00000000: 79f6 aeb5 a4d0 3c38 edd8 f937 db04 cdb6
00000010: 05e5 0a38 39de 09b8 bb2e 7337 ce3d 3137
00000020: 49bb ff37 e2d2 96b6 3473 21b8 80a6 a936
00000030: 5cb2 10b8 809e cf37 a41f 4d37 ff4d 8138
00000040: 444c 97b7 0e3e 8338 9b47 f5b7 99fd 60b8
00000050: 9744 0c32 e2b4 03b8 346f 0038 9875 1638
00000060: cf64 8236 3f15 9c37 450c 3738 bcd2 8338
00000070: ef45 7837 6363 dbb7 9635 7fb7 14b7 93b6
00000080: f39d 1eb8 cbaf 3c38 f8d5 5d37 8edc 3e37
00000090: 60bc ad32 887e 4bb8 4249 2bb7 e545 9337
000000a0: 5b13 83b8 4c79 b5b7 2233 ecb6 d843 98b7
000000b0: 19c0 2b38 bc67 39b7 4a64 01b8 cf46 2038
000000c0: 931a 2f34 82e6 c638 dcb4 2b37 92fc ecb7
000000d0: 4332 8a38 986d abb6 bb0b 1638 04bc 0837
000000e0: 9c50 7b37 ecd0 5cb8 5512 9bb7 7e7f bcb6
000000f0: 20a0 1cb5 c774 b932 028e 9eb6 522a 16b8
00000100: 54f7 44b5 45ed 8938 a62a 5438 eed4 5b38
00000110: 63a7 6bb6 9711 5eb7 c297 b438 47bd 9d36
00000120: aac9 3038 e3b0 c336 ed1b 2eb6 7568 4d37
00000130: 0a4e c437 d6ee 4838 b464 1ab8 b8ad ef37
00000140: 82c3 33b8 489f f736 86f6 9c38 df49 94b7
00000150: 4eea 4037 bab9 cd37 822a 0cb8 576e 95b8
00000160: 4b1e 3e38 1291 4737 97e2 f537 e6c4 6035
00000170: f23e 0a38 9bba ebb7 d658 24b7 31e7 1138
00000180: 123d 9fb7 7cee 4935 be75 0fb8 9d31 1336
00000190: 0d3f a4b7 114d 0cb8 7486 0eb6 524e 8335
000001a0: 2d49 8537 797d d8b8 44a9 4437 5688 ca37
000001b0: d3de 07b6 7b07 7d38 4636 c7b7 206c ac37
000001c0: 76d4 56b7 1be1 17b8 a850 e5b7 3712 9137
000001d0: 4d84 31b7 2103 0a37 bca4 da37 61ad 4ab7
000001e0: 618b 7eb7 2564 5b38 c761 c7b7 4cb4 c5b7
000001f0: 04a6 1838 1d76 10b7 55e2 3d38 de52 de36
00000200: 1dc0 f135 1b7d 1738 8641 ce37 a3cb b1b7
00000210: 9e2a 78b8 7810 0ab8 5f2b 27b7 8bc8 3f37
00000220: d756 dbb7 5de7 0436 80a6 04b7 399f 17b6
00000230: 615b 7738 6be1 e537 dc9a 9bb7 9ab4 f6b7
00000240: e424 1cb8 ae58 34b8 d57a 18b8 49bb 95b8
00000250: 2cdd cf37 3779 04b8 6f52 a7b7 56fb d2b7
00000260: f656 10b7 8ac6 4a36 c213 4238 1908 afb7
00000270: ab8d 59b8 93f3 e037 24fc ebb5 7734 e537
00000280: 8cc3 eab7 0a63 1538 ee15 4337 9b79 7537
00000290: 9a16 2337 2548 a2b7 2be1 8236 ff69 4c37
000002a0: 72f4 ddb6 9fac 64b8 046f 0538 ad19 a5b7
000002b0: 1469 24b8 56ed 57b6 7b51 22b8 0e0b 3738
000002c0: 63c2 a137 a625 ef37 44fe 3e38 9b84 37b8
000002d0: 3e7c 66b8 7292 3db7 37d1 76b7 b191 22b8
000002e0: 3bc8 fcb7 acb0 23b7 9f55 9936 b5c7 f6b7
000002f0: 966f 0733 2362 1537 6be4 8336 bd44 6db8
00000300: 577c 5b38 64dd 0338 fa1c 5537 7cdd 7f37
00000310: eaa6 fbb6 ff35 f8b6 55f5 2fb7 3629 b6b7
00000320: 07ee 03b8 8a3c 5bb8 c4e9 6737 5daf 68b8
00000330: 3aeb 4837 38f1 a3b8 ec71 91b8 9a3a 2937
00000340: 9170 dab7 bd90 0ab7 4236 5eb7 e572 4f37
00000350: fd53 e937 9fe4 b9b7 d4b1 d437 f8e2 2bb8
00000360: 7ea2 39b8 b515 2f37 1361 d4b4 c8a7 6c38
00000370: fc7d 57b8 304a 9237 56b2 f637 1935 02b8
00000380: 201c 61b5 a509 2936 84c1 c337 8a0a aa37
00000390: 03c8 7635 2a63 d837 8f8c c4b6 9372 df36
000003a0: 6912 bfb7 2132 3eb8 2d25 82b5 73b8 fab7
000003b0: 10bc a1b7 8475 2b37 fb95 e0b7 f23a 3db7
000003c0: cad1 1ab5 c352 bd37 3d34 1bb8 524b 9338
000003d0: ee78 5f38 9ec1 9738 853d 81b7 b5fd 01b4
000003e0: bc2f 3bb8 a094 4b37 476b 3938 ddf1 0138
000003f0: 3773 cf37 2431 9b38 a58c 40b7 19b7 93b8

exp_avg_sq f4 [256]
6.660358e-09 3.2646078e-08 1.8473347e-08 1.6812338e-08 3.6926274e-08 4.492183e-09 1.5497237e-08 3.6364323e-09
9.922331e-08 4.4409605e-09 5.9837326e-08 2.7626408e-08 6.1072685e-09 2.030773e-08 3.6247036e-09 8.1177674e-08
7.0342328e-09 4.0713743e-08 2.6504864e-08 1.7769201e-08 7.400828e-09 1.14652865e-08 2.1276042e-08 3.089423e-08
1.8075536e-08 3.8845394e-09 4.5825217e-08 4.852724e-08 1.3578251e-08 1.5730185e-08 4.6028625e-09 5.211796e-09
7.069572e-08 5.0153638e-08 1.556034e-08 6.756015e-09 1.7237259e-08 1.7236015e-08 1.1910692e-08 5.095512e-08
6.194406e-08 2.2017124e-08 1.0851679e-07 5.5925433e-09 3.0075984e-08 8.4297156e-08 8.40363e-09 1.5387828e-08
2.790102e-08 1.5140527e-07 3.7628457e-08 2.6127102e-08 6.6260284e-08 3.293797e-08 2.8842551e-08 2.605353e-09
1.14657745e-07 3.18195e-08 7.3486333e-09 5.689197e-09 3.7763254e-08 6.493476e-09 2.4564232e-08 4.008166e-08
2.1663678e-07 1.0645431e-07 5.641326e-08 8.487285e-08 3.5659518e-08 1.9701954e-08 1.4567364e-07 3.9280398e-08
2.0885704e-08 3.7212549e-09 2.2896312e-08 2.0572374e-08 8.548901e-09 5.1996448e-08 4.1935536e-08 1.3412543e-08
3.3931563e-08 1.6442485e-08 1.7058801e-07 2.01072e-08 1.2667089e-08 1.0848597e-08 1.7037028e-08 5.774536e-08
2.7188975e-08 8.7367994e-08 9.420415e-09 2.2820803e-09 2.7872115e-08 3.854556e-08 1.9064574e-08 4.8300066e-08
1.30811895e-08 2.9219172e-09 2.3175282e-08 6.0012852e-09 1.1689873e-07 1.1328162e-07 5.623076e-09 7.138463e-08
6.6523658e-09 1.1147e-07 8.5974365e-09 3.7304822e-08 1.0076751e-07 7.124118e-08 2.1719302e-08 2.1256264e-08
2.1407228e-08 1.4399748e-08 1.2818212e-07 7.735166e-09 2.3558254e-08 3.184151e-09 8.116721e-09 9.580591e-09
6.910449e-09 6.594478e-08 4.4956554e-08 1.3519156e-08 3.2096303e-08 5.0165802e-08 8.988109e-08 8.5943626e-09
3.1986533e-09 2.6781171e-08 8.15291e-08 9.96425e-09 3.056506e-08 3.6410803e-08 4.9619942e-08 7.2014528e-09
1.4930006e-08 2.1330104e-08 7.9938346e-08 1.1195964e-08 5.4194974e-08 2.6280176e-08 9.311495e-09 2.5158048e-08
1.9091631e-08 3.8234763e-08 1.7075799e-07 1.14119835e-07 8.195316e-08 2.6990692e-08 6.270916e-08 8.224941e-08
1.40062975e-08 3.9565844e-08 5.1946753e-08 1.727589e-08 5.502475e-08 9.020755e-09 1.1883749e-08 3.305949e-08
8.313853e-09 1.1563823e-07 5.5650027e-09 7.2666424e-09 1.6359262e-08 6.55202e-09 4.191063e-09 6.065109e-08
2.0995486e-08 6.2442076e-08 4.1117293e-08 2.284734e-09 2.4267157e-08 1.1461119e-08 3.7651976e-08 1.8774998e-08
1.9911637e-08 1.4080185e-08 6.604764e-08 1.6114198e-08 3.2357367e-08 1.5434548e-08 3.3704126e-08 4.7979267e-08
4.379304e-09 3.040004e-09 3.7522567e-09 9.124273e-09 2.9029783e-08 7.2108264e-08 2.9037788e-09 4.2644896e-08
3.8535216e-08 8.030947e-08 3.748947e-09 1.1731216e-08 6.225608e-09 6.250719e-09 1.3255438e-08 2.2462753e-08
1.2388303e-08 3.9998277e-08 7.211595e-09 5.152666e-08 2.8285532e-08 4.1285585e-08 4.3454435e-08 7.869739e-09
2.2064295e-08 5.4890217e-09 3.7873797e-08 1.3420151e-08 1.6230608e-08 4.4339137e-09 2.4766877e-08 1.6392761e-08
3.8952468e-08 4.2925524e-08 2.2417401e-09 5.9878765e-08 1.8622503e-08 2.4033836e-08 1.7907038e-08 1.0808616e-07
2.3754922e-08 4.4553694e-09 1.2986364e-08 2.7413169e-08 4.8250993e-08 1.2590789e-08 6.938784e-09 6.211689e-09
7.925403e-09 4.4027583e-08 1.0588088e-07 1.0147828e-08 1.5686947e-08 4.7761244e-09 2.9251723e-08 8.732903e-09
5.222658e-09 4.058951e-08 3.4635423e-08 4.7642114e-08 4.6244963e-08 9.181343e-08 1.0891847e-07 1.6525025e-08
3.5696047e-08 7.773725e-09 4.082677e-08 1.0953294e-08 9.902504e-09 1.2399427e-07 2.2301693e-08 5.1281656e-08
00000000: 21d9 e431 be36 0c33 52af 9e32 b96a 9032
00000010: de98 1e33 a959 9a31 c91e 8532 cbe4 7931
00000020: 9714 d533 1a97 9831 eb7f 8033 1d4f ed32
00000030: 1ad8 d131 2c71 ae32 7616 7931 e653 ae33
00000040: c4b1 f131 3cdd 2e33 d0ac e332 e3a2 9832
00000050: 5f4a fe31 ddf8 4432 83c2 b632 91b0 0433
00000060: 8644 9b32 c578 8531 5cd1 4433 446c 5033
00000070: c845 6932 0b1f 8732 3527 9e31 7113 b331
00000080: 62d1 9733 8268 5733 8da9 8532 8922 e831
00000090: 2211 9432 660e 9432 c79f 4c32 bfd9 5a33
000000a0: 1b06 8533 2b20 bd32 bc09 e933 8828 c031
000000b0: e52c 0133 da06 b533 8e5f 1032 312e 8432
000000c0: feaa ef32 f791 2234 ed9c 2133 1b6e e032
000000d0: fa4a 8e33 ae77 0d33 71c1 f732 db09 3331
000000e0: c339 f633 e9a9 0833 437f fc31 b57a c331
000000f0: 2331 2233 381d df31 5101 d332 4026 2c33
00000100: aa9c 6834 e09b e433 094b 7233 5843 b633
00000110: 0e28 1933 0e3d a932 776a 1c34 41b5 2833
00000120: 2668 b332 02b9 7f31 86ad c432 21b7 b032
00000130: 77de 1232 b352 5f33 9c1c 3433 fd6c 6632
00000140: 26bc 1133 683d 8d32 e02a 3734 33b8 ac32
00000150: 729e 5932 a260 3a32 d258 9232 b203 7833
00000160: 308d e932 109f bb33 6cd7 2132 c8d2 1c31
00000170: 6e6b ef32 4b8d 2533 71c3 a332 7c72 4f33
00000180: aebb 6032 e9ca 4831 fc12 c732 dd33 ce31
00000190: c209 fb33 3b45 f333 1935 c131 1e4c 9933
000001a0: d492 e431 4861 ef33 edb3 1332 1639 2033
000001b0: 8665 d833 41fd 9833 4091 ba32 0597 b632
000001c0: fee2 b732 c362 7732 6fa2 0934 9fe3 0432
000001d0: 265d ca32 2dd0 5a31 b771 0b32 e397 2432
000001e0: f470 ed31 879d 8d33 4116 4133 e041 6832
000001f0: 42da 0933 e275 5733 a704 c133 68a6 1332
00000200: 4ecf 5b31 6b0c e632 1915 af33 3c2f 2b32
00000210: a446 0333 1a62 1c33 b41d 5533 a670 f731
00000220: 6e3f 8032 6539 b732 92aa ab33 5f58 4032
00000230: 01c4 6833 b8be e132 63f8 1f32 221b d832
00000240: f1fe a332 9137 2433 9959 3734 0b12 f533
00000250: 3afe af33 29d9 e732 baaa 8633 17a1 b033
00000260: 59a0 7032 1bef 2933 0f1c 5f33 1566 9432
00000270: 5a54 6c33 b3f9 1a32 4829 4c32 4bfd 0d33
00000280: b6d4 0e32 ca54 f833 4836 bf31 10ae f931
00000290: 6686 8c32 2d20 e131 fb00 9031 4a3f 8233
000002a0: 9059 b432 e517 8633 f198 3033 7701 1d31
000002b0: 0b74 d032 89e6 4432 c9b6 2133 a846 a132
000002c0: 270a ab32 4fe5 7132 13d6 8d33 7f6b 8a32
000002d0: 4df9 0a33 ee94 8432 14c2 1033 c311 4e33
000002e0: c478 9631 51e8 5031 33ed 8031 fac0 1c32
000002f0: 2b5d f932 f0d9 9a33 d18b 4731 8f28 3733
00000300: eb81 2533 9976 ac33 16d0 8031 6f8a 4932
00000310: 07e9 d531 e8c5 d631 08ba 6332 1ef4 c032
00000320: 55d4 5432 92ca 2b33 dcc9 f731 294e 5d33
00000330: 8bf8 f232 fb51 3133 a8a2 3a33 7a33 0732
00000340: e687 bd32 f299 bc31 aeaa 2233 738e 6632
00000350: 7c6b 8b32 1e59 9831 f0be d432 10d0 8c32
00000360: b14c 2733 1d5d 3833 1c0d 1a31 b396 8033
00000370: 51f7 9f32 f772 ce32 fed1 9932 ff1c e833
00000380: a00d cc32 d815 9931 a21a 5f32 327a eb32
00000390: 873c 4f33 e04e 5832 316a ee31 986e d531
000003a0: 4a28 0832 d718 3d33 a160 e333 9f56 2e32
000003b0: f6bf 8632 3c1b a431 3845 fb32 b707 1632
000003c0: fc72 b331 a354 2e33 0dc2 1433 0f9f 4c33
000003d0: e09e 4633 f82a c533 90e6 e933 eaf2 8d32
000003e0: 3850 1933 348d 0532 8259 2f33 192d 3c32
000003f0: ac1f 2a32 4923 0534 f191 bf32 c740 5c33

exp_avg f4 [1, 2]
-0.00051764405 -0.005828811
00000000: 81b2 07ba 9cff bebb

exp_avg_sq f4 [1, 2]
0.00051934057 0.00049076317
00000000: 5b24 083a 8fa6 003a
