IAV_FINAL/results/results/SheepsRedo5/Sheeps/Sheeps-691393.onnx (onnx, 49766 bytes, 5 tensors)

action_model._continuous_distribution.log_sigma f4 [1, 2]
000000 5e 27 4a 3e 7c f3 8f 3b
       0.1974158 0.0043930393

action_model._continuous_distribution.mu.bias f4 [2]
000000 3a 9d 8d bb a8 0c 69 3c
       -0.0043217214 0.014224209

action_model._continuous_distribution.mu.weight f4 [2, 256]
000000 c6 d5 50 bb c7 a7 8f 3c b1 eb cd bc 9b e3 3f bc
       -0.00318657 0.017536057 -0.0251368 -0.01171198
000010 e9 5b 43 3d ff 76 b5 bc 28 7f 5f 3d 2c b6 9f ba
       0.047695074 -0.022151468 0.054564625 -0.0012185029
000020 22 31 f3 39 74 0e b9 bd 00 1b a4 3c a6 ef e0 3b
       0.0004638518 -0.0903596 0.020032406 0.006864506
000030 b5 25 8d 3b 0c 2c d5 bc fa 7b 60 bc 71 81 74 3d
       0.0043074735 -0.02602198 -0.013701433 0.059693757
000040 ba c3 a2 bb eb e8 9d bc f1 b9 8a 3d 29 ed 09 bd
       -0.00496718 -0.019276103 0.06773747 -0.03367344
000050 66 80 9e 3d 8b ef 3d bd 4b 0b 74 3c 3c 43 14 3d
       0.07739334 -0.046371024 0.014895271 0.036196932
000060 4e 38 9e bb 15 b1 b5 3c 14 06 99 bd 25 f2 6f 3d
       -0.0048284894 0.022179166 -0.074718624 0.058580536
000070 6e 1b 23 3b 71 bb be bb 60 24 a7 bc 4f 82 2e bd
       0.0024888176 -0.0058206846 -0.020403087 -0.04260474
000080 9b b9 4a 3b 99 e9 8d bb b5 1b 11 bc a8 9d 8e bd
       0.0030933383 -0.0043308255 -0.0088567035 -0.06963664
000090 cb db db bc d0 5f 18 bc 6c ad 03 3b 78 79 25 bc
       -0.026838204 -0.009300187 0.0020092381 -0.010099761
0000a0 66 02 7f 3c f0 7d 5c bc cf 8f 8d 3c b3 86 2e bc
       0.015564537 -0.01345776 0.017280487 -0.010652232
0000b0 53 28 d2 bc cb 98 36 bc bc c6 0f bd 9e e1 25 3c
       -0.025653994 -0.011144827 -0.035101637 0.010124592
0000c0 f3 bc 96 3c 59 72 bc bc 30 c7 df 3b 15 6b e4 39
       0.018400645 -0.023003744 0.006829165 0.0004356733
0000d0 98 f4 4c 3c b9 c9 ec ba e7 e4 26 bd f8 50 59 3c
       0.012509488 -0.0018065489 -0.040745642 0.013263933
0000e0 11 40 05 3d 55 ca 14 3d 7c 41 2a 3d 0e eb 20 3d
       0.0325318 0.03632577 0.041566357 0.039286666
0000f0 f4 04 8b 3d 4e 41 09 3d 67 ca 13 bc 10 4a e3 3c
       0.06788054 0.033509545 -0.009020424 0.027745277
000100 3f 02 8e 3c 35 3a 40 3d a2 1e fc 3b fa fe 33 3c
       0.017335055 0.04693051 0.0076940814 0.010986084
000110 69 46 a2 3c 3a 3c 5c 39 bb ed 83 3c 9a f0 17 3c
       0.019808965 0.00021003271 0.01610457 0.0092736725
000120 9b e4 40 3d 14 10 82 bc 27 c0 90 bc cd 5f 01 bd
       0.047093015 -0.015876807 -0.01766975 -0.031585503
000130 cb 24 a6 bc 49 5c 3f 3b cf 76 10 bd 30 73 37 bd
       -0.020281216 0.0029199293 -0.035269555 -0.044787586
000140 83 1f a0 bc 2f 24 17 bd ec fc 27 3b fb 09 89 3c
       -0.019546276 -0.03689974 0.002563293 0.016728392
000150 65 10 37 bd f7 52 aa 3c fb 1f 69 3c 6b 8d de 3c
       -0.04469337 0.020791514 0.014228816 0.027167043
000160 83 aa 4a bb e6 ae 81 bc 96 be 9f 3a ae 22 52 bd
       -0.0030924387 -0.015830468 0.0012187536 -0.051302604
000170 74 1c d6 bb 50 6c 15 b9 40 b6 26 3c 4f cb 13 bd
       -0.0065341536 -0.00014250097 0.010175288 -0.036082562
000180 13 d5 a0 bc cf aa a1 3a 38 d9 ab 3b cd b6 17 3d
       -0.019632852 0.001233423 0.0052444004 0.037039567
000190 bc 47 25 3d 6b 45 16 3d c4 10 3b 3d b7 10 2a bd
       0.040351614 0.036687296 0.045670286 -0.041519847
0001a0 23 63 cf bc 0c 0d c0 bb d1 5b ee 3b 23 89 c3 3c
       -0.025315827 -0.0058609303 0.007274129 0.023869103
0001b0 44 b1 d2 bc 0f 73 90 3d 2d 29 a9 bb 99 75 23 bc
       -0.025719292 0.07053196 -0.0051623792 -0.009976768
0001c0 6a 09 06 bd c3 ce 0f 3d 46 1c 1f 3c e1 27 1a 3c
       -0.03272382 0.035109293 0.009711331 0.009408922
0001d0 6e 74 c2 3c d1 cc 83 bd bd f7 59 bd 86 c0 38 3c
       0.023737159 -0.0643555 -0.053214777 0.01127637
0001e0 6a 5c c4 bc 00 ab 44 ba e8 65 c0 3c c2 ff e7 3c
       -0.023969848 -0.00075022876 0.023486093 0.028320197
0001f0 59 8d 3e bd 8a e2 a8 3d 40 4d 5e bd 06 42 01 3c
       -0.04652152 0.08246334 -0.05427289 0.007889276
000200 3c 61 d1 3d 6c 58 71 bb 2e d7 60 bd b6 ec 9b bc
       0.10223624 -0.0036826385 -0.05489271 -0.019033771
000210 21 38 09 bd 2c a9 b5 3b b3 b8 87 bc de c4 0c 3d
       -0.033500794 0.0055438485 -0.016567564 0.034367435
000220 dd 04 d6 bb 3c 00 d6 bb 49 e9 87 3c 17 1e 11 bd
       -0.0065313415 -0.0065307897 0.016590731 -0.035429087
000230 42 6f 03 3c dd 61 13 bb 68 87 00 bc c2 f2 8d bc
       0.008022131 -0.002248875 -0.007844783 -0.01732767
000240 aa c2 10 3d 19 f0 a9 3c 39 98 53 bd 28 42 9f 3a
       0.035341896 0.02074437 -0.051658843 0.0012150453
000250 28 2e 5e bc a2 0d a3 3c 3e 28 89 bb d1 7e 1e 3c
       -0.013560809 0.019903962 -0.0041857054 0.00967379
000260 d6 68 0d bc ac e0 5c 3d d3 5e 55 ba 82 5a 5f 3c
       -0.008630952 0.0539252 -0.0008139435 0.013632419
000270 c1 63 a0 bd 76 64 08 bd 7d 03 3e bc ab 63 1f 3d
       -0.078315265 -0.033298932 -0.011597511 0.03891341
000280 39 4e 60 3d d0 bd 08 bd 99 fd 90 3c f8 15 bb 3b
       0.0547621 -0.033384144 0.01769905 0.005709406
000290 73 f2 d4 3c 95 b4 30 bb 89 d7 5d 3d 00 f2 16 bd
       0.025994515 -0.0026963104 0.05416063 -0.036851883
0002a0 73 0b 5f bc 8d 24 25 3d b1 e1 05 bc 4c eb b6 bb
       -0.01361357 0.04031806 -0.008171485 -0.005582249
0002b0 66 5a 08 bd 34 1e c6 bc 11 b3 73 3b f9 c3 80 bd
       -0.033289336 -0.024184324 0.003718559 -0.06287379
0002c0 2e 9f e8 bb 76 e8 c9 b9 0a 92 b0 3c d5 93 99 bd
       -0.007099054 -0.00038510904 0.021554012 -0.074989
0002d0 92 26 10 3b d6 db 8f 3c f1 e7 b3 3b e4 97 18 bc
       0.0021995646 0.01756088 0.005490296 -0.009313557
0002e0 92 c7 fc bc 0b 56 d2 3c 13 97 37 bd 92 74 4b bc
       -0.030856881 0.025675794 -0.04482181 -0.012417929
0002f0 c5 d0 4d bc 1e a4 6c bd 74 fd 2e bd a4 40 80 bb
       -0.012561982 -0.0577737 -0.04272218 -0.0039139558
000300 70 d8 26 bd bf dd 04 3d e1 bf 39 bd 3f 75 a6 3c
       -0.040733755 0.032438036 -0.045349006 0.02031958
000310 10 74 0e bd 90 ee 84 bd 14 2c f5 bc 7f b3 cb bc
       -0.034778655 -0.06490815 -0.029928245 -0.024865864
000320 7d c3 53 bc be fe fd bc c5 71 ab bc d7 f2 9d 3c
       -0.012925026 -0.03100526 -0.020928273 0.019280834
000330 4c 91 77 bc 31 2f 9c 3c 47 33 33 3d f9 ab c4 bc
       -0.015110325 0.019065471 0.043750074 -0.024007784
000340 d6 31 96 3b af 00 43 3d 82 9c 6b 3d 44 ef 71 3d
       0.0045835776 0.047608074 0.057522304 0.059066072
000350 bd 49 97 3d 49 8d 7d 3a 29 50 98 3d 82 9d fc 3c
       0.07387111 0.0009672237 0.07437164 0.030836824
000360 6a 27 e8 3c 1c 64 77 3b b0 09 cd 3b 3a ed c1 bc
       0.028339107 0.0037748879 0.0062572584 -0.023672689
000370 ed 70 89 3d 7d c5 7e 3c f5 77 ec bc 1e 5f 28 bc
       0.06710992 0.015550015 -0.028865794 -0.010276584
000380 1f dd 3b 3c de 35 a4 3b 37 16 33 3d 44 12 aa 3c
       0.011466294 0.0050113043 0.043722358 0.020760663
000390 f4 06 bd 3c 5b 26 fa 3b f1 a2 eb bb eb 80 e8 3c
       0.023074605 0.007633967 -0.007191055 0.028381785
0003a0 f4 d9 ee 3b c7 d8 aa 3c fc 9e fe bc 42 c6 2e bd
       0.0072891656 0.02085532 -0.031081669 -0.042669542
0003b0 31 77 79 3b 16 cf 52 3c 9b 8a c4 3c 85 99 6a 3c
       0.0038065428 0.012866756 0.023991873 0.0143188285
0003c0 05 ac b1 3c 01 f5 6c 3c 19 37 8e 3c 1c af 2e 3c
       0.02168847 0.01446271 0.017360257 0.0106618665
0003d0 87 c9 06 bd 57 cb 51 bc fa 76 36 bd 8c c4 a0 3b
       -0.032907035 -0.012804828 -0.04454706 0.0049062427
0003e0 e4 72 a4 3c 09 2d 56 3d 70 6c de bb 12 f7 b6 bc
       0.020074315 0.052289043 -0.006787829 -0.02233461
0003f0 bb 39 c2 3c 4d 1c f3 bc e1 42 c2 bc a9 c3 36 bc
       0.023709169 -0.02967658 -0.023713531 -0.011155047

network_body._body_endoder.seq_layers.0.bias f4 [256]
000000 f9 c2 8e bc 73 e5 72 3c 0b 58 67 bb 20 62 f4 3c
       -0.017426955 0.014825213 -0.003530028 0.029831946
000010 de be 0b 3c 92 12 1b bb df b0 8e bb d9 6c 54 bb
       0.008529393 -0.0023662192 -0.004354581 -0.003241351
000020 ef be b2 bc 76 31 85 3c 65 f5 c2 bb 9e c8 c4 3b
       -0.02181956 0.016258936 -0.0059496635 0.0060053607
000030 28 c2 fe 3c 05 cf 53 3c b2 d9 41 bc 07 b5 ab 3a
       0.03109844 0.012927775 -0.011831688 0.0013100215
000040 b1 8c 1b bc 6a 5b 8e 3c f9 48 77 3c 9e a8 d4 ba
       -0.009493993 0.017377574 0.015093082 -0.0016224568
000050 b2 ad d7 bb fe fe d9 3c 63 2f 3e bc 46 aa 89 3c
       -0.0065819854 0.026610848 -0.011607978 0.016804826
000060 06 f5 6f bc fb 95 ee 3c 18 b3 17 3d 84 4e 02 bc
       -0.0146458205 0.02912425 0.03703603 -0.00795329
000070 85 b1 94 bc 3e 36 52 bb 82 d4 d9 3c d0 56 f0 bb
       -0.018151054 -0.0032075788 0.02659059 -0.0073345676
000080 2e 95 94 bc d2 a6 9e 3b 66 46 57 3a 69 37 c9 3c
       -0.01813754 0.004841664 0.00082120893 0.024562554
000090 f8 9d ca 3a ef 85 fd 3c 89 61 e1 3c 6c da 49 bc
       0.0015458455 0.030947654 0.027512329 -0.012320142
0000a0 f9 fa c1 bc 92 bb c5 3b 34 1f 4e bc 32 de fd 39
       -0.023679243 0.006034323 -0.012580682 0.0004842147
0000b0 82 3b 29 ba 10 a4 be 3c 9d 87 02 3d ac cc cd bc
       -0.0006455706 0.02327159 0.031867612 -0.02512201
0000c0 1f 6e 28 3d 23 ca 53 3c d4 5c 89 bc ed fb 60 3c
       0.041120645 0.012926611 -0.016767897 0.013731939
0000d0 4d e1 46 bc 3b 93 db bc 5d 98 01 3d c1 bb 04 3c
       -0.012138677 -0.026803603 0.031639446 0.008101405
0000e0 bc 82 d2 3c eb 48 5b 3b 7d 35 ba 3c 1b 74 a3 bc
       0.025697105 0.003346021 0.022730583 -0.019952824
0000f0 eb cc df 3c dc 6f bd 3a 0a 69 78 bc 99 d0 f9 bb
       0.027319392 0.0014452892 -0.015161762 -0.0076237437
000100 ce 46 00 bc 48 b2 7f bc 79 39 89 bc 4b c5 92 3b
       -0.007829381 -0.01560647 -0.016751038 0.0044790856
000110 ee b0 04 3d 9a 8d de ba 90 1a 9f bc 77 01 a8 bc
       0.032395296 -0.0016979456 -0.019421846 -0.020508511
000120 7e 6c 22 3c ad 55 92 3c 5a 6c 2b bc a7 17 41 3c
       0.009913562 0.017863119 -0.010462845 0.011785424
000130 71 21 21 39 48 6e ae 3c 57 43 66 3c 44 cb ca 3c
       0.00015366614 0.02129282 0.014054141 0.024755128
000140 03 fc d0 3c 29 a1 10 3c e8 4c 53 bc 81 ec 1d 3d
       0.025510794 0.008827486 -0.012896754 0.038555626
000150 48 75 9d 3b 1d 1b 6d bc d4 4a 08 bc f6 c1 14 3c
       0.004805241 -0.014471796 -0.008318622 0.009079447
000160 ef 3d 97 bc de 04 5c bc 73 44 8b bc ec 6a 69 3c
       -0.01846215 -0.013428895 -0.017000413 0.014246684
000170 e0 b5 66 3c 39 b0 24 bc e9 7a 69 3d 99 ed 0d 3d
       0.014081448 -0.01005178 0.057001982 0.03465042
000180 df ae 1e bb e1 d5 00 bd 5c d8 bf bc d1 d2 f6 bb
       -0.0024213118 -0.03145397 -0.023418598 -0.0075324555
000190 06 ae 7c bc 8f c1 46 3b 6c 33 fc 3c 6d fe ba 3c
       -0.01542235 0.0030327772 0.030786239 0.022826398
0001a0 4b 75 26 3d a1 d4 37 bc 10 c2 89 bc d2 6d 51 ba
       0.040639203 -0.011220128 -0.016816169 -0.0007989082
0001b0 3a 38 ca 3a ad 81 b8 3c ad 63 27 bc f2 88 1d bc
       0.0015428134 0.022522772 -0.010216636 -0.00961517
0001c0 cb 21 8e 3c 55 36 1f bc 22 a6 fc 3c 10 b4 a6 3c
       0.017350098 -0.009717544 0.030840937 0.020349532
0001d0 97 e0 ce ba 5a e6 87 3c 72 49 36 3c 0d af 7e bc
       -0.0015783486 0.016589332 0.011125909 -0.015544665
0001e0 9d 6f 37 3c ae 8e 34 3d c9 a6 1c bb 48 cf ec 3c
       0.011196044 0.044081382 -0.0023903123 0.028907433
0001f0 a5 08 ca 3c be 7f 9d 3c 2d 46 8c 3c c2 1a a1 bc
       0.024662325 0.019225951 0.017123306 -0.01966608
000200 2e 9d af 3c ca c7 ce 3c 8f 99 6d bb 39 b2 0c bb
       0.021437254 0.025241751 -0.0036254858 -0.0021468534
000210 93 82 03 bc 23 35 a2 3c a5 4a 27 ba 0c 8a bd bb
       -0.008026737 0.019800728 -0.00063816673 -0.0057842787
000220 a5 f1 50 bc 66 04 b5 3c 7b 81 05 3c 09 8b 4d 3b
       -0.012752925 0.022096824 0.008148546 0.003136339
000230 9a 9e 8d bc cb fb a3 3c b7 ff 24 bc d0 0f c6 bb
       -0.017287541 0.020017525 -0.010070733 -0.0060443655
000240 a3 4d 21 bc 91 36 f2 3c d6 ef e9 3c 87 5b cc ba
       -0.00984517 0.029567035 0.028556745 -0.0015591242
000250 94 68 38 bc 02 6d 85 3c 47 5a 3b 3a 6f e1 84 3d
       -0.011255402 0.01628733 0.0007146936 0.064883105
000260 e4 62 78 3d 30 10 58 bc 73 2c 35 3c d4 6c 2e bc
       0.060641184 -0.013187453 0.011057961 -0.010646064
000270 1c a2 10 3d c1 05 8f 3c e6 f8 29 3c 94 05 c8 3c
       0.03531085 0.017458798 0.010374283 0.024416722
000280 e3 67 43 3c 99 a1 86 bb d2 81 a8 3c ff 3f 80 3c
       0.011926624 -0.0041086194 0.020569716 0.015655516
000290 88 f4 0c bc cf d2 a3 3c 9e 9e 02 3b 92 b0 ca 3c
       -0.008603223 0.019997982 0.001993097 0.024742398
0002a0 04 b4 d1 3c 30 57 a1 3b 39 f7 9b bb 47 77 0e 3c
       0.025598533 0.0049237236 -0.004759696 0.00869543
0002b0 cf 14 90 3c 17 97 27 ba 2f 2d 24 3c 08 e7 41 3d
       0.017588047 -0.00063930586 0.010020538 0.04733947
0002c0 55 fb 15 3c 89 56 c7 bc 0c d4 8e bc 21 03 2a 3c
       0.0091541605 -0.024333255 -0.017435096 0.010376723
0002d0 41 38 b6 bb 80 36 0c 3c bc c0 3d bd a9 d3 53 3b
       -0.005560905 0.008557916 -0.046326384 0.0032322204
0002e0 17 1b 2b 3b 7c 8b 63 3c 69 27 5d 3c 5f c5 00 bc
       0.0026108676 0.013888236 0.013498166 -0.007859557
0002f0 13 1d 2d 3d 24 01 3b 3d cb c9 ad 3c 82 d8 0d bc
       0.042264055 0.045655385 0.021214386 -0.0086575765
000300 52 14 33 3c f2 43 e4 3a 66 fe 95 3c 15 65 86 3c
       0.010930138 0.0017415269 0.018309783 0.016405622
000310 db 52 33 39 72 c7 4f 3c 1d 5c de 3c b2 cc 13 3d
       0.00017101636 0.012681829 0.027143532 0.036083885
000320 7e c8 4e bc 6a 3b 30 3d 14 83 a5 3b 5f 02 b4 3c
       -0.012621043 0.04302541 0.005051026 0.021973787
000330 92 1a 1b bc ff ad 72 3c c7 16 f8 3c d5 b5 ef 3c
       -0.009466784 0.014811992 0.030284299 0.029261509
000340 13 a6 f9 39 0c 93 a3 3c ac 63 60 3c 4b 1c 57 bc
       0.00047616716 0.019967578 0.013695639 -0.013129304
000350 01 e8 08 3d 4c 2f 8a bb f2 0d 50 3c d6 05 71 3c
       0.03342438 -0.004217064 0.012698637 0.014710864
000360 3e 0e a4 bb 7d 68 d3 bc b9 ff 5e 3b 11 db 72 3a
       -0.0050065806 -0.02580666 0.0034026934 0.0009264211
000370 c2 83 92 3c 2a cf cf 3c 5a d2 b9 3c e4 dc 23 bb
       0.017885093 0.025367338 0.022683311 -0.0025003487
000380 30 f6 9a bc d1 6e 5c 3b dd 99 8f bc 66 0a f3 bb
       -0.01891622 0.0033635388 -0.017529422 -0.007417011
000390 ec 4e 1a bc bc e6 b0 3c 3b b7 5b 3a e9 6b 19 3d
       -0.0094182305 0.021594398 0.00083814905 0.037456427
0003a0 29 01 2c bc 21 52 78 bc 89 dd 37 3b d1 57 54 3c
       -0.0104983235 -0.0151563 0.002805563 0.01296039
0003b0 3c c5 45 bc 27 78 99 bb 16 4e fe bb 56 ba 70 bc
       -0.01207095 -0.0046835127 -0.0077607734 -0.014692863
0003c0 ac fb 76 3c 14 a2 b2 bb bf af 07 bc 5c c8 5c 3c
       0.015074652 -0.00545145 -0.008281647 0.013475504
0003d0 91 f9 cc 3c 8f ed 5a bb 7f 3a 9a 3b 85 05 72 3d
       0.025021346 -0.0033405756 0.0047066803 0.059087295
0003e0 80 63 a6 bc 63 0e 0f 3d 73 2d 57 bc 25 02 08 bc
       -0.020311117 0.03492583 -0.0131333945 -0.008301293
0003f0 7f ab df bb 50 1b 4b 3c b0 24 b3 bb 9f 24 6b 3a
       -0.006825864 0.0123966485 -0.00546702 0.00089699955

network_body._body_endoder.seq_layers.0.weight f4 [256, 44]
000000 b0 02 e0 bd 47 79 9d bd 4e b2 af bd 31 87 b6 3d
       -0.109380126 -0.076891474 -0.08578931 0.089125045
000010 03 3c 33 3e ef f5 01 3e 72 f8 25 be 3d 26 5c be
       0.17503361 0.12691472 -0.16208056 -0.21498962
000020 6f 18 3f bc 0c a4 f5 bc ab cd a4 be 0c 5e a3 3d
       -0.01166354 -0.02998545 -0.32188162 0.079769224
000030 d0 cd cc bb 69 36 72 3d fb 76 ea 3d 33 f3 30 3e
       -0.0062501207 0.05913392 0.11448475 0.17280273
000040 b3 3c 07 3c 9c 2b 62 3d c1 31 53 3e 29 58 65 be
       0.008254218 0.05521737 0.20624448 -0.22396912
000050 f5 fe 93 bd 1b c8 c1 bd 3b 77 e7 3d 5c f1 88 3d
       -0.072263636 -0.09461995 0.11302038 0.06686661
000060 0a 6f d6 bd fd 64 2b 3d 28 81 93 bd fa db de 3d
       -0.10470398 0.041844357 -0.07202369 0.10881801
000070 87 30 89 3d 27 89 a5 3d 32 30 e1 be ac fc 20 3e
       0.06698709 0.080828 -0.43982083 0.15721387
000080 a0 77 8d 3d 4d eb 2f be 38 2d 99 3e 11 3e 83 bd
       0.06907582 -0.17179604 0.29917312 -0.064083226
000090 4d 23 b2 bc 76 c2 93 3d 60 34 1f 3d f7 27 b8 3d
       -0.021745348 0.07214825 0.038868308 0.08991998
0000a0 be 14 b4 3d 44 f1 f1 bd 41 18 28 3e b9 67 5f 3d
       0.08793019 -0.11813596 0.16415502 0.054542277
0000b0 a1 9e c9 bd 11 1d 1e 3e 8f 6b f0 3d 09 f6 5b bd
       -0.09844709 0.15440775 0.11739265 -0.053701434
0000c0 49 0d 04 3e bb dc 89 be 78 87 3d be 59 2e 0e be
       0.12895693 -0.26926216 -0.18508708 -0.13884868
0000d0 63 3f 1f be 68 40 32 bd 0d 5f 6a be 14 49 b9 3e
       -0.15551524 -0.043518454 -0.22887821 0.36188567
0000e0 64 c3 36 3e a3 dd 38 3e 92 fd ae bd 28 45 7e 3e
       0.17847973 0.18053298 -0.085444584 0.24831069
0000f0 5d 45 44 3e c1 77 5a 3d 36 78 2c be 54 fe dc bd
       0.19167085 0.053336862 -0.16842732 -0.10790697
000100 f4 83 9b 3e f2 52 62 be dd c8 20 bd 17 5d b1 3e
       0.3037411 -0.22101954 -0.03925406 0.34641334
000110 a3 8f d1 bd 43 61 4f 3d 41 e4 09 3d 6e 01 57 3d
       -0.10232475 0.050629865 0.033664946 0.052491598
000120 55 29 46 3e da 22 c1 bd 5a f7 1b 3d f4 c6 d7 3c
       0.19351704 -0.094304755 0.03807769 0.026339985
000130 73 97 a1 be 24 4c f9 bd ca e3 ba bc 3f 99 8d be
       -0.3156086 -0.12172726 -0.022813696 -0.2765598
000140 77 88 1a 3e 39 8e 81 3e 9c 69 72 be ab 63 cc 3c
       0.1509112 0.2530382 -0.236731 0.02494987
000150 d3 6f 50 bd 84 36 3a 3d b4 db 11 3d 40 91 c4 bd
       -0.050887894 0.045462146 0.035609916 -0.09598017
000160 51 9f 8f 3d d9 77 5a 3e 54 d3 67 3e dd 15 db 3d
       0.07012809 0.21334781 0.22639209 0.106975295
000170 81 61 87 bd 53 d3 b9 bd 4f 26 36 3e 47 b3 a6 bd
       -0.06610394 -0.0907351 0.17788051 -0.08139663
000180 1a 99 18 bd 82 0a 5a 3d 51 d1 8b 3e b9 d1 63 bc
       -0.037255384 0.053232677 0.27308133 -0.013904982
000190 02 bf a1 be 51 39 de 3d 4c 15 2d 3e ea 1d 13 3d
       -0.3159104 0.10850776 0.16902655 0.0359172
0001a0 4a 4e c7 bd b3 56 a2 bd 10 a8 79 3d 3e 52 f9 3d
       -0.09731729 -0.07926693 0.060951293 0.121738896
0001b0 ff d6 3b bd b7 5f b0 3d 77 57 6f 3d d1 2e b7 3c
       -0.045859333 0.08612006 0.058433022 0.022361191
0001c0 b0 b5 8f 3d 14 30 5b bd 85 00 86 bc f4 91 28 3e
       0.07017076 -0.053512648 -0.01635767 0.16461927
0001d0 c8 70 ab bd 31 cf 71 3d d3 ee 43 bd 8c c6 36 3e
       -0.08371121 0.059035484 -0.047835182 0.17849177
0001e0 55 8b 5a be 56 9b a4 3b 3b 40 0d be 75 ee 4c 3e
       -0.21342213 0.0050234003 -0.13794033 0.20012839
0001f0 cd bf 70 3d 4a 1d a2 bd 70 a5 ca bc 78 74 77 3e
       0.058776665 -0.07915743 -0.02473709 0.24165523
000200 86 66 86 3e 71 39 8c 3d 97 f1 cb 3d 89 76 14 3e
       0.26250094 0.068468936 0.09958189 0.14498343
000210 c3 57 36 3e d9 53 f0 bd 05 25 d7 bd 24 b0 fb 3d
       0.17806916 -0.11734743 -0.10505108 0.122894555
000220 29 d6 3e be 18 29 35 be b1 b3 26 3e e8 8e 4e bd
       -0.18636383 -0.17691457 0.16279484 -0.050429255
000230 96 9b 1a be bf 78 93 3d a7 dd 71 bc 83 9d dc 3d
       -0.15098414 0.07200765 -0.014762319 0.107722305
000240 55 5f 04 3c 19 9c 35 3d 03 f4 8a 3e 6d d6 7e 3d
       0.00807937 0.04433832 0.2713929 0.06221621
000250 00 ea 82 bd f4 d4 66 bd ef 64 11 3d 34 54 5b 3e
       -0.06392288 -0.05635543 0.03549665 0.2141884
000260 21 11 d5 3d e6 c0 11 3e 52 c5 52 bd 82 86 29 3d
       0.10403658 0.14233741 -0.05145771 0.041388042
000270 1d a1 5e bd aa e4 84 3c 53 e7 1b 3e 16 da 3a be
       -0.05435287 0.016222317 0.15224962 -0.18247256
000280 ac 11 2a 3e 71 16 08 3d 11 d3 8c be 45 1d 9a 3d
       0.16608304 0.033224527 -0.2750478 0.07525114
000290 0c 32 76 bd 60 01 0f 3e 0e e0 2b bc 11 00 85 be
       -0.060106322 0.13965368 -0.0104904305 -0.25976613
0002a0 a4 81 a1 3e 3b 89 c9 bd fb d1 49 be b6 f2 11 3d
       0.3154422 -0.09840628 -0.19709007 0.035631858
0002b0 7a 66 57 3d 54 ea 40 3e 92 32 f9 3d 89 f7 f3 bd
       0.052587964 0.18839389 0.12167849 -0.11912448
0002c0 e2 b5 47 be 75 27 6b bc b3 c9 58 3d 6f ec f1 bc
       -0.19502977 -0.014352669 0.05292673 -0.029531686
0002d0 2b aa da bd 4c 3d 90 be f3 34 9a 3d c3 5f d6 3e
       -0.10676988 -0.28171766 0.075296305 0.41869935
0002e0 d6 06 a5 bd f9 21 1b 3e 35 f2 64 3e 9a eb d3 bc
       -0.080579445 0.15149678 0.2235802 -0.02586918
0002f0 a5 a8 03 3f 62 97 84 bd c0 d1 8e be 20 c0 7c be
       0.51429206 -0.064741865 -0.27894402 -0.24682665
000300 89 2d 9b 3e 26 e4 48 bb 16 67 58 be c5 0f 95 3d
       0.30308178 -0.0030653565 -0.21133074 0.072783984
000310 4c e1 fb 3d a2 fe 48 bd 82 f4 1b 3d e1 26 b8 3d
       0.12298831 -0.04907096 0.038074978 0.089917906
000320 6d 08 42 3d 30 6b fd bd 48 30 83 bc a4 2a 22 be
       0.047371317 -0.1237396 -0.016014233 -0.15836579
000330 9e c8 f6 bb 4f 55 c6 bd c5 c6 81 bd 1a 4f a7 bd
       -0.0075312397 -0.0968424 -0.063367404 -0.08169384
000340 0e 86 2b 3d a5 bb a0 be 61 d0 27 3e d8 81 91 bd
       0.04187589 -0.3139316 0.16388084 -0.07104844
000350 10 aa 65 3d 2b a6 63 3c 69 30 28 3e b2 5b c8 bd
       0.056070387 0.013894598 0.16424717 -0.097831145
000360 53 f8 e6 bc ca 51 e2 3d 30 16 5e 3c 08 8d 7c 3d
       -0.028194582 0.11050756 0.013555095 0.061657935
000370 dc bb b7 bc 62 ed 39 be 3d 1c 1f 3e 02 b6 07 3d
       -0.022428446 -0.1815696 0.15538116 0.03313256
000380 a3 87 27 3e 2f 5a bb bd 96 8e 01 bd ee 95 d2 3a
       0.16360335 -0.091480605 -0.03163012 0.0016066411
000390 92 d6 a0 bb c6 9a 24 3e d1 a7 4a 3e 65 1a 45 be
       -0.0049083913 0.16074666 0.1979058 -0.1924835
0003a0 7d ab ef 3b 20 44 06 3e 7d 17 f0 3d 61 5f 60 3d
       0.007314144 0.13111925 0.1172323 0.05477846
0003b0 38 54 35 be 03 7f 6b bd 56 44 ef 3c 73 62 63 3e
       -0.17707908 -0.057494175 0.02920739 0.22205524
0003c0 fe ef 18 be 9c 5a 27 3d 9a 86 9f 3d ed e0 b4 3e
       -0.149353 0.040857896 0.07789345 0.35327855
0003d0 59 c2 40 be 37 94 9c 3d 5b a2 bb bc 39 ef 35 3d
       -0.18824138 0.07645457 -0.022904566 0.044417594
0003e0 19 83 03 be 02 3a 13 3d f1 a4 be 3d d8 e8 4f bc
       -0.12842979 0.035943992 0.09308804 -0.012689792
0003f0 f5 51 46 bc 0c 7f 2c 3e ec 66 cc 3d 90 62 7f be
       -0.012104501 0.1684534 0.09980568 -0.24939942
