IAV_FINAL/results/results/SheepsRedo5/Sheeps/Sheeps-114585.onnx (onnx, 92097 bytes, 7 tensors)

action_model._continuous_distribution.log_sigma f4 [1, 2]
0	0x3cfb154e	0.030649807
1	0x3c3f2f9c	0.011669066

action_model._continuous_distribution.mu.bias f4 [2]
0	0x3c123fd2	0.008926349
1	0x3a2e5085	0.00066495716

action_model._continuous_distribution.mu.weight f4 [2, 128]
0	0x3c0fc6b0	0.008775398
1	0x3c50ca80	0.012743592
2	0x3c9a9886	0.018871557
3	0xbc411cd0	-0.011786655
4	0xbcc587a1	-0.024112524
5	0xbc85a5bf	-0.016314385
6	0xbbf9842e	-0.007614634
7	0xbd172b82	-0.036906727
8	0x3bfee431	0.0077786674
9	0x3b388b9d	0.0028159388
10	0xbd312cac	-0.043255493
11	0x3d0654bf	0.032795664
12	0x3baf8c0a	0.00535727
13	0xbcbfee04	-0.023428924
14	0xbc1aa8a0	-0.009439617
15	0xbc852a39	-0.016255485
16	0xbc61d4f9	-0.013783687
17	0xbb2258a5	-0.0024772075
18	0xbaefcd2f	-0.0018295402
19	0x3bbeeea2	0.005826787
20	0xbc1883e3	-0.009308788
21	0x3c926b9d	0.01787358
22	0x3b8efa96	0.0043633683
23	0xbc197e68	-0.0093685165
24	0x3c8359ab	0.016033968
25	0xbc60e619	-0.013726735
26	0xbbd56962	-0.0065128068
27	0xbbaa8bc3	-0.005204649
28	0xbc019635	-0.007909347
29	0x3ab2941a	0.001362446
30	0x3ca97766	0.020686816
31	0x3c7dd98b	0.015493761
32	0xbcebbdf4	-0.0287771
33	0xbbe43097	-0.0069638
34	0xbc1abb39	-0.009444051
35	0xbc7f29e1	-0.01557395
36	0xbb40fa4a	-0.002944606
37	0x3a725579	0.0009244304
38	0x3bc3278a	0.005955641
39	0x3d272ec6	0.04081609
40	0x3c79d764	0.015249107
41	0xbce90f0f	-0.028449563
42	0xbb6b93b8	-0.0035946202
43	0xbd067f68	-0.032836348
44	0x3c0eedb4	0.008723665
45	0xbac2d877	-0.0014865537
46	0xbc2fd489	-0.010731825
47	0x3bd579e4	0.0065147746
48	0xbd140f9f	-0.03614771
49	0x3c05ccd6	0.0081665125
50	0x3cb7e9f5	0.022450427
51	0xbc582521	-0.013192446
52	0x3be48866	0.006974268
53	0x3ae3671f	0.0017349458
54	0xbba48e22	-0.0050218264
55	0x3cca302f	0.024681179
56	0xbc58d675	-0.013234724
57	0x3bd9b2e6	0.006643641
58	0xbc8fe8c2	-0.017567042
59	0xbc023123	-0.007946285
60	0xbc0ab734	-0.008466531
61	0xbb6d82ed	-0.0036241368
62	0x3b8dcf80	0.0043277144
63	0x3c523648	0.0128303245
64	0xbc2ff49e	-0.010739474
65	0x3d2c9078	0.042129964
66	0xbc21c643	-0.009873929
67	0xbc45c8a5	-0.012071763
68	0xbc570080	-0.013122678
69	0x3aa60494	0.0012666159
70	0xbcaf3943	-0.02138961
71	0xbd207bb7	-0.039180484
72	0xbc212acc	-0.009836864
73	0x3cbb4309	0.022859113
74	0x3d158745	0.036505956
75	0x3d18a490	0.037266314
76	0x3cc47147	0.023979796
77	0x39d18159	0.00039959958
78	0x3b859cb6	0.0040775193
79	0x3c91cef2	0.017798875
80	0xbc7a4134	-0.015274335
81	0x3cb0c880	0.02157998
82	0xbc66145c	-0.01404294
83	0xbc306f2e	-0.010768695
84	0xbc71d6ac	-0.014760654
85	0x3b844cb4	0.004037464
86	0x3c0c7111	0.008571879
87	0xbc0f670f	-0.008752598
88	0x3ce0fea5	0.027465174
89	0xbca370b1	-0.019951196
90	0xbc829a88	-0.015942827
91	0xbc321ac5	-0.01087064
92	0x3c06e7d8	0.008233987
93	0x3bb39ab3	0.005481088
94	0xbbb3399a	-0.005469513
95	0x3c7f2e68	0.015575029
96	0x3c399377	0.011326662
97	0xbd1a28d7	-0.037636604
98	0x3cbd3288	0.023095384
99	0x3c2ff848	0.010740347
100	0xbc2aa40f	-0.010415091
101	0x3c4c5e5b	0.012473668
102	0xbb816ec0	-0.00394997
103	0xbd329fc5	-0.0436094
104	0xbd3c21bb	-0.045930605
105	0x3cb25678	0.021769747
106	0x3cf74eed	0.030189002
107	0x39254fe3	0.00015765386
108	0x3cfeb80a	0.031093616
109	0x3c0c4b84	0.008562926
110	0x3caae8df	0.020862995
111	0xbbb827dc	-0.005619986
112	0xbaa6cf08	-0.0012726495
113	0x3cef3424	0.029199667
114	0x3c93d863	0.018047517
115	0xbd369a81	-0.04458094
116	0xbb6a464d	-0.003574747
117	0xbd1e3678	-0.038626164
118	0x3c85da37	0.016339405
119	0x3c9c340a	0.019067783
120	0xbd0d2e2b	-0.034467857
121	0xbbc66be5	-0.0060553425
122	0x3c6bf8e5	0.014402603
123	0x3cb4a197	0.022049708
124	0xbca73fcf	-0.020416168
125	0xbd372645	-0.04471423
126	0x3bcd01e1	0.0062563275
127	0xbbc49dd3	-0.0060002594
128	0xbaff4d84	-0.0019478058
129	0xbc812a4b	-0.015767237
130	0x3c7c12e8	0.015385367
131	0x3cf20051	0.029541166
132	0xbc33bc57	-0.010970197
133	0x3be895bd	0.0070979283
134	0x3cec2902	0.028828148
135	0x3ab088d3	0.0013468511
136	0xbc73ab68	-0.014872409
137	0x3b322a69	0.0027185923
138	0x3cd267ab	0.025684198
139	0x3a5d4682	0.00084409874
140	0x3b89d632	0.0042064423
141	0x3bca4f26	0.006173986
142	0xbcbb15a3	-0.022837466
143	0x3ca25fa5	0.019820997
144	0xbc18621a	-0.009300733
145	0xbbf49ca8	-0.007464964
146	0xbc3de2d4	-0.011589725
147	0xbc7f555b	-0.015584315
148	0x3c21142f	0.009831472
149	0xbc377a39	-0.011198574
150	0x3c487b3a	0.012236411
151	0xbaced918	-0.0015781252
152	0xbbf8ef81	-0.0075969105
153	0xbb4f90bf	-0.0031671969
154	0xbc328ba7	-0.0108975535
155	0xbb816d40	-0.003949791
156	0xbbe68bc5	-0.007035705
157	0xbb5c49f4	-0.0033613415
158	0xbc4706c9	-0.012147614
159	0x3bccae2c	0.006246349
160	0x3cd2db65	0.025739381
161	0xbc8ecaab	-0.017430624
162	0xbc0148f1	-0.007890926
163	0x3b053d9a	0.0020330907
164	0xbc5009e0	-0.012697667
165	0xbc05d293	-0.008167881
166	0x3c47bcbd	0.012190995
167	0x3caad278	0.020852312
168	0xbc1ed4f6	-0.0096943285
169	0x3bd398a9	0.0064574075
170	0xbcc8c772	-0.024509165
171	0xbbb9dc7e	-0.0056720367
172	0xbceaaf1b	-0.02864795
173	0x3bfd4b36	0.007729913
174	0xbc2a137f	-0.010380625
175	0x3ba4c532	0.0050283903
176	0x3c4ef40b	0.012631427
177	0xbc9af9aa	-0.018917877
178	0x3c568e81	0.013095499
179	0xbafa6e45	-0.0019106349
180	0x3ca0a693	0.019610679
181	0x3bff7833	0.0077963113
182	0xbaf99982	-0.0019042941
183	0x3c21956f	0.009862288
184	0xbbf67a83	-0.0075219288
185	0x3be00194	0.0068361256
186	0x3bfdaf0b	0.007741814
187	0x3c9ff942	0.019528035
188	0xbc3c5950	-0.011495903
189	0xbc395084	-0.0113107
190	0xbc74c141	-0.014938653
191	0x3af10bec	0.0018390394
192	0xbb9139f3	-0.004431957
193	0x3c46ffc9	0.012145945
194	0x3cb36f7d	0.021903748
195	0xbd00760c	-0.03136258
196	0x3c4c14e6	0.012456154
197	0xbca49113	-0.020088708
198	0xbc6343fb	-0.013871188
199	0xbae06ce1	-0.0017122292
200	0x3c988dfa	0.018622387
201	0xbc50bcf0	-0.012740359
202	0x3c829032	0.015937898
203	0x3b97fadd	0.0046380595
204	0x3c2023b8	0.009774141
205	0x3c393910	0.011305109
206	0x3cbed611	0.023295434
207	0x3c0e08ea	0.008669117
208	0xbc2ae886	-0.0104314145
209	0xbc117e0a	-0.008880148
210	0x3b0b0c70	0.002121713
211	0x3ad13756	0.0015961926
212	0xbc47f697	-0.012204788
213	0x3d305188	0.043046504
214	0x3c72c197	0.014816663
215	0xba5edbfd	-0.0008501409
216	0x3cde7b62	0.027158443
217	0xbb8e6a13	-0.004346141
218	0x3cd65ca0	0.026167214
219	0xba36baa2	-0.00069705595
220	0x3a3bb7ef	0.0007160892
221	0x3c2542c8	0.010086723
222	0x3ca4ee2b	0.020133099
223	0xbbee562b	-0.0072734556
224	0x3c420ded	0.0118441405
225	0x3c2e1b24	0.010626588
226	0x3c842e85	0.016135463
227	0x3b848494	0.004044125
228	0xbbd01f25	-0.006351369
229	0x3cdb1aef	0.026746241
230	0xba8833a0	-0.0010391362
231	0xbb695c6c	-0.0035608066
232	0x3c978df5	0.018500308
233	0x3c610e07	0.013736255
234	0x3ca4b075	0.020103673
235	0x3bd6ee1d	0.006559147
236	0x3ca0739c	0.019586377
237	0x3c6ee902	0.014581921
238	0x3a98dbb0	0.0011662152
239	0x3c7a2b0c	0.015269052
240	0x3c4903a3	0.0122689335
241	0x3ca0e31e	0.019639548
242	0x3cc189fd	0.023625368
243	0xbc89cc5e	-0.016821083
244	0x3b3105e6	0.0027011572
245	0x3cd3d2e6	0.0258574
246	0x3cf7384b	0.03017821
247	0x3c5f1999	0.013616943
248	0xbd153849	-0.03643063
249	0xbc9000f0	-0.017578572
250	0xbb414274	-0.0029489072
251	0xbcb308b2	-0.021854732
252	0xbb2cc2f7	-0.0026361325
253	0xbc63ec1f	-0.013911276
254	0xbb9b9245	-0.0047476613
255	0x3bab761a	0.0052325847

network_body._body_endoder.seq_layers.0.bias f4 [128]
0	0x3c010ee4	0.007877085
1	0x3c62ec0d	0.013850224
2	0xbb30eb72	-0.0026995805
3	0x3ac213c2	0.0014806914
4	0x3b847cce	0.004043198
5	0xbc5a965a	-0.013341511
6	0xbbd55ab6	-0.0065110577
7	0xbc223091	-0.009899274
8	0x3c272533	0.01020174
9	0xba9372f9	-0.0011249474
10	0x3b6e1fd6	0.0036334894
11	0xb9990bfa	-0.00029191357
12	0xbc55fbc0	-0.01306051
13	0xbbfa89a7	-0.007645804
14	0xbba02a53	-0.004887858
15	0xbc6ddf77	-0.01451861
16	0x3ad9d49d	0.001661915
17	0xbba772ed	-0.005110136
18	0x3b4e85c4	0.0031512836
19	0x3c54a030	0.012977645
20	0xbc3473f8	-0.011013977
21	0xbb317163	-0.002707564
22	0xbc94bc70	-0.01815626
23	0xbb02af68	-0.0019940976
24	0x3b00443c	0.001957192
25	0x3a97672b	0.0011551132
26	0xbc0ba0fe	-0.00852227
27	0x3c464cd7	0.012103281
28	0xbbcae5e1	-0.0061919545
29	0xb91040c0	-0.00013757031
30	0xb9784622	-0.0002367725
31	0xbbf757a4	-0.0075482894
32	0x3b0d7f95	0.0021590937
33	0x3b247fb9	0.0025100543
34	0xbad53985	-0.0016267753
35	0x3be4b7b9	0.0069799093
36	0xbbda21c4	-0.006656857
37	0xbc13674e	-0.008996798
38	0xbb8527f1	-0.0040635993
39	0x3c269e1a	0.01016953
40	0x3c70af89	0.014690288
41	0xbb673e57	-0.003528496
42	0x3a1608bb	0.0005723347
43	0x3ba09263	0.004900263
44	0xbc327f54	-0.010894615
45	0x39bfbced	0.0003657112
46	0x3c753c66	0.014968013
47	0xba7d992a	-0.00096740073
48	0xbc1cfe1e	-0.009582071
49	0x3ab7d321	0.0014024713
50	0x3b8cddcb	0.0042989007
51	0xbbe87532	-0.007094049
52	0x3c33a383	0.010964277
53	0x3bd6f75d	0.0065602497
54	0x3af9ba7f	0.0019052773
55	0xbc07681f	-0.0082645705
56	0x3cbda542	0.02315009
57	0x3a69c66c	0.0008917812
58	0xbc548167	-0.012970305
59	0xbbd9cdc7	-0.006646845
60	0x3ca7edbc	0.020499103
61	0xbc0a827f	-0.008453964
62	0xba0fc6e0	-0.0005484652
63	0xbc0bf57b	-0.008542414
64	0xba8c05c7	-0.0010682874
65	0x3bbe6d2e	0.005811355
66	0xbbcd143d	-0.006258516
67	0x3c53d227	0.012928522
68	0xbb6813a9	-0.003541211
69	0xbc31bc7a	-0.010848159
70	0x3adafb46	0.0016706965
71	0x3b053c14	0.0020329999
72	0xbbbbe605	-0.0057342076
73	0x3c12db36	0.008963397
74	0x3cb37108	0.021904483
75	0x3c815ba4	0.015790768
76	0xbc1b89da	-0.009493316
77	0xbb38c8ba	-0.0028195814
78	0xbbd7d3b5	-0.0065865167
79	0xbb35452b	-0.0027659636
80	0x3a7d6d96	0.00096675137
81	0x3c939c10	0.018018752
82	0x3bc3b9d6	0.005973081
83	0x3b6fec9b	0.0036609534
84	0x3b3141d8	0.0027047303
85	0x3bce03af	0.00628706
86	0xbb04d984	-0.002027125
87	0x3b905c21	0.004405514
88	0xba472863	-0.00075972656
89	0xbc526751	-0.012842015
90	0x3c7b9567	0.0153554445
91	0xbc0e590c	-0.008688223
92	0x3b8668ba	0.00410184
93	0xbb3cbbc0	-0.002879843
94	0xbb97db8e	-0.0046343273
95	0xbc0914ce	-0.008366777
96	0xbb1b7135	-0.00237186
97	0xbacfa95c	-0.001584332
98	0x3b70607e	0.0036678608
99	0xbb69c484	-0.003567011
100	0xbc1d7f9b	-0.009612943
101	0xbbb5c87d	-0.0055475817
102	0x3c157151	0.009121255
103	0x3b5c1173	0.0033579736
104	0x3c8b3062	0.016990844
105	0xbb57b5a6	-0.0032914667
106	0x3976d353	0.00023539113
107	0x3c0a28c0	0.008432567
108	0x3c62cb35	0.013842394
109	0xbc137561	-0.009000153
110	0xbc5fceb7	-0.0136601245
111	0xbb8f1004	-0.004365923
112	0x3a02244e	0.0004964516
113	0xb99acd42	-0.00029526098
114	0xbb929cb2	-0.004474246
115	0xbbbab372	-0.005697661
116	0x3c4e19bb	0.012579377
117	0xbc2e936a	-0.010655263
118	0x3be7046b	0.007050087
119	0x3b92e9f2	0.004483455
120	0x3c6538db	0.013990606
121	0xbc04039e	-0.008057503
122	0x3c8857d9	0.016643452
123	0x3b984ea7	0.004648048
124	0x3c2fbe0d	0.010726464
125	0xbb5b6ac7	-0.0033480392
126	0xb8383283	-4.391606e-05
127	0x3c26e65b	0.010186757

network_body._body_endoder.seq_layers.0.weight f4 [128, 44]
0	0xbe5f5d4b	-0.21812932
1	0x3ea12e9b	0.3148087
2	0x3e81d25d	0.25355807
3	0x3e252fe9	0.16131558
4	0xbea22275	-0.31666914
5	0x3e5398f8	0.20663822
6	0xbd9584e6	-0.07300739
7	0x3e060148	0.13086426
8	0x3d5789da	0.0526217
9	0x3bf48137	0.0074616927
10	0x3e8d728d	0.27626458
11	0x3e1ea8b5	0.15494044
12	0x3eac0dff	0.33604428
13	0x3eb61264	0.35560906
14	0xbcfe1716	-0.031016868
15	0xbdeab88c	-0.11460981
16	0xbd2959c8	-0.041345388
17	0x3e233844	0.15939432
18	0x3e50879c	0.20364231
19	0x3ca6669c	0.0203126
20	0x3d6a66d4	0.05722697
21	0x3e4c67e8	0.19961512
22	0xbea7f5d8	-0.3280475
23	0xbcceb6ce	-0.025233652
24	0xbe63cf01	-0.22246934
25	0x3db8155e	0.089884505
26	0x3e6397c6	0.22225866
27	0xbb82e651	-0.003994741
28	0x3dfd9e69	0.1238373
29	0xbcc6dd4b	-0.024275443
30	0x3e82a8ed	0.25519505
31	0x3df21b83	0.11821654
32	0xbd476163	-0.04867686
33	0x3d54e5b7	0.051976886
34	0x3e5ffb7f	0.21873282
35	0xbdda1ee1	-0.10650421
36	0x3cbb085e	0.022831138
37	0x3d37c503	0.04486562
38	0xbe6460b4	-0.22302514
39	0x3d4d1b8a	0.05007509
40	0xbe466159	-0.19373073
41	0x3e09de40	0.13463688
42	0x3e394194	0.18091422
43	0xbe35298f	-0.17691635
44	0xbd28571f	-0.04109871
45	0x3e677a80	0.22605324
46	0x3e491c2d	0.19639654
47	0xbab5cb46	-0.0013869784
48	0xbd49b05e	-0.049240462
49	0xbe1181e6	-0.14209709
50	0x3d042554	0.03226216
51	0xbc90fccc	-0.017698668
52	0x3dd1dde7	0.10247403
53	0xbcd8ebcf	-0.02647963
54	0xbe1b826e	-0.15186474
55	0xbc0c2fb7	-0.008556298
56	0x3cd22b02	0.025655273
57	0xbe1e360a	-0.15450302
58	0x3e56e309	0.20985045
59	0xbdbc431e	-0.09192489
60	0x3dbc8c6e	0.09206472
61	0x3dc1b5eb	0.09458526
62	0x3c769796	0.015050789
63	0xbe29b830	-0.16574168
64	0xbcc019b2	-0.023449752
65	0x3cd0cbf1	0.025487872
66	0xbe81bd3f	-0.25339696
67	0xbd6a01e4	-0.05713071
68	0x3d8a0666	0.06739502
69	0x3c30b06b	0.010784249
70	0x3c86e8d0	0.016468436
71	0xbe28dc9e	-0.16490409
72	0xbc5eec0d	-0.013606084
73	0xbde80196	-0.113284275
74	0xbbf375e1	-0.0074298237
75	0xbe3decf9	-0.18547429
76	0x3ea64a73	0.32478675
77	0xbd7e6d7e	-0.06211614
78	0x3e20cd39	0.15703286
79	0x3ebd6d27	0.3699734
80	0x3c81dcb7	0.015852315
81	0x3e33b2ea	0.17548719
82	0xbe13e339	-0.14442147
83	0xbdb0e87d	-0.086380936
84	0x3d18beda	0.037291385
85	0x3de10b87	0.10988527
86	0x3db7caef	0.089742534
87	0xbd9585be	-0.073009
88	0xbe108d29	-0.14116348
89	0xbd84f1ea	-0.06491454
90	0x3cf74151	0.030182512
91	0x3d6eff35	0.058348853
92	0xbd13174a	-0.035910882
93	0xbd285072	-0.041092344
94	0x3e32f591	0.17476489
95	0xbd4147b9	-0.04718754
96	0xbe739ce3	-0.23790316
97	0x3e26e5f2	0.16298655
98	0x3d398347	0.04529121
99	0x3dfa7b87	0.12230592
100	0x3d948b88	0.07253176
101	0xbdde5b4b	-0.108572565
102	0xbe8b7d2a	-0.2724393
103	0xbd7097db	-0.05873857
104	0xbc52ca18	-0.012865566
105	0xbe2f4164	-0.17114788
106	0x3c26b752	0.010175543
107	0x3d953368	0.072851956
108	0x3e50c233	0.20386581
109	0xbda81594	-0.08207241
110	0xbe823131	-0.25428155
111	0x3d725f55	0.059172947
112	0xbc6ecfa1	-0.01457587
113	0x3e1fba5f	0.15598439
114	0xbdd47acc	-0.10374984
115	0x3d946833	0.07246437
116	0xbddb4b91	-0.107077725
117	0xbe049e23	-0.1295095
118	0x3d946148	0.072451174
119	0xbe904d57	-0.28184006
120	0x3e7849d7	0.24246918
121	0xbe02f349	-0.12788118
122	0xbe55d946	-0.20883664
123	0x3e402213	0.18762998
124	0xbe7f04f3	-0.24904232
125	0x3d71e532	0.05905647
126	0xbdcbe996	-0.09956662
127	0xbcc807dc	-0.02441781
128	0x3b835c6c	0.0040088203
129	0x3e48079e	0.19534156
130	0xbd55fa38	-0.05224058
131	0x3cc98305	0.024598608
132	0xbf070eae	-0.52756774
133	0x3dfbc6fa	0.12293811
134	0xbb09e663	-0.0021041862
135	0xbdc8b4e2	-0.09800126
136	0x3e3b3660	0.18282461
137	0xbe1c5613	-0.1526721
138	0x3e16dc04	0.14732367
139	0xbeac03ae	-0.33596557
140	0x3ddd92cf	0.10819017
141	0xbde41c42	-0.11138202
142	0xbe064c01	-0.1311493
143	0x3e49d1f8	0.19709003
144	0xbe9aa52c	-0.3020414
145	0x3def55cf	0.116862886
146	0x3ea221f5	0.31666532
147	0xbe07bcf2	-0.1325567
148	0xbe26dcb6	-0.16295132
149	0xbbf8c312	-0.0075916136
150	0xbda51766	-0.080611035
151	0xbd663483	-0.056202423
152	0xbc737e31	-0.014861629
153	0xbe97c636	-0.2964341
154	0x3dccf056	0.10006778
155	0xbf131ffb	-0.57470673
156	0x3c267be8	0.0101613775
157	0xbde05bf2	-0.10955037
158	0x3eb1771d	0.3466119
159	0x3ca65599	0.020304488
160	0xba57d7a8	-0.00082337344
161	0xbe889573	-0.2667652
162	0x3e7293a6	0.23689136
163	0xbca63ed5	-0.020293633
164	0xbdbf3b24	-0.09337452
165	0x3db743ca	0.089484766
166	0xbe16c822	-0.14724782
167	0xbd8055d6	-0.06266372
168	0x3dc5ce7f	0.09658527
169	0x3d90ebf4	0.070762545
170	0xbde1aa50	-0.11018813
171	0x3e13e210	0.14441705
172	0xbe144865	-0.14480741
173	0x3cce2f18	0.02516894
174	0x3e61c355	0.2204717
175	0xbd7f7390	-0.06236607
176	0x3b18ba2d	0.0023304329
177	0x3e042dd9	0.12908114
178	0xbe096a9a	-0.13419572
179	0x3d33d603	0.04390527
180	0xbce089db	-0.027409485
181	0x3dc9caa1	0.098531015
182	0xbde9d1bd	-0.114169575
183	0xbda4a94b	-0.080401026
184	0x3dfe5256	0.12418048
185	0x3d1bf39e	0.03807413
186	0x3ce93aa9	0.028470354
187	0xbd36674b	-0.0445321
188	0x3d2b874a	0.04187707
189	0x3ddf3627	0.108990006
190	0xbe63b185	-0.22235687
191	0xbd1577ce	-0.036491208
192	0x3dcb1646	0.09916358
193	0xbe4a0ce4	-0.1973148
194	0xbbe00e66	-0.006837654
195	0xbd0dbf55	-0.034606297
196	0x3daf6226	0.08563642
197	0x3e0b2345	0.13587673
198	0xbdd422a4	-0.1035817
199	0xbb2af6f3	-0.0026087135
200	0xbe5a53eb	-0.21321075
201	0x398c5b11	0.0002677073
202	0x3daab43f	0.083351605
203	0x3d03d428	0.03218475
204	0x3d89ab91	0.06722177
205	0xb928960e	-0.00016077628
206	0x3d28dfb6	0.041228972
207	0x3dff4a54	0.12465349
208	0xbd8d9479	-0.069130845
209	0x3e1cd29a	0.15314713
210	0xbdea19a3	-0.11430671
211	0xbd493174	-0.049119428
212	0xbe2b7506	-0.1674386
213	0x3e1ebe4c	0.1550228
214	0x3e3ccabe	0.18436715
215	0xbd65ded0	-0.056120694
216	0x3de5674a	0.112013415
217	0xbefbb931	-0.49164727
218	0xbd1f30af	-0.038864788
219	0xbe819d1e	-0.25315183
220	0x3eb4c4c9	0.35306385
221	0x3d03d061	0.032181147
222	0x3daba788	0.083815634
223	0x3e0a5343	0.13508324
224	0x3daaf97f	0.08348369
225	0x3d0e1a9d	0.03469335
226	0xbd390dcd	-0.045179177
227	0xbd44e34e	-0.048068337
228	0x3d4af062	0.049545653
229	0xbde15a14	-0.11003509
230	0xbd780890	-0.06055504
231	0xbddcb2e2	-0.10776307
232	0xbe5cd75a	-0.21566525
233	0x3d34c638	0.04413435
234	0x3e05b7e2	0.13058427
235	0x3ddefbe9	0.10887892
236	0xbdea8de4	-0.11452845
237	0x3e10aa02	0.14127353
238	0x3e9e191b	0.3087853
239	0xbcffa8ce	-0.031208422
240	0xbea30bdc	-0.31844985
241	0x3e48f077	0.1962298
242	0xbe49ab8c	-0.19694346
243	0xbdf72b92	-0.12068857
244	0x3e0c7d36	0.13719639
245	0xbd97d529	-0.07413704
246	0x3cb456e2	0.022014085
247	0x3e0ab481	0.1354542
248	0xbc4c1d83	-0.012458208
249	0xbddfb9d3	-0.10924115
250	0x3c999c9b	0.018751433
251	0x3da80c44	0.082054645
252	0x3e77399b	0.24143068
253	0x3e343f27	0.17602216
254	0xbe9a05e9	-0.30082634
255	0xbe5d69c6	-0.2162238

network_body._body_endoder.seq_layers.2.bias f4 [128]
0	0x3b02f180	0.001998037
1	0x3ba3185f	0.0049772705
2	0x3b800dab	0.0039078793
3	0xba31a6d7	-0.0006776875
4	0xbc129d85	-0.008948688
5	0xbbad1de1	-0.005283103
6	0x3aeb2e63	0.0017942901
7	0xbbf547a7	-0.0074853483
8	0xba7918f4	-0.00095023145
9	0xbb7af4cd	-0.0038292885
10	0xbbe1625c	-0.0068781804
11	0x3c40f41f	0.011776953
12	0x3b0d32ed	0.0021545247
13	0xbc020de6	-0.007937884
14	0xba9a055c	-0.0011750865
15	0xbb5a6687	-0.0033325271
16	0xbc34a6c9	-0.011026093
17	0xbadbffaf	-0.0016784574
18	0xb9fb0f09	-0.00047885653
19	0x3b365f87	0.0027827935
20	0xbae2c2ef	-0.0017300526
21	0x3bd35b1f	0.0064500715
22	0x3bc1b830	0.0059118494
23	0x3b5f30b2	0.0034056124
24	0x3c401b19	0.011725211
25	0xbc0d589f	-0.008627086
26	0xbb695e32	-0.0035609123
27	0xbb811cd5	-0.0039402046
28	0x3a93bcf4	0.0011271522
29	0x3bc8cbc2	0.0061278054
30	0x3b92c76c	0.0044793393
31	0x3b89b071	0.0042019417
32	0xbbdf1505	-0.0068079256
33	0xbb7013ab	-0.0036632817
34	0xbb017ebb	-0.0019759375
35	0x39b6a1ae	0.00034834206
36	0xbbafffec	-0.0053710844
37	0xb8f93079	-0.00011882274
38	0x3bc216e7	0.0059231403
39	0x3c359df3	0.011085021
40	0x3c1d3bfc	0.009596821
41	0xbbfaf627	-0.007658738
42	0x3911e385	0.00013913035
43	0xbc067893	-0.008207458
44	0xbb1d90f9	-0.002404271
45	0xbb371962	-0.0027938713
46	0x3bbf29a7	0.005833823
47	0x3c826a15	0.015919724
48	0xbc00db62	-0.007864805
49	0x3ae4013a	0.0017395385
50	0x3bb7590a	0.005595331
51	0xbbe0c49d	-0.0068593756
52	0x3bd60972	0.0065318877
53	0x3b8aa42b	0.004230996
54	0xbc870799	-0.016483115
55	0x3c431c02	0.011908533
56	0xbbe146f4	-0.0068749133
57	0x3b08cd81	0.0020874443
58	0xbc09c3ca	-0.008408496
59	0xbb95dbc6	-0.004573318
60	0xbb49e916	-0.0030809096
61	0x3a892a17	0.0010464814
62	0x3b460777	0.0030216852
63	0x3b2909a2	0.0025793095
64	0xbb77751d	-0.0037759014
65	0x3c1271e8	0.00893829
66	0xbb19fa55	-0.0023495157
67	0xbbe1a42e	-0.006886027
68	0xbbd962b9	-0.006634083
69	0xbaf9b5ac	-0.0019051335
70	0xbabd97c6	-0.0014464788
71	0xbc062464	-0.008187387
72	0xbb865fd3	-0.0041007786
73	0x3b88e729	0.004177947
74	0x3c100a3e	0.008791504
75	0x3c2346aa	0.009965578
76	0x3c29f84d	0.010374141
77	0xbb9f738e	-0.00486607
78	0xb99e4cb7	-0.00030193265
79	0x3c7b18f0	0.01532577
80	0xbbf2eefe	-0.007413744
81	0x3b719b7e	0.0036866362
82	0xbc05b778	-0.008161418
83	0xbc394d17	-0.011309884
84	0xbc0e8c04	-0.0087003745
85	0xba936422	-0.0011245052
86	0x3be420e5	0.006961929
87	0xbbc98e49	-0.006150995
88	0x3bece978	0.00722998
89	0xbc2eb58b	-0.0106634
90	0xbb47b08f	-0.0030470227
91	0x3c42b266	0.011883354
92	0xbc153350	-0.009106472
93	0x3c25b96e	0.010115011
94	0xbba8cb01	-0.005151153
95	0x3ba39cfe	0.00499308
96	0x3b27d23e	0.0025607492
97	0xbc101839	-0.008794838
98	0x3c1f59d7	0.009726009
99	0x3b477154	0.003043254
100	0xbc17b304	-0.009258989
101	0x3ab3fecd	0.0013732553
102	0xbc03b1f1	-0.00803803
103	0xbc04ea9f	-0.008112579
104	0xbbf3240d	-0.007420069
105	0x3c280c7a	0.010256881
106	0x3bf562d6	0.007488589
107	0x3b2f633e	0.0026762034
108	0x3c49bf33	0.012313652
109	0x3b07e8d7	0.0020738149
110	0x3b9b1e61	0.004733846
111	0xbb84be71	-0.0040510227
112	0xbbc78924	-0.0060893465
113	0x3bd858d1	0.0066023846
114	0x3b109081	0.0022058787
115	0xbbdc49f4	-0.006722683
116	0xbc394f8a	-0.0113104675
117	0xbbc42ca4	-0.005986767
118	0x3b0cd4ff	0.002148926
119	0x3ba18724	0.00492944
120	0xbba7d780	-0.005122125
121	0xbbe9e0d9	-0.0071373996
122	0x3c358539	0.011079126
123	0x3bb8bd10	0.0056377724
124	0xbc36c85a	-0.011156166
125	0xbbf1aba5	-0.007375198
126	0x39d50407	0.00040629526
127	0xbbeaf717	-0.0071705687

network_body._body_endoder.seq_layers.2.weight f4 [128, 128]
0	0xbdbd0f36	-0.09231417
1	0x3d8bbfda	0.06823702
2	0xbc8ce65f	-0.017199693
3	0xbd4e5a53	-0.05037911
4	0x3e0f7760	0.14010382
5	0xbd8d7160	-0.0690639
6	0xbdbb2d7a	-0.09139533
7	0x3d8c6596	0.068553135
8	0x3cfb23fc	0.030656807
9	0x3db498d4	0.08818212
10	0xbd044055	-0.032287914
11	0x3de82940	0.11335993
12	0x3e50db00	0.20396042
13	0xbdc3c342	-0.09558727
14	0xbd9772fd	-0.07394979
15	0x3dbd50c6	0.09243922
16	0x3ce1ff27	0.027587486
17	0x3db0837f	0.08618831
18	0xbd8b0e59	-0.06789846
19	0x3db2fc43	0.08739521
20	0x3c0bc66e	0.008531196
21	0xbce791b6	-0.028267723
22	0xbca623ad	-0.020280683
23	0x3da2df4c	0.07952747
24	0x3d4803c3	0.048831712
25	0xbc431c00	-0.011908531
26	0xbdfde8ff	-0.12397956
27	0x3b5c9acf	0.003366161
28	0x3d5edfe2	0.05441273
29	0xbd511c3d	-0.05105232
30	0x3b783e57	0.0037878954
31	0x3d19d265	0.037554163
32	0xbd95f51a	-0.0732214
33	0xbbd73f5d	-0.006568833
34	0xbcddcacb	-0.027074238
35	0xbd6e64b2	-0.0582015
36	0x3d1d1116	0.038346373
37	0xbc6d36ba	-0.01447838
38	0x3d78b85b	0.06072269
39	0xbd0404c9	-0.032231126
40	0xbcb8b6db	-0.02254813
41	0x3cff3d53	0.031157171
42	0x3db50707	0.08839231
43	0x3d5ccfe2	0.05390919
44	0xbe19ad9b	-0.15007631
45	0xbdca29ec	-0.09871277
46	0x3d7c2a73	0.06156392
47	0xbdb43986	-0.08800034
48	0x3db95269	0.090489216
49	0xbdb72989	-0.08943469
50	0x3c8768f3	0.016529536
51	0xbdccd875	-0.100022234
52	0xbceab318	-0.028649852
53	0x3dd8ba50	0.10582411
54	0x3d61d517	0.05513486
55	0xbe334353	-0.17506151
56	0x3cec55f8	0.028849587
57	0xbd473a50	-0.048639596
58	0x3d0cb515	0.03435238
59	0x3da53221	0.08066202
60	0xbbceb2a1	-0.0063079153
61	0xbcd48d52	-0.025946293
62	0x3de9f7b7	0.11424201
63	0xbcbd857a	-0.023134936
64	0xbdc5392a	-0.09630044
65	0xbd2a0008	-0.041503936
66	0xbd2aa00b	-0.041656535
67	0xbda0ae16	-0.07845704
68	0xbe019e11	-0.12657954
69	0x3db02fab	0.08602842
70	0xbd364ecb	-0.044508737
71	0x3bf3dec6	0.007442328
72	0x3c7a00da	0.015258992
73	0x3cb76740	0.0223881
74	0xbd5eeba4	-0.054423943
75	0xbdb56a80	-0.08858204
76	0xbc1ff90c	-0.009763967
77	0xbd4a2aab	-0.049357098
78	0x3d8e3652	0.069439545
79	0x3e1387f9	0.14407338
80	0xbd83e6ee	-0.06440531
81	0x3e27ac94	0.16374427
82	0x3d1cbb7c	0.038264737
83	0x3e6e39bc	0.23264211
84	0xbdbfb398	-0.09360427
85	0x3d1c9946	0.03823211
86	0xbcb9eab1	-0.022694917
87	0xbe7c1d99	-0.24620666
88	0x3d5fb37d	0.054614533
89	0x3df48442	0.11939289
90	0x3de96d3b	0.11397787
91	0x3df8c9b0	0.12147844
92	0xbd7b2fd8	-0.061324924
93	0xbd806ee4	-0.06271151
94	0x3c96ae0c	0.018393539
95	0x3cb99aa7	0.022656752
96	0x3ac29a1f	0.0014846957
97	0xbce269d2	-0.02763835
98	0xbd148eb3	-0.0362689
99	0xbcf1e7d4	-0.02952949
100	0x3e020535	0.12697299
101	0xbc99f348	-0.018792763
102	0xbdc3f35a	-0.095679
103	0x3d191414	0.037372664
104	0x3e22ff7d	0.15917774
105	0xbcf78de5	-0.030219028
106	0x3e1d95fe	0.15389249
107	0xbd5a0c14	-0.053234175
108	0xbe3a9b57	-0.1822332
109	0xbdc40778	-0.09571737
110	0x3dc2ee72	0.09518136
111	0xbda45df2	-0.08025731
112	0xbcbe17a4	-0.023204632
113	0xbe233389	-0.15937628
114	0xbdab75c6	-0.08372073
115	0x3e0235d9	0.12715854
116	0xbe099bf0	-0.13438392
117	0x3e66a90c	0.22525424
118	0xbd7ff9db	-0.06249414
119	0xbdb5bd69	-0.08874018
120	0xbe05b223	-0.13056235
121	0xbe07dd3c	-0.13267988
122	0x3b5865b8	0.0033019613
123	0x3e1712f3	0.14753322
124	0x3c2724f9	0.010201686
125	0x3e470edb	0.1943926
126	0xbe4d08a7	-0.20022832
127	0x3dbcc03f	0.092163555
128	0x3bf5f985	0.0075065517
129	0x3dcf1ca0	0.10112882
130	0xbcd79ee3	-0.02632088
131	0xbd8207c8	-0.063491404
132	0xbdc8e46a	-0.098091915
133	0x3e0a2736	0.1349152
134	0x3c91af25	0.01778371
135	0xbd0a3113	-0.033738207
136	0xbdaf8e5a	-0.08572073
137	0xbe07a2aa	-0.13245645
138	0xbe1a97ba	-0.15096942
139	0xbdaa88dd	-0.08326886
140	0x3c2b9e0e	0.010474695
141	0xbe076156	-0.13220724
142	0x3cd0f61e	0.025507983
143	0x3dca1d55	0.09868876
144	0xbe12a64c	-0.1432125
145	0xbd709e91	-0.05874497
146	0xbe25c639	-0.16188897
147	0xbd878940	-0.06617975
148	0xbd1418e1	-0.03615654
149	0x3c4052a0	0.011738449
150	0x3e0ac521	0.13551761
151	0x3d4bcf74	0.04975839
152	0xbc8dd04d	-0.01731124
153	0x3cd1dc48	0.025617734
154	0xbd543989	-0.051812682
155	0x3d729aba	0.05922959
156	0xbd65e0e2	-0.056122668
157	0x3cb10737	0.021609886
158	0xbd33857d	-0.043828476
159	0xbb449cb3	-0.0030000627
160	0xbe0e6d6a	-0.13908926
161	0x3d90f942	0.07078792
162	0xbd3f445d	-0.046696056
163	0xbe04ef86	-0.12981996
164	0x3dfe93db	0.12430545
165	0x3d402aec	0.046915933
166	0xbd444eb6	-0.047926627
167	0x3d8fa2ee	0.07013498
168	0xbd8d2cef	-0.06893336
169	0xbd0812a3	-0.0332209
170	0x3dbc3590	0.09189904
171	0xbd8401cc	-0.06445655
172	0xbd05c972	-0.032662816
173	0x3d519508	0.051167518
174	0x3cc87dcc	0.024474047
175	0x3d81815a	0.063235
176	0xbdb65c2e	-0.08904301
177	0xbc0e2f00	-0.008678198
178	0xbe0c56b3	-0.13704948
179	0xbc956425	-0.01823623
180	0x3d85cc81	0.06533147
181	0xbcfe2d34	-0.031027414
182	0xbddac64e	-0.10682355
183	0x3d1d6323	0.038424622
184	0x3b19ef5c	0.0023488617
185	0xbcc38d77	-0.023871167
186	0x3da28ca9	0.07936985
187	0xbc16042b	-0.009156267
188	0x3d3d552a	0.046223797
189	0xbd835499	-0.0641262
190	0x3daf34de	0.085550055
191	0xbe52fd0f	-0.20604347
192	0xbe2c41f1	-0.1682203
193	0x3bab71e2	0.0052320817
194	0x3d38f483	0.04515506
195	0xbd2c5902	-0.042077072
196	0xbb3603d0	-0.0027773269
197	0x3e1bde8d	0.15221615
198	0x3d30ac1d	0.04313289
199	0xbdeab6b7	-0.11460631
200	0xba8d8c4c	-0.0010799258
201	0x3d2e4875	0.04254957
202	0xbc5f1bcc	-0.013617467
203	0xbd1f5ca4	-0.03890671
204	0xbd50d734	-0.050986484
205	0xbe48d82f	-0.19613717
206	0xbd8aeec1	-0.0678382
207	0x3b813715	0.003943334
208	0xbe076398	-0.13221586
209	0xbddb7341	-0.10715342
210	0xbe03200f	-0.12805198
211	0x3e2f3e4a	0.17113605
212	0x3e71273d	0.23550124
213	0x3cc8c412	0.024507556
214	0x3d5460a7	0.051849987
215	0x3b833f31	0.0040053357
216	0x3c47f9e4	0.012205575
217	0xbe2bea96	-0.16788706
218	0x3d769b3b	0.060206633
219	0x3ca1d4f1	0.019754859
220	0xbd40b755	-0.04704984
221	0x3c8069ed	0.01567551
222	0xbd395fd7	-0.045257416
223	0x3d7a06ab	0.061041515
224	0xbbe31289	-0.0069297
225	0x3c3a3c24	0.011366878
226	0x3dddff46	0.10839705
227	0xbc95c9a4	-0.018284626
228	0xbb07097c	-0.0020605018
229	0xbde47e44	-0.11156896
230	0xbbc91054	-0.0061359797
231	0xbd8224fd	-0.06354711
232	0x3d801799	0.06254501
233	0x3d3b7bdf	0.04577243
234	0xbdb2cb4a	-0.087301806
235	0xbd6e30a8	-0.05815187
236	0x3cacd647	0.02109827
237	0xbcc767a0	-0.024341404
238	0xb96839b0	-0.00022146734
239	0x3cc29a2f	0.023755161
240	0x3dc6617e	0.09686564
241	0x3ded8095	0.11596791
242	0xbab064d1	-0.001345778
243	0xbacb37a8	-0.0015504258
244	0xbd44dfa1	-0.04806483
245	0xbdca6f41	-0.09884501
246	0x3bb61dfb	0.005557773
247	0xbddd215d	-0.10797379
248	0xbdf5e5f1	-0.120067485
249	0x3d0b4910	0.034005225
250	0x3d02c976	0.03193041
251	0x3dd7bfd6	0.10534637
252	0x3ddc788d	0.10765181
253	0x3e1c032f	0.1523559
254	0xbd5de854	-0.054176643
255	0xbd02a906	-0.031899475
