IAV_FINAL/results/results/SheepsRedo5/Sheeps/Sheeps-8022.pt (torch, 506719 bytes, 36 tensors)

network_body._body_endoder.seq_layers.0.weight f4 [128, 28]
000000 35 d0 ed 3d 9b 8a 58 3d 6d 67 b8 bd 4a fd d3 3e
       0.11611978 0.05286656 -0.09004102 0.41404182
000010 7f 77 dc bb 9d 54 0f bd 1f 32 8c 3c e4 02 92 be
       -0.006728112 -0.034992803 0.017113743 -0.2851783
000020 e6 0e c7 3c a5 3d 57 3e 8d e1 ec 3d 54 13 1a 3d
       0.024299096 0.2101961 0.11566458 0.03761609
000030 46 49 10 be f2 1c 65 3e df d2 01 bf 61 63 75 3e
       -0.14090452 0.22374323 -0.5071239 0.23963691
000040 7c 39 8e be 08 62 28 be c7 9d 98 3d 68 50 81 be
       -0.27778232 -0.16443646 0.07451969 -0.25256658
000050 52 0f da 3d 88 aa c9 3d 9f e9 7b 3e e3 96 6f bc
       0.10647453 0.098469794 0.24600838 -0.014623377
000060 cc 3b 9b 3e b8 cc c2 3d bd cc c7 3e f1 90 1f be
       0.3031906 0.09511703 0.3902339 -0.15582635
000070 fc b9 de be c7 ec 67 3d c1 62 d3 bd ea 88 9c be
       -0.4350127 0.056622293 -0.1032157 -0.30573207
000080 8c f0 72 3b 98 3f a6 be 20 59 07 3d 1e 91 7f 3c
       0.0037069647 -0.32470393 0.03304398 0.0155985635
000090 03 0c 0a be bf aa b1 b9 3c 9c 91 be 58 00 3d 3e
       -0.13481145 -0.00033887287 -0.2843951 0.18457162
0000a0 2c 89 d9 3d 9d 6f 58 3d 5c bd 36 3e fa 4a f8 3d
       0.106218666 0.052840818 0.17845672 0.12123676
0000b0 79 2e cc be 24 7c b8 bd 21 f8 30 be 2c 73 1e be
       -0.39879206 -0.09008053 -0.17282154 -0.15473622
0000c0 3d 20 51 3d 7b 05 13 bf cc cd b5 bd 46 7a a0 3e
       0.051056135 -0.5743024 -0.08877143 0.31343287
0000d0 d4 39 5c 3e 51 4c 7a bc 23 a5 d8 bd f7 a2 fb 3c
       0.21506435 -0.015276984 -0.10578372 0.030717356
0000e0 66 d1 54 3e 5e e4 21 3d b8 d1 a5 3e 4e f3 a0 be
       0.20783004 0.03952443 0.32386565 -0.31435627
0000f0 7c af a7 3d 46 39 b4 3d dc ce 70 3d fd 5f 54 be
       0.08187768 0.087999865 0.058791026 -0.20739742
000100 ca 73 e8 bb b4 1c e9 bd 93 10 16 be 1a a7 e8 bc
       -0.0070938813 -0.11382428 -0.1465476 -0.028399993
000110 db 8d b8 3e e7 b9 86 3e 7c f5 53 3e a5 53 47 3e
       0.36045727 0.26313707 0.20699114 0.19465502
000120 1c af 27 3e 39 e7 b7 3c 4e eb b2 bd d7 d5 b7 3e
       0.16375393 0.022449123 -0.08736287 0.35905334
000130 b2 dc 16 be 27 d1 3c be cf 66 8e 3d 35 7a 51 bd
       -0.14732626 -0.1843916 0.06953203 -0.051141936
000140 bb af 96 be 8a 82 03 bf 80 7b 46 3d a7 a0 fd be
       -0.29430947 -0.5137106 0.048457623 -0.4953663
000150 d5 36 78 3d 3e 0a 99 3d 93 35 31 3e 47 ad 4c 3e
       0.060599167 0.07472657 0.17305593 0.19987975
000160 10 7e c3 bd 4e 29 f2 bd 4c 90 32 3e 55 40 53 be
       -0.09545529 -0.118242845 0.17437857 -0.2063001
000170 24 82 2f 3e 03 a4 9c bd 4a 63 a2 bd ea 9a 1a bc
       0.17139488 -0.0764847 -0.07929094 -0.009436348
000180 61 0f 19 bf 3c 8f 11 bd 75 1a 09 bc ca 2d a7 3d
       -0.5978909 -0.03553699 -0.008368124 0.081630304
000190 06 71 d8 bd 15 ea fb 3d c6 32 d5 bd 08 64 dd 3d
       -0.105684325 0.12300507 -0.10410075 0.10810095
0001a0 e6 73 99 3e a1 fe 31 3d 49 1f 35 3e 14 f0 ac 3d
       0.29971236 0.043455724 0.17687716 0.08444229
0001b0 ca 95 88 3e a7 ee 04 bd 63 cd 90 be 43 6f a1 be
       0.2667678 -0.03245416 -0.28281698 -0.31530198
0001c0 bf b8 1c be 39 9a 69 be ea 1e bd 3d 34 26 7e bd
       -0.1530485 -0.22812738 0.09234412 -0.062048152
0001d0 2e 08 00 3e 66 ba 83 3e c7 9e 33 3e fd 8e d1 bd
       0.1250312 0.25728148 0.17541037 -0.10232351
0001e0 02 35 9b 3e 4a 64 44 be f5 cb f7 bd 1c c0 96 3e
       0.3031388 -0.19178882 -0.120994486 0.29443443
0001f0 5c 79 b0 bd 8b cb 38 be df 4a 73 bd 51 b0 94 3d
       -0.086168975 -0.18046395 -0.059397575 0.07260192
000200 73 fd 5c 3e 1c 49 36 3e 92 9b 21 be 2d 72 03 bd
       0.21581058 0.17801327 -0.15782002 -0.03209131
000210 d8 1c 83 3e 83 af a8 3c 33 15 8f 3e 40 3e 97 bd
       0.25607944 0.020591503 0.2794586 -0.0738492
000220 35 41 28 bd c9 5d 5d 3e 92 78 33 be 13 37 9d 3d
       -0.04107781 0.21617807 -0.17526463 0.0767652
000230 18 1f ea be 6a 05 7a be 19 c4 de 3e 87 a9 98 3d
       -0.45726848 -0.24416128 0.43508986 0.0745421
000240 93 be 1b be d8 a9 3a be 50 62 80 bd b4 8d 21 3c
       -0.15209417 -0.18228853 -0.062687516 0.009860445
000250 d6 31 07 be 04 be 84 be 30 17 3d bd 95 34 a2 be
       -0.13202605 -0.2592622 -0.04616469 -0.31680742
000260 e2 55 eb bd 88 0d 0e be 9b 45 91 be 38 12 a5 3d
       -0.1149099 -0.1387235 -0.28373417 0.080601156
000270 f8 90 af 3d 58 53 8e 3d 5f f6 19 3d dc c3 15 3e
       0.085725725 0.0694949 0.037588473 0.14625496
000280 a3 e3 93 be db ea c0 be a3 a2 5a bd c1 4f e0 bd
       -0.2888461 -0.3767918 -0.05337776 -0.10952712
000290 bc 89 df be 9d 50 d5 bc eb e4 d0 be 7d 64 aa be
       -0.4365977 -0.026039416 -0.4079965 -0.3327979
0002a0 fb 7d 02 3e 80 80 ef 3d 8f 5f 49 3e ec f6 64 bb
       0.1274337 0.11694431 0.19665359 -0.0034937216
0002b0 90 50 a0 3e aa 25 b5 3d 1f fc ad 3d d0 89 82 be
       0.31311464 0.088450745 0.08495354 -0.25495768
0002c0 8c b0 ef 3d 93 61 73 bd 99 3e aa bd 7a b9 0e be
       0.117035955 -0.059419226 -0.08312721 -0.13937941
0002d0 20 a6 83 be 63 e7 72 3d ff 2b 8f bd 5c 07 49 3d
       -0.2571268 0.0593027 -0.069908135 0.049079284
0002e0 54 c9 b7 3d c8 ac 94 be 73 e3 4f 3e de 21 77 3e
       0.08973947 -0.29038072 0.20301609 0.24134013
0002f0 b7 50 28 be 5a 15 65 be 96 05 81 bd 5f 80 67 3d
       -0.1643704 -0.22371426 -0.062998936 0.05651891
000300 d9 6f cb 3d c4 75 e0 3d eb eb 0a 3d e7 d6 fa be
       0.099334426 0.10959962 0.033916395 -0.48992082
000310 37 13 f9 3e 0c de 90 be 36 b9 2f be de f3 ab be
       0.48647472 -0.28294408 -0.17160496 -0.33584493
000320 cc 61 40 be 67 8c 81 3d 60 60 87 3d 93 c2 4c 3e
       -0.18787307 0.06325608 0.06610179 0.19996099
000330 3b 60 32 3e 8e d7 1d be f8 f7 2a be 71 a9 31 3d
       0.17419522 -0.15414259 -0.16696155 0.043374483
000340 9c 29 a4 3e c4 8a cc 39 ff 30 42 3e 76 14 de bd
       0.32062995 0.000390133 0.18964003 -0.10843746
000350 4f b3 de bc 1e 7e 0f 3e a7 7e 65 3d fd 24 87 3d
       -0.02718511 0.14012954 0.05602899 0.06598852
000360 b4 f6 94 be 0a fd 11 3e 99 4c 90 be f7 dd ab be
       -0.2909447 0.14256683 -0.2818344 -0.33567783
000370 5b 80 f2 bc 69 50 18 be 21 3b 45 3d 0f 06 c6 bd
       -0.02960222 -0.14874424 0.048152093 -0.09669124
000380 ec 9b 81 bc 31 20 a9 bc be e4 c3 3e 6c ff 2f be
       -0.01582142 -0.020645233 0.38260454 -0.1718728
000390 7c fb 80 be c1 78 cc 3c 43 fa 2f be 83 c1 ac 3e
       -0.25191867 0.024959924 -0.17185311 0.33741388
0003a0 90 65 b3 be 9d 15 96 3d d1 ef ae be a9 a2 2a bd
       -0.35038424 0.07328341 -0.3416734 -0.04165903
0003b0 8e e9 80 bd e7 06 fe bd 60 52 07 be 3e f2 b6 3d
       -0.06294547 -0.1240366 -0.13215017 0.08932923
0003c0 04 58 b5 3e 93 0f 74 3c fa 9d fc bc 58 a1 c7 be
       0.35418713 0.014896291 -0.030837048 -0.38990283
0003d0 64 d4 04 bd 2a ef 75 3d 42 0a fe 3d 56 6a 14 be
       -0.032429114 0.060042538 0.124043 -0.14493689
0003e0 91 cb 87 bd 81 4d 96 bd 5e 6a ef 3e 95 2c a0 bd
       -0.06630624 -0.073390014 0.4676084 -0.07821003
0003f0 d0 3b a4 3e ff 65 8d be 4f ac ac bc da 95 80 3e
       0.32076883 -0.2761688 -0.021078257 0.25114328

network_body._body_endoder.seq_layers.0.bias f4 [128]
000000 c9 b6 6a bb da de d5 3a ad 94 a8 bb d5 48 3a bb
       -0.0035814515 0.0016317025 -0.0051446767 -0.002842476
000010 aa c6 99 3b 08 77 8a 3b aa 43 07 3a ad 87 b0 ba
       0.004692872 0.0042256154 0.0005159924 -0.0013468169
000020 3b 6b ac bb 3c e9 00 bb a8 f6 50 bb c6 67 b7 bb
       -0.0052618063 -0.0019670269 -0.00318853 -0.0055970876
000030 6e 58 95 3b 10 a9 49 bb a0 7b 99 bb 0e 9b 57 3a
       0.004557661 -0.0030770935 -0.0046839267 0.0008224704
000040 5b 37 88 3a fb c1 4c bb c8 87 56 3b b3 cf 27 39
       0.0010392474 -0.003124355 0.003273474 0.00016003735
000050 47 12 45 3b 39 ef 8a 3b b5 8d 45 3a e5 c3 ae bb
       0.0030070709 0.0042399433 0.00075360696 -0.005333411
000060 64 19 3a 3b f8 b2 82 bb b3 69 a1 ba c2 9f bc 3b
       0.0028396482 -0.00398862 -0.0012314826 0.0057563493
000070 a0 4b aa 3b 5f 6d a2 bb f8 5b 9d bb 03 2b 32 3a
       0.0051970035 -0.0049568857 -0.0048022233 0.00067965704
000080 95 e6 49 3b 14 9e 3e bb ec 04 64 3b 0a 1c 82 39
       0.0030807604 -0.002908592 0.0034792973 0.00024816423
000090 fc fd 3f 3b 1e 82 4b 3a 08 c8 17 bb da 0c 9a 39
       0.0029295674 0.00077632244 -0.002316 0.00029382744
0000a0 01 26 9c 3b c1 23 3f bb 7e f0 ee ba 2b 1d 37 bb
       0.0047652726 -0.0029165598 -0.0018229631 -0.002794097
0000b0 1b 7c 9c bb 98 6f 84 bb 16 13 52 3b fb 5d b7 b9
       -0.0047755367 -0.0040416233 0.0032054833 -0.000349745
0000c0 5b 1f 9a bb 7a f4 df 3a f1 db 8f bb f9 32 a0 3b
       -0.004703445 0.001708641 -0.0043902327 0.004888889
0000d0 af 8e 56 3b a0 42 3d bb 1c 03 d9 ba 44 8d d8 38
       0.0032738855 -0.0028878823 -0.0016556713 0.000103259954
0000e0 87 f3 fa 38 e2 96 54 bb e4 1a 30 bb 3c 11 a0 3b
       0.000119662895 -0.0032438566 -0.0026871497 0.004884867
0000f0 3b b5 26 bb 27 75 8c 3b 35 46 9c 3b 97 a9 9f bb
       -0.0025437612 0.0042864266 0.0047691115 -0.0048725116
000100 79 32 0f 3a 75 f4 08 3a eb 8e b2 bb 9e 0c ef b9
       0.0005462538 0.0005224415 -0.005449166 -0.00045595033
000110 59 ab af 38 bb f9 ad bb af a4 92 3b 97 ab 80 3b
       8.376566e-05 -0.005309311 0.004475198 0.003926705
000120 9a 2e 37 bb be 54 50 bb 22 5f b2 bb 91 d8 5e bb
       -0.002795136 -0.0031788792 -0.0054434696 -0.0034003595
000130 70 ed 37 ba 7e 12 42 3b 36 ee 71 bb 39 ea b4 ba
       -0.0007016277 0.0029613073 -0.0036915666 -0.0013802714
000140 f5 14 8b bb a2 f2 94 bb fb d7 a9 bb cd 86 4e b8
       -0.0042444416 -0.0045455256 -0.0051832176 -4.923977e-05
000150 56 77 4d 3a 7c 14 01 bb 07 bf 63 bb fe 50 14 bb
       0.0007837912 -0.0019696048 -0.0034751312 -0.0022631283
000160 9f a8 a5 3b 1a aa 9c b9 4a 12 51 3b 56 e9 39 3a
       0.0050555016 -0.00029881374 0.003190177 0.00070919597
000170 fa b9 a1 3a 17 41 a3 bb 74 39 07 3b 11 c5 82 39
       0.001233875 -0.0049821245 0.002063361 0.00024942358
000180 d0 ed 01 bb 75 89 33 bb ab 98 0e 3b 58 4b 9a 3b
       -0.0019825585 -0.0027395163 0.0021758478 0.0047086887
000190 25 0c 93 3b 9d 52 a6 3b b8 2d ab 3b 42 b0 a2 3b
       0.0044875317 0.0050757662 0.005223956 0.004964859
0001a0 0f 1d 7b ba cf 4f 82 bb e2 2e a1 b8 0e f5 73 3b
       -0.000957922 -0.003976799 -7.685811e-05 0.0037224921
0001b0 17 9c 1c ba 66 47 8b bb f5 04 6d bb 86 61 28 3b
       -0.0005974187 -0.0042504547 -0.0036166285 0.0025692894
0001c0 73 bc b2 bb 06 c9 8f 3b 7e d3 48 bb 6c 4d 3c 3b
       -0.005454594 0.0043879775 -0.0030643637 0.002873267
0001d0 8a 4f 5d 3b cd 47 83 3b f4 b3 af bb 8f a0 8e 3b
       0.0033769333 0.004006362 -0.0053620283 0.004352636
0001e0 c7 01 9c 3b 0d 18 47 3b c3 a1 4a bb 8d 5e 6c 3a
       0.004760954 0.0030379326 -0.0030919171 0.0009016775
0001f0 d4 28 b7 bb 24 2a 01 3a 2f 2d 8f 3b ba d5 93 3b
       -0.005589584 0.0004927239 0.0043694 0.004511562

network_body._body_endoder.seq_layers.2.weight f4 [128, 128]
000000 7a d3 a7 be 35 7b 08 3e 7c 66 d1 3c 83 13 2e 3e
       -0.3277853 0.1332825 0.025561564 0.1699963
000010 f7 92 f4 3d 61 55 bd bd 7a 37 18 bd bd a7 f5 3c
       0.11942094 -0.092448 -0.03716228 0.02998721
000020 d3 f2 a7 bb 94 ac ec bd 90 42 bd bc 2a 8c 76 bc
       -0.0051253824 -0.11556354 -0.023103029 -0.015048066
000030 60 42 11 3d 76 64 ed 3c 5d 20 0e bb 4b 92 2e bd
       0.03546369 0.028978568 -0.002168677 -0.042619985
000040 f6 da 0e bd d2 ee 38 3e 1a 8e 0e 3d af 94 23 bc
       -0.034876786 0.18059853 0.034803487 -0.009984179
000050 27 27 a1 3d 08 49 0b 3d 64 6d b1 3d 75 69 93 3d
       0.07868796 0.034005195 0.08663443 0.07197849
000060 6e 85 d6 3d ee c2 fb 3c c7 33 13 3c 89 db 86 bc
       0.104746684 0.030732598 0.008984513 -0.016462104
000070 70 81 22 be 2e 33 e9 3d db 1f 98 bc de 5d c5 3d
       -0.15869689 0.11386715 -0.018569877 0.09637044
000080 6f 70 93 3d b1 e0 e2 3d 58 77 a2 3c a5 83 86 bd
       0.071991794 0.11078013 0.019832298 -0.06568078
000090 69 23 21 3b 91 67 0a 3e 24 ae fc bc e1 f6 95 bd
       0.0024587756 0.1351607 -0.030844755 -0.07322479
0000a0 47 a9 39 3e 01 9c 13 be 4d 23 3d 3e 96 84 c8 bd
       0.1813098 -0.1441498 0.18470497 -0.09790914
0000b0 c8 5b 54 3d a3 77 a5 3d bf b4 07 bb ba 26 2a bd
       0.051845342 0.080794595 -0.0020707098 -0.04154084
0000c0 fe c9 90 3d 7c b2 30 3c 1a b3 e7 3d 73 c9 e2 bd
       0.07069777 0.0107847415 0.11313458 -0.1107358
0000d0 30 06 68 bd 00 ca 8c 3c c5 a2 1f 3e 97 25 5a bd
       -0.056646526 0.017186165 0.15589435 -0.053258505
0000e0 fb 89 20 3d ae 9e e7 bb 8b 99 ec bd 1d 2a 46 be
       0.03919409 -0.0070684766 -0.115527235 -0.19352002
0000f0 a3 77 8f bd 3a 9a a4 bc a3 91 bb bd e5 40 5a bd
       -0.07005241 -0.020093072 -0.091586374 -0.053284544
000100 2b 80 0d bd b9 2d 64 be a9 62 6b 3b e0 b1 9b 3b
       -0.03454606 -0.22283067 0.003591696 0.004751429
000110 a8 b4 f5 3c 24 60 f9 3c e4 c2 52 3e 3f 65 95 bd
       0.02999337 0.030441351 0.20582157 -0.07294702
000120 95 0c 9f bd 92 0e 63 3d d5 67 13 be 65 8d c4 bd
       -0.07766072 0.055433817 -0.14395078 -0.09597281
000130 84 36 b5 3d 72 5e c4 3d 11 d7 c6 3d 39 b1 fd 3d
       0.08848289 0.095883265 0.097089894 0.12387318
000140 74 c0 24 3e 2e 5f ea 3b b5 3f ab bb 24 50 99 3d
       0.1608904 0.0071524596 -0.0052261003 0.07485989
000150 e6 19 4b 3d f4 6b e7 bc 13 cb da 3d 64 c8 a0 bd
       0.049585246 -0.028249718 0.106832646 -0.078507215
000160 87 ad ab 39 b8 52 f1 3c eb 08 ed bd ce 27 30 bd
       0.0003274495 0.029458389 -0.115739666 -0.04300671
000170 77 71 f0 bb 6c 2f 32 be d3 62 ab bc 45 88 06 ba
       -0.007337745 -0.17400903 -0.020921146 -0.0005132
000180 d6 d5 5b 3d 66 5a 8d bd 62 45 1b be 56 d9 3c bd
       0.053670727 -0.06902008 -0.15163186 -0.046105705
000190 b1 22 22 3d 6d 9b 72 3d 73 26 96 bd 7c fb 97 3d
       0.039583866 0.059230257 -0.07331552 0.07421014
0001a0 28 6f 29 be 0d 60 4a be 09 37 65 3d 89 5f 1d 3d
       -0.16546309 -0.19763203 0.05596069 0.038421188
0001b0 39 16 af 3c cd 41 ff bd b4 dd 30 3e 69 e8 04 be
       0.021372901 -0.124637224 0.17272073 -0.12979282
0001c0 1a c3 8c bd 16 3d 8a bd 1f 97 b4 bd 62 a7 ac 3d
       -0.0687315 -0.067499325 -0.088178866 0.08430363
0001d0 82 8e bd bc 08 aa 57 3d 72 65 9a bd e5 fe 4e 3c
       -0.023139242 0.05265239 -0.075388804 0.012634014
0001e0 24 88 6d 3c bc 56 6b 3e 76 9e d8 bb ce ea 3b bd
       0.0144977905 0.22982305 -0.006610687 -0.045878224
0001f0 59 50 9d 3d 63 43 3b bd 24 be de 3d 16 41 87 3d
       0.07681341 -0.04571856 0.1087611 0.06604211
000200 55 38 41 3e 5e 06 12 be c6 34 26 3e b0 28 0a bd
       0.18869145 -0.14260241 0.16231069 -0.03373021
000210 36 5c 7c bd b9 d5 d0 3d 38 d3 a4 3d 69 4a 98 3d
       -0.061611377 0.10197014 0.08048099 0.074360676
000220 aa 62 0b 3d c9 ab bb 3d 80 bc 0e 3d ca 3d ac bc
       0.03402964 0.09163625 0.034847736 -0.021025557
000230 c9 78 c0 3d 00 47 5f bd 44 a0 40 3b 29 b7 8c 3d
       0.09398038 -0.05451107 0.00293924 0.068708725
000240 c7 1e ac bd f2 50 42 be 2c a6 29 3e 10 6b b8 bc
       -0.08404308 -0.1897619 0.16567296 -0.022511989
000250 31 09 88 bd 56 44 08 3e 07 70 68 3d 37 ca c2 bd
       -0.06642378 0.13307318 0.056747463 -0.09511226
000260 85 ae 8e bc 9d 12 0a be f5 cd af 3d 13 bf 03 be
       -0.017417202 -0.13483663 0.08584205 -0.12865858
000270 e4 b4 a5 bd 0c 15 c8 bd d0 19 93 3d e1 82 c9 3c
       -0.08091143 -0.097696394 0.07182658 0.02459854
000280 3e f8 26 bd 51 ec 31 3d 08 8b 8f bd 3e 99 74 be
       -0.040764086 0.04343826 -0.0700894 -0.23886582
000290 90 b7 2a 3b a0 b9 10 3d 72 a9 25 be 82 90 13 3d
       0.0026049353 0.035333276 -0.1617792 0.036026485
0002a0 0c cd 92 bd b4 dd 5e bd 33 3e 5d 3d 40 a9 c8 bd
       -0.07168016 -0.05441065 0.054014396 -0.09797907
0002b0 12 c8 26 3d c8 a9 13 3e 95 ad b7 3a 3a 8e c3 3c
       0.040718146 0.14420235 0.0014013523 0.02387153
0002c0 03 53 f4 bc 6a 76 0b be fb df 40 be 54 c7 4d bc
       -0.02982474 -0.1361939 -0.18835442 -0.012559731
0002d0 df d1 ce 3c ae d3 d6 3c d4 c7 5f bd aa 77 aa 3d
       0.025246559 0.026223984 -0.05463393 0.08323605
0002e0 f6 ee 19 3d a9 0a 42 bd 9a 11 7c bd 7e cf f7 3d
       0.037581407 -0.047373448 -0.061540224 0.12100123
0002f0 d4 e2 77 bd 41 73 4d bd 1c 1d f9 bc e0 8e a1 bd
       -0.060519055 -0.050158743 -0.030409388 -0.07888579
000300 de 57 0f bd a6 62 f4 bd 30 b0 01 3d 67 ea 8b bc
       -0.034995906 -0.11932878 0.031662166 -0.017079545
000310 29 83 52 3d b4 3a 9d 3d aa 1f 95 bd 02 b1 b5 3b
       0.051394615 0.07677212 -0.0728143 0.0055447826
000320 b0 b2 8b bc 3c 9e 2b bb de a3 4b bd 1b 3b d5 bd
       -0.017052978 -0.0026186844 -0.049716823 -0.10411664
000330 bd 0d fd bc 7a 0e f2 3c 82 b7 13 3e 06 82 9c 3b
       -0.03089034 0.029547919 0.14425471 0.004776242
000340 53 d9 f1 bc 0e 03 ef 3c d7 67 91 3d 16 bb 83 bd
       -0.029522574 0.029176261 0.07099884 -0.06432168
000350 aa 76 3e bd e6 7a ec bd 23 8c 37 3d 61 91 18 3e
       -0.046499886 -0.115468785 0.04481138 0.14899208
000360 e7 a3 ab bc fd a4 a5 3c 45 98 9f 3c 48 d9 ef 3c
       -0.020952178 0.020220274 0.019481787 0.029278412
000370 8e 37 97 3d 1e 5f c2 bd 92 82 ad bd 8b ab eb bc
       0.07383643 -0.094907984 -0.0847217 -0.028768321
000380 eb e3 c1 3d 74 05 57 3d e7 3e 27 bc 0b c5 52 bc
       0.094673 0.052495435 -0.010207868 -0.0128643615
000390 dc 65 d5 3d 56 a8 5a 3c 76 c7 24 3d 8b e5 17 3d
       0.10419819 0.0133457985 0.040229283 0.037084144
0003a0 6b c0 92 3d d7 6f ac bd 9c 03 8a bd 0b fd f6 bc
       0.07165607 -0.08419769 -0.0673897 -0.030149957
0003b0 5e a3 55 bd 75 a1 08 bd f1 76 21 be 54 fa e3 bc
       -0.052157752 -0.033357102 -0.15768029 -0.027829327
0003c0 76 e3 08 3d ea 25 b7 bd 3c fe c9 bd 75 3b d4 bd
       0.03342005 -0.089427784 -0.098629445 -0.10362903
0003d0 f2 ab 41 bd f0 1e 23 3e 9a 9f b8 bd 6c 5b 02 bd
       -0.04728312 0.1592977 -0.090148166 -0.031825468
0003e0 f5 9c cd 3d 6a 83 20 3e 0c 4f 56 bd 27 7b 01 bd
       0.10039703 0.1567513 -0.05232148 -0.031611588
0003f0 5b b8 c5 bd ff 5d 73 3e bf f4 ab bb ca cb e9 bd
       -0.09654304 0.23766325 -0.005247682 -0.11415823

network_body._body_endoder.seq_layers.2.bias f4 [128]
000000 a5 95 4b 3b c4 14 9b bb 78 29 99 b9 7f 9a b7 3a
       0.0031064537 -0.0047327 -0.0002921333 0.0014007835
000010 09 f1 59 3b 58 38 50 3b 09 66 a2 ba c8 bd 8c 3b
       0.003325524 0.0031771865 -0.0012390028 0.0042950846
000020 e9 ec e8 3a a6 9b 99 bb 0b 80 99 bb 79 2d 82 bb
       0.00177708 -0.004687744 -0.0046844534 -0.003972706
000030 36 24 97 3b 6d 7a 88 3b 61 0e 9d ba 4f b4 b2 b9
       0.004612471 0.004164985 -0.0011982435 -0.00034085146
000040 81 ce 08 bb dd e8 9e bb 40 65 97 bb d2 1c 7f ba
       -0.002087504 -0.004849537 -0.0046202242 -0.00097317726
000050 10 db a4 bb b4 5c 81 3b 30 7b 25 3a a7 da 03 bb
       -0.005030997 0.0039478187 0.0006312607 -0.002011934
000060 ce 80 87 bb 43 a7 fe ba f7 8a 34 bb 9a 48 b7 ba
       -0.0041352278 -0.001942851 -0.002754865 -0.0013983429
000070 21 62 56 bb fb 7c 6a bb 92 ae 59 3b 48 cb 10 bb
       -0.0032712298 -0.003578006 0.0033215624 -0.0022093821
000080 75 9f 2d 3b 16 df 3b 3a 5a 9b 36 39 8d f1 a2 bb
       0.002649275 0.0007166726 0.00017414746 -0.0049726428
000090 26 ed 48 3a 5a f8 81 3b e3 20 89 bb 0e c1 af bb
       0.00076647324 0.0039663734 -0.0041848286 -0.00536359
0000a0 91 13 8e bb 0c c9 ad ba 42 59 80 38 3c 5c 8c bb
       -0.0043358286 -0.0013258769 6.120141e-05 -0.004283456
0000b0 3a 4b 8b bb 8b 6f 67 bb ae 12 15 38 b4 b2 a3 39
       -0.004250911 -0.0035314288 3.5541765e-05 0.00031222927
0000c0 8e 79 0f 3b 98 c4 32 3b 5b 48 a5 3b b8 28 5b 37
       0.002189252 0.0027277824 0.005044026 1.3062898e-05
0000d0 cb d5 a6 3b 89 3b c8 38 d4 13 4e bb e2 b9 a2 bb
       0.005091404 9.5478325e-05 -0.0031444924 -0.0049660066
0000e0 cf b6 93 bb f1 45 90 b9 98 9e 4a bb 5c a7 a1 3b
       -0.0045078765 -0.0002751793 -0.0030917283 0.004933281
0000f0 13 c1 0b 3b df d3 d8 3a 88 11 06 bb fd a2 a5 3b
       0.0021324798 0.0016542635 -0.0020457227 0.00505483
000100 2c 44 aa bb 54 c9 95 bb 8b 60 8f 3b 52 fd ec 3a
       -0.005196115 -0.0045711193 0.0043755225 0.0018080866
000110 0d 7f 10 bb 82 b0 34 ba 91 18 2d 3b ef cd 50 3b
       -0.0022048384 -0.0006892757 0.0026412348 0.0031861027
000120 77 9a 8c bb b5 00 0a bb 7f 76 ac bb dc cb dc 3a
       -0.0042908746 -0.002105755 -0.0052631493 0.0016845423
000130 9a a9 87 3b 01 0b a1 bb 49 e4 5c bb 72 4d 98 3b
       0.004140091 -0.004914642 -0.0033705404 0.004647904
000140 49 6c 97 bb a8 19 0f 3b d5 07 92 bb 11 63 9a 3b
       -0.004621063 0.002183536 -0.0044565 0.0047115167
000150 9d 7e a4 3b 61 73 92 bb 09 5d ac bb 13 b0 8e bb
       0.0050199763 -0.0044693206 -0.005260114 -0.004354486
000160 92 a9 a5 ba fe 41 33 b9 56 d7 97 3b 62 dc 06 bb
       -0.0012639037 -0.00017095354 0.0046338243 -0.0020578136
000170 0e 5d 6e bb 94 44 9c bb 6f ed 4f 3b e8 41 8e 3b
       -0.0036371383 -0.0047689173 0.0031727215 0.0043413527
000180 51 51 ad bb f0 a0 9a bb f0 ea 85 bb f7 b9 a1 3b
       -0.0052892347 -0.0047188923 -0.0040868446 0.004935499
000190 80 f3 9b bb f1 2f 3a bb 6f 8e 15 3a 7f 3e 14 bb
       -0.004759252 -0.0028409923 0.0005705123 -0.0022620258
0001a0 e4 17 74 bb 77 c9 59 3b f0 94 a1 3b a4 66 5a bb
       -0.0037245685 0.0033231655 0.004931085 -0.0033325339
0001b0 aa ef 89 3b b1 30 1f 3a 42 36 a4 bb c9 3a a3 3b
       0.0042094784 0.0006072624 -0.005011351 0.004981373
0001c0 6a 82 84 bb b0 4c 0f ba d9 8e 6a 3a 5f 4a af 3b
       -0.004043867 -0.00054664444 0.00089476776 0.005349442
0001d0 21 9c af 3a 3b dd 89 3b 04 db ad 3b b7 3c ac 3b
       0.001339797 0.004207281 0.0053056497 0.005256261
0001e0 9d 64 b6 39 fb bb 24 3b 07 e8 ad 3b 56 31 99 3b
       0.00034788708 0.002513646 0.005307201 0.0046750708
0001f0 82 88 ab 3b 6c 22 a4 3b c3 8a 33 3a 43 d7 c2 b9
       0.005234779 0.005008986 0.0006848985 -0.00037162946

action_model._continuous_distribution.log_sigma f4 [1, 2]
000000 93 f6 0a bb 02 ef aa 3b
       -0.0021204099 0.00521648

action_model._continuous_distribution.mu.weight f4 [2, 128]
000000 03 b1 77 3b 3c a4 d7 bc fd 08 6f bc db d6 34 bc
       0.0037794716 -0.02632343 -0.014589545 -0.011037554
000010 9a fe 99 3b 7c 88 8a 3b 17 f4 b0 bc 18 94 36 3c
       0.0046995403 0.004227696 -0.021600766 0.011143707
000020 42 ec 57 bc da 7d 81 bc 02 8c 2e bc 06 48 24 bc
       -0.013178887 -0.015807081 -0.010653498 -0.010026937
000030 63 da 86 3c 9b d6 0a 3c ce 42 98 3c b9 e8 96 3c
       0.016461557 0.0084740175 0.018586542 0.018421518
000040 34 16 7e b9 3a b3 0c bd e1 59 6c bc 8e c8 7c 3c
       -0.00024231599 -0.03435061 -0.014425726 0.015428675
000050 2a 95 ba bb 14 af 42 3c 63 10 c0 3c 1b 87 ae 3b
       -0.0056940513 0.011882562 0.023445314 0.0053261644
000060 bc 44 6b bc d1 8b 01 3c 1d 8f ae ba 4c 1f 75 3c
       -0.014359649 0.00790687 -0.0013317798 0.014961075
000070 42 90 bd bc db 81 19 bc 31 e4 24 3a 03 f5 29 3c
       -0.023140077 -0.009369339 0.00062901067 0.010373357
000080 d2 49 49 38 d7 45 af 3c 55 68 ab 3c b5 2f 46 bc
       4.7990885e-05 0.021395607 0.020923773 -0.012096335
000090 94 1f ba 3c 0e 8d d0 3b 5a aa b5 bc 62 55 30 bb
       0.022720136 0.0063644713 -0.022175957 -0.002690636
0000a0 3b 84 1b bc 4f 14 a8 3b 1e 34 04 bd 08 89 24 bc
       -0.009491975 0.005129374 -0.032276265 -0.010042436
0000b0 6f ee 06 bc 7a 60 87 ba ac d5 a1 bc 47 67 34 3d
       -0.008235558 -0.0010328435 -0.019755207 0.044043805
0000c0 e9 2e 38 bb 3f 94 47 bb 01 b6 39 3c 1b e7 91 bc
       -0.0028104133 -0.0030453352 0.011334897 -0.017810395
0000d0 f3 ea bb 3c 98 59 84 bc c6 58 a1 3b 68 c2 fd bc
       0.022939181 -0.016156003 0.0049239127 -0.03097649
0000e0 60 38 2c bc f3 2f 14 bd 1b 65 f6 bb 45 6f 1e 3d
       -0.010511488 -0.03617854 -0.007519377 0.038680334
0000f0 01 8b 2e bc 0a 91 5d bc e4 da 3e 3c aa 7c ae 3c
       -0.010653258 -0.01352335 0.011648867 0.021299679
000100 61 b0 24 bd 61 38 92 bc 89 da 09 3c 44 d9 bd 3b
       -0.04020727 -0.01784915 0.008413919 0.0057937223
000110 3a 8b 1c b9 be b6 c1 3c 05 0a db 3c b7 d1 64 3b
       -0.00014929185 0.023646709 0.026738176 0.003491504
000120 0b 9d 7a bc 8b f7 04 3c db e5 76 bc 56 7e 4a bb
       -0.015296231 0.0081156595 -0.01506945 -0.0030898056
000130 e0 aa f6 3c 4f a8 32 bd a1 64 00 bc df 42 bc 3c
       0.030110776 -0.043617543 -0.007836492 0.022981105
000140 05 a9 08 bc 83 f3 f0 bb f4 09 5a bc 84 e1 39 3c
       -0.008341079 -0.0073532476 -0.013308037 0.011345271
000150 a1 60 24 3d ee 5b 97 ba 42 22 81 bc 29 ab 46 bc
       0.040131215 -0.0011547783 -0.015763406 -0.012125769
000160 3b b0 05 3d 3b ef 33 bc f8 53 d2 3c 82 d2 5b 3c
       0.03263877 -0.01098233 0.025674805 0.013416888
000170 27 59 93 bc d3 4c 90 bc 77 9b a4 39 c0 a9 5c 3c
       -0.017986847 -0.017614758 0.00031396348 0.013468206
000180 20 46 c0 bb 22 e2 03 bd 7b 77 32 bc dd fe 0e 3d
       -0.0058677346 -0.03219808 -0.010892744 0.034911025
000190 88 07 a7 bc 40 5e 01 3c 8e 25 0a 3a 78 4f 99 3b
       -0.020389333 0.007896006 0.00052698783 0.004678663
0001a0 4d a2 f8 39 69 65 87 3b df ff 14 3d a2 e1 c3 bc
       0.0004742317 0.004131962 0.03637683 -0.023911301
0001b0 bf b9 39 3c a9 38 8c 3c ef ab 9e bc ed 58 da 3b
       0.011335789 0.017116861 -0.019369094 0.006663433
0001c0 f5 ee f1 bb af 07 41 bb 04 78 d0 ba 23 0a 5b 3c
       -0.007383222 -0.0029454043 -0.0015904908 0.013369116
0001d0 8a 2a 16 3c cc 27 92 3c 4c 6f 25 3c 92 bd 00 3d
       0.009165416 0.017841242 0.010097336 0.03143079
0001e0 23 5e 98 bc 14 f1 86 bb db b6 cf 3c cf 20 0f 3c
       -0.018599575 -0.004118094 0.025355747 0.0087358495
0001f0 b2 49 25 3d ad a3 88 3c d9 32 c2 3c 95 d0 55 bc
       0.040353484 0.01667961 0.023705887 -0.013050218
000200 cb bf 6a 3c a5 e2 92 bc f1 46 8b 3b 44 50 6b 3c
       0.014327954 -0.017930338 0.0042504002 0.014362399
000210 c8 15 83 3c b0 7a 4f 3c 38 41 11 3c 10 7b 93 3c
       0.016001597 0.012663528 0.008865647 0.018003017
000220 2a 97 04 3d cd 77 49 bc 01 8c 81 bc a0 68 a1 bc
       0.032370724 -0.012296629 -0.01581383 -0.01970321
000230 0b de 9f 3c 1f 63 47 3c a6 99 8b bc e5 6a 29 bc
       0.019515058 0.012169628 -0.017041039 -0.010340427
000240 5e ae 53 bc 1a b8 f9 bb 08 7d 62 bb f3 cc 2e bc
       -0.01291999 -0.0076208236 -0.0034559388 -0.010668981
000250 67 5b 5a 3a 15 e9 ac 3c 05 67 3f bc 39 25 da bc
       0.000832966 0.021107236 -0.011682277 -0.026629077
000260 83 08 9f bc 7a 07 df bb 68 82 c5 bb b7 41 55 bc
       -0.019413238 -0.006806311 -0.0060275085 -0.013016156
000270 9e dc 7c ba 01 9d 15 bd c6 bf 91 3c 6c bf 30 bd
       -0.00096459116 -0.036526684 0.01779164 -0.043151304
000280 d8 d6 a1 3c 6a c1 4a bb 0e 16 e3 bb 92 8d 70 bc
       0.019755766 -0.0030938038 -0.0069301194 -0.0146821905
000290 54 f5 8d bb 57 1c 75 3c d3 51 0f bd 2a 51 08 3a
       -0.004332224 0.01496037 -0.034990143 0.00052000827
0002a0 18 25 1c bc e6 79 7b bc 3b 78 8a 3c 19 cc 26 bc
       -0.009530328 -0.015348887 0.016903033 -0.010180497
0002b0 2e 91 f4 bb 0a fa b4 bc 46 e2 8f 3c 08 ec 95 bc
       -0.007463596 -0.022091884 0.01756395 -0.018301025
0002c0 bd 4d 9c 3c 93 c4 a9 3c e4 08 b7 3b 04 7a e5 3b
       0.019080037 0.020723617 0.0055857766 0.007003071
0002d0 56 48 83 3b 57 d9 71 3c fc 4b 32 bd d0 c4 bf bc
       0.004006426 0.0147612905 -0.043529496 -0.023409277
0002e0 18 29 f1 bb 3f 1a e4 3c 19 6c 13 bd 91 0e 25 3c
       -0.007359635 0.027844546 -0.03599176 0.010074274
0002f0 34 5e b5 3c 3c 90 de 3c 73 a6 f6 bc 14 15 09 3c
       0.022139646 0.027168386 -0.030108666 0.008366842
000300 f8 bf b0 bc 7e 80 75 bc e2 43 55 3b 50 0e dd bb
       -0.021575913 -0.014984248 0.0032541682 -0.006746091
000310 7b 6f 0c bc 77 0a a5 bc 24 de 06 bc 64 e4 5d 3b
       -0.008571501 -0.020146592 -0.008231673 0.0033858055
000320 ee 01 a2 bc e7 83 56 bc dd ba 01 bc db e8 83 3c
       -0.01977631 -0.013092971 -0.007918087 0.016102245
000330 b1 e5 40 bb 12 d0 3a bb 67 9e 7c bc cc 71 f3 3c
       -0.0029433782 -0.0028505367 -0.015418625 0.029717349
000340 53 d1 a1 bb c6 f6 57 3c 7b 5b 36 bb 9c d2 2a 3c
       -0.0049382835 0.013181394 -0.0027825523 0.01042619
000350 0b 67 be 3c ac 0a 8b bb 30 04 18 bc f3 70 6c bc
       0.023242494 -0.0042432155 -0.009278342 -0.014431226
000360 d6 ba 14 bd 1a 6d 40 3c 20 39 f4 3c 5a 9e aa bc
       -0.036310993 0.011744762 0.029812396 -0.020827461
000370 16 ce f5 bc fe 81 5b bc 7a 85 cd 3c 52 8e a0 3c
       -0.030005496 -0.013397692 0.02508806 0.019599114
000380 76 5e 44 b9 b5 d2 1a bd 80 0d 24 bc 61 bf 3b 3c
       -0.00018727206 -0.037798602 -0.010012984 0.0114592025
000390 21 f0 57 bc fa 33 1c bd d0 8f d7 3a 40 72 d5 bc
       -0.01317981 -0.038135506 0.0016446058 -0.026055455
0003a0 01 11 5c bc 40 ad f6 3c 06 ab 38 3c 53 fe d6 b9
       -0.013431788 0.030111909 0.011271244 -0.00041006747
0003b0 fd 27 ca 3c 8b 85 01 bc aa c2 d1 b9 80 18 a5 3b
       0.024677271 -0.007905374 -0.00040008622 0.005038321
0003c0 58 d0 0f bb f7 76 b1 3b e0 a8 fc 3b b2 25 8b 3b
       -0.002194425 0.005415793 0.007710561 0.004246437
0003d0 ce ff 14 3b e9 ea e1 3c 18 d6 2f 3b cb 0f 8e 3c
       0.002273548 0.027577834 0.002683049 0.017341515
0003e0 ca ba 1d 3c 27 ac b5 3b 6a 2c 4a 3c 09 e6 1b 3c
       0.0096270535 0.005544204 0.012339691 0.009515294
0003f0 95 ba d6 3b c4 68 01 3c 18 27 6e bc dd 10 25 3c
       0.006553004 0.007898513 -0.014535688 0.010074821

action_model._continuous_distribution.mu.bias f4 [2]
000000 45 39 8a 3b 64 4c 4a 3b
       0.004218253 0.0030868286

exp_avg f4 [128, 28]
000000 00 00 00 00 00 00 00 00 b6 f1 0f 35 d0 94 37 35
       0.0 0.0 5.3623387e-07 6.8389363e-07
000010 00 00 00 00 00 00 00 00 b6 f1 0f 35 77 4d 57 35
       0.0 0.0 5.3623387e-07 8.020647e-07
000020 00 00 00 00 00 00 00 00 b6 f1 0f 35 0e 02 31 35
       0.0 0.0 5.3623387e-07 6.594063e-07
000030 49 6b ca 36 00 00 00 00 47 09 aa 38 6b db a2 38
       6.0325588e-06 0.0 8.10796e-05 7.765632e-05
000040 00 00 00 00 00 00 00 00 b6 f1 0f 35 83 fc 31 35
       0.0 0.0 5.3623387e-07 6.630509e-07
000050 8c 1c a7 36 00 00 00 00 0c 26 ad 38 ab a6 ad 38
       4.980311e-06 0.0 8.2563696e-05 8.280327e-05
000060 00 00 00 00 00 00 00 00 b6 f1 0f 35 fa fa 3b 35
       0.0 0.0 5.3623387e-07 7.002815e-07
000070 00 00 00 00 00 00 00 00 c3 79 9f 35 50 88 8e 35
       0.0 0.0 1.188186e-06 1.0619497e-06
000080 00 00 00 00 00 00 00 00 c3 79 9f 35 25 06 81 35
       0.0 0.0 1.188186e-06 9.613037e-07
000090 00 00 00 00 00 00 00 00 c3 79 9f 35 2d 4c 91 35
       0.0 0.0 1.188186e-06 1.0825512e-06
0000a0 8a 1b 0c b7 00 00 00 00 0d 78 87 b8 0a bd 86 b8
       -8.351062e-06 0.0 -6.459663e-05 -6.424829e-05
0000b0 00 00 00 00 00 00 00 00 c3 79 9f 35 cb e0 90 35
       0.0 0.0 1.188186e-06 1.0794259e-06
0000c0 f7 33 ad b6 00 00 00 00 bd 3f 93 b8 d5 01 89 b8
       -5.1618513e-06 0.0 -7.0213784e-05 -6.53301e-05
0000d0 00 00 00 00 00 00 00 00 c3 79 9f 35 d1 97 8c 35
       0.0 0.0 1.188186e-06 1.0474997e-06
0000e0 00 00 00 00 00 00 00 00 bb c9 c1 b5 94 1d b2 b5
       0.0 0.0 -1.4438332e-06 -1.3270642e-06
0000f0 00 00 00 00 00 00 00 00 bb c9 c1 b5 48 9d a5 b5
       0.0 0.0 -1.4438332e-06 -1.2339233e-06
000100 00 00 00 00 00 00 00 00 bb c9 c1 b5 91 b0 b4 b5
       0.0 0.0 -1.4438332e-06 -1.3462433e-06
000110 97 63 8a 36 00 00 00 00 fc 8a 81 38 1d 8f 7e 38
       4.1243143e-06 0.0 6.177087e-05 6.0691604e-05
000120 00 00 00 00 00 00 00 00 bb c9 c1 b5 5f 4d b4 b5
       0.0 0.0 -1.4438332e-06 -1.3433563e-06
000130 8b 2c 22 36 00 00 00 00 17 3d 88 38 28 4f 83 38
       2.4165809e-06 0.0 6.496364e-05 6.261311e-05
000140 00 00 00 00 00 00 00 00 bb c9 c1 b5 d7 57 b0 b5
       0.0 0.0 -1.4438332e-06 -1.3138587e-06
000150 00 00 00 00 00 00 00 00 6d 8c 40 35 c2 75 51 35
       0.0 0.0 7.172992e-07 7.802993e-07
000160 00 00 00 00 00 00 00 00 6d 8c 40 35 10 03 5f 35
       0.0 0.0 7.172992e-07 8.307843e-07
000170 00 00 00 00 00 00 00 00 6d 8c 40 35 68 a3 4e 35
       0.0 0.0 7.172992e-07 7.697877e-07
000180 ca d7 95 35 00 00 00 00 18 8f 14 38 52 8d 0c 38
       1.1164168e-06 0.0 3.5419216e-05 3.3510216e-05
000190 00 00 00 00 00 00 00 00 6d 8c 40 35 25 0e 4f 35
       0.0 0.0 7.172992e-07 7.713409e-07
0001a0 af c2 a2 35 00 00 00 00 75 fc 0f 38 9c c6 16 38
       1.2126601e-06 0.0 3.4328976e-05 3.5947756e-05
0001b0 00 00 00 00 00 00 00 00 6d 8c 40 35 8a 50 53 35
       0.0 0.0 7.172992e-07 7.8720825e-07
0001c0 00 00 00 00 00 00 00 00 44 b8 00 b4 ea fc 8d b4
       0.0 0.0 -1.1987964e-07 -2.6447316e-07
0001d0 00 00 00 00 00 00 00 00 44 b8 00 b4 82 10 cc b4
       0.0 0.0 -1.1987964e-07 -3.8009972e-07
0001e0 00 00 00 00 00 00 00 00 44 b8 00 b4 18 2f 81 b4
       0.0 0.0 -1.1987964e-07 -2.4062388e-07
0001f0 0e 27 05 b7 00 00 00 00 cf 38 a0 b8 14 49 9b b8
       -7.936511e-06 0.0 -7.639976e-05 -7.404588e-05
000200 00 00 00 00 00 00 00 00 44 b8 00 b4 1b 1a 83 b4
       0.0 0.0 -1.1987964e-07 -2.4419646e-07
000210 9d 92 c5 b6 00 00 00 00 85 8b a3 b8 38 89 a3 b8
       -5.8881255e-06 0.0 -7.798433e-05 -7.798005e-05
000220 00 00 00 00 00 00 00 00 44 b8 00 b4 f9 b1 96 b4
       0.0 0.0 -1.1987964e-07 -2.806917e-07
000230 00 00 00 00 00 00 00 00 34 04 82 31 89 a0 0d b0
       0.0 0.0 3.783976e-09 -5.1523635e-10
000240 00 00 00 00 00 00 00 00 34 04 82 31 a7 77 85 b1
       0.0 0.0 3.783976e-09 -3.8844123e-09
000250 00 00 00 00 00 00 00 00 34 04 82 31 de eb 57 2f
       0.0 0.0 3.783976e-09 1.9637933e-10
000260 7a 43 1f b4 00 00 00 00 87 6d 57 b6 19 d5 41 b6
       -1.4832577e-07 0.0 -3.210125e-06 -2.888328e-06
000270 00 00 00 00 00 00 00 00 34 04 82 31 6e 86 c6 2e
       0.0 0.0 3.783976e-09 9.027877e-11
000280 5d d0 02 b4 00 00 00 00 f5 fd 6d b6 cc a4 4e b6
       -1.2182996e-07 0.0 -3.5463574e-06 -3.0792316e-06
000290 00 00 00 00 00 00 00 00 34 04 82 31 95 a3 88 b0
       0.0 0.0 3.783976e-09 -9.941795e-10
0002a0 00 00 00 00 00 00 00 00 5f 59 1a b6 49 57 1b b6
       0.0 0.0 -2.299981e-06 -2.3147606e-06
0002b0 00 00 00 00 00 00 00 00 5f 59 1a b6 35 2d 1c b6
       0.0 0.0 -2.299981e-06 -2.3272125e-06
0002c0 00 00 00 00 00 00 00 00 5f 59 1a b6 95 28 1b b6
       0.0 0.0 -2.299981e-06 -2.3120422e-06
0002d0 a9 34 35 36 00 00 00 00 b6 fa dc b6 25 18 d2 b6
       2.7001754e-06 0.0 -6.5856975e-06 -6.2612985e-06
0002e0 00 00 00 00 00 00 00 00 5f 59 1a b6 bd 2e 1b b6
       0.0 0.0 -2.299981e-06 -2.3124005e-06
0002f0 ed 00 00 35 00 00 00 00 26 a0 a2 b5 1d a6 09 b7
       4.7685063e-07 0.0 -1.211655e-06 -8.204513e-06
000300 00 00 00 00 00 00 00 00 5f 59 1a b6 6a 6d 1b b6
       0.0 0.0 -2.299981e-06 -2.3160487e-06
000310 00 00 00 00 00 00 00 00 ef ae 72 b4 30 d4 5f b4
       0.0 0.0 -2.2601647e-07 -2.0845687e-07
000320 00 00 00 00 00 00 00 00 ef ae 72 b4 1f ea 50 b4
       0.0 0.0 -2.2601647e-07 -1.9456682e-07
000330 00 00 00 00 00 00 00 00 ef ae 72 b4 2a e3 62 b4
       0.0 0.0 -2.2601647e-07 -2.1130532e-07
000340 4f e7 35 36 00 00 00 00 5e e3 29 37 7d 0a 1a 37
       2.710574e-06 0.0 1.0126123e-05 9.181557e-06
000350 00 00 00 00 00 00 00 00 ef ae 72 b4 95 6b 62 b4
       0.0 0.0 -2.2601647e-07 -2.1087028e-07
000360 ab e2 1d 36 00 00 00 00 29 81 21 37 0e 6a 15 37
       2.3526761e-06 0.0 9.62642e-06 8.905785e-06
000370 00 00 00 00 00 00 00 00 ef ae 72 b4 7e a5 5d b4
       0.0 0.0 -2.2601647e-07 -2.0642435e-07
000380 00 00 00 00 00 00 00 00 02 eb dc b4 95 77 b9 b4
       0.0 0.0 -4.1149184e-07 -3.4545943e-07
000390 00 00 00 00 00 00 00 00 02 eb dc b4 56 33 9d b4
       0.0 0.0 -4.1149184e-07 -2.928088e-07
0003a0 00 00 00 00 00 00 00 00 02 eb dc b4 d7 4b bf b4
       0.0 0.0 -4.1149184e-07 -3.5631703e-07
0003b0 ca 6d 18 36 00 00 00 00 f0 dd 19 38 ef eb 14 38
       2.271367e-06 0.0 3.6684738e-05 3.550568e-05
0003c0 00 00 00 00 00 00 00 00 02 eb dc b4 7c 6b be b4
       0.0 0.0 -4.1149184e-07 -3.5468463e-07
0003d0 98 37 f2 35 00 00 00 00 8a 80 22 38 0c ac 1b 38
       1.8046585e-06 0.0 3.874352e-05 3.711511e-05
0003e0 00 00 00 00 00 00 00 00 02 eb dc b4 6f 77 b5 b4
       0.0 0.0 -4.1149184e-07 -3.3800777e-07
0003f0 00 00 00 00 00 00 00 00 b1 34 0a b5 1a d9 08 b5
       0.0 0.0 -5.148568e-07 -5.097987e-07

exp_avg_sq f4 [128, 28]
000000 00 00 00 00 00 00 00 00 57 c3 55 2a 5b 2f 53 2a
       0.0 0.0 1.8985972e-13 1.8756994e-13
000010 00 00 00 00 00 00 00 00 57 c3 55 2a 6e 83 54 2a
       0.0 0.0 1.8985972e-13 1.8874981e-13
000020 00 00 00 00 00 00 00 00 57 c3 55 2a 2c 47 53 2a
       0.0 0.0 1.8985972e-13 1.8765257e-13
000030 9a 50 46 2c 00 00 00 00 97 c4 0a 30 81 eb 10 30
       2.8182235e-12 0.0 5.048348e-10 5.2721566e-10
000040 00 00 00 00 00 00 00 00 57 c3 55 2a 1d 41 53 2a
       0.0 0.0 1.8985972e-13 1.8763155e-13
000050 f7 0b 7f 2c 00 00 00 00 2a 84 12 30 be d4 18 30
       3.6244321e-12 0.0 5.3302307e-10 5.55996e-10
000060 00 00 00 00 00 00 00 00 57 c3 55 2a 94 2d 53 2a
       0.0 0.0 1.8985972e-13 1.8756378e-13
000070 00 00 00 00 00 00 00 00 d3 30 83 2b d4 a6 82 2b
       0.0 0.0 9.321661e-13 9.28336e-13
000080 00 00 00 00 00 00 00 00 d3 30 83 2b 21 cc 82 2b
       0.0 0.0 9.321661e-13 9.293713e-13
000090 00 00 00 00 00 00 00 00 d3 30 83 2b 57 af 82 2b
       0.0 0.0 9.321661e-13 9.285722e-13
0000a0 64 94 8d 2d 00 00 00 00 89 09 48 30 e7 c7 59 30
       1.6095743e-11 0.0 7.2773126e-10 7.922822e-10
0000b0 00 00 00 00 00 00 00 00 d3 30 83 2b af ad 82 2b
       0.0 0.0 9.321661e-13 9.285262e-13
0000c0 ba 61 12 2d 00 00 00 00 66 64 70 30 84 bf 6c 30
       8.320839e-12 0.0 8.7454166e-10 8.612846e-10
0000d0 00 00 00 00 00 00 00 00 d3 30 83 2b 15 a4 82 2b
       0.0 0.0 9.321661e-13 9.282597e-13
0000e0 00 00 00 00 00 00 00 00 a3 b7 c1 2b 41 9e c1 2b
       0.0 0.0 1.3764444e-12 1.3757399e-12
0000f0 00 00 00 00 00 00 00 00 a3 b7 c1 2b ae dc c1 2b
       0.0 0.0 1.3764444e-12 1.3774726e-12
000100 00 00 00 00 00 00 00 00 a3 b7 c1 2b 7c 9a c1 2b
       0.0 0.0 1.3764444e-12 1.3756353e-12
000110 8a 61 ad 2c 00 00 00 00 1c 15 ed 2f 1e 6c f9 2f
       4.9277847e-12 0.0 4.3125048e-10 4.5369658e-10
000120 00 00 00 00 00 00 00 00 a3 b7 c1 2b dc 9a c1 2b
       0.0 0.0 1.3764444e-12 1.3756457e-12
000130 f8 ad 21 2c 00 00 00 00 2a 15 0e 30 3c 1d 0b 30
       2.2976048e-12 0.0 5.1689375e-10 5.060945e-10
000140 00 00 00 00 00 00 00 00 a3 b7 c1 2b b0 a2 c1 2b
       0.0 0.0 1.3764444e-12 1.375863e-12
000150 00 00 00 00 00 00 00 00 46 3f bf 2a 13 ec bd 2a
       0.0 0.0 3.397232e-13 3.3736954e-13
000160 00 00 00 00 00 00 00 00 46 3f bf 2a 30 57 bd 2a
       0.0 0.0 3.397232e-13 3.3633643e-13
000170 00 00 00 00 00 00 00 00 46 3f bf 2a 85 17 be 2a
       0.0 0.0 3.397232e-13 3.37671e-13
000180 0d e2 27 2a 00 00 00 00 0e a9 0f 2f af 03 1a 2f
       1.4911007e-13 0.0 1.3065835e-10 1.4007527e-10
000190 00 00 00 00 00 00 00 00 46 3f bf 2a 8f 10 be 2a
       0.0 0.0 3.397232e-13 3.376227e-13
0001a0 ab 2c a2 2a 00 00 00 00 78 73 14 2f 68 aa 1e 2f
       2.8807975e-13 0.0 1.3501544e-10 1.4430557e-10
0001b0 00 00 00 00 00 00 00 00 46 3f bf 2a 96 cf bd 2a
       0.0 0.0 3.397232e-13 3.3717186e-13
0001c0 00 00 00 00 00 00 00 00 c8 ef 2a 28 b7 4d 41 28
       0.0 0.0 9.48889e-15 1.0730504e-14
0001d0 00 00 00 00 00 00 00 00 c8 ef 2a 28 f3 f4 7b 28
       0.0 0.0 9.48889e-15 1.3986414e-14
0001e0 00 00 00 00 00 00 00 00 c8 ef 2a 28 38 bd 39 28
       0.0 0.0 9.48889e-15 1.0310593e-14
0001f0 ce 9b c9 2c 00 00 00 00 e4 c0 ec 2f 23 fb eb 2f
       5.7300614e-12 0.0 4.3065207e-10 4.2924694e-10
000200 00 00 00 00 00 00 00 00 c8 ef 2a 28 f8 c6 3a 28
       0.0 0.0 9.48889e-15 1.0368219e-14
000210 7b c1 d9 2c 00 00 00 00 91 04 ee 2f 78 98 f5 2f
       6.1889916e-12 0.0 4.3295192e-10 4.4673576e-10
000220 00 00 00 00 00 00 00 00 c8 ef 2a 28 e3 5c 47 28
       0.0 0.0 9.48889e-15 1.1066861e-14
000230 00 00 00 00 00 00 00 00 d1 65 2e 23 0e b6 55 23
       0.0 0.0 9.454119e-18 1.1585305e-17
000240 00 00 00 00 00 00 00 00 d1 65 2e 23 a3 0f 9f 23
       0.0 0.0 9.454119e-18 1.7245437e-17
000250 00 00 00 00 00 00 00 00 d1 65 2e 23 56 41 48 23
       0.0 0.0 9.454119e-18 1.0855857e-17
000260 24 fb cd 28 00 00 00 00 dd 50 3c 2b 19 18 3e 2b
       2.2868487e-14 0.0 6.690324e-13 6.7535e-13
000270 00 00 00 00 00 00 00 00 d1 65 2e 23 88 1d 4a 23
       0.0 0.0 9.454119e-18 1.09566954e-17
000280 43 85 33 28 00 00 00 00 a0 57 8e 2b e5 30 74 2b
       9.965393e-15 0.0 1.0114028e-12 8.675407e-13
000290 00 00 00 00 00 00 00 00 d1 65 2e 23 eb ba 60 23
       0.0 0.0 9.454119e-18 1.2182646e-17
0002a0 00 00 00 00 00 00 00 00 93 c8 75 2c 5e 5d 74 2c
       0.0 0.0 3.4927935e-12 3.4726315e-12
0002b0 00 00 00 00 00 00 00 00 93 c8 75 2c fb 7f 73 2c
       0.0 0.0 3.4927935e-12 3.460342e-12
0002c0 00 00 00 00 00 00 00 00 93 c8 75 2c 0c 92 74 2c
       0.0 0.0 3.4927935e-12 3.4755558e-12
0002d0 75 94 a6 2c 00 00 00 00 c6 46 16 30 21 32 31 30
       4.734486e-12 0.0 5.4670257e-10 6.446346e-10
0002e0 00 00 00 00 00 00 00 00 93 c8 75 2c e2 89 74 2c
       0.0 0.0 3.4927935e-12 3.4751026e-12
0002f0 34 e8 d0 2b 00 00 00 00 cd 12 2e 30 75 68 34 30
       1.4843738e-12 0.0 6.332755e-10 6.563206e-10
000300 00 00 00 00 00 00 00 00 93 c8 75 2c ec 39 74 2c
       0.0 0.0 3.4927935e-12 3.4706639e-12
000310 00 00 00 00 00 00 00 00 00 e7 17 29 17 ad 16 29
       0.0 0.0 3.3729096e-14 3.3456822e-14
000320 00 00 00 00 00 00 00 00 00 e7 17 29 cb fe 15 29
       0.0 0.0 3.3729096e-14 3.3305644e-14
000330 00 00 00 00 00 00 00 00 00 e7 17 29 0f d9 16 29
       0.0 0.0 3.3729096e-14 3.349496e-14
000340 08 1e bb 2b 00 00 00 00 d0 ce 60 2d a6 0d 64 2d
       1.3295485e-12 0.0 1.2778847e-11 1.296333e-11
000350 00 00 00 00 00 00 00 00 00 e7 17 29 3b d2 16 29
       0.0 0.0 3.3729096e-14 3.3489037e-14
000360 5d 58 6d 2b 00 00 00 00 f3 44 7e 2d 40 8f 77 2d
       8.4321943e-13 0.0 1.4453538e-11 1.4072132e-11
000370 00 00 00 00 00 00 00 00 00 e7 17 29 11 90 16 29
       0.0 0.0 3.3729096e-14 3.343165e-14
000380 00 00 00 00 00 00 00 00 13 c1 fb 29 51 81 fc 29
       0.0 0.0 1.1180132e-13 1.1213481e-13
000390 00 00 00 00 00 00 00 00 13 c1 fb 29 f4 25 fe 29
       0.0 0.0 1.1180132e-13 1.128645e-13
0003a0 00 00 00 00 00 00 00 00 13 c1 fb 29 6e 48 fc 29
       0.0 0.0 1.1180132e-13 1.12036126e-13
0003b0 dc 25 85 2b 00 00 00 00 01 00 cc 2e 1c f8 ce 2e
       9.460726e-13 0.0 9.2768467e-11 9.4118685e-11
0003c0 00 00 00 00 00 00 00 00 13 c1 fb 29 65 50 fc 29
       0.0 0.0 1.1180132e-13 1.1204994e-13
0003d0 a9 59 36 2b 00 00 00 00 3a 2b f2 2e 06 d2 eb 2e
       6.478382e-13 0.0 1.10125645e-10 1.07238704e-10
0003e0 00 00 00 00 00 00 00 00 13 c1 fb 29 8e ae fc 29
       0.0 0.0 1.1180132e-13 1.12213285e-13
0003f0 00 00 00 00 00 00 00 00 38 0f 45 2a 9d ed 44 2a
       0.0 0.0 1.7502395e-13 1.7490736e-13

exp_avg f4 [128]
000000 ed 42 a3 38 46 8f 88 b8 b0 d5 7a 38 99 2e 0d 38
       7.7849116e-05 -6.511672e-05 5.9803657e-05 3.3660417e-05
000010 da 31 9f b8 bb e1 16 b6 98 97 25 b7 c7 2a 17 37
       -7.5909964e-05 -2.2483134e-06 -9.870062e-06 9.010261e-06
000020 b9 87 0f 38 46 91 10 36 60 94 f2 37 a0 89 89 38
       3.422026e-05 2.1542232e-06 2.891774e-05 6.558304e-05
000030 6e a1 18 b8 95 73 a8 37 a2 cb 70 38 c1 8a c5 b7
       -3.6389967e-05 2.0080983e-05 5.7410107e-05 -2.3548842e-05
000040 c9 bd c1 b6 3e cd c0 37 0d 10 21 b8 c6 75 a2 b7
       -5.773942e-06 2.2983757e-05 -3.840034e-05 -1.9366747e-05
000050 7a 1f 6b b7 69 17 9f b6 92 93 37 b7 f7 53 eb 37
       -1.401442e-05 -4.7412946e-06 -1.0942009e-05 2.8053282e-05
000060 af c0 82 b8 03 6a 49 37 3c c2 72 37 54 81 41 b7
       -6.234773e-05 1.2005216e-05 1.4469548e-05 -1.1533808e-05
000070 18 42 a4 b8 cf 51 8f 38 c3 c7 24 38 2d 94 3d b7
       -7.83244e-05 6.8340094e-05 3.928669e-05 -1.1299778e-05
000080 e6 b6 ab b7 3b ec 91 37 c2 a5 27 b7 50 c3 3f b7
       -2.0469957e-05 1.739535e-05 -9.992569e-06 -1.1429962e-05
000090 e3 df 47 b8 f0 0a 37 b6 50 8f 97 37 63 f1 ad b6
       -4.7653808e-05 -2.7275491e-06 1.8067338e-05 -5.183903e-06
0000a0 0a 4c 90 b8 7f 8d ea 37 aa da 1a 37 07 4a e1 37
       -6.8806185e-05 2.7960863e-05 9.230027e-06 2.6856562e-05
0000b0 a0 e3 19 38 fe 55 b0 b5 5d 61 66 b7 47 6d 30 37
       3.6690035e-05 -1.3138049e-06 -1.3731737e-05 1.0515861e-05
0000c0 60 5f f2 37 db 4b 6e b6 b6 15 21 38 10 f3 50 b8
       2.889306e-05 -3.5508917e-06 3.840561e-05 -4.9817434e-05
0000d0 b6 b0 f3 b7 98 df 64 38 91 0b 10 37 55 cb d5 34
       -2.9050145e-05 5.4567674e-05 8.585762e-06 3.9822285e-07
0000e0 85 57 4b b6 65 fc 93 b6 e2 2c df b6 a9 6e 89 b8
       -3.03003e-06 -4.410324e-06 -6.651143e-06 -6.553281e-05
0000f0 7c 0b 19 38 ba 16 f5 b8 e9 fb d3 b7 68 82 3a 37
       3.648874e-05 -0.000116867435 -2.5270465e-05 1.11168265e-05
000100 a7 ba f4 b7 88 84 3c b6 ac 33 c6 37 76 f1 0e 37
       -2.9173983e-05 -2.8091326e-06 2.3627501e-05 8.520079e-06
000110 ea 8c 5d b6 0f 56 aa 38 45 3b 2e b8 ba 3a a5 b7
       -3.301359e-06 8.122261e-05 -4.154003e-05 -1.969688e-05
000120 ba 4a cb 37 58 69 5b 38 88 f2 77 38 a9 69 ef 37
       2.4234283e-05 5.2311778e-05 5.9115264e-05 2.8540222e-05
000130 8c 57 9e 37 f0 9e 62 b7 ba f1 b0 37 91 4d c5 37
       1.8875835e-05 -1.3507655e-05 2.1093398e-05 2.352035e-05
000140 f4 23 20 b5 63 f1 7a 38 75 dd 71 38 7f 03 53 b7
       -5.9656963e-07 5.9829454e-05 5.7665125e-05 -1.2577394e-05
000150 f0 2e 1c b7 ad 55 10 38 f6 9d 18 38 2c e6 3c 37
       -9.309253e-06 3.4412067e-05 3.6386737e-05 1.1259264e-05
000160 c5 09 b4 b8 85 bb a5 36 39 66 6d b8 2f 16 d2 35
       -8.5848886e-05 4.9392133e-06 -5.6600406e-05 1.5652676e-06
000170 bf 7e de b7 44 8d 78 37 9f 8b c4 b7 ec bf 7b 36
       -2.6523483e-05 1.4814843e-05 -2.3430037e-05 3.7513628e-06
000180 c8 f4 ab 36 1e 79 b7 37 0c f9 bd b4 f2 f2 1a b8
       5.1246934e-06 2.18717e-05 -3.53852e-07 -3.694272e-05
000190 c1 4f 9e b8 91 23 ba b8 24 ab f1 b8 c6 e3 01 b8
       -7.5488824e-05 -8.875796e-05 -0.00011523653 -3.0968127e-05
0001a0 f1 50 a1 37 f7 7a fb 36 de 00 69 36 28 d8 58 b8
       1.9230387e-05 7.494698e-06 3.472021e-06 -5.1699724e-05
0001b0 13 f4 df 36 a7 bc 26 38 5e de 63 b6 0c d5 90 b8
       6.674332e-06 3.975318e-05 -3.395507e-06 -6.906138e-05
0001c0 13 95 9a 38 25 83 8f b7 92 9c 36 37 27 43 b2 b7
       7.3710595e-05 -1.7107997e-05 1.08845e-05 -2.1250524e-05
0001d0 cc 29 ef b6 d8 78 9c b8 30 1c fe 38 e3 1f 77 b8
       -7.127621e-06 -7.4611686e-05 0.00012116914 -5.8919086e-05
0001e0 bf 29 ab b8 6c 70 6a b8 7b 46 5a 37 b3 ec a4 b7
       -8.161691e-05 -5.589465e-05 1.3010223e-05 -1.9660545e-05
0001f0 c8 73 83 37 ab ac ed 36 4f 24 7a b8 cb 0e a6 b8
       1.5670332e-05 7.0832516e-06 -5.963846e-05 -7.918252e-05

exp_avg_sq f4 [128]
000000 32 f7 1c 30 a1 d9 56 30 f6 f2 f1 2f 98 76 30 2f
       5.7103755e-10 7.8162016e-10 4.401028e-10 1.604924e-10
000010 06 b3 ec 2f 58 d0 57 2b a4 1c 48 30 32 b4 5e 2d
       4.3055354e-10 7.667248e-13 7.2800277e-10 1.265925e-11
000020 a0 7f c2 2e fd 33 92 2c 1f ed 32 2f 00 12 97 2f
       8.8447694e-11 4.1553414e-12 1.6273248e-10 2.747953e-10
000030 94 e0 d3 2e 61 43 22 2e 54 2f 88 2f 7b ce 23 30
       9.635062e-11 3.689438e-11 2.4771885e-10 5.959248e-10
000040 3b ad 89 2e c5 3b 6d 2e 09 02 38 2f a8 2c d9 2e
       6.2608106e-11 5.3940647e-11 1.6735426e-10 9.87595e-11
000050 ee 9d de 2d 27 23 3a 2c 8f 17 08 2f 34 1b 4b 2e
       2.5308613e-11 2.6451703e-12 1.2377498e-10 4.6181017e-11
000060 52 e5 06 30 5e c7 67 2d b5 fd d4 2e a6 4a 2c 2d
       4.90748e-10 1.3175098e-11 9.685711e-11 9.793643e-12
000070 e8 3e ed 2f 6f a0 d8 2f ab 21 11 2f 31 8d f1 2e
       4.3154746e-10 3.9404166e-10 1.3199634e-10 1.0984492e-10
000080 a6 22 5c 2e 67 52 01 2e 5f b9 1b 2d cd 8a 6d 2e
       5.0052983e-11 2.9404392e-11 8.851891e-12 5.401084e-11
000090 98 37 97 2f 16 82 cb 2e 9f b3 78 2e bf 0d 5e 2f
       2.7506242e-10 9.254479e-11 5.6548207e-11 2.0195666e-10
0000a0 c3 6d be 2f 72 24 d8 2e 19 a7 8c 2d 75 83 95 2e
       3.463879e-10 9.829017e-11 1.5990364e-11 6.799087e-11
0000b0 43 91 f0 2e 4a 13 d3 2d 0b 38 ae 2d 8a 6a 7e 30
       1.093974e-10 2.3996489e-11 1.9806398e-11 9.2556063e-10
0000c0 58 a5 93 2e b3 24 f2 2d e8 48 00 2f 29 bf 4f 2f
       6.714157e-11 2.7528512e-11 1.1667434e-10 1.8894454e-10
0000d0 1b cf cc 2e 15 3f dd 2f 1a b6 7a 2d 3a 73 c9 2e
       9.313635e-11 4.0244488e-10 1.4251289e-11 9.16089e-11
0000e0 08 ec 92 2f f2 7f ca 2d 76 9f 94 2d 03 6c be 2f
       2.6724956e-10 2.302156e-11 1.6896467e-11 3.4637546e-10
0000f0 23 ff 6a 2f db 4b c9 30 fe 8e 5d 2e b3 ef 74 2d
       2.1372819e-10 1.4646234e-09 5.0376585e-11 1.3923018e-11
000100 ca 64 44 2f cb fb 14 2f fa a4 20 2e 9f cd 1f 2f
       1.7861904e-10 1.3549976e-10 3.6526317e-11 1.4534017e-10
000110 0c e4 3e 2c d9 6c f8 2f 59 26 25 2f 22 14 3c 2e
       2.7127215e-12 4.5188278e-10 1.5020286e-10 4.2764133e-11
000120 b8 f3 d0 2e f2 5f c4 2f 5f 10 90 2f 17 42 cd 2e
       9.502038e-11 3.5720366e-10 2.620508e-10 9.3340606e-11
000130 fe 80 2b 2f 89 50 45 2e 70 11 6a 2e 57 ac 4c 2f
       1.5598187e-10 4.4864144e-11 5.3220928e-11 1.861492e-10
000140 ba 6f 38 2d c5 16 96 2f 95 a4 88 2f f1 14 1c 2f
       1.0483997e-11 2.730102e-10 2.4855198e-10 1.4195557e-10
000150 28 bd 23 2e d3 29 a2 2f c7 3e 20 2f 5c 10 8a 2d
       3.7229914e-11 2.9497346e-10 1.4574218e-10 1.5696049e-11
000160 a7 45 23 30 66 9c ba 2d 92 35 c5 2f 7b 58 ea 2c
       5.9398036e-10 2.1215207e-11 3.5872155e-10 6.6605033e-12
000170 67 28 a6 2f fc d4 ed 2d 59 ea 05 2f 2f 50 8d 2d
       3.0223932e-10 2.7038365e-11 1.2179537e-10 1.6065453e-11
000180 a0 94 a7 2c 5d 0e 8d 2e 69 cf 0f 2e bb 54 e2 2e
       4.762926e-12 6.414489e-11 3.2698653e-11 1.0292341e-10
000190 1b 40 eb 2f ef 80 37 30 3a a2 8d 30 17 34 b3 2e
       4.27918e-10 6.675824e-10 1.0305208e-09 8.1492306e-11
0001a0 50 83 97 2e d6 f4 57 2d 2e 1b 25 2e 5e 41 8e 2f
       6.890011e-11 1.22756996e-11 3.7540797e-11 2.5876096e-10
0001b0 ca 40 35 2d 33 c1 22 2f f3 65 81 2d 83 db 4d 30
       1.0303045e-11 1.4802452e-10 1.4710877e-11 7.489051e-10
0001c0 9f 1f e2 2f 2a f7 ce 2d 23 9a b6 2d d2 04 3d 2f
       4.113163e-10 2.3529251e-11 2.0759455e-11 1.7191162e-10
0001d0 f4 96 cf 2c 13 0b 03 30 e2 65 88 30 80 9f 96 2f
       5.900053e-12 4.767326e-10 9.924259e-10 2.7398173e-10
0001e0 58 db 07 30 2e 84 cd 2f 5b dd ea 2d 53 8c ad 2f
       4.942442e-10 3.7383202e-10 2.6701022e-11 3.1568223e-10
0001f0 88 58 a6 2d 9f 88 31 2d ba 3c 9a 2f c9 af 0a 30
       1.891133e-11 1.0091621e-11 2.8055586e-10 5.0453913e-10
