IAV_FINAL/results/results/SheepsRedo3/Sheeps/Sheeps-14532.onnx (onnx, 33382 bytes, 5 tensors)

action_model._continuous_distribution.log_sigma f4 [1, 2]
00000000: 58da dd3b cea7 42bb
0.0067704134 -0.002970207

action_model._continuous_distribution.mu.bias f4 [2]
00000000: 2743 13bb cf3f d73a
-0.0022470446 0.0016422215

action_model._continuous_distribution.mu.weight f4 [2, 256]
00000000: 33a9 e33c bab6 6a3c b947 913c 94d8 61bc
00000010: db73 0bbc 8842 fcbb 7134 81bc b516 f6bc
00000020: 337e 5aba 1685 71bc 82c1 173c b585 d8bc
00000030: 0e29 343c 95d2 20bc 9881 383c e264 c2bc
00000040: fe41 3a3c 8676 943c 553a 933c 9cfb 8dbc
00000050: b411 bfbb 5126 8db9 8d2c 70bc 3e9f 783b
00000060: 628e 94bc d1b6 423c 5e0b 16bc 596a 883c
00000070: dcc0 b4bc 559f b03b 0025 963b 5066 01bc
00000080: 08d9 ce3b 5d7d 3d3b 472f 38bc c3b4 da3c
00000090: 59ed a23c 6ac0 f63b 8733 7abb 3ca8 c83c
000000a0: daa3 6e3b 3198 cbbb 781c 2c3c cc3e 8fbb
000000b0: c988 653c a0c2 d3ba 63ea d6bb 887a 23bc
000000c0: 98e6 86bc 8968 d2bb 3479 9bbb 65b0 383c
000000d0: d2f9 26ba 8324 98bc d7d7 1d3c e744 b6bb
000000e0: 34c4 e33b 0176 65bc c028 653c efa3 9d3c
000000f0: 5d27 973c 02ac 33ba 611f cc3b 9a69 e9ba
00000100: 5977 123c b90a a93c 5a25 013c 59cf 093c
00000110: bb07 063d 30c5 85bc 6be8 49bc 683e 3e3b
00000120: 077b 813b 524b 22bc b523 203c 6804 6bbb
00000130: ee06 09bd 4ada acbc c188 dd3b e21c 0fbc
00000140: a5aa 6c3c 3141 8ebc 017f 0a3c e79a cd3b
00000150: f069 5f3c f739 2dba b5ba 0ebc c62a e2bb
00000160: 2236 7d3a c35d 9a3c 5f13 1b3c c188 e43c
00000170: c63d 003d fd4d bfb9 bae9 fd3c 6fbc 0e3c
00000180: 6be8 c239 9d61 413c 15d4 24bb e33b d63a
00000190: 01ce 463c 83ec a0bb 77dc fcb9 dfd7 0fbc
000001a0: 1d07 60bb dd67 ccbc a1d8 ffb9 a407 d13a
000001b0: c73f 8fbb f7f5 2aba b535 813a 5dc6 a13b
000001c0: 786c 54ba 7221 363c d848 f13b 0a68 c2ba
000001d0: f90d 99bb c757 543b f1e4 1dbb 5e59 373c
000001e0: c63c 5bbc 1b3e 9bbb 9bc2 323c 0cda aa39
000001f0: 028b ddbc 86ea 3ebb 115a 37bc 8640 033c
00000200: 1d5a 92bb 1bf3 623c e27c 89bb 84de 68bc
00000210: 7f6e 4c3c 58fe e03a 5969 f0bb e742 fd3b
00000220: cf65 cfbb fd20 fabb 5b86 a2ba 3706 b13c
00000230: c52f efbb bcec 4e3c c126 d2bc c0af 9d3c
00000240: 4e39 b2bb ba58 233c b41e 473b 27c3 76bc
00000250: bc9c 023c 2366 a8bc c21c 4ebc ada7 24bc
00000260: a3b4 d23b 698c 433b f891 45bc b5f0 0abc
00000270: efa1 8abb 7a9d a2bc 5815 983c 6b9a 953b
00000280: 808c a83b 1c79 913c 63d8 05bc e564 3bbc
00000290: b57a 473b 95c4 b33b cb93 09bd 1154 423c
000002a0: 1929 893c 2776 933b cc0e 17bc 475d 86ba
000002b0: 88d2 09bc c1bf 7cbc 0a05 9d3c e839 3e3c
000002c0: f365 8bbc 071d b4b9 97b2 6a3c 087e 4dbb
000002d0: 1374 26bc 7042 a13b b449 3dbc dc84 96bc
000002e0: 0941 adbb 2a34 02bc 3f82 543c 81be bbbc
000002f0: 17a9 263c 435d fa3c 63d2 58bb 19f0 98bc
00000300: 2e38 a0bb a02a 0bbb 8c6d 19bc 943e 27bc
00000310: 70a4 89bc 4bfa ad3b 0d7b 03bc f606 1a3b
00000320: da1e 5fbc 96c6 49bc 03ab 24bb e2ef 6ebb
00000330: d989 efbc 5208 0fbb dfb7 683c d7a8 b13b
00000340: 59ca c5bc 6bb4 1cbc ac18 823b 8138 3ebb
00000350: 9a14 9a3c c7d1 a4bc dd92 adbc 9097 93bb
00000360: 4547 d63b b435 423c b164 89bb c8ee 863a
00000370: 1ba2 9d3c ac0c 0abc 7762 903b f2c6 aabc
00000380: 9bfe 8439 ca20 e6bb 0508 c03c 6dbd d6bc
00000390: 1603 a1bc 92e4 bc3b cbd9 503b cb74 8b3b
000003a0: 8d1b 103b 4a61 283c 3f20 a93b 5105 d6bc
000003b0: c081 03bc afd7 e2bb 7cb8 143b 3502 d3bc
000003c0: d47d 933c 4c08 bd3a d7ed 033b 43fe dbbb
000003d0: 460f 52bc cb43 2abb f743 edbc 0213 06bc
000003e0: 0ecd d03b c7cd 05bd 6baf 1b3a 604f fe3a
000003f0: ee53 e53b 0b1c 9fbc 3fc7 d4bc ae47 13ba
0.027790641 0.014325792 0.017734395 -0.013784546 -0.008511509 -0.007698361 -0.015772076 -0.030040124
-0.0008334845 -0.014741203 0.009262444 -0.026430944 0.010996116 -0.009815832 0.011261366 -0.023729745
0.011368273 0.018122923 0.01797215 -0.01733189 -0.005830968 -0.00026922164 -0.014659059 0.0037936713
-0.0181343 0.011884407 -0.009157984 0.016652273 -0.022064619 0.0053900876 0.0045820475 -0.007897928
0.0063124932 0.0028913834 -0.011241741 0.026697522 0.019888567 0.0075302618 -0.0038177685 0.024494283
0.003641358 -0.006213211 0.010504834 -0.0043714996 0.014009663 -0.0016156025 -0.006558703 -0.009977944
-0.016467378 -0.006421153 -0.004744673 0.0112725245 -0.00063696236 -0.018572098 0.00963398 -0.005562413
0.0069508795 -0.014005185 0.013986766 0.019243209 0.018451387 -0.0006853939 0.0062293266 -0.0017807961
0.0089395875 0.020634996 0.00788244 0.008411252 0.032722216 -0.016329378 -0.012323479 0.0029028896
0.0039514336 -0.009905653 0.009774138 -0.003586078 -0.033453874 -0.021100182 0.006760687 -0.008734914
0.014444982 -0.01736507 0.008453132 0.0062745693 0.013636097 -0.00066080637 -0.008711507 -0.0069020716
0.00096592505 0.018843537 0.009465068 0.02789724 0.03130891 -0.00036488465 0.030995239 0.008711918
0.00037175728 0.011803058 -0.0025150825 0.0016344752 0.012134076 -0.004911007 -0.00048229445 -0.008779495
-0.0034183927 -0.02495187 -0.0004879879 0.0015947712 -0.0043716165 -0.0006521637 0.0009857925 0.004936977
-0.00081033213 0.011116372 0.00736342 -0.0014832031 -0.004670855 0.0032400952 -0.0024092759 0.01119074
-0.013381189 -0.004737628 0.010910655 0.00032587384 -0.027043823 -0.0029131486 -0.011190907 0.008010989
-0.0044663087 0.013851906 -0.0041957954 -0.014213208 0.012477516 0.0017165644 -0.007336777 0.0077289226
-0.006329275 -0.007633327 -0.001239966 0.021609409 -0.0072993957 0.012629684 -0.025653245 0.019248843
-0.00543896 0.0099698845 0.003038329 -0.015061176 0.007971939 -0.020556515 -0.012580099 -0.010049743
0.006430225 0.002983833 -0.012058727 -0.008480241 -0.00423073 -0.019850481 0.018564865 0.004565527
0.005143702 0.017757945 -0.008169266 -0.011437629 0.003043813 0.005486081 -0.033588212 0.011860863
0.01674323 0.004500169 -0.009219836 -0.0010251187 -0.008412011 -0.015426577 0.019167442 0.011610486
-0.017016387 -0.00034353902 0.014324806 -0.0031355638 -0.01015951 0.00492125 -0.011553217 -0.0183739
-0.005287294 -0.007947007 0.012970506 -0.022917988 0.01017215 0.030562049 -0.0033084385 -0.018669175
-0.0048895096 -0.0021235123 -0.009364497 -0.010207791 -0.016802043 0.0053093783 -0.008024943 0.0023502684
-0.013618195 -0.012315413 -0.0025126345 -0.00364589 -0.029240536 -0.0021825028 0.014203995 0.0054217386
-0.024144338 -0.009564499 0.0039702263 -0.0029025378 0.018808652 -0.02011956 -0.021188194 -0.0045041516
0.0065392577 0.011853624 -0.0041929116 0.0010294551 0.019242337 -0.008425873 0.004406269 -0.020846818
0.00025366698 -0.0070229517 0.023441324 -0.026213372 -0.019654792 0.0057645524 0.0031868096 0.004255866
0.0021989078 0.010277102 0.0051613147 -0.026125582 -0.00802654 -0.006922684 0.002269297 -0.025757888
0.018004335 0.0014422028 0.0020130777 -0.00671366 -0.012821024 -0.002598035 -0.028963072 -0.008183243
0.0063721007 -0.032666948 0.000593892 0.0019402318 0.0069985306 -0.019422552 -0.025973914 -0.0005618286

network_body._body_endoder.seq_layers.0.bias f4 [256]
00000000: 4fe5 00bb 767d 21bb 1ec4 41bb e22c 033b
00000010: c1a7 fe3a db39 033a bdcc 023b 2957 fb3a
00000020: 36c9 0cbb 2098 1439 3b6f 50bb 9012 7b3b
00000030: e55c 2b38 dfc6 f73a 57f2 1bbb 653f 113b
00000040: 0b09 0bbb e89d e9ba ebe9 20bb ef2b 173b
00000050: 72f2 35b9 80a1 6bbb b627 f83a 0629 86b9
00000060: e785 ec3a d0a0 9aba 22eb 6a3b 5270 d0b9
00000070: 8a6d 553b 2a9b 4bb9 4bcb 54ba 74bc 2439
00000080: 9f70 4e3a 3a37 ecba c0f4 663b b9ce fcba
00000090: 5a32 5cbb b8cd 2cb9 e615 b2ba 7fdb 1cbb
000000a0: ed11 f6ba f11c 3a3b 13c4 a7ba 89d6 783b
000000b0: 9095 61bb c54d 983a 8bea e939 6cf0 3ab6
000000c0: a60b 913a c7af c7b9 8245 34ba e0ba 78bb
000000d0: 8737 173a f81b 5b3b 9e5a 17bb 952f 0e3b
000000e0: 87ea bbba f0b4 4e3b c216 96b9 da5f f8ba
000000f0: aec9 08bb 5d53 05bb e096 65bb 6082 17ba
00000100: b480 0ebb d76c beba cbeb 4cbb 41ef 68bb
00000110: ec40 06bb cbba 563a ce32 4b3b d775 d53a
00000120: 7447 24bb 3db4 1d3b c5e9 dab8 7c89 10ba
00000130: de4a b63a 083b 623b bda9 67bb ad6b b2b9
00000140: 0c84 5ebb 117d 153b 771c 12ba 1b26 0abb
00000150: 38d7 5fbb ff6d f83a f833 323b b3ac 2a3b
00000160: 12ed 10bb 563d 0aba b3b5 68bb b39d 66bb
00000170: ffb2 18bb dd40 f23a ab84 4bbb 6e56 4cbb
00000180: ef71 383b 0364 14bb d45b 793b ebb0 71bb
00000190: 825c 4cbb eec2 113b 4f4a 683b ec90 513b
000001a0: 090d 0e3b e3ec d93a 5e1e 91ba 9336 fcb9
000001b0: 4ee6 c2ba c70b a239 0307 183b e753 04bb
000001c0: a8d7 ab3a 9bb4 6bbb ea77 59bb 6408 00bb
000001d0: 2430 e53a edf7 1fbb 4210 d7ba b6f8 5ebb
000001e0: 9917 743b c958 823b 3585 8eba 9a48 a03a
000001f0: 20a6 eb39 4bb3 bcba eb67 083b 9e60 5dbb
00000200: 24c3 ee3a 57e8 e4ba f062 bcba 7f72 fe3a
00000210: 291d 2fba 81eb 15bb 0f05 d639 f807 2fbb
00000220: 6dfe 463b 1908 c73a 840b 21ba b5be 1bbb
00000230: c14a bcb9 1b86 52bb 5bce 063b 0a88 1bbb
00000240: a5de 65ba a134 5dbb 32b0 be3a 7884 533b
00000250: 9739 5cbb 301e fc3a 601b 753a 656c 1e3b
00000260: 036a 5e39 eced deba 7dcf d13a afcc 613b
00000270: a19d ad3a b235 1c3b 54fc 63bb 34b7 58bb
00000280: 32b0 f539 cc30 0bbb 6aa9 493b a556 663b
00000290: 2783 d43a a97c 143a f275 153b 0252 44bb
000002a0: 2616 ec39 6ac8 ac3a c06f 423b 4532 413b
000002b0: ae2b bb39 68ba 0b3a 5fa3 46bb 5037 03bb
000002c0: b326 793a 0f83 2a3a f5c1 c3ba 5774 adba
000002d0: 0eff 523b b17e 77bb dd71 9239 83a1 6bb8
000002e0: 21ad 583b f497 cb3a f539 6dbb e1bd 0b3b
000002f0: a970 a938 9e35 ecba 3e03 ec3a 8253 ed3a
00000300: a99a 3cba cee9 3d3b 24ca 713b d432 5b3b
00000310: c9eb 6e3b 514c fdba b945 a639 299f 913a
00000320: 8cf0 6f3b 1510 3939 ae57 693b 8e80 37b9
00000330: fc27 113b 709b 6b3a e159 6bbb 6b08 943a
00000340: 7fdd db3a db9c 583b b803 fbba 10f9 4839
00000350: 1e91 1bbb 656a 053b 00f7 103b 68c0 aeba
00000360: ca36 703a 318c 4cbb 0b0d c1b9 a6bd c0ba
00000370: 5967 81ba ad32 583b cf9c 01bb 7ceb 493b
00000380: 0b6c 783b 8252 643b 93da 6eba 8956 0c3a
00000390: fdc0 143b f0dc 21bb 40b0 17bb 9394 6dbb
000003a0: f0e1 b9ba 09d2 4abb 155d f9ba 7ae9 043b
000003b0: dd56 453b dd5f 1f3a 6b24 caba 32c3 4d3b
000003c0: 48b3 11bb f9fc 5dbb a196 eb3a 5283 983a
000003d0: b5d8 423a cc50 cf3a 4871 4c3b 6e77 0a3b
000003e0: 795c ebba aec7 f53a 6e0e 22bb 16d4 333a
000003f0: 29de 15bb 86f4 d33a 40f8 0f3b 7ac2 65bb
-0.0019667929 -0.002464143 -0.0029566358 0.0020015766 0.0019428657 0.00050058746 0.001995846 0.0019175756
-0.0021482236 0.00014171051 -0.003180458 0.0038310625 4.085609e-05 0.0018903873 -0.002379557 0.002216303
-0.0021215107 -0.0017823549 -0.0024553488 0.0023066958 -0.00017351823 -0.0035954416 0.0018932733 -0.00025589037
0.0018045277 -0.0011797193 0.0035845716 -0.00039756537 0.003256651 -0.00019417392 -0.0008117451 0.00015710463
0.0007875058 -0.001802183 0.0035241097 -0.0019287682 -0.0033599348 -0.00016479834 -0.0013586849 -0.002393454
-0.0018773653 0.0028398598 -0.0012799524 0.003796967 -0.0034421422 0.0011619857 0.0004461597 -2.7856104e-06
0.0011066094 -0.00038087202 -0.00068768125 -0.0037953183 0.0005768467 0.0033433419 -0.0023094784 0.0021695842
-0.0014336862 0.0031540953 -0.00028627185 -0.0018949464 -0.0020872164 -0.0020343878 -0.0035032555 -0.000577962
-0.0021744194 -0.0014528286 -0.0031268473 -0.0035542997 -0.0020485474 0.00081912865 0.0031005624 0.0016285729
-0.0025067003 0.002406373 -0.00010438593 -0.0005513651 0.001390781 0.0034520049 -0.0035348975 -0.0003403103
-0.0033953218 0.002281014 -0.00055736996 -0.0021079842 -0.003415538 0.001895368 0.002719162 0.0026042878
-0.0022113961 -0.0005273422 -0.0035508692 -0.003518921 -0.002330005 0.0018482466 -0.0031054418 -0.0031179446
0.0028144082 -0.002264262 0.0038049119 -0.0036879133 -0.0031183069 0.0022241431 0.0035444682 0.003197725
0.002167525 0.0016626384 -0.0011071672 -0.00048105847 -0.0014869662 0.00030907823 0.0023197539 -0.0020191611
0.0013110535 -0.0035965804 -0.0033183047 -0.0019536251 0.001748566 -0.002440925 -0.0016408043 -0.0034022755
0.003724551 0.003977869 -0.0010873439 0.0012228668 0.00044946466 -0.0014396695 0.0020813893 -0.0033779512
0.0018216115 -0.0017464262 -0.0014372747 0.0019412785 -0.00066800654 -0.0022875967 0.0004082103 -0.002670763
0.0030364052 0.0015184908 -0.00061433786 -0.0023764793 -0.0003591385 -0.003212339 0.0020569775 -0.0023732209
-0.00087688334 -0.0033753293 0.001454836 0.0032275002 -0.0033603662 0.0019235071 0.00093500875 0.0024173495
0.00021211062 -0.0017008162 0.0016007271 0.0034454276 0.001324583 0.0023835716 -0.003478785 -0.0033068182
0.00046861317 -0.0021238802 0.0030771145 0.003514686 0.0016213403 0.0005664328 0.0022805897 -0.0029956107
0.0004502993 0.0013182287 0.002966866 0.0029479426 0.00035699963 0.0005330206 -0.003030978 -0.0020021982
0.0009504363 0.00065045146 -0.0014935123 -0.0013233525 0.0032195481 -0.0037764723 0.00027932125 -5.6178786e-05
0.0033062177 0.0015532956 -0.0036197875 0.0021322893 8.0795326e-05 -0.001802135 0.0018006337 0.0018106552
-0.0007194677 0.002897847 0.0036894167 0.0033447044 0.0036456457 -0.0019325112 0.00031713935 0.0011110055
0.0036611883 0.00017648966 0.003560524 -0.0001750013 0.0022149077 0.00089877006 -0.0035911726 0.0011294013
0.0016774385 0.0033052478 -0.0019150889 0.0001916627 -0.002373762 0.0020357606 0.002211988 -0.0013332488
0.00091634376 -0.003121149 -0.00036821546 -0.0014704957 -0.0009872719 0.003298919 -0.0019777303 0.0030810526
0.0037906196 0.0034839218 -0.00091115496 0.0005353471 0.0022698038 -0.002469834 -0.0023145825 -0.0036251887
-0.0014181715 -0.0030947945 -0.0019024933 0.0020280764 0.003011159 0.00060796534 -0.001542223 0.0031396863
-0.0022232104 -0.0033872707 0.0017973968 0.0011635816 0.00074328046 0.0015816926 0.003119545 0.0021128315
-0.0017956636 0.0018751526 -0.002472784 0.00068599114 -0.0022868013 0.0016170896 0.0021968037 -0.0035058544

network_body._body_endoder.seq_layers.0.weight f4 [256, 28]
00000000: b74b 3a3e aaee 81be 3f15 1a3d 580e e5bd
00000010: 6742 953e 68ef 5fbe 48a7 3abd 58ed 863e
00000020: ff7f 7fbe b20b 22be e3db 30be 892f 28be
00000030: 46b2 b9be 1203 12bd 49e8 f4be de2b e7bd
00000040: 0180 ca3d ce4d 0c3e 6108 ffbe afcc 1a3d
00000050: 36b9 963e 9daa 1fbe bc56 0c3c 89c3 8e3e
00000060: e96b e939 c785 67be 9304 0ebe 683b 0a3d
00000070: 038f 443e ad06 75bc eb05 deba 4788 19bd
00000080: 7097 f43c f4e5 78bd de34 c5bb 98c2 cfbd
00000090: 93da 7c3e fb1f 1e3e 5e44 c1bc b1fc 9b3e
000000a0: 0a50 b43c 586b 6fbd d8f7 2a3e da36 52bd
000000b0: 40ab e03e 743e 83bd 8e22 913e c91e de3d
000000c0: c0ce b93e c891 26bd a5d4 3abc e6a4 053e
000000d0: 774b e8bd 055e 663d 52ef 79be 8afe f5bd
000000e0: 72e3 c73d a4f9 173e c868 873d e789 4fbb
000000f0: 7dac da3d 7037 cfbd 4d97 323e eb3a 07be
00000100: d9f1 fb3c 0ed8 dd3d c3f5 8cbc 03bf 19bd
00000110: f7ea 853e a07b 563e a891 c2bd 382c 7dbe
00000120: e0ec f0bd c5fe 00be abb9 493e 51c1 c4bd
00000130: 106f 093e 87ba 283e b92d a1bd 2d32 13be
00000140: de5e 4b3e 3d69 513d 0b22 ba3d fd96 853d
00000150: b2b6 1abe f7fb 51be 6f51 8abc 0752 aa3b
00000160: e788 803c a820 03bd 228b 11bd d6ff 64be
00000170: 77d7 ca3e b8e5 31be 6645 9ebd d5bf 66be
00000180: 9bdc 16bd 920a 37be 0aaf 7ebc f496 9e3e
00000190: b8d9 3b3e 7942 9a3e 93ce 49be b0d1 0dbe
000001a0: cf36 4a3e 5478 c43d 1d04 f2bd 6492 8abe
000001b0: fd92 b1be b709 49be eb88 76be 2ed1 d03e
000001c0: 99c9 2f3e 491f b33d 3bd5 f0bc 3936 1a3e
000001d0: aebd babd 38b8 d7bd d901 2ebe 3e56 9dbe
000001e0: 8fe3 003f 2404 48bd 0392 583c d42c 183c
000001f0: ee1f b3be 098c a6bd aa84 8a3d b4d4 dbbd
00000200: 5c2d 80be 0d89 993e 5ec9 a9bc 8180 42be
00000210: 26e8 3f3e e815 5ebe 06e2 85be 208c 6abc
00000220: 7281 0ebe 03bc 3e3e 4ed7 903e 516e 48be
00000230: cf52 1f3e e7e9 a43e 8e89 293e 4bad 7a3d
00000240: d473 413e afb8 333b 7cd9 bf3b cc82 c43d
00000250: afa7 81bd 2a29 e23e 8d5e 073c 2539 f7be
00000260: bea2 2abd 2baa 51be fdc5 bbbe 24df dd3d
00000270: 0aea e2bd 9eb5 a93c 326b 0cbe 209e 29be
00000280: a96c 73be 236f 6abe b7f0 173e 611c da3d
00000290: e554 b0bd 0480 c83c 3500 65bd 9bdf 0d3e
000002a0: 9a77 cc3d e71a 653e 4a45 1fbe 1f90 2ebd
000002b0: 1555 523e 674c 45be 58b8 773e 3125 203d
000002c0: 25a1 23be 100a 42bd edfb debe 6b0c 153e
000002d0: 2c82 933d 5179 973d 2210 aaba 0908 3dbc
000002e0: 3b30 7dbc 2e6c 133e dbaf e43c 410f 373c
000002f0: 4a23 60bd bb33 83be a033 3c3e d32a 31bc
00000300: 8ee9 65bb ad61 56bd 894c e9bd 7d34 4d3d
00000310: fca7 6e3c 9f2d 10be 6fd8 83bd 62d8 c33d
00000320: 4ee6 f23d 4719 553e 5a5c 48be 8f41 3d3d
00000330: edbb 28be bb04 c73e e0da e5bd 5505 8bbe
00000340: e0eb f5be d06d 1ebe 66c0 67bd da08 91bd
00000350: 3378 853c 2294 82be 488e 673d f5bb 03bd
00000360: 4a48 933e 5020 413e 5969 9abc f382 553e
00000370: bb6a 5cbe affb e2bb 8bba 133e eb72 713e
00000380: aece a2bc 35c3 2abd 8d7e fd3d 7758 533e
00000390: 1345 b03d a564 3cbe e08d 893d 9572 c6bd
000003a0: 2551 01be 37a5 353c 1569 403c a360 b1bd
000003b0: 42db 17be de1f 04bd b668 763d 8c95 85be
000003c0: 09bb 6dbd ef04 8e3d 1f29 41be 583a 8f3e
000003d0: b932 b83b bd28 073e 1028 eb3c e44a 753e
000003e0: b2cc 14bd a053 cb3c 8e54 28bc 8175 b93e
000003f0: 2341 b53d c36f 593e 9170 ef3c beb2 88be
0.18192945 -0.253774 0.037617918 -0.111843765 0.29152223 -0.2186867 -0.045569688 0.26352954
-0.2495117 -0.15824774 -0.1727138 -0.16424383 -0.36268824 -0.03564746 -0.4783347 -0.11287664
0.09887696 0.13701555 -0.4981108 0.037792858 0.2943818 -0.15592428 0.008565601 0.27883556
0.00044521622 -0.22609626 -0.13868932 0.03374806 0.1919518 -0.014955205 -0.001693902 -0.03748348
0.029857367 -0.060766175 -0.006018265 -0.10144538 0.24692754 0.15441887 -0.02359217 0.30466226
0.022010822 -0.05845198 0.16696107 -0.05132184 0.43880653 -0.06408396 0.28346676 0.108457156
0.3629055 -0.04066637 -0.0114032375 0.13051185 -0.11342519 0.056242008 -0.244077 -0.1201144
0.097601786 0.14841324 0.06611782 -0.003166789 0.10677431 -0.10117996 0.17440529 -0.13206069
0.03075497 0.10832225 -0.017207032 -0.03753568 0.26155826 0.20945597 -0.09500438 -0.247239
-0.1176393 -0.12597187 0.19699733 -0.09607185 0.13421273 0.16477405 -0.07870049 -0.1437461
0.19860408 0.051125754 0.090885244 0.06522939 -0.15108755 -0.20506273 -0.016884534 0.0051977667
0.01569028 -0.032013565 -0.035533078 -0.22363219 0.39617512 -0.17372787 -0.077280805 -0.22534116
-0.03683148 -0.17875126 -0.015544662 0.30974543 0.18344772 0.3012884 -0.19707708 -0.1384952
0.1974747 0.09593263 -0.11817191 -0.27064812 -0.34682456 -0.19632612 -0.24075668 0.4078459
0.17166747 0.087462015 -0.029398551 0.15059747 -0.0911821 -0.10533184 -0.16992892 -0.3072986
0.50347227 -0.048832074 0.013218406 0.009288032 -0.34985298 -0.08132178 0.06763585 -0.10733929
-0.25034606 0.29987374 -0.020725902 -0.18994333 0.18740901 -0.21688044 -0.26149005 -0.014315635
-0.13916567 0.18626408 0.28289264 -0.19573332 0.15558933 0.32209703 0.16556379 0.06120042
0.18891841 0.0027423312 0.0058547836 0.0959526 -0.06330811 0.4417203 0.008262289 -0.48285785
-0.04165911 -0.2047507 -0.3667449 0.10833576 -0.11079796 0.020716485 -0.13712767 -0.16564226
-0.2377192 -0.22893958 0.14837919 0.10649944 -0.08609942 0.024475105 -0.0559084 0.1385483
0.0998375 0.22373544 -0.15553775 -0.042617913 0.20540269 -0.19267426 0.24191415 0.03909797
-0.1597944 -0.047372878 -0.4355158 0.14555518 0.07202563 0.07396186 -0.0012974779 -0.01153756
-0.015453394 0.14396736 0.027915886 0.01117307 -0.054721154 -0.25625405 0.18379068 -0.010813433
-0.0035081836 -0.052339245 -0.11391551 0.050098885 0.014566418 -0.14079903 -0.06437766 0.09562756
0.118603334 0.20810424 -0.1956648 0.0462051 -0.16477938 0.38870797 -0.11223388 -0.27152506
-0.4803152 -0.15471578 -0.05657997 -0.070817664 0.016292667 -0.2550364 0.056532174 -0.03216167
0.2876609 0.18859982 -0.018849062 0.20850734 -0.2152509 -0.0069269757 0.14426629 0.23578994
-0.019873943 -0.04169007 0.12377653 0.20639215 0.08606925 -0.18397768 0.06716514 -0.096898235
-0.1262861 0.011086754 0.0117438035 -0.0866101 -0.14829734 -0.032256953 0.060158454 -0.26090658
-0.0580397 0.06934535 -0.18863343 0.279742 0.005621281 0.13199134 0.028705627 0.2395435
-0.036328025 0.024820149 -0.010274066 0.3622246 0.088503145 0.2123404 0.02922848 -0.2669887
