IAV_FINAL/results/results/SheepsRedo3/Sheeps/Sheeps-64.onnx (onnx, 33382 bytes, 5 tensors)

action_model._continuous_distribution.log_sigma f4 [1, 2]
00000000: 0000 0000 0000 0000
0.0 0.0

action_model._continuous_distribution.mu.bias f4 [2]
00000000: 0000 0000 0000 0000
0.0 0.0

action_model._continuous_distribution.mu.weight f4 [2, 256]
00000000: 7adc 9b3b b0dc b0bc 2bd3 5c3c deb1 113c
00000010: 5773 a1bc f03a 20bb 311c b9bb b3e8 33bc
00000020: 1089 583c 2c93 3ebc ef97 0d3c da1d 72bb
00000030: b862 03bb a9bf 4139 6112 253c c022 b2ba
00000040: 5d46 c9b7 f69d 1b3a 2706 54bc 6872 9d3b
00000050: 6ad0 eabb bfdb 053d bf1c 953c c865 ce3a
00000060: 6e91 863c 9370 c83c 703f 23bc 3c41 c7ba
00000070: 32c5 de3b 666b 3ebc af6a 4d3b 6e42 b43b
00000080: 2dea 843b a52d 353b fb77 7c3b a014 7a3c
00000090: 0d97 913c 7d0b daba 9fb1 81ba b386 d53b
000000a0: 0d05 943c c3ef 23bc dadb e23b 28e1 33bc
000000b0: b7da 06bc ade6 47bc 908d 66bc 8eea a1bc
000000c0: bfc9 8c3c 275c 03bb ba3d 993a e511 e3ba
000000d0: 7fb3 bb3a 7ef6 2a3c 8401 c8bb af40 b93c
000000e0: abeb 653b 1983 b3bc b133 9e3c 66c3 133d
000000f0: 2fec debb e67b c93b 4bd0 053c 22d4 b1ba
00000100: 78e7 53bc a999 003d fa91 63bb 7b2f 86bc
00000110: cbe7 2e3c 50f9 0c3b 0db3 cd39 2aa2 a7bb
00000120: 47a4 673c d694 97bc ea7b 80bc 8a68 103c
00000130: 821b c1bb dde0 103b 8744 90bc 3372 a7bc
00000140: 7d8e 7a3c d007 00bc 9ac7 763c 7f65 88bc
00000150: caeb ac3b 54e0 42bb 54ed af37 77e0 e0bb
00000160: 721f b5bb 438c 183b adf6 b83c 68d1 07bb
00000170: 1826 67bc 5e9b 1abc 17d1 583b ade2 fdbb
00000180: 7940 2dbc 005d 59bc 4d6e 2abc f6b2 bc39
00000190: fd40 4f3c f9f2 9dbc 8190 3f3c bba4 a5bc
000001a0: 6fc5 1b3c 034d 43bb f77a ab3b c8f9 d03b
000001b0: 6260 f2ba 4b0b 8abb 2ae4 713c 68d0 ea3c
000001c0: 0e52 9a3c db38 dbbc 81c1 1bbc 6587 6e3b
000001d0: 004d 2dbc 5111 8bbc 3c6d 183c 9b0e 3ebc
000001e0: 5046 26bc 8b7e c83b c0d1 17ba 0ebd 9d3c
000001f0: 50a9 ee39 e298 a3ba 33fa 033b a300 0b3c
00000200: 2762 9ebb c36a 4fbb 0b7e f3bb 5521 0f3c
00000210: 2f78 d039 1cf8 9b3c a534 cdbb fdc6 fd3b
00000220: 0a34 adbb 92bf 60bc 57cc c33b bea3 1a3c
00000230: 7288 c6bb a291 3b3c 2c02 46bc 074f bebb
00000240: a864 003c fbfd 543a 0511 56b9 7985 1c3a
00000250: 52cd 4cbb e8af 2abc 952d 393b af33 d6bb
00000260: f897 57bb 7b23 18bb 4520 fe3b b78a 7cbc
00000270: 66fd 9a3b 327e cd3c d630 02bb 7329 86bb
00000280: 3e28 253b 6503 043c 35e6 e1bb dbb2 df3c
00000290: dbcf 293c 1e9f c4bb 2fb5 8b3c f04a 633c
000002a0: 3a07 c4bb e82c dabc f80e 39bb dcd0 b33b
000002b0: 07db 6b3c 5508 f63b a0de 733b 0a81 80bb
000002c0: a5a8 833c 0acb 373c 25f6 2cbc acce 9c3b
000002d0: 4266 e33b 9b62 f23b d347 6ebc d0f7 7e3c
000002e0: 53b8 ccbc 6cbf b63b c7ca 9ebb 1f75 a0bc
000002f0: efee b73c a87a 01bb fa38 cbba 526f babc
00000300: cbfe e23b 4e1a 843b 8fea 0bbc 9bdb 53bc
00000310: 7a74 7bbb b402 15bc a31c 99ba 5e1c c23b
00000320: c54d b5bc 1061 183c c0c7 823b 4e5a 9b3c
00000330: f32a 4abc c73b 03bd 978c 873c 5f8d 80bc
00000340: 8b26 6f3c e93a b2bb 9541 9dbb 18f1 ab3a
00000350: 5e77 9e38 2aa6 debc 022e d7bc 75c6 973b
00000360: 7bef 2bbc 0aa2 86bc 5de9 dbbb 45e5 21bc
00000370: ff98 29ba a779 ac3c 5da7 0e3c c2e7 6d3a
00000380: a5f5 b03b 9197 ae3b 0bb3 653c 8bfa 603c
00000390: 4131 afbb 3cf6 883c 8bb6 84bc a8bb f83b
000003a0: cf7c 3d3c 1856 523c 2049 6c3b 1779 533c
000003b0: 4328 913c 6299 4c3a 507c 553c f5db 513c
000003c0: e0dc ae3b c794 4f3c bdc8 603c 888a fbbb
000003d0: aad5 69bc 9319 fdbc 3044 90bb eb1e 6cbb
000003e0: 8b85 143c 7b11 0d3b 36fc 0fbc ab44 a23b
000003f0: 6570 81bc c0d3 ee3b 8bb3 993c ae27 b43b
0.0047565075 -0.021589607 0.013478081 0.0088925045 -0.019708319 -0.0024449192 -0.0056491126 -0.010980773
0.013216272 -0.011631768 0.008642181 -0.0036944062 -0.0020047855 0.00018477313 0.010075183 -0.0013590679
-2.3993833e-05 0.0005936319 -0.01294092 0.004804898 -0.007165958 0.03268027 0.018202184 0.0015746886
0.016426768 0.024467742 -0.009963855 -0.0015201936 0.00679841 -0.0116222855 0.0031344106 0.005501083
0.0040562362 0.0027645614 0.0038523662 0.015263706 0.017772222 -0.0016635504 -0.0009894854 0.0065163015
0.018068815 -0.010005894 0.006923181 -0.010978974 -0.008230857 -0.0122009935 -0.014071837 -0.019765165
0.017186044 -0.002004394 0.001169137 -0.0017324059 0.0014320462 0.010434745 -0.0061036963 0.022613851
0.0035083096 -0.021913098 0.019311758 0.03607502 -0.0068030576 0.006148803 0.008167337 -0.0013567249
-0.012933604 0.03139654 -0.003472446 -0.016380062 0.010675381 0.0021510907 0.0003923405 -0.005115767
0.014138288 -0.018503588 -0.015684087 0.008813987 -0.0058931718 0.0022106685 -0.017610801 -0.020440197
0.015292761 -0.007814363 0.015062237 -0.01664996 0.0052771317 -0.002973576 2.097214e-05 -0.006862696
-0.00552743 0.0023276962 0.022578562 -0.002072418 -0.014108203 -0.0094364565 0.0033083612 -0.007747969
-0.0105744535 -0.013266802 -0.010402274 0.0003599149 0.012649772 -0.019280897 0.011692167 -0.020220151
0.009507521 -0.0029800541 0.0052331644 0.0063774325 -0.0018491859 -0.004212772 0.014763871 0.028663829
0.018837955 -0.02676051 -0.009506584 0.003639662 -0.01057744 -0.01697603 0.009303387 -0.011600162
-0.0101486 0.0061186007 -0.0005791448 0.019255187 0.00045521045 -0.0012481476 0.0020138144 0.0084840385
-0.004833478 -0.0031649328 -0.007430797 0.008735974 0.00039762395 0.019039206 -0.006262379 0.0077446685
-0.0052857446 -0.013717549 0.005975287 0.009438453 -0.006058746 0.011448296 -0.012085479 -0.0058077606
0.007836498 0.0008125004 -0.0002041497 0.0005970817 -0.003125031 -0.010417916 0.0028255929 -0.006536923
-0.0032896977 -0.0023214507 0.0077553117 -0.015413932 0.0047299145 0.025084589 -0.0019865534 -0.0040942966
0.0025200988 0.00805745 -0.006893898 0.027306965 0.010364498 -0.0060004136 0.017054169 0.013872847
-0.005982307 -0.026632741 -0.0028237682 0.0054875445 0.014395482 0.0075083175 0.0037211552 -0.0039216327
0.016071627 0.011217842 -0.010556732 0.0047853794 0.0069396803 0.0073970086 -0.014543491 0.015562013
-0.024990236 0.0055770185 -0.0048459503 -0.019587098 0.0224528 -0.0019756947 -0.0015504651 -0.02275816
0.0069273463 0.004031456 -0.00853981 -0.012930776 -0.0038368986 -0.009094883 -0.0011681508 0.005923792
-0.02213181 0.009300485 0.003991097 0.018963959 -0.012339341 -0.03203943 0.01654653 -0.015692411
0.014596592 -0.0054391515 -0.0047990778 0.0013118116 7.556261e-05 -0.027178843 -0.026267055 0.004631812
-0.010494108 -0.016434688 -0.0067111687 -0.009881322 -0.00064696366 0.021054102 0.008706895 0.0009075367
0.005400377 0.0053281267 0.014019738 0.013731609 -0.0053464477 0.016718976 -0.016200325 0.0075907297
0.011565401 0.012837909 0.0036054328 0.012907288 0.017719394 0.0007804838 0.013030127 0.0128087895
0.005336389 0.012669749 0.013719735 -0.0076764263 -0.014272133 -0.030895984 -0.00440266 -0.003602917
0.009065042 0.0021525312 -0.008788159 0.0049520335 -0.015800664 0.007288426 0.01876237 0.0054978942

network_body._body_endoder.seq_layers.0.bias f4 [256]
00000000: 0000 0000 0000 0000 0000 0000 0000 0000
00000010: 0000 0000 0000 0000 0000 0000 0000 0000
00000020: 0000 0000 0000 0000 0000 0000 0000 0000
00000030: 0000 0000 0000 0000 0000 0000 0000 0000
00000040: 0000 0000 0000 0000 0000 0000 0000 0000
00000050: 0000 0000 0000 0000 0000 0000 0000 0000
00000060: 0000 0000 0000 0000 0000 0000 0000 0000
00000070: 0000 0000 0000 0000 0000 0000 0000 0000
00000080: 0000 0000 0000 0000 0000 0000 0000 0000
00000090: 0000 0000 0000 0000 0000 0000 0000 0000
000000a0: 0000 0000 0000 0000 0000 0000 0000 0000
000000b0: 0000 0000 0000 0000 0000 0000 0000 0000
000000c0: 0000 0000 0000 0000 0000 0000 0000 0000
000000d0: 0000 0000 0000 0000 0000 0000 0000 0000
000000e0: 0000 0000 0000 0000 0000 0000 0000 0000
000000f0: 0000 0000 0000 0000 0000 0000 0000 0000
00000100: 0000 0000 0000 0000 0000 0000 0000 0000
00000110: 0000 0000 0000 0000 0000 0000 0000 0000
00000120: 0000 0000 0000 0000 0000 0000 0000 0000
00000130: 0000 0000 0000 0000 0000 0000 0000 0000
00000140: 0000 0000 0000 0000 0000 0000 0000 0000
00000150: 0000 0000 0000 0000 0000 0000 0000 0000
00000160: 0000 0000 0000 0000 0000 0000 0000 0000
00000170: 0000 0000 0000 0000 0000 0000 0000 0000
00000180: 0000 0000 0000 0000 0000 0000 0000 0000
00000190: 0000 0000 0000 0000 0000 0000 0000 0000
000001a0: 0000 0000 0000 0000 0000 0000 0000 0000
000001b0: 0000 0000 0000 0000 0000 0000 0000 0000
000001c0: 0000 0000 0000 0000 0000 0000 0000 0000
000001d0: 0000 0000 0000 0000 0000 0000 0000 0000
000001e0: 0000 0000 0000 0000 0000 0000 0000 0000
000001f0: 0000 0000 0000 0000 0000 0000 0000 0000
00000200: 0000 0000 0000 0000 0000 0000 0000 0000
00000210: 0000 0000 0000 0000 0000 0000 0000 0000
00000220: 0000 0000 0000 0000 0000 0000 0000 0000
00000230: 0000 0000 0000 0000 0000 0000 0000 0000
00000240: 0000 0000 0000 0000 0000 0000 0000 0000
00000250: 0000 0000 0000 0000 0000 0000 0000 0000
00000260: 0000 0000 0000 0000 0000 0000 0000 0000
00000270: 0000 0000 0000 0000 0000 0000 0000 0000
00000280: 0000 0000 0000 0000 0000 0000 0000 0000
00000290: 0000 0000 0000 0000 0000 0000 0000 0000
000002a0: 0000 0000 0000 0000 0000 0000 0000 0000
000002b0: 0000 0000 0000 0000 0000 0000 0000 0000
000002c0: 0000 0000 0000 0000 0000 0000 0000 0000
000002d0: 0000 0000 0000 0000 0000 0000 0000 0000
000002e0: 0000 0000 0000 0000 0000 0000 0000 0000
000002f0: 0000 0000 0000 0000 0000 0000 0000 0000
00000300: 0000 0000 0000 0000 0000 0000 0000 0000
00000310: 0000 0000 0000 0000 0000 0000 0000 0000
00000320: 0000 0000 0000 0000 0000 0000 0000 0000
00000330: 0000 0000 0000 0000 0000 0000 0000 0000
00000340: 0000 0000 0000 0000 0000 0000 0000 0000
00000350: 0000 0000 0000 0000 0000 0000 0000 0000
00000360: 0000 0000 0000 0000 0000 0000 0000 0000
00000370: 0000 0000 0000 0000 0000 0000 0000 0000
00000380: 0000 0000 0000 0000 0000 0000 0000 0000
00000390: 0000 0000 0000 0000 0000 0000 0000 0000
000003a0: 0000 0000 0000 0000 0000 0000 0000 0000
000003b0: 0000 0000 0000 0000 0000 0000 0000 0000
000003c0: 0000 0000 0000 0000 0000 0000 0000 0000
000003d0: 0000 0000 0000 0000 0000 0000 0000 0000
000003e0: 0000 0000 0000 0000 0000 0000 0000 0000
000003f0: 0000 0000 0000 0000 0000 0000 0000 0000
0.0 0.0 0.0 0.0 0.0 0.0 0.0 0.0
0.0 0.0 0.0 0.0 0.0 0.0 0.0 0.0
0.0 0.0 0.0 0.0 0.0 0.0 0.0 0.0
0.0 0.0 0.0 0.0 0.0 0.0 0.0 0.0
0.0 0.0 0.0 0.0 0.0 0.0 0.0 0.0
0.0 0.0 0.0 0.0 0.0 0.0 0.0 0.0
0.0 0.0 0.0 0.0 0.0 0.0 0.0 0.0
0.0 0.0 0.0 0.0 0.0 0.0 0.0 0.0
0.0 0.0 0.0 0.0 0.0 0.0 0.0 0.0
0.0 0.0 0.0 0.0 0.0 0.0 0.0 0.0
0.0 0.0 0.0 0.0 0.0 0.0 0.0 0.0
0.0 0.0 0.0 0.0 0.0 0.0 0.0 0.0
0.0 0.0 0.0 0.0 0.0 0.0 0.0 0.0
0.0 0.0 0.0 0.0 0.0 0.0 0.0 0.0
0.0 0.0 0.0 0.0 0.0 0.0 0.0 0.0
0.0 0.0 0.0 0.0 0.0 0.0 0.0 0.0
0.0 0.0 0.0 0.0 0.0 0.0 0.0 0.0
0.0 0.0 0.0 0.0 0.0 0.0 0.0 0.0
0.0 0.0 0.0 0.0 0.0 0.0 0.0 0.0
0.0 0.0 0.0 0.0 0.0 0.0 0.0 0.0
0.0 0.0 0.0 0.0 0.0 0.0 0.0 0.0
0.0 0.0 0.0 0.0 0.0 0.0 0.0 0.0
0.0 0.0 0.0 0.0 0.0 0.0 0.0 0.0
0.0 0.0 0.0 0.0 0.0 0.0 0.0 0.0
0.0 0.0 0.0 0.0 0.0 0.0 0.0 0.0
0.0 0.0 0.0 0.0 0.0 0.0 0.0 0.0
0.0 0.0 0.0 0.0 0.0 0.0 0.0 0.0
0.0 0.0 0.0 0.0 0.0 0.0 0.0 0.0
0.0 0.0 0.0 0.0 0.0 0.0 0.0 0.0
0.0 0.0 0.0 0.0 0.0 0.0 0.0 0.0
0.0 0.0 0.0 0.0 0.0 0.0 0.0 0.0
0.0 0.0 0.0 0.0 0.0 0.0 0.0 0.0

network_body._body_endoder.seq_layers.0.weight f4 [256, 28]
00000000: 922b a0be 21cd 34be 011f 53be 7b28 96bd
00000010: c02e a23c e6a1 273e a77f 433d 8929 4d3e
00000020: f422 c13d 27ff 1bbe ccea b5bc 0a38 5e3e
00000030: 588c b4be 6541 373e 8109 ec3b 197c 603e
00000040: 435f a83d a5ed b5bd 4248 0f3e 95a7 d2bd
00000050: 107f ee3d fe02 f13e 6e95 babe bf24 893e
00000060: 1acb 33be 7bb8 783e dbd8 8f3e 5f9e 49bc
00000070: 5a5e dabc cbea 693d 3aad b1bd 65a3 993e
00000080: 926f 933e c42d 593d 6360 29be 2e26 2f3c
00000090: 6f95 8b3c 7815 673e 67c6 3e3e f0bb f33d
000000a0: e10e 01be 462c 9c3d 214a da3e 3eaf 6c3c
000000b0: a0ed 0dbe a885 293e 26c2 1c3e 6afd 66be
000000c0: 66eb 25bd 37b4 6bbe c480 07bf 8c77 a33e
000000d0: 8c9e 613d 845b d63d 63b2 823d 0781 223e
000000e0: a36b 39be d107 3ebe d207 90b9 5786 8dbe
000000f0: f818 8bbe 7210 f33d e8a0 c23e e2d7 9ebd
00000100: 6489 1abe d12b d83e 80ae 423d fc40 813d
00000110: 90f2 ef3d d6e3 6fbe 318a 75be fc47 c43e
00000120: 05e0 d13d e3fa 3dbe f342 0d3e 59ca 6fbe
00000130: fa30 debd 6346 bd3d ad65 91bd c6c2 ed3d
00000140: 9e6c 013e 1dc9 46bc 129c 903e 32b9 abbd
00000150: d2da acbc dc34 febc 4697 5dbe 97f2 753e
00000160: d500 c83c e682 18be a06e aebe 9399 f0bd
00000170: a7fa 2fbe 14e3 ca3e 2cb0 52be 9872 903e
00000180: 78a9 133e 61f8 85bd 2bd5 4cbd da1f fb3c
00000190: e1fa 9b3e 1c3d 733e 7fcf 3d3d e8d6 943d
000001a0: 2e40 a3bd 727b 02bd 1f8b 4ebe 60cf 933d
000001b0: cf26 2cbd 0769 143e 0548 42be e859 f7bd
000001c0: 2816 c33d 0dd5 f7bd 6c8e 133e 7dcb cbbd
000001d0: 2eb6 ca3c 592c 823e d13a 623e 81ca b23d
000001e0: 0d66 813e da96 08bc f019 07be 2792 9ebe
000001f0: 26cc 8e3e bb28 c8be f3ba 4fbe 766e 87bc
00000200: e8e9 21bd 6b9b a73e 6a55 823c ab04 633d
00000210: ca30 e03e ee74 783d 2d49 863d 7293 073e
00000220: 2f04 aebd 0aff 713e 5b72 723d 9f60 78be
00000230: be19 963e b69c 88bd 5f71 aebd 1c6b c3bd
00000240: 4a8e 2f3e b339 1c3d 8837 0abe 9d69 8cbb
00000250: 6a12 ad3d b87e 35be ed7e 0ebc 5cdf 37be
00000260: a2f2 ebbd dd63 86bc cc03 59be 438e 20bd
00000270: fb56 64bc 674e 0d3e 21ff e4bd 1f9f 473a
00000280: cfda 8b3d e9e7 45be 47fc 733c 347e 103e
00000290: 94ee dc3c c96e 28be 99ba d0bd e65e 3cbe
000002a0: 4757 30be 68d4 293e 525b 32bd db26 0abc
000002b0: 39bc 55be 5eea ccbd 5d45 10bd eb79 ddbe
000002c0: cec6 f63d c1fd 8dbd d6e0 6f3e 2e94 d23d
000002d0: 3f7e a9be edcb adbe f200 0abe 5600 a53e
000002e0: 22cd 50be 6a9e 2cbe c10f 0b3b 9753 993e
000002f0: 9050 353c 6e91 ffbd fc76 e1be 302f a73d
00000300: 35f2 babb a733 0c3f 560c d73d 5f60 c13d
00000310: 75f6 823e e129 4b3e b21b 86be b3b1 afbe
00000320: 6ca7 473d 8889 ccbc 9585 0a3e 7d9d 14be
00000330: fffe 5e3e 796b 1cbe 0300 46be 1e47 06bd
00000340: 1746 17bd d293 323e 87ee 043d 096f 283e
00000350: e193 ea3d cccd bdbe 9dfc af3e 0c02 bdbd
00000360: cb67 6cbe 9f86 0f3e a1f1 903d 6b1b ee3c
00000370: 5903 ccbd b88a 353e 8f6d 653e d635 d7bd
00000380: 416b 863e e335 8b3c 0808 c3bd 6390 7d3e
00000390: 9b6d e1bd 8c40 863d 1f5d 6c3e 2f34 44be
000003a0: 6e84 853e d7d1 1f3c 1c1f f3b9 071d 813e
000003b0: bb8b 553e 344c a43e 6ddc aabe 0956 d73c
000003c0: d71b 2e3e e143 a4be 9b20 54bc fe2c 12be
000003d0: 1a98 24be a80f 44bc 813f 5a3d 9ab6 023d
000003e0: b498 cf3d db7b 93be 18c1 71be 7679 fa3e
000003f0: 8899 e2bd 4f33 67bc eb60 2e3d cf74 debd
-0.31283242 -0.17656375 -0.20617296 -0.0733194 0.019797683 0.16370353 0.04772916 0.20035376
0.09430495 -0.15234052 -0.022206686 0.21701065 -0.35263324 0.1789604 0.0072032814 0.2192234
0.08221295 -0.08883218 0.13992408 -0.1028587 0.11645329 0.47072595 -0.3644213 0.26785848
-0.17557946 0.24289124 0.28095135 -0.012305825 -0.026656318 0.05710868 -0.086756185 0.30007473
0.2879606 0.05302216 -0.16540675 0.010690255 0.017039029 0.22566783 0.18630372 0.119010806
-0.12603332 0.07625632 0.4263468 0.014446078 -0.13860178 0.16554892 0.15308437 -0.22557607
-0.040507697 -0.23017965 -0.52930856 0.31927145 0.055082843 0.10466674 0.06381681 0.15869533
-0.18107466 -0.18557669 -0.00027471647 -0.27641556 -0.27167487 0.11868371 0.38013387 -0.0775602
-0.15091473 0.4222093 0.047529697 0.06311223 0.11716187 -0.23426756 -0.23978497 0.3833617
0.102478065 -0.18552737 0.1379507 -0.23417033 -0.10849185 0.09241941 -0.07099471 0.11609416
0.1263909 -0.01213291 0.28244072 -0.083849326 -0.021100435 -0.031031065 -0.21639737 0.24018322
0.02441446 -0.14893684 -0.34068775 -0.11748042 -0.1718546 0.39626372 -0.20575017 0.28212428
0.14420116 -0.06541515 -0.05000798 0.030654836 0.30464843 0.2375378 0.04634046 0.072675526
-0.07971226 -0.031856008 -0.20170258 0.07217288 -0.0420292 0.1449319 -0.18972786 -0.12077695
0.0952571 -0.12101183 0.14409798 -0.09950922 0.024745073 0.2542446 0.22092749 0.08730031
0.2527317 -0.008336747 -0.13193488 -0.3097088 0.27890128 -0.39093575 -0.20286159 -0.016532164
-0.03952971 0.32735762 0.01590987 0.055424374 0.43787223 0.060658388 0.06556926 0.1323984
-0.08496892 0.23632446 0.05919109 -0.24255608 0.29316515 -0.06670515 -0.085177176 -0.09541914
0.17144123 0.038140964 -0.13497746 -0.004285051 0.08450778 -0.1772412 -0.008697254 -0.17956299
-0.11520888 -0.01640504 -0.21192855 -0.03919817 -0.013936753 0.1379944 -0.111814745 0.00076149584
0.06828844 -0.19326748 0.014891691 0.14110643 0.026969232 -0.16448511 -0.10191841 -0.18395576
-0.17220794 0.16584933 -0.04354412 -0.008432115 -0.20872582 -0.100056395 -0.0352224 -0.4325708
0.12049638 -0.06933165 0.23425612 0.10282169 -0.3310413 -0.33944646 -0.13476923 0.3222682
-0.20390752 -0.16857305 0.0021219107 0.29946586 0.011066571 -0.124789104 -0.4403609 0.08163297
-0.005705143 0.54766315 0.105004 0.094422095 0.25578657 0.19840194 -0.26193005 -0.3431526
0.04874365 -0.024967924 0.1352752 -0.14513202 0.21776961 -0.15275373 -0.19335942 -0.032782666
-0.036932077 0.17439201 0.03245404 0.16448607 0.11453987 -0.37071073 0.34372416 -0.09228906
-0.23086469 0.14016198 0.07077337 0.029065808 -0.09961576 0.17728698 0.22405075 -0.10508315
0.26253703 0.016993469 -0.09523016 0.2476211 -0.11007234 0.0655528 0.23082398 -0.19160531
0.26077598 0.00975462 -0.0004637175 0.2521746 0.20854084 0.32089388 -0.33371297 0.026286142
0.17002808 -0.32083037 -0.012947227 -0.14274976 -0.16073647 -0.011966623 0.05328322 0.031912424
0.10136548 -0.28805432 -0.23608816 0.48920792 -0.1106444 -0.014111354 0.042572897 -0.10862123
