IAV_FINAL/results/results/SheepsRedo3/Sheeps/Sheeps-1470379.onnx (onnx, 33382 bytes, 5 tensors)

action_model._continuous_distribution.log_sigma f4 [1, 2]
000000 55 ea 12 3e 0e 3c 2e 3d
       0.14347203 0.04253774

action_model._continuous_distribution.mu.bias f4 [2]
000000 70 91 15 bc 3b f2 d4 3c
       -0.009128913 0.02599441

action_model._continuous_distribution.mu.weight f4 [2, 256]
000000 c4 e1 c3 bc ab 2d a4 bb 61 33 ab bc e0 31 9a bc
       -0.023911364 -0.005010327 -0.020898523 -0.01882261
000010 e8 36 04 bd f6 01 1e bc 81 f0 e2 bc 40 c8 4c bd
       -0.032278925 -0.009644022 -0.027702572 -0.04999566
000020 68 8d 61 bd 54 b9 92 bc 9d 0d 88 3c 87 5d e0 3c
       -0.055066496 -0.017910637 0.016608054 0.027388347
000030 d5 53 44 3d b4 46 1e bd 11 3b 4c bd 96 e4 66 bd
       0.04793151 -0.038641647 -0.049861018 -0.05637034
000040 68 17 47 3d 24 5a 01 bb 56 7a 4c 3d ac 4b 11 3d
       0.048606306 -0.0019737566 0.049921356 0.035472557
000050 54 91 a8 bb a5 7b b6 3c dc 08 1b bd 21 0a 1f bd
       -0.0051442776 0.022275755 -0.037850246 -0.03882802
000060 1d e3 c9 bc e1 d9 35 bc 7b 46 db bc ce db 0e 3d
       -0.024644429 -0.01109931 -0.026767006 0.03487759
000070 73 72 19 bd 4a 76 62 bd c2 5a e9 bc 48 63 90 3b
       -0.037462663 -0.05528859 -0.02848566 0.0044063665
000080 60 61 f6 bc 76 93 f0 bd 70 44 ce bc d6 a2 25 3d
       -0.030075729 -0.11746876 -0.025179118 0.040438496
000090 4e 6c eb 3c 18 ef 06 bd f9 c3 14 3c c8 1c b7 3d
       0.028738167 -0.03294286 0.009079927 0.089410365
0000a0 81 49 29 3d 96 4f 34 bc c2 a0 ac 3c 8f 27 e9 3d
       0.041329864 -0.011005303 0.021072749 0.11384498
0000b0 44 39 3d bc 89 22 ef bb 3d 11 88 bd a1 6e a0 3c
       -0.011549298 -0.007297818 -0.06643913 0.019584002
0000c0 fc f9 9d bd 9c b6 f2 3d e1 21 80 bd e0 e0 f7 3b
       -0.07713696 0.11851236 -0.06256462 0.007564649
0000d0 62 d2 17 be 18 94 18 bb 8b ee 61 3d da f8 25 3d
       -0.14826348 -0.002328163 0.055159133 0.040520526
0000e0 47 9a b9 bc 2d 77 f1 bc 01 54 b1 3c dc 6e 49 3c
       -0.022656573 -0.029475773 0.021646501 0.012294497
0000f0 e0 1d cb 3c 85 c6 f6 bc 01 2b a9 bb 29 39 b1 bc
       0.024794519 -0.030123958 -0.005162597 -0.021633701
000100 65 62 7a 3c 63 71 e2 bd 5d 39 1a 3d 32 e8 10 bc
       0.015282248 -0.11056783 0.037652362 -0.008844422
000110 d9 ef 8b bc 85 6e e1 3c 0e 7d 86 3d 37 eb 77 bd
       -0.017082142 0.02751852 0.06566821 -0.060527053
000120 38 54 76 3d 8b 49 b5 bc 54 60 27 bd 33 3e 03 bd
       0.06013891 -0.022129795 -0.04086335 -0.03204174
000130 93 93 d8 bc 0d 61 4d 3c 0b ea 3f 3c d0 e7 0b bc
       -0.026437556 0.012535346 0.011713515 -0.008539155
000140 c7 58 10 bd 0d 91 52 3d 36 f0 ca bc 76 b7 28 3d
       -0.035240915 0.051407862 -0.024772745 0.041190587
000150 f9 57 b0 bb f3 2d b5 bc 65 9d 86 3a ce 22 99 3a
       -0.005381581 -0.022116637 0.0010270296 0.0011683346
000160 35 1a 33 3d 68 3a 9e bc 76 2f 03 bd f1 f9 07 bc
       0.043726165 -0.01931496 -0.032027684 -0.008299337
000170 03 48 14 3c 16 e5 51 bc 88 60 8d bb 5f 9c 56 39
       0.009050372 -0.012810966 -0.004314486 0.00020466883
000180 f9 cd d1 bd 81 d7 3b bd 1d 20 07 bb 39 ad b1 3c
       -0.10244364 -0.045859817 -0.0020618506 0.021689044
000190 e1 58 72 bd e8 e5 77 3b 12 a8 9b bc b7 b6 e4 bc
       -0.059166793 0.0037826244 -0.01900104 -0.027919156
0001a0 80 1a 31 3b b2 14 a4 bb 15 e1 c2 3d 0a 01 f6 3d
       0.0027023852 -0.00500735 0.09515587 0.12011917
0001b0 00 ee f9 3d d6 b6 06 ba d7 3e 32 39 8a 82 07 3c
       0.12203598 -0.0005138939 0.00016998812 0.008270869
0001c0 46 5c 70 3c e7 36 5e 3d 6c cf 0c bc 7f 68 0e bd
       0.014670437 0.054251578 -0.008594375 -0.034767624
0001d0 4a 6b 9e 3d bf 7b a4 bc c9 8e a4 bc 17 cd 0e bd
       0.077353075 -0.020078538 -0.020087617 -0.034863558
0001e0 a2 d9 29 bd 28 64 88 bc af 2b de 3c 00 71 34 3a
       -0.041467316 -0.01664932 0.02712044 0.00068832934
0001f0 64 42 78 bd 36 57 13 bd 03 36 aa 3c cd 89 3d bd
       -0.06061019 -0.035971843 0.020777708 -0.046273995
000200 8a 74 a3 3d 6b d7 91 bc f8 d7 8d bc 12 63 9d 3b
       0.079812124 -0.017802915 -0.017314896 0.00480307
000210 0b bc fe 3c bb da 17 3c 97 d0 13 3a 4b 11 49 3d
       0.031095525 0.009268458 0.0005638687 0.049088757
000220 d2 a0 9b 3c 87 d2 43 3d ba 9b 03 3b 9e 61 43 3d
       0.018997584 0.047808196 0.0020081834 0.047700517
000230 a2 a5 cf bd e3 cd d5 3d 43 c5 87 bc e1 e0 83 bc
       -0.10139014 0.104396604 -0.016573554 -0.016098442
000240 6d 9b 42 3d c5 bb 56 3c cd d1 3a bc 15 31 91 bc
       0.047511507 0.013106291 -0.0114025595 -0.0177236
000250 f8 80 b4 3d 21 d0 35 3c 01 2e a0 3d c4 79 cf bb
       0.08813661 0.011096985 0.078212745 -0.0063316543
000260 57 95 be 3b 65 3d 8b 3d 52 cc a4 3c 81 61 e0 bb
       0.0058161425 0.067988195 0.020116959 -0.006847561
000270 58 b6 95 3a ae e9 1a bd 10 c9 5a bc d5 50 d6 bc
       0.001142214 -0.03782051 -0.013353601 -0.02616159
000280 6f 0b ac bc bb 79 5c 3c fe 8e 08 3d 89 47 89 3d
       -0.021001546 0.013456757 0.033339493 0.067030974
000290 4f e8 1f bd d6 cb 17 3d 84 ee c3 3b 48 26 39 3b
       -0.039039906 0.037059627 0.005979361 0.0028251577
0002a0 a2 ef 41 3d 38 6d 45 3d b7 be 92 bc db 2e ba 3b
       0.047347672 0.048199862 -0.017913206 0.005681855
0002b0 e6 f4 5d 3c 3f 22 dc 3c 26 5b 21 bd c7 27 b6 bc
       0.013547158 0.026871799 -0.039393567 -0.022235764
0002c0 ba 47 4a 3b d0 63 02 bc 45 1c 08 bd 95 91 29 3d
       0.0030865506 -0.0079583675 -0.033230085 0.041398603
0002d0 d7 73 39 3d 9f af 4c bc 5b 2d 7f bd 94 0f ab 3c
       0.04527649 -0.012493043 -0.062299114 0.020881452
0002e0 81 7f 65 3d 79 97 96 3b b7 97 28 3d f6 37 0d 3c
       0.0560298 0.0045956937 0.04116031 0.008619299
0002f0 99 38 7a bc 41 09 ca bc 47 32 30 3b 4a b9 e9 bc
       -0.015272283 -0.024662616 0.0026885436 -0.028530736
000300 46 ed 65 3b 6b 48 93 3d 6a 61 72 3d bf c6 ac 3b
       0.0035084053 0.07191547 0.059174933 0.005272716
000310 50 9b af bc 00 e1 b7 3c 7e d2 46 3d ab f8 d3 bc
       -0.021436363 0.022446156 0.048540585 -0.02587541
000320 41 c0 0f bd b9 63 f9 bc 25 82 b2 bb 07 19 ae 3c
       -0.035095457 -0.03044306 -0.0054476433 0.021252168
000330 57 69 97 3d 42 b4 8b bd 06 a2 96 3d fa 71 8b 3d
       0.07393139 -0.06821491 0.07355122 0.06808849
000340 cf f3 39 bb ac a3 83 3d bf e0 11 3d 06 0f 21 bd
       -0.002837408 0.06427702 0.035614725 -0.039320968
000350 07 55 8d bc 57 84 aa bc fb 0d 6d 3b 70 b9 3a 3d
       -0.017252458 -0.020815058 0.0036171663 0.045587003
000360 95 00 0f bd b7 03 a5 3b 13 79 4d bb e9 59 a1 3c
       -0.034912664 0.0050358432 -0.0031352683 0.019696193
000370 aa 21 3c bd d8 8d 38 3d cc f8 66 bd bb d0 b9 bc
       -0.045930542 0.045057148 -0.056389615 -0.022682538
000380 0f 7e 41 3c 80 b2 82 bc 3d 63 1f bd e5 30 99 3d
       0.01180984 -0.015954256 -0.038913 0.07480029
000390 ac b8 d1 bc 89 82 82 3d 7e 0e 15 3c 0a 12 7f 3c
       -0.025600754 0.06372554 0.0090976935 0.015568266
0003a0 32 c7 09 bd 20 cb 72 3c 5a 92 9f 3a 1a 03 0d bd
       -0.033637233 0.014818937 0.0012174353 -0.034426786
0003b0 b8 be c0 3d 9e 46 7e 3a 7e 01 d2 3a 45 0f 24 bc
       0.09411377 0.0009699854 0.0016022173 -0.010013406
0003c0 9b 06 bf 3c 61 c6 7c 3d cf 96 84 bd a2 ea 17 bc
       0.02331858 0.061712626 -0.06474077 -0.009272249
0003d0 26 81 89 3d a9 b3 ab bc 05 b7 b7 bd 56 af 6b bd
       0.06714086 -0.020959692 -0.08970455 -0.05754026
0003e0 2e 1d ee bc 05 d8 d9 3c 73 5f 1d 3b 96 b6 e1 3c
       -0.029066648 0.026592264 0.002401319 0.027552884
0003f0 59 9c 6a bd bc f8 10 3c a9 05 84 bd 73 43 d8 3c
       -0.05727801 0.008848365 -0.06446392 0.02639935

network_body._body_endoder.seq_layers.0.bias f4 [256]
000000 f3 7f 8b 3b b4 d8 34 3c 67 4a 12 bc b8 ca 01 3d
       0.004257196 0.011037994 -0.008928872 0.03168747
000010 86 37 c2 3c 8b e3 23 bb 07 fc a0 3c 0b 1a c6 3c
       0.023708116 -0.0025007452 0.019651426 0.02418234
000020 18 6b b5 3c 28 b5 cb 3b 53 1c d9 3c e8 59 09 3b
       0.022145793 0.006216664 0.026502764 0.002095813
000030 3b dc 08 3a cc ee b7 3c 5b 15 e8 3b 40 46 c2 3c
       0.0005220805 0.022452734 0.007082624 0.023715138
000040 dd ea fe bb 25 ac 0d 3c f2 39 9d bc 7d 50 98 3c
       -0.0077794627 0.0086469995 -0.01919267 0.018593067
000050 c3 7b 00 3d 7e 0f cf 3b 76 03 48 3c e1 77 29 bc
       0.03136803 0.0063189855 0.012207856 -0.010343523
000060 79 d1 43 bc 22 a3 40 3c 28 e1 b1 3c 15 dd 29 bd
       -0.011951798 0.011757644 0.021713808 -0.041470606
000070 3e c9 4d bc 45 7f fa 3a 6b 99 04 3d d9 96 97 bc
       -0.012560187 0.0019111416 0.032372873 -0.018504547
000080 0f 22 0f 3d ed b9 5b 3c 77 dc 9c bb cf 89 a1 bb
       0.03494459 0.013411027 -0.0047870236 -0.004929758
000090 e5 e6 d2 3c 83 cf 6e 3c 29 4b b8 bc b7 58 05 bb
       0.025744865 0.014575842 -0.022496777 -0.0020347068
0000a0 01 3a 09 3d c1 2d b1 bc af fa 71 3c e3 1b e1 bb
       0.033502582 -0.021628262 0.01476924 -0.0068697794
0000b0 11 b3 8c 3c 30 5f e5 3c f9 9e 6b 3c f2 25 7c bc
       0.01717523 0.02799949 0.014381164 -0.015389906
0000c0 25 77 b3 3c a0 8c ad 3c 1c eb 02 3d f6 82 3e 3b
       0.021907398 0.02118522 0.0319625 0.0029069758
0000d0 21 89 1a 3d 9c 09 af 3c 18 b9 c8 bb 56 a8 e1 3c
       0.037728433 0.021366887 -0.0061255805 0.02754609
0000e0 2f aa 04 3d 8a 0e fa 3b da 29 a6 bc 59 6b bd 3c
       0.032388862 0.0076311277 -0.020283628 0.023122476
0000f0 07 ee eb bb b3 30 34 3c ea 5a b5 3c b3 1d 5b 3c
       -0.007200006 0.010997939 0.022138078 0.01337378
000100 77 01 ea bb 4d 37 29 3d 30 43 74 bc f1 39 08 3d
       -0.007141288 0.041312505 -0.014908597 0.033258382
000110 7a 4b 36 3c 4f 8a 36 3d eb cb 02 bc d9 06 d6 3c
       0.011126393 0.044565495 -0.007983188 0.026126312
000120 b9 db bb 3c 3a 8d 97 3c 0d a1 01 3d 79 82 b5 3c
       0.02293192 0.01849996 0.03164773 0.02215694
000130 f8 17 05 3d 34 f6 bb 3c 8b 18 55 bc f8 91 8d 3c
       0.03249356 0.022944547 -0.01300634 0.017281517
000140 75 14 e3 3c 18 9c 84 bb 86 26 72 b9 c1 df 15 bc
       0.027719716 -0.004046928 -0.0002309327 -0.009147585
000150 e7 9e 1a bd a9 74 2d 3b 47 c4 e1 bb e6 60 68 bc
       -0.037749197 0.002646724 -0.006889853 -0.014183259
000160 01 10 cc 3a 37 e4 13 3d 94 48 77 3c 40 56 61 bc
       0.0015568734 0.036106315 0.015092988 -0.013753474
000170 97 ed 0e 3d 91 89 f9 bb 7d 85 6d 3a 0f 5c df 3b
       0.034894552 -0.007615276 0.0009060724 0.006816394
000180 b5 49 00 3d bf 18 35 3d af 30 db 3c 5e bc 95 3c
       0.031320293 0.044213053 0.026756613 0.018278297
000190 bc 01 d1 3c e8 76 ee bc d8 a0 f7 3c d5 01 24 3d
       0.025513522 -0.029109433 0.030228063 0.04004081
0001a0 1c b4 89 bb d7 c3 23 bd 86 cd c4 3a 6c 70 d7 3b
       -0.004202379 -0.03998169 0.0015014864 0.006574681
0001b0 ec 40 e1 3b 2e b5 f3 ba c8 ad 65 bb 91 d8 52 3c
       0.0068741944 -0.0018593424 -0.0035046209 0.012869016
0001c0 c4 ff 08 3d bf e8 07 bc 4a fc d7 bb 8a 24 d2 3c
       0.033447042 -0.008295237 -0.0065913545 0.025652189
0001d0 ab b6 6d 3b 04 a7 42 bc b1 ff 84 3b 7c 5d ff 3c
       0.0036272209 -0.01188064 0.004058801 0.031172507
0001e0 fe b0 ef 3c a1 4e 88 3c 7c fe cd 3c dc 23 a2 3c
       0.029259201 0.016639056 0.025145762 0.01979249
0001f0 85 c2 2c bc 0b 98 83 3b 6d 97 e5 bb c9 f2 06 3d
       -0.010544424 0.0040159277 -0.0070065768 0.03294638
000200 7a 6b 31 3c b6 87 f9 3c 6c 40 a9 3c 37 19 cc 3c
       0.010828847 0.03046022 0.020660602 0.024914367
000210 02 cb 96 3c 7e ad 8a bc 71 5f 60 3b ad db 87 bc
       0.018407349 -0.01692843 0.0034236575 -0.016584242
000220 49 67 a9 3c 4c 71 69 3a 30 60 46 3b 0a 6e 06 3d
       0.020679133 0.0008905127 0.0030269735 0.032819785
000230 5a be 1d 3c 5a be c9 3c 4b 3d 5b bc af 6e fa 3c
       0.009627903 0.0246269 -0.013381313 0.030570356
000240 f9 27 19 3d 49 e7 83 3c 67 b8 53 3c 25 6d 31 3b
       0.037391637 0.016101496 0.012922383 0.0027073112
000250 b9 ac 4d ba 23 60 2a bc e5 4f 13 3c 29 b1 09 bc
       -0.0007845867 -0.010398897 0.008991216 -0.008404055
000260 71 8e bb bc 53 1b 2f 3b 77 56 05 3d 59 b9 9c bc
       -0.02289507 0.0026719167 0.032553162 -0.01913135
000270 b2 09 a8 39 24 56 09 3d 71 27 22 3d 42 25 07 3d
       0.0003205068 0.033529416 0.039588396 0.032994516
000280 82 1d d8 3b c6 63 33 3b a8 0e d9 3b ea c8 72 bc
       0.0065953145 0.0027372702 0.0066240616 -0.014818409
000290 11 f3 08 3d 6b 4b 17 bc 2a ba 16 bc f9 23 04 bc
       0.03343493 -0.00923429 -0.009199658 -0.008065217
0002a0 c2 6c 03 bc 1e 2e ca 3c 92 8c 8c bb a4 ea ef 3c
       -0.008021535 0.024680194 -0.004289218 0.02928669
0002b0 41 6b 52 3c f9 71 5a bc 65 81 b6 bb 50 5c db bb
       0.012842954 -0.013332837 -0.0055696242 -0.006694354
0002c0 0e 2e b5 bb 51 5d cf 3c 71 72 0a 3c aa 6c d6 bb
       -0.005529172 0.025313051 0.0084501365 -0.0065437155
0002d0 06 7f e7 3c 2c 8f d6 3c 83 eb 51 3c af 55 fd ba
       0.028258812 0.026191317 0.012812498 -0.0019327904
0002e0 e4 3f 2b 3c 5b f6 f3 3c 30 cf 66 3c 98 9e 4f 3b
       0.010452244 0.029780557 0.014087483 0.0031680223
0002f0 23 f7 7d 3c 6f fd ba bc f4 21 80 3b c8 b0 b9 3c
       0.0155008165 -0.022825925 0.0039102975 0.022667304
000300 73 57 74 bc 33 c3 a5 bc 43 3d c4 3c d9 ae 97 bc
       -0.014913428 -0.02023468 0.023954993 -0.018515991
000310 8d 0c ca 3c 3e 57 84 bc 04 55 37 bc 3c 0b 21 bb
       0.024664188 -0.016154882 -0.011189703 -0.0024573347
000320 4a 65 2f 3c ca 29 f9 3b ba f8 c9 3c 5e c4 b9 ba
       0.010705302 0.0076038586 0.024654735 -0.0014172902
000330 ac a3 d2 3c 1f ca f1 3c fd 0b c5 bb 71 3f cf ba
       0.02571281 0.029515324 -0.006013392 -0.0015811754
000340 00 eb e9 3b 77 ec da 3c 4a 3a e2 bc 2d e1 25 3d
       0.00713861 0.026724083 -0.027615685 0.040497947
000350 fa 63 bc bb cf 2a 49 bc d1 27 6d bb 50 e1 0a bd
       -0.005749223 -0.012278273 -0.0036187063 -0.03390628
000360 82 02 fe 3c 3a 9f 54 3c 5b 8d b0 3b b1 08 58 bc
       0.031007055 0.012977416 0.0053879446 -0.013185666
000370 a5 a5 8a 3c a1 74 76 3b 71 36 f3 3c 9b 40 0c 3d
       0.016924689 0.0037606137 0.029689046 0.0342413
000380 9b 5b 8c 3c b2 20 6a bc 49 6e 34 3c cb 05 fc b9
       0.017133525 -0.014290022 0.011012622 -0.00048069502
000390 f9 aa 0f 3c 50 6c 03 3d a7 08 95 bc 2c 79 9f bc
       0.00876879 0.032085717 -0.018192602 -0.019466959
0003a0 48 7a d7 b9 ea 9a 8b 3c 63 f5 e1 ba ab 2e e3 3c
       -0.00041099102 0.017041642 -0.0017239269 0.027732214
0003b0 76 75 95 3c 98 c3 9a bc b7 4a c0 3a 4e fc 98 3c
       0.018244486 -0.018892094 0.0014670704 0.018674996
0003c0 92 a6 ce bb 34 a7 1b bc 25 14 4f 3d 88 8c dc bc
       -0.006306478 -0.009500314 0.05055632 -0.02692248
0003d0 4f c5 10 bc 3b 05 83 bc 81 1b eb 3c 44 47 55 3c
       -0.008836105 -0.015993705 0.028699638 0.013017479
0003e0 db bc a0 3c 00 8a b0 bc a2 c4 09 3c 99 b4 c1 3c
       0.019621303 -0.021550179 0.008408697 0.023645686
0003f0 d9 f8 e6 3c 8b de b5 3a 75 fc 98 3c ad fe 15 3d
       0.028194832 0.0013875527 0.018675068 0.03661983

network_body._body_endoder.seq_layers.0.weight f4 [256, 28]
000000 4b 69 9e be 82 51 3a 3e 34 92 0e be 42 4d 94 3d
       -0.30939707 0.18195155 -0.1392296 0.07241298
000010 bd fb f5 3c bc 37 2c bd 01 ba 79 3a 7f 07 3b 3c
       0.030027265 -0.04204534 0.0009526313 0.011415361
000020 54 0f b1 bd de e7 94 3e af 6c d9 3d 50 05 95 3e
       -0.08645502 0.2908315 0.10616433 0.29105616
000030 d2 80 41 be e3 76 a7 bd 08 b3 03 3e 36 ff 95 be
       -0.18896797 -0.08176973 0.12861264 -0.29296273
000040 62 bb ce be 70 59 dd bd cb 89 8f 3e d4 ec 2b be
       -0.40377337 -0.108080745 0.28034815 -0.16789562
000050 62 17 92 be 13 cb ae bd 4f a5 16 be 0f 23 ea bd
       -0.28533465 -0.08534827 -0.14711498 -0.11432468
000060 a5 f8 06 bd a4 a3 3f 3e 16 82 33 bd 28 97 1c be
       -0.03295197 0.18714768 -0.04382523 -0.15292037
000070 83 8c 9e 3d 5a a1 f3 3d 8a e0 19 bd 59 46 4a 3e
       0.07741644 0.1189601 -0.037567653 0.19753398
000080 ce d0 ac 3c 03 78 c1 3d 5b 4c 01 bd 23 3e 66 bd
       0.02109566 0.094467185 -0.03156696 -0.056211602
000090 bc 5a 51 bd ea 94 32 bc 62 60 37 be ab 6d 32 3e
       -0.05111192 -0.010899762 -0.17907861 0.17424648
0000a0 6c ad df 3d bc 2e e6 3d 71 a9 bd bb d2 fd 8d 3e
       0.109217495 0.112393826 -0.0057880213 0.27732712
0000b0 9d b4 dd 3d 69 83 30 3e ae 57 38 bd b8 f4 92 3d
       0.10825465 0.17237629 -0.045005493 0.07175583
0000c0 84 9a da ba 70 31 fd 3c 9d b7 87 bd 56 32 42 3e
       -0.0016678129 0.030907363 -0.06626818 0.18964514
0000d0 8f e0 8f 3e 36 47 11 3e be 4e 88 be e5 9f 6c 3d
       0.28101012 0.14187321 -0.26622576 0.057769675
0000e0 c7 b1 98 bd 9f bf 38 be d0 6b 3d be e8 a2 e2 bb
       -0.07455783 -0.18041848 -0.18498158 -0.0069163926
0000f0 94 8f 26 3e ce 7a f5 3d e3 06 4f 3d f3 43 58 bd
       0.16265708 0.11986314 0.050543677 -0.052799176
000100 72 7d 7f be 7d 2e be bd 2c c2 25 bb 6f 22 37 bd
       -0.24950197 -0.09286211 -0.0025292737 -0.044710573
000110 55 af a7 be d6 ec 49 3d b2 43 b2 be e0 6b 86 3e
       -0.32750955 0.04929813 -0.34817272 0.26254177
000120 f3 b8 e8 3d ad 2d e9 3b 53 58 15 3f 09 4a d6 3d
       0.11363401 0.0071160407 0.583379 0.1046334
000130 c3 95 5b be 4e 82 1d 3d f5 ac 9e be 2f dc 90 3b
       -0.21443848 0.038454346 -0.3099133 0.004420779
000140 f9 d1 ca 3e 5d 1a b9 3e a7 de 01 3e fb ab 9a 3b
       0.3961332 0.36152926 0.12682591 0.0047202087
000150 6d d1 f2 bd 61 1d 12 be 89 97 4f 3d 84 15 11 3e
       -0.11856351 -0.1426902 0.050681625 0.14168364
000160 23 75 8a 3e d6 8e c5 be 25 e1 c2 be 79 9c 15 3e
       0.27042493 -0.38585538 -0.38062397 0.14610471
000170 e1 4f 23 3e 3a 29 56 bc ba e9 21 3e ff c4 51 3c
       0.1594844 -0.013071353 0.15811816 0.012803315
000180 54 84 8e be de 22 1a 3e 86 cd 4c 3e 1e 5f f1 3e
       -0.27835333 0.15052363 0.20000276 0.4714288
000190 e6 f2 1d be e9 1d 72 3e 11 2d cb 3b a4 98 27 3e
       -0.1542469 0.23644222 0.0062004407 0.16366822
0001a0 45 8a 02 3e af 8e 8c 3e ae f3 09 3e 7a 7e e5 3d
       0.12748058 0.2745261 0.13471863 0.11205764
0001b0 73 62 67 be 74 03 3f 3e 17 01 0e 3d 43 70 29 3e
       -0.22596149 0.18653661 0.034669008 0.1654673
0001c0 b4 5a 3d 3e 8c 4d de 3d 1c f6 96 3d c0 4f 29 3d
       0.18491632 0.10854635 0.073711604 0.04133582
0001d0 db 3e a4 be a4 9d d5 bc 71 df 27 bd 7e b3 82 3d
       -0.32079205 -0.026076145 -0.040984575 0.06381892
0001e0 68 e7 68 3e 64 39 9d 3e a5 58 04 3d 6b d4 38 3e
       0.22744524 0.30707848 0.0323111 0.18049781
0001f0 66 7b 5f bc 05 5d d1 bd de 1a 06 be 5a 3d bc 3e
       -0.01364026 -0.1022282 -0.13096187 0.36765558
000200 69 5e b5 be c5 ba 1e bb 8b 1a a2 be 36 58 80 be
       -0.35423592 -0.002422021 -0.31660876 -0.250673
000210 f2 1e 09 be cc 80 cf bc 89 cc 73 bd 3f ab bf be
       -0.13390711 -0.02532997 -0.05952123 -0.37435338
000220 80 ff d1 bd 64 bc a1 bc 68 f2 e1 bd eb cc 8b 3e
       -0.10253811 -0.019743152 -0.110325634 0.27304778
000230 c3 82 10 3e 0d 58 f5 3d ff c3 12 3e 07 ed 20 3e
       0.14112382 0.11979685 0.14332579 0.15715419
000240 f0 dd 82 bb 84 40 cb 3d 25 ba a1 bd 1d a6 03 bf
       -0.003993742 0.09924415 -0.078968324 -0.51425344
000250 cb c5 84 3e eb e0 ab bd 3a 43 06 be 85 e6 1d 3d
       0.25932154 -0.08392509 -0.13111582 0.03854992
000260 cf b6 3a bd 7a 6a bb be ae 34 bb 3e 51 65 f7 3d
       -0.045584496 -0.36604673 0.3656363 0.120798714
000270 95 bc a2 be 71 e2 93 bd f6 4e df 3d fc c5 ed bc
       -0.31784502 -0.07220925 0.109037325 -0.02902507
000280 ac 9e 84 be 82 cd ee bd 80 fc 6a 3e 36 9d fd 3d
       -0.25902307 -0.11660291 0.22947884 0.12383501
000290 6d 21 16 be ae e0 0b 3e 63 d2 e8 3d 90 e3 95 3e
       -0.14661188 0.13659927 0.11368253 0.2927518
0002a0 f9 f8 81 3e 74 95 bb 3d de 05 12 bd 35 8f b8 bd
       0.25385264 0.09159365 -0.035650127 -0.090116896
0002b0 67 bc 38 3d 5c 6d 38 3e 88 13 c9 3d 1d 68 37 3e
       0.04510155 0.18010467 0.098181784 0.1791081
0002c0 48 8a 41 3c c0 5a 82 be 8d 6d cc bc e2 d3 6b 3c
       0.011812754 -0.25459862 -0.024954582 0.0143937785
0002d0 d1 58 2c 3d d2 91 16 bd c8 97 8d 3e 42 66 95 3e
       0.04207689 -0.03676016 0.27654862 0.2917958
0002e0 e6 19 01 bc 90 bb 86 bd e4 19 f7 3d d5 cf b9 bd
       -0.00787971 -0.065787435 0.12065485 -0.09072844
0002f0 4c ba 64 be e2 5c 12 be 1a a7 09 3e e9 58 ca bd
       -0.22336692 -0.14293244 0.1344265 -0.098802395
000300 63 f9 66 3a 5e 9d 48 be 09 ca 10 3e 94 a0 10 be
       0.0008810965 -0.19591281 0.1413957 -0.14123756
000310 60 3e 2b 3e 60 6e 39 be 35 1f 7e 3d b4 9c 61 bd
       0.16723013 -0.18108511 0.06204148 -0.055081084
000320 4c 27 f3 bc 05 67 49 3e 96 10 35 bd 1a d0 25 be
       -0.029681824 0.19668205 -0.04420527 -0.16192666
000330 9c 7b 09 3e 39 9b bd bc 6c 63 a5 3d a2 3b 2b be
       0.1342606 -0.023145305 0.08075604 -0.16721967
000340 43 e6 45 be 67 ea 8d be 28 1e 78 3e 4b 8d 87 bd
       -0.19326119 -0.27717897 0.24230254 -0.06618746
000350 40 91 4f be 09 6d 32 3e 09 b1 1a 3d 65 e1 10 3e
       -0.20270252 0.17424406 0.03776649 0.14148481
000360 7a be 9f 3d 63 70 f5 be a2 2f 91 3d 2b 9e 3e be
       0.078000024 -0.47937307 0.07089163 -0.18615024
000370 61 0c 04 3e 7e 84 c3 bd 1c 32 bc be 14 0b a5 bc
       0.12895347 -0.09546755 -0.3675698 -0.020146884
000380 e0 dc 5c 3e 59 d2 41 3e 56 1a 82 bc 65 c7 a6 3c
       0.21568632 0.18927898 -0.015881699 0.02035875
000390 0b 01 c3 bd c2 cc 72 3e 2c 8a 70 be ef f5 62 3e
       -0.09521683 0.23710921 -0.23490208 0.22164129
0003a0 45 b8 e1 3d 03 8b 96 bd 7d 50 13 bd 31 fc 2e be
       0.11021475 -0.07350733 -0.03596543 -0.17088391
0003b0 28 f0 bb be 36 1e 78 3d 73 93 03 bc 98 6e 69 3e
       -0.36706662 0.060575686 -0.00803076 0.22796094
0003c0 61 c5 fe 3c 9c 27 cf bd 9a aa a0 3e 43 81 53 3e
       0.031099977 -0.10114977 0.3138016 0.20654778
0003d0 aa a4 c5 3e f7 46 0d 3f b8 e7 0f 3e 3c 3f 5b bd
       0.3860219 0.5518641 0.14053237 -0.053527102
0003e0 a3 94 5f 3e 38 fc ab 3d a0 13 d4 3c 9a 62 89 3e
       0.21834044 0.08397716 0.025888264 0.2683304
0003f0 93 f9 db 39 b4 b0 3a be f7 02 14 3e 6f 35 16 3c
       0.00041956882 -0.1823147 0.14454256 0.009168013
