IAV_FINAL/results/SheepsRedo1/Sheeps/Sheeps-213139.onnx (onnx, 33382 bytes, 5 tensors)

action_model._continuous_distribution.log_sigma f4 [1, 2]
0	0x3cff8ca7	0.031194998
1	0xbb10b162	-0.0022078385

action_model._continuous_distribution.mu.bias f4 [2]
0	0x3ce96d78	0.028494582
1	0x3ba9e3b3	0.0051846146

action_model._continuous_distribution.mu.weight f4 [2, 256]
0	0xbbe4170d	-0.0069607557
1	0x3c9f73a4	0.019464321
2	0x3b6ab5e4	0.0035813982
3	0xbc479511	-0.012181536
4	0xbd2c1bf3	-0.042018842
5	0xbd11fc25	-0.035640854
6	0x3c93249d	0.017961795
7	0x3cf56c7a	0.029958952
8	0x3cd95730	0.026530832
9	0x3d262a9a	0.04056797
10	0xbcdd6f31	-0.02703056
11	0xbcc1cf1f	-0.023658333
12	0x3cb88e08	0.022528663
13	0x3cb7f9dc	0.02245801
14	0x3c8e68c7	0.017383946
15	0xbbc9d17f	-0.006159007
16	0x3cb31c84	0.021864183
17	0x3c813d6f	0.015776364
18	0x3d3f2efd	0.04667567
19	0x3ccaf418	0.024774596
20	0x3d1fa9e6	0.038980387
21	0x3d0b66f5	0.034033734
22	0x3c625745	0.013814752
23	0x3d01c1fa	0.03167913
24	0xbb8a4115	-0.004219184
25	0xbd222303	-0.03958417
26	0xbcbfb97a	-0.023403872
27	0xbcd57983	-0.026058918
28	0xbc03fc6b	-0.008055787
29	0x3d3dd7f4	0.046348527
30	0xbccf47da	-0.025302816
31	0x3c550afe	0.013003109
32	0xbd0fdeba	-0.035124518
33	0x3d4f990d	0.05068307
34	0xbc6c7d49	-0.014434167
35	0x3d416d23	0.04722322
36	0xbcc14254	-0.023591198
37	0xbd0d6a7f	-0.03452539
38	0x3d208026	0.039184712
39	0x3c49e749	0.012323209
40	0xbc7d703c	-0.015468653
41	0xbbbecf4a	-0.0058230506
42	0xbc4a0162	-0.012329431
43	0xbd316b51	-0.043315236
44	0xbd5e9c62	-0.054348357
45	0x3b95436d	0.004555157
46	0x3c70677b	0.014673109
47	0xbc01dff2	-0.007926928
48	0xbd114655	-0.035467464
49	0x3c40334f	0.011730983
50	0x3d0b2adc	0.03397642
51	0xbb1af727	-0.002364585
52	0xbb25d6b6	-0.002530498
53	0xbd3b551c	-0.045735464
54	0xbcd47999	-0.025936889
55	0xbc9f7beb	-0.019468268
56	0xbbe1e6cf	-0.0068939696
57	0xbb062c45	-0.0020473164
58	0x3d17a70d	0.037024546
59	0xbced6e3f	-0.028983233
60	0x3d1f7d76	0.03893801
61	0x3d69b8c1	0.05706096
62	0x3ceda0a2	0.02900726
63	0x3cfd2148	0.030899659
64	0x3b2a0ce0	0.0025947616
65	0xbb77fc18	-0.0037839469
66	0x3cc4f126	0.02404077
67	0x3d14b6ce	0.03630715
68	0x3bf9eef6	0.0076273633
69	0xbb72d5fb	-0.0037053812
70	0xbd2ea8f1	-0.042641584
71	0xbd024eef	-0.03181356
72	0x3d0677d5	0.032829124
73	0xbd342211	-0.0439778
74	0x3b217e8e	0.0024642083
75	0xbd19f086	-0.037582897
76	0xba084947	-0.00051989075
77	0xbd78f1c0	-0.060777426
78	0xbc66911e	-0.014072685
79	0x3bd4876f	0.0064858715
80	0xbd0ecdbd	-0.034864176
81	0x3cb2e3f5	0.021837214
82	0xbd415ecf	-0.047209557
83	0x3c9b0f8d	0.018928314
84	0xbc477c38	-0.012175612
85	0xbc137233	-0.008999395
86	0x3a7c56ef	0.0009625991
87	0x3d386aa5	0.04502358
88	0x3bde11e1	0.0067770337
89	0xbd09c688	-0.0336366
90	0xbc3c0496	-0.011475703
91	0xbd01440e	-0.031559043
92	0xbc8ef501	-0.017450811
93	0x3d634b1b	0.055491548
94	0x3cf8506b	0.030311784
95	0xbd73fa5e	-0.05956494
96	0x3c081b43	0.008307281
97	0x3d063df0	0.032773912
98	0x3c0e8504	0.008698706
99	0xbcc50b34	-0.024053194
100	0xbd549533	-0.0519001
101	0x3cfcc089	0.030853527
102	0xbc38c498	-0.01127734
103	0xbcc624de	-0.024187502
104	0xbb2f92a0	-0.0026790276
105	0xbb845c27	-0.0040393057
106	0xbc64d4ee	-0.013966782
107	0x3c92bb6d	0.017911637
108	0xbc5cc87b	-0.013475533
109	0x3c115a6d	0.008871657
110	0xbcebc886	-0.02878214
111	0x3ce2cde0	0.02768606
112	0xbc1b350f	-0.009473099
113	0xbd14f023	-0.036361825
114	0x3d7f51a2	0.06233371
115	0xbb2d1159	-0.0026408045
116	0x3d2fa71a	0.04288397
117	0x3d0c6bb5	0.034282405
118	0xbc4d5001	-0.012531281
119	0x3c33486a	0.010942558
120	0xbd27879e	-0.04090082
121	0x3d032b6a	0.032023825
122	0xbc8dc248	-0.017304555
123	0x3c9149fc	0.017735474
124	0x3cf7fa7f	0.030270813
125	0x3c35c9eb	0.011095504
126	0xbc6aa99e	-0.014322666
127	0x3c4b7ce8	0.012419917
128	0x3c9ed4f8	0.01938866
129	0x3c8de745	0.017322192
130	0xbcfcc9eb	-0.030858
131	0xbd3088ff	-0.0430994
132	0xbc8ab53b	-0.01693212
133	0xbd53f1c1	-0.051744226
134	0xbce891d4	-0.028389849
135	0xbd2ea729	-0.042639885
136	0xbcb03a79	-0.021512257
137	0xbd5af0d3	-0.053452324
138	0x3cc19637	0.023631198
139	0x3c83aa95	0.01607255
140	0x3d042de4	0.032270327
141	0xbc790028	-0.015197791
142	0x3ca04b1f	0.01956707
143	0xbc6dfc1d	-0.0145254405
144	0x3d25697a	0.040383793
145	0xbc921aaa	-0.01783498
146	0xbc251838	-0.010076575
147	0x3cd407aa	0.02588256
148	0x3c6f6f1c	0.014613893
149	0x3c9fca8d	0.019505763
150	0x3cc0fa5c	0.02355688
151	0xbc5ca597	-0.013467214
152	0xbac60844	-0.0015108665
153	0x3cbea95d	0.023274118
154	0x3d19703a	0.037460543
155	0xbd073805	-0.03301241
156	0x3c3d9bf9	0.011572831
157	0x3c7f4783	0.015581015
158	0x3c2c779a	0.010526562
159	0xbc6a1797	-0.014287851
160	0x3c8fbead	0.017546976
161	0xbd0381f3	-0.03210635
162	0xbd5f0cfc	-0.054455742
163	0x3d09e25e	0.033663146
164	0xbd343bdb	-0.044002395
165	0xbd445bd9	-0.047939155
166	0x3d037d62	0.032101996
167	0x3d12f44b	0.035877507
168	0xbd28d546	-0.04121902
169	0xbc438cc4	-0.011935417
170	0xbd2c1f97	-0.042022314
171	0xbb24b89f	-0.0025134457
172	0x3c577f41	0.013152898
173	0x3b45c72b	0.0030178528
174	0x3a4fac97	0.0007922141
175	0x3d049c32	0.032375522
176	0xbcde5ee0	-0.02714485
177	0xbd64c62d	-0.055853058
178	0xbd1966c7	-0.03745153
179	0xbd163a57	-0.03667673
180	0x3ce15259	0.027505087
181	0xbce2061e	-0.027590808
182	0xbd57c73e	-0.052680247
183	0x3c28efe6	0.0103111025
184	0x3cb6f838	0.022335157
185	0xbcb23a90	-0.02175644
186	0x3c87bc31	0.016569229
187	0xbae0ccfc	-0.0017150934
188	0xb88d7054	-6.744327e-05
189	0x3cdb317a	0.02675699
190	0xbccb13c0	-0.024789691
191	0xbd0d95fd	-0.034566868
192	0xbc09c4f9	-0.008408778
193	0x3c856f98	0.016288564
194	0xbc3145bd	-0.01081985
195	0x3c51ad58	0.012797676
196	0x3c8d48e2	0.017246667
197	0x3bffe133	0.0078088283
198	0xbc1855e6	-0.0092978235
199	0xbb3c3e99	-0.0028723835
200	0xbc4fc904	-0.012682203
201	0x3c5fd0e1	0.01366064
202	0x3ab13322	0.0013519267
203	0xbd0795bd	-0.033101786
204	0xbbf6c14b	-0.0075303665
205	0xbbd3ecd5	-0.0064674416
206	0x3d083f66	0.033263586
207	0x3d02f084	0.031967655
208	0x3d4066b2	0.046972938
209	0xbcd51f1f	-0.026015816
210	0xbc36a985	-0.011148815
211	0x3d976924	0.07393101
212	0x3d07bc65	0.03313865
213	0xbccb2f82	-0.024802927
214	0xbcbf8a4d	-0.023381377
215	0x3c01beb1	0.0079189995
216	0x3d3f2e27	0.046674874
217	0x3d0add70	0.033902586
218	0xbcb0057e	-0.021486994
219	0x3d367f31	0.044554893
220	0x3cf60269	0.030030446
221	0xbc9eae5d	-0.019370252
222	0xbc968b56	-0.018376987
223	0xbd1c8734	-0.038214877
224	0x3c3367ee	0.010950072
225	0x3d2ae759	0.041724537
226	0x3d30f8e2	0.043206103
227	0x3d08e7da	0.033424236
228	0x3d175b3d	0.036952246
229	0xbc2b7895	-0.010465761
230	0xbd458cac	-0.04822986
231	0xbce83725	-0.028346607
232	0x3c3f81be	0.011688648
233	0xbd1eb089	-0.038742576
234	0xbd3536db	-0.044241767
235	0xbd1485fc	-0.03626059
236	0x3c25e65f	0.0101257255
237	0x3bf5cf77	0.0075015384
238	0xbd5928ef	-0.053017553
239	0x3d1180fc	0.0355234
240	0xbc8507fa	-0.016239155
241	0xba7669c3	-0.0009399915
242	0x3d4c3cdb	0.049862724
243	0x3ca2dfad	0.019882048
244	0x3bcdac49	0.0062766415
245	0xbbacd4dd	-0.0052743987
246	0xbc4a708f	-0.012355938
247	0xbca976e1	-0.020686569
248	0xbc97662f	-0.018481342
249	0x3c040ace	0.008059217
250	0x3cc1698a	0.023609895
251	0xbd08534e	-0.03328257
252	0x3c82151a	0.015879203
253	0x3cfe0f19	0.031013058
254	0x3cc50992	0.024052415
255	0xbd0bbaca	-0.034113683

network_body._body_endoder.seq_layers.0.bias f4 [256]
0	0xbcb475d6	-0.022028845
1	0x3cd701f5	0.02624605
2	0x3cc2de30	0.023787588
3	0xbc9b7ebc	-0.01898133
4	0xbd10764c	-0.035269067
5	0xbd07af2f	-0.033126052
6	0x3ce34182	0.027741197
7	0x3d0327ff	0.032020565
8	0x3d1a6c41	0.037700895
9	0x3d087218	0.033311933
10	0xbc5fcf22	-0.013660224
11	0xbc8bfca2	-0.017088238
12	0x3cf81a59	0.030286001
13	0x3bc997da	0.0061521353
14	0x3cb2a250	0.021805912
15	0x3a8c285f	0.0010693184
16	0x3cbfca40	0.02341187
17	0x3d088373	0.033328485
18	0x3d1c0d70	0.038098752
19	0x3d12e7aa	0.035865463
20	0x3d07673d	0.03305744
21	0x3cf83868	0.030300334
22	0x3c418b8c	0.011813056
23	0x3d02258d	0.031774092
24	0xbc12a2dc	-0.0089499615
25	0xbc9f51dc	-0.019448213
26	0xbcd4e6aa	-0.025988895
27	0xbd1e0ef3	-0.038588475
28	0xbc551035	-0.013004352
29	0x3d3ded02	0.046368606
30	0xbcea9eea	-0.02864023
31	0x3c0f0f3e	0.008731661
32	0xbcc5aaac	-0.024129234
33	0x3d310979	0.043221924
34	0xbcf630f0	-0.030052632
35	0x3d206fcd	0.03916912
36	0xbd07b7a9	-0.033134136
37	0xbcf4f902	-0.029903892
38	0x3d1d6c8a	0.03843359
39	0x3cb48163	0.022034353
40	0xbc7a4442	-0.015275063
41	0x3c006a2c	0.007837813
42	0xbcdb68ea	-0.026783425
43	0xbcd3a350	-0.02583471
44	0xbce525d8	-0.027972147
45	0x3ab9bdea	0.0014170979
46	0x3c7f366c	0.01557694
47	0xbc95b75c	-0.01827591
48	0xbcb0c625	-0.021578858
49	0x3c911514	0.017710246
50	0x3d17e61a	0.037084676
51	0xbc8a876e	-0.016910281
52	0xbc0dd6e5	-0.008657192
53	0xbcc13c32	-0.023588274
54	0xbc4aea77	-0.012385002
55	0xbb56ede1	-0.0032795595
56	0xbbf76ccf	-0.007550813
57	0xbc12d4d4	-0.008961875
58	0x3d29c4ba	0.04144738
59	0xbcfe9028	-0.031074598
60	0x3d173313	0.036913943
61	0x3d2e51ac	0.042558357
62	0x3cc9f8ec	0.024654828
63	0x3d1c9865	0.038231272
64	0xbc5a3484	-0.013318185
65	0xbcac8f22	-0.021064345
66	0x3cd17a94	0.025571145
67	0x3d1dd559	0.038533542
68	0x3c2b4fec	0.010456067
69	0xbb877deb	-0.0041348836
70	0xbcc88803	-0.024478918
71	0xbce907df	-0.028446136
72	0x3d0536a0	0.032522798
73	0xbd0d87a0	-0.03455317
74	0x3c8146a5	0.015780756
75	0xbce9bb0f	-0.02853158
76	0xbc769141	-0.01504928
77	0xbcbe59ca	-0.023236174
78	0xbca728ac	-0.020405136
79	0x3cd5ff03	0.026122576
80	0xbcba1808	-0.022716537
81	0x3d0e47ed	0.034736563
82	0xbceb9265	-0.02875633
83	0x3ccfa8f5	0.02534912
84	0xbd0362aa	-0.032076515
85	0x3be48b0e	0.0069745844
86	0x3c8ff7d8	0.017574236
87	0x3ceff48e	0.029291417
88	0x3c0e8027	0.008697546
89	0xbcbacd8e	-0.022803094
90	0xbc436bc3	-0.011927548
91	0xbcc7e85d	-0.024402792
92	0xbd0bd6eb	-0.03414051
93	0x3cf718d2	0.030163202
94	0x3d12a43b	0.035801154
95	0xbce385a0	-0.027773678
96	0xbc36df83	-0.011161688
97	0x3d315016	0.043289267
98	0x3c6ceefb	0.014461274
99	0xbd0cb339	-0.034350608
100	0xbce691c8	-0.028145686
101	0x3cdeefa0	0.027213871
102	0xbc7511c5	-0.01495785
103	0xbd0a8069	-0.033813868
104	0x3c10b081	0.008831144
105	0xbc4395de	-0.011937587
106	0xbc2f1d27	-0.010688103
107	0x3c19e14c	0.009392094
108	0xbcb68279	-0.022279011
109	0xbad5cc31	-0.0016311464
110	0xbd19a5b7	-0.037511554
111	0x3d0afe72	0.033934064
112	0xbc73d9ba	-0.014883453
113	0xbd071b6a	-0.03298513
114	0x3d058607	0.03259852
115	0x39240376	0.00015641548
116	0x3d09cfa8	0.033645302
117	0x3cc692eb	0.024239978
118	0x3b96eba1	0.004605726
119	0x3cc4dfaa	0.024032433
120	0xbd15e18b	-0.036592048
121	0x3d107417	0.035266962
122	0xbcceea44	-0.02525819
123	0x3cdc632d	0.02690276
124	0x3c8424aa	0.016130764
125	0xbb5f666a	-0.0034088143
126	0xbcc5ee40	-0.024161458
127	0x3cbc4070	0.022979945
128	0x3b9b6233	0.004741931
129	0x3ce31502	0.027719978
130	0xbcda1ab3	-0.02662406
131	0xbcdef0f2	-0.027214501
132	0xbd00400e	-0.031311087
133	0xbd04172f	-0.032248672
134	0xbd1b509e	-0.03791868
135	0xbd200d96	-0.039075457
136	0xbc9395a7	-0.018015696
137	0xbcd1966d	-0.025584424
138	0x3d014b52	0.03156597
139	0x3b4e093b	0.0031438607
140	0x3d1cbb95	0.03826483
141	0xbbddd189	-0.0067693633
142	0x3cc5bb24	0.024137087
143	0xbb48c753	-0.0030636385
144	0x3d31bfc3	0.04339577
145	0xbc98f7e7	-0.018672897
146	0xbc9ce3d2	-0.019151602
147	0x3d074774	0.033027127
148	0x3c3779b6	0.011198452
149	0x3d02a54b	0.031895917
150	0x3c4ab8bb	0.012373145
151	0xbcce5d4d	-0.025190974
152	0xbbba3926	-0.005683082
153	0x3cd06a1a	0.025441218
154	0x3d1fa5c3	0.038976442
155	0xbd1fb80b	-0.038993876
156	0x3c0b30bb	0.008495505
157	0x3c76e0ed	0.015068275
158	0x3b872a2f	0.0041249017
159	0xbc5f08cb	-0.013612936
160	0x3c71075b	0.014711226
161	0xbca3f401	-0.020013811
162	0xbcd84cd5	-0.026403824
163	0x3cc7f214	0.024407424
164	0xbd257da4	-0.040403023
165	0xbd0430d8	-0.032273144
166	0x3cfde314	0.030992068
167	0x3cc9f879	0.024654614
168	0xbcd26414	-0.025682487
169	0xbcbf26e4	-0.023333974
170	0xbcf415c3	-0.029795533
171	0x3c22f1f3	0.0099453805
172	0x3c4ab1c2	0.012371482
173	0xb86cb6d0	-5.6437042e-05
174	0xb975e54c	-0.0002345044
175	0x3cf7ce21	0.030249657
176	0xbcbaa9eb	-0.022786101
177	0xbceb368b	-0.028712532
178	0xbd055c6d	-0.032558847
179	0xbd0fc83e	-0.035103075
180	0x3cd63026	0.026146006
181	0xbd266a13	-0.040628504
182	0xbd04e972	-0.032449193
183	0x3c96120d	0.018319154
184	0x3cc14495	0.023592273
185	0xbcd57f83	-0.026061779
186	0x3cde5255	0.027138868
187	0xbb5645ac	-0.0032695336
188	0xbc201a2c	-0.009771865
189	0x3cd25654	0.02567593
190	0xbd13a8c0	-0.036049604
191	0xbd01f4be	-0.031727545
192	0xbcb08ccf	-0.021551518
193	0x3c74bc27	0.014937437
194	0xbc7120f0	-0.014717326
195	0x3cc7fd16	0.024412673
196	0x3ce07394	0.027398862
197	0x39b1a068	0.00033879583
198	0xbc5b0cb4	-0.013369728
199	0x3c07a7eb	0.008279781
200	0xbc0779b8	-0.008268766
201	0x3c923ef0	0.017852277
202	0xbc23ddaf	-0.010001584
203	0xbcf02542	-0.02931464
204	0xbc7b04cd	-0.015320969
205	0xbc427eb7	-0.0118710315
206	0x3cf81b75	0.03028653
207	0x3ccb7f92	0.024841104
208	0x3d0c2b3f	0.03422093
209	0xbd395272	-0.04524464
210	0xbb8c79b6	-0.00428697
211	0x3d11f342	0.03563238
212	0x3cc8bfec	0.024505578
213	0xbd2f2322	-0.042758115
214	0xbce61deb	-0.028090438
215	0x3bb07846	0.0053854315
216	0x3d29ef3e	0.041487925
217	0x3d1189b2	0.035531707
218	0xbbca01f5	-0.006164784
219	0x3ceee251	0.02916065
220	0x3cf9b248	0.030480519
221	0xbcf57ff3	-0.029968238
222	0xbc3cf60b	-0.011533271
223	0xbcf90056	-0.030395668
224	0x3c5dcb73	0.013537276
225	0x3d0ae65e	0.0339111
226	0x3d21dd19	0.039517496
227	0x3cfd366f	0.030909745
228	0x3d32250c	0.043492362
229	0xbc2a6320	-0.01039961
230	0xbcf49102	-0.029854301
231	0xbd2c2a5f	-0.042032596
232	0x3c024fd9	0.0079536075
233	0xbd12e135	-0.035859305
234	0xbd0aa0b6	-0.033844672
235	0xbcdf0d47	-0.02722801
236	0xbb1ee761	-0.00242468
237	0x3c530127	0.012878693
238	0xbcf3df55	-0.029769579
239	0x3cdf97af	0.027294008
240	0xbc988542	-0.01861823
241	0xbbd27080	-0.0064221025
242	0x3cc25b52	0.023725186
243	0x3ce035cb	0.0273694
244	0x3c84c1b8	0.016205654
245	0xbadd4d89	-0.0016884069
246	0xbc2a3a9c	-0.01038995
247	0xbd1f8126	-0.038941525
248	0xbce0d54d	-0.02744546
249	0x3ca4f018	0.020134017
250	0x3c68b688	0.014203675
251	0xbcb22318	-0.02174525
252	0x3c8477eb	0.016170463
253	0x3ceaef04	0.028678425
254	0x3d0a55d0	0.033773243
255	0xbcea3406	-0.02858926

network_body._body_endoder.seq_layers.0.weight f4 [256, 28]
0	0x3e36c493	0.17848425
1	0xbe6ef7da	-0.23336735
2	0x3d52adbc	0.051435217
3	0xbde71336	-0.11282961
4	0x3ef3fc9e	0.4765367
5	0xbd45f6d2	-0.04833109
6	0x3d325512	0.04353816
7	0x3c351936	0.011053374
8	0x3c5bb26f	0.013409241
9	0xbe692cb7	-0.22770964
10	0x3e35ef1b	0.17766993
11	0xbe87ecf0	-0.26547956
12	0xbc684fed	-0.014179212
13	0x3d9868ca	0.07441862
14	0xbe11ba08	-0.14231122
15	0xbd8b6e0a	-0.06808098
16	0x3e4ec079	0.2019061
17	0xbda7a136	-0.081850454
18	0xbee1734e	-0.44033283
19	0x3e5700df	0.20996426
20	0xbe96d167	-0.29456636
21	0x3d8dad98	0.06917876
22	0xbdbc452e	-0.091928825
23	0x3e8b00d0	0.27149057
24	0xbe3132ec	-0.17304581
25	0xbde14b9b	-0.11000749
26	0x3e18cd11	0.14921977
27	0x3e067286	0.13129625
28	0x3e1fa572	0.15590456
29	0xbc34d535	-0.011037161
30	0x3e37b54b	0.17940252
31	0xbd5e45a1	-0.054265622
32	0xbe0e04a6	-0.1386896
33	0x3ee2d4bb	0.44302925
34	0x3c1483f7	0.009064666
35	0x3e617917	0.22018848
36	0xbdb16fb6	-0.08663885
37	0xbe7f632c	-0.24940175
38	0x3e76cc67	0.24101411
39	0x3e54d841	0.2078562
40	0x3e29d4d8	0.165851
41	0x3da265ff	0.079296105
42	0xbd87b194	-0.06625667
43	0xbe66dd8a	-0.22545448
44	0xbe7486e0	-0.23879576
45	0xbe296c77	-0.16545282
46	0xbe282800	-0.16421509
47	0xbec2c324	-0.38039505
48	0xbcb29584	-0.02179981
49	0x3d94462c	0.07239947
50	0x3e2e5b49	0.1702701
51	0xbca4d144	-0.020119317
52	0xbe0e14f6	-0.13875183
53	0xbe66c370	-0.22535491
54	0xbdc5f623	-0.096660875
55	0x3d929f86	0.07159333
56	0x3ea4e7df	0.32208154
57	0x3dad4688	0.084607184
58	0x3db3a550	0.08771765
59	0x3e2f489c	0.17117542
60	0xbdf7173b	-0.12064978
61	0xbdb23df7	-0.08703225
62	0xbda4cdca	-0.08047064
63	0xbdfc047e	-0.12305544
64	0xbc14596d	-0.009054524
65	0xbf04bcc4	-0.51850533
66	0xbd2ecf86	-0.04267838
67	0x3ddbefcc	0.10739097
68	0x3d9aac6e	0.075524196
69	0xbd83849f	-0.0642178
70	0x3e071d7b	0.1319484
71	0x3c869d40	0.016432405
72	0xbcf59049	-0.029976027
73	0xbe3c3add	-0.1838183
74	0xbeb230c3	-0.34802827
75	0xbceaa963	-0.028645223
76	0x3dfaaa2d	0.1223949
77	0x3dd97919	0.10618801
78	0xbd90f184	-0.070773154
79	0xbe56f1b8	-0.20990646
80	0xbe6f6784	-0.23379332
81	0x3e48cd33	0.19609527
82	0xbe0b2529	-0.13588394
83	0xbd9541aa	-0.07287915
84	0xbe293301	-0.16523363
85	0xbe821b0f	-0.2541127
86	0xbe92c704	-0.28667462
87	0xbe41d5d0	-0.18929219
88	0xbeb13775	-0.34612623
89	0xbe18befe	-0.14916608
90	0xbed5b778	-0.41741538
91	0x3d842198	0.0645172
92	0x3e5ab804	0.21359259
93	0xbe3e89d8	-0.1860727
94	0x3df91221	0.12161661
95	0x3e38ab5c	0.18034118
96	0xbe3b6eb0	-0.18303943
97	0x3df80d87	0.12111955
98	0x3dda2327	0.10651236
99	0x3e4618a7	0.19345342
100	0x3e855078	0.26037955
101	0xbe86b456	-0.2630946
102	0xbe26bc4e	-0.1628277
103	0x3cf7a202	0.030228619
104	0x3edcda29	0.43135193
105	0x3cba1355	0.022714296
106	0xbd835991	-0.06413568
107	0xbe617316	-0.22016558
108	0x3e4f8a57	0.20267616
109	0x3efb98a0	0.4913988
110	0xbd221158	-0.03956732
111	0x3bd50e28	0.0065019317
112	0x3e071d4d	0.13194771
113	0x3d982c33	0.07430305
114	0xbe8acdcf	-0.27110144
115	0xbee953ca	-0.45571738
116	0x3d6018f2	0.05471129
117	0xbe538959	-0.20657863
118	0x3dc053e0	0.09390998
119	0x3e37f735	0.17965396
120	0xbd9a77d9	-0.075423904
121	0x3d3a9e92	0.04556138
122	0x3b4d648a	0.0031340444
123	0x3da3522e	0.07974659
124	0xbeb28aee	-0.3487162
125	0x3e8d751c	0.2762841
126	0xbe8aa929	-0.27082184
127	0xbda97cab	-0.08275732
128	0x3c282ada	0.010264123
129	0x3e351a2b	0.17685764
130	0x3e03fb2a	0.1288878
131	0x3dae6287	0.08514886
132	0x3ca5e126	0.02024896
133	0xbe4f8650	-0.2026608
134	0xbe284d25	-0.16435678
135	0x3c77fa0e	0.015135301
136	0xbedfa2c5	-0.4367887
137	0x3e30acbc	0.17253393
138	0xbe872300	-0.2639389
139	0xbda93e80	-0.08263874
140	0xbe8e4822	-0.27789408
141	0xbdbf2366	-0.093329236
142	0x3e56a327	0.20960675
143	0x3c21a51b	0.009866024
144	0xbdb2a01b	-0.08721944
145	0x391a406c	0.00014710583
146	0x3e60971d	0.21932645
147	0x3df63f5a	0.12023802
148	0x3e49cb7e	0.19706532
149	0xbe660723	-0.2246366
150	0x3d80eb93	0.06294932
151	0xbe0a80c9	-0.1352569
152	0xbd765cd8	-0.060147136
153	0x3e1baa74	0.15201741
154	0x3d468de2	0.048475154
155	0x3cfc692f	0.030811874
156	0xbcd1ef9d	-0.025626952
157	0x3d994cb7	0.07485335
158	0x3ea0b20c	0.3138584
159	0xbe141808	-0.14462292
160	0xbe793aaa	-0.24338785
161	0xbe6079b5	-0.21921428
162	0xbe43e0bd	-0.191287
163	0xbe3508c0	-0.17679119
164	0x3cb5b1fd	0.022179598
165	0xbe81d6ed	-0.25359288
166	0x3cabf9ee	0.0209932
167	0x3ca9a487	0.020708336
168	0xbea27d0c	-0.31736028
169	0xbdfc701f	-0.12326073
170	0x3dc17d9f	0.094477884
171	0x3d29c96f	0.041451868
172	0xbcbf14f5	-0.023325423
173	0xbea76628	-0.32695127
174	0x3db08a4d	0.08620129
175	0x3cd21bc5	0.025648007
176	0x3e900840	0.28131294
177	0x3ea0cec1	0.3140774
178	0xbe1488b5	-0.14505275
179	0xbe4c7cb6	-0.19969448
180	0x3de2d5b1	0.11075915
181	0x3df4f933	0.119615935
182	0xbe8692ee	-0.26283973
183	0xbe4c2265	-0.19934995
184	0x3e56c2fd	0.2097282
185	0x3da791c7	0.08182102
186	0xbc873d8c	-0.01650884
187	0x3e9c76c9	0.30559376
188	0x3edcab4c	0.4309944
189	0x3d4cab96	0.049968325
190	0x3e93b209	0.28846768
191	0xbd4f4e84	-0.050611988
192	0x3e680a52	0.22660187
193	0x3b16dd6b	0.002302016
194	0x3e4341ff	0.19068144
195	0x3cdb07e7	0.026737167
196	0xbe59fafd	-0.2128715
197	0xbd8882f8	-0.06665605
198	0xbd18fbe3	-0.037349593
199	0x3d876a3f	0.06612062
200	0x3d4830fd	0.048874844
201	0x3ea52d2d	0.3226103
202	0xbe45cc25	-0.19316156
203	0x3d1f5468	0.038898855
204	0xbd2a94b5	-0.041645724
205	0xbd50166a	-0.050802626
206	0xbd956593	-0.07294764
207	0x3e1a36ca	0.15059963
208	0x3c7e7360	0.015530437
209	0xbddc4720	-0.107557535
210	0x3ca42c86	0.020040762
211	0x3ea0878f	0.31353423
212	0xbe3b5075	-0.1829241
213	0xbd3ccca8	-0.046093613
214	0xbd539e58	-0.05166468
215	0x3c023ce7	0.007949091
216	0x3e112371	0.14173676
217	0xbbe76e59	-0.007062715
218	0x3ddfc3b5	0.10926
219	0xbd77fb48	-0.060542375
220	0xbdde56b2	-0.108563796
221	0xbd67fa3a	-0.05663512
222	0x3e4b8ca1	0.19877864
223	0xbe55b3ce	-0.20869371
224	0x3c58b27c	0.013226148
225	0x3da3ff9a	0.080077365
226	0xbe86f8fc	-0.26361835
227	0xbe3fba07	-0.18723308
228	0x3e6b46d4	0.22976238
229	0x3d569f42	0.052397974
230	0xbde95ab2	-0.11394252
231	0x3df2d217	0.11856478
232	0xbe983cf5	-0.29734007
233	0x3d896e38	0.06710476
234	0x3d0ea60e	0.03482633
235	0xbd2d71bb	-0.04234479
236	0x3d448640	0.047979593
237	0xbe0c2dc2	-0.1368933
238	0x3e0d500c	0.13800067
239	0xbca2ac0c	-0.019857429
240	0xbdfe04cc	-0.12403259
241	0xbdca4f62	-0.09878422
242	0x3ecef2dd	0.40419665
243	0xbdf3a345	-0.118963756
244	0x3e8bd7bd	0.27313033
245	0xbd593cf1	-0.053036634
246	0x3e1957f5	0.14974959
247	0x3e03669b	0.1283211
248	0x3d296c55	0.04136308
249	0x3d551a81	0.05202723
250	0xbdb8edba	-0.09029718
251	0x3cfe5186	0.031044733
252	0xbd5abaa0	-0.053400636
253	0xbe05ed6b	-0.13078849
254	0x3c08f28e	0.008358611
255	0x3d2a3b59	0.041560505
