IAV_FINAL/results/results/WolfsRedo1/Wolfs/Wolfs-250987.pt (torch, 365951 bytes, 24 tensors)

network_body._body_endoder.seq_layers.0.weight f4 [256, 55]
0	0xbd6d0403	-0.057865154
1	0x3dabcd41	0.083887585
2	0x3df48ed2	0.11941303
3	0xbd256124	-0.040375844
4	0xbd0e161d	-0.034689058
5	0xbe17a759	-0.14809932
6	0x3ec75157	0.38929245
7	0x3e07193f	0.13193224
8	0xbb8001ae	-0.0039064502
9	0x3e094b88	0.13407719
10	0xbd16daf1	-0.036829893
11	0xbe24e857	-0.16104256
12	0x3e4cc32c	0.19996327
13	0xbdec2741	-0.115309246
14	0x3e9a3a94	0.30122817
15	0xbcfeb54f	-0.031092314
16	0xbdc42e28	-0.09579116
17	0xbe043723	-0.12911658
18	0xbbe9bf34	-0.007133389
19	0x3ca881ca	0.0205697
20	0x3d0a8650	0.033819497
21	0xbe121e49	-0.14269365
22	0x3c24f48d	0.010068071
23	0xbd02d97f	-0.0319457
24	0x3d7bfbc9	0.061519418
25	0x3e442723	0.19155554
26	0xbd893b8f	-0.06700813
27	0xbd83e919	-0.06440944
28	0x3e69ebdc	0.2284388
29	0x3e2d5e07	0.169304
30	0xb9b9d82c	-0.0003544701
31	0xbd3be0eb	-0.045868795
32	0xbdf090c1	-0.117463596
33	0x3e0658f9	0.13119878
34	0xbe65df27	-0.22448407
35	0x3e3e39d1	0.18576743
36	0xbc8ef0f8	-0.017448887
37	0x3e4d46c0	0.2004652
38	0xbda1567b	-0.07877823
39	0xbe63008a	-0.22168174
40	0xbd9becd3	-0.0761353
41	0x3c733ddc	0.014846291
42	0x3e5e255e	0.21693942
43	0xbc9562fe	-0.01823568
44	0xbe180457	-0.14845406
45	0x3d328bbf	0.043590304
46	0x3db05c3f	0.086113445
47	0xbda4d606	-0.08048634
48	0xbdd5a6db	-0.10432216
49	0xbdf2c37e	-0.118536934
50	0x3dcd896d	0.100359775
51	0xbe71f97b	-0.23630325
52	0x3e135702	0.1438866
53	0xbe886d0e	-0.26645702
54	0xbc920e90	-0.01782921
55	0x3d8b85fd	0.068126656
56	0xbd64e46c	-0.055881903
57	0x3d030f5b	0.031997066
58	0xbd56fd9b	-0.05248795
59	0xbddb6b76	-0.10713856
60	0x3dce4f98	0.10073775
61	0xbd05c537	-0.03265878
62	0xbd90ef92	-0.070769444
63	0x3cd2ed41	0.025747897
64	0xbe34b591	-0.17647387
65	0x3d759a19	0.059961412
66	0xbcb9f954	-0.022701897
67	0xbe099067	-0.13433991
68	0xbd9872e7	-0.07443791
69	0xbd61ab7c	-0.05509518
70	0x3b3c8f0e	0.002877179
71	0x3dedbe57	0.1160857
72	0x3d9e85df	0.07740378
73	0x3e27264a	0.163232
74	0xbd2a0b0a	-0.041514434
75	0xbda8b910	-0.08238423
76	0xbc0705a4	-0.008241091
77	0xbe3b5f45	-0.18298061
78	0x3da553dd	0.08072636
79	0xbd51e781	-0.05124617
80	0x3ec909ea	0.39265376
81	0x3e9a7eb6	0.30174798
82	0xbe80af29	-0.25133637
83	0xbde7f106	-0.113252684
84	0x3a795589	0.0009511342
85	0x3dea1823	0.11430385
86	0x3e77ca43	0.2419825
87	0xbd792b25	-0.06083216
88	0x3e1c4c7a	0.15263548
89	0x3e560a74	0.20902425
90	0x3e00cb63	0.12577586
91	0xbe12d2d1	-0.14338233
92	0xbe6c81e7	-0.23096429
93	0x3d7dbed5	0.06194957
94	0xbe9b721c	-0.30360496
95	0x3d4c67c0	0.04990363
96	0xbd99dd65	-0.07512931
97	0x3d92aada	0.071614936
98	0xbe8a777a	-0.27044278
99	0xbd8249a4	-0.06361702
100	0xbdb83982	-0.08995344
101	0xbe1e2bae	-0.1544635
102	0x3e595bd2	0.21226433
103	0x3db7012c	0.089357704
104	0x3e39f009	0.18157972
105	0xbcfdf641	-0.031001212
106	0x3e0a695c	0.13516754
107	0xbda20636	-0.07911341
108	0xbd8d5500	-0.06900978
109	0xbde0c8e8	-0.1097582
110	0xbe93011a	-0.28711778
111	0x3d132dab	0.035932224
112	0xbe10ec8e	-0.14152738
113	0x3e4c9927	0.19980298
114	0x3d78c22f	0.060732063
115	0x3cff92cb	0.031197926
116	0x3d019db9	0.031644557
117	0xbdb3e045	-0.087830104
118	0x3e88afdb	0.26696667
119	0x3b3ead10	0.0029094853
120	0xbe2d63ed	-0.1693265
121	0x3ddced85	0.10787491
122	0x3e2e2363	0.17005686
123	0xbdecc496	-0.11560933
124	0x3d95ccd8	0.073144615
125	0xbda527cc	-0.08064231
126	0x3e053cff	0.1301155
127	0xbc3213c0	-0.010868967
128	0x3cef5dc5	0.029219517
129	0xbd1520a9	-0.0364081
130	0x3c80f029	0.015739517
131	0xbd7e4bcf	-0.062084015
132	0xbe461da0	-0.19347239
133	0x3dcbc71b	0.09950086
134	0x3e2cace4	0.16862828
135	0x3df9b642	0.12192966
136	0xbdd1b2a0	-0.10239148
137	0xbe06c28b	-0.1316015
138	0xbd9eea65	-0.07759551
139	0x3d12bccd	0.035824586
140	0xbe8940fa	-0.26807386
141	0xbadafaca	-0.0016706821
142	0xbe2682c2	-0.16260818
143	0xbd9ab6e1	-0.07554413
144	0x3d683e36	0.056699954
145	0xbe3c2075	-0.18371756
146	0xbd9103aa	-0.07080777
147	0x3e042d43	0.12907891
148	0xbe6309b7	-0.22171675
149	0xbdbb2a16	-0.09138887
150	0x3e10d98d	0.14145489
151	0x3d3d3a9f	0.046198484
152	0xbe6eaf1c	-0.23308986
153	0xbd84a789	-0.06477267
154	0xbed87e7b	-0.42283997
155	0x3db2c21e	0.08728431
156	0xbb542d19	-0.0032375513
157	0xbcbab86c	-0.022793017
158	0x3b81dcf6	0.003963108
159	0x3ea5a49d	0.32352152
160	0xbe08687b	-0.13321106
161	0x3d85c3e8	0.06531507
162	0x3b89967d	0.004198848
163	0xbe8d7181	-0.2762566
164	0xb9a3818a	-0.00031186297
165	0xbd1b005f	-0.03784215
166	0xbd845570	-0.064616084
167	0xbde80b47	-0.11330276
168	0xbb0b6be5	-0.0021274027
169	0x3df21104	0.11819652
170	0x3e4c106d	0.19928141
171	0x3d74b67e	0.05974435
172	0x3cc89597	0.024485392
173	0xbe873b19	-0.26412275
174	0xbd7a0b4d	-0.061045934
175	0xbe463bef	-0.193588
176	0x3d32c243	0.043642294
177	0x3ca5748d	0.020197177
178	0xbd5e7a73	-0.054315995
179	0xbd781bc6	-0.06057336
180	0xbe35c37d	-0.17750354
181	0xbdceb651	-0.10093368
182	0xbda62c42	-0.0811391
183	0x3db6a25d	0.08917687
184	0x3cb28804	0.021793373
185	0x3d2447ee	0.04010766
186	0x3db1603f	0.086609356
187	0x3e024024	0.1271978
188	0x3cd51835	0.02601252
189	0xbd12ab3e	-0.03580784
190	0xbd6e81ce	-0.05822926
191	0x3d8881f7	0.06665414
192	0x3e0d87cf	0.13821338
193	0xbead5f83	-0.33861932
194	0x3daf1fc3	0.0855098
195	0xbdc830ff	-0.0977497
196	0x3dd95f8b	0.106139265
197	0xbe5b2145	-0.2139941
198	0xbd62756f	-0.055287775
199	0xbda2bee6	-0.07946567
200	0xbd9377b4	-0.07200566
201	0xbd402c0f	-0.046917018
202	0xbe66993f	-0.22519396
203	0xbce430ba	-0.027855266
204	0x3d81b8f4	0.06334105
205	0x3d9694b3	0.07352581
206	0xbc83ea87	-0.016103042
207	0x3dd57fe6	0.10424785
208	0x3e1a9c49	0.1509868
209	0xbe47cbef	-0.19511388
210	0x3d1558e9	0.036461744
211	0x3e4b5ebc	0.19860357
212	0xbbcf65f8	-0.0063292943
213	0x3dc06055	0.09393374
214	0x3d4ac1b1	0.049501125
215	0x3dfdf0ef	0.1239947
216	0x3df089e9	0.11745054
217	0x3d21d9b5	0.039514262
218	0xbe911279	-0.28334406
219	0x3dae463f	0.08509492
220	0x3d4a80f0	0.04943937
221	0x3d186ffb	0.037216168
222	0x3d69545b	0.056965213
223	0x3c40d0e9	0.011768558
224	0x3e1285db	0.14308874
225	0xbc85a24a	-0.016312737
226	0x3dbe5e09	0.092952795
227	0x3d902486	0.07038216
228	0x3d195ba0	0.037440896
229	0xbd366283	-0.04452754
230	0xbe4886c7	-0.19582663
231	0x3e7476c6	0.23873433
232	0xbcec770f	-0.028865365
233	0x3d7ff2f5	0.06248756
234	0xbde6db1e	-0.11272262
235	0xbd090ec4	-0.033461347
236	0x3dd24048	0.10266167
237	0x3d49e490	0.04929024
238	0xbcdaf28b	-0.026726982
239	0x3cd78f13	0.02631334
240	0xbce3fd70	-0.02783081
241	0xbd4bb195	-0.049729902
242	0x3ea8c3c8	0.3296187
243	0xbc10f819	-0.008848214
244	0x3d88a8e4	0.06672838
245	0x3e3c20cd	0.18371888
246	0x3df552a4	0.11978653
247	0x3dc5ffd9	0.0966794
248	0x3cbabe0e	0.022795703
249	0x3d36238b	0.04446749
250	0x3b98f9ed	0.0046684653
251	0xbc9a8b12	-0.018865142
252	0x3d01d9d8	0.031701893
253	0x3e2173a6	0.15766773
254	0x3d4c406f	0.049866136
255	0xbdd6bc09	-0.104850836

network_body._body_endoder.seq_layers.0.bias f4 [256]
0	0xbc861815	-0.016368905
1	0x3a151bfb	0.00056880683
2	0xbbd1c543	-0.0064016893
3	0xbcde8df9	-0.027167307
4	0x3ce77da1	0.028258147
5	0x3ca6a73d	0.020343417
6	0x3d316b98	0.0433155
7	0xbbba3a3b	-0.005683211
8	0xbaa8a93a	-0.0012867816
9	0xbc340d2c	-0.010989469
10	0x3c5bf29e	0.013424544
11	0xbbc19e39	-0.005908754
12	0x3d7ba980	0.061440945
13	0x3ccbf4a8	0.024896935
14	0x3cd38111	0.02581838
15	0xbc59f6e5	-0.013303493
16	0x3c0c8277	0.008576027
17	0xbcbd7c69	-0.023130612
18	0xbcd70db6	-0.026251655
19	0xbc2bc33d	-0.01048356
20	0xbcd677ef	-0.026180236
21	0xbb81cc60	-0.003961131
22	0x3d7a06e4	0.061041728
23	0x3b9ad611	0.0047252257
24	0x3d02163a	0.03175948
25	0x3cb36fb0	0.021903843
26	0xbc727084	-0.014797334
27	0x3d16e8c6	0.036843084
28	0x3c43ea5b	0.01195773
29	0xbbc0db10	-0.0058854893
30	0xbcfc1c9c	-0.03077536
31	0x3cac7e7e	0.02105641
32	0x3c013524	0.007886205
33	0x3d027b43	0.031855833
34	0x3c04431f	0.008072644
35	0x3c02716e	0.007961614
36	0x3c622470	0.013802633
37	0xbbc29310	-0.0059379414
38	0x3c416612	0.011804121
39	0x3c5a5e23	0.013328108
40	0x3c0c66d6	0.00856944
41	0xbb347400	-0.0027534962
42	0x3b86e377	0.0041164714
43	0xbc95d51a	-0.018290091
44	0x3bb64a56	0.0055630608
45	0xbc38ecf7	-0.011286966
46	0x3c6d1629	0.014470615
47	0xbac3fa34	-0.0014951886
48	0xbc9e0e8a	-0.019294042
49	0xbb81bed5	-0.0039595165
50	0xbb2a524d	-0.0025988996
51	0x3c0dda2a	0.008657971
52	0xbc2c544e	-0.010518147
53	0x3c78b5be	0.015180049
54	0x3a0fa57b	0.00054796756
55	0xbc18280a	-0.00928689
56	0xbc6d8731	-0.014497564
57	0xbc3cd291	-0.011524812
58	0x3a046b98	0.0005051433
59	0xbc3f71df	-0.011684864
60	0x3c830c66	0.015997123
61	0x3c221904	0.0098936595
62	0x3cf0ff99	0.029418753
63	0x3ade4188	0.0016956786
64	0x3d42ab47	0.047526624
65	0xbc2c7937	-0.010526947
66	0xbae74861	-0.0017645472
67	0x3c81180f	0.015758542
68	0x3ca1123c	0.019662015
69	0x3c511c66	0.012763118
70	0xbc5e5a89	-0.01357139
71	0xbc6ade64	-0.014335249
72	0x3c2f6837	0.010705999
73	0xbc258035	-0.010101368
74	0x3bb8662b	0.0056274137
75	0x3d081383	0.033221733
76	0x3d07c9f0	0.033151567
77	0x3d139fc7	0.036041047
78	0x3c9b59de	0.01896375
79	0x3c2f4d60	0.0106996
80	0x3bcc15ad	0.00622817
81	0xbbd69621	-0.0065486585
82	0x3c8c452f	0.017122833
83	0xbc507ae6	-0.012724614
84	0x3b7f2c29	0.0038936234
85	0xbc6935e4	-0.01423404
86	0x3d183fa8	0.037170082
87	0xbc520d82	-0.012820603
88	0x3d8b218d	0.06793509
89	0xbc9a0d41	-0.018805148
90	0x3b89e970	0.004208736
91	0x3bac84c9	0.0052648527
92	0x3c526920	0.012842447
93	0x3c754de7	0.014972187
94	0x3d6373c8	0.05553034
95	0xbcb5f41a	-0.022211123
96	0x3bb84629	0.005623598
97	0x3d090d34	0.033459857
98	0xba87b6ec	-0.0010354198
99	0x3bd4511d	0.006479396
100	0x3ca8dad2	0.020612154
101	0xba89a5fc	-0.0010501738
102	0xba788d43	-0.0009481499
103	0x3bf82b3f	0.0075735147
104	0x3c04469f	0.008073478
105	0xbc065908	-0.008199938
106	0xbc919eae	-0.01777586
107	0xbbd67afc	-0.0065454226
108	0xbc7dff68	-0.015502788
109	0xbd0e7f8f	-0.034789618
110	0xbbc49d17	-0.006000172
111	0xba847f8d	-0.0010108814
112	0xbd140c69	-0.036144648
113	0x3d21f06b	0.03953592
114	0x3ba069b3	0.004895413
115	0xbc2eec79	-0.010676497
116	0x39331333	0.00017077923
117	0x3c41e670	0.011834726
118	0x3b9ce39e	0.0047878763
119	0x3d0e67d3	0.034766983
120	0xbc72f0b3	-0.014827895
121	0x3cbd35f7	0.023097022
122	0x3d6cac84	0.05778171
123	0xbb489f0b	-0.0030612375
124	0xbc22952a	-0.009923259
125	0x3d2e52ae	0.04255932
126	0x3cb30b9d	0.021856124
127	0xbc6be767	-0.014398432
128	0x3c0432d3	0.008068758
129	0x3d0d81b9	0.03454754
130	0xbcaf0d01	-0.021368505
131	0x3d477936	0.04869958
132	0xbc3d38b3	-0.011549163
133	0xbca78647	-0.02044977
134	0xbc545d22	-0.012961658
135	0x3bc123fe	0.005894183
136	0x3c2bc23e	0.010483323
137	0x3cf19c5c	0.029493503
138	0xbc078e18	-0.008273624
139	0xbc208441	-0.009797157
140	0xbc46e473	-0.0121394275
141	0x3c9fd8f2	0.019512627
142	0x3c824050	0.015899807
143	0xbc6d9f60	-0.01450333
144	0x3c4c0abe	0.012453733
145	0xbb902959	-0.0043994603
146	0x3d4d0e2a	0.050062336
147	0x3c925d3b	0.017866721
148	0xbc1868fb	-0.009302373
149	0x3ca4e7f3	0.020130133
150	0xbc660b59	-0.014040791
151	0x3c527a80	0.012846589
152	0x3a0cf5e5	0.00053772173
153	0xbc436cbf	-0.011927783
154	0x3d314f35	0.04328843
155	0xbc6714f6	-0.014104119
156	0x3c5da88e	0.013528956
157	0x3b586eaf	0.0033024957
158	0x3bc8100e	0.0061054295
159	0x3a7c755b	0.00096305244
160	0x3c95ea40	0.018300176
161	0xbbc804cd	-0.006104088
162	0xbc4e35f5	-0.012586107
163	0x3c6ee1f3	0.014580238
164	0xbc08a967	-0.00834117
165	0x3c571c31	0.01312928
166	0xbc21a177	-0.009865156
167	0xbc29d119	-0.010364794
168	0x3bb5afa8	0.0055446215
169	0x3c75d7ef	0.015005096
170	0xbc115cc8	-0.008872218
171	0x3cb08df4	0.021552064
172	0xba436819	-0.00074541714
173	0xbb31cc46	-0.0027129813
174	0x3ce1d3b0	0.02756676
175	0x3c960eea	0.018317658
176	0xbce78bd3	-0.028264916
177	0x3cbeab45	0.023275027
178	0x3b8aa3f8	0.0042309724
179	0x3c22af50	0.009929493
180	0x3a903c35	0.0011004271
181	0xbc4a1214	-0.012333412
182	0x3b570553	0.003280957
183	0xbc55709d	-0.013027337
184	0x39779e3d	0.00023614704
185	0xbc9cbbad	-0.01913246
186	0xbcb1ae05	-0.021689424
187	0xbbbfccd3	-0.0058532744
188	0x3c04490e	0.008074058
189	0x39b1fe3f	0.000339495
190	0x3c3bf82e	0.011472745
191	0x3ca53c8d	0.020170474
192	0x3c9c8826	0.01910789
193	0xbab9a95e	-0.0014164855
194	0x3c8b6884	0.01701761
195	0xbcdf3f03	-0.027251726
196	0x3d29465d	0.04132687
197	0x3c8c6572	0.017138217
198	0x3b7a6cb3	0.0038211762
199	0xbb8cad11	-0.004293092
200	0xbc33492e	-0.01094274
201	0x3d13f99f	0.03612673
202	0xbc06b4fe	-0.008221863
203	0xbb8a1124	-0.004213469
204	0xbcb82175	-0.022476891
205	0xbc3e4cee	-0.011615021
206	0x3d349f9f	0.04409754
207	0xbaf19e47	-0.0018434011
208	0xbc9051a5	-0.017617056
209	0xbb8ba1da	-0.0042612376
210	0x3c2596c0	0.010106742
211	0xbb608f27	-0.0034265013
212	0xbb813d6f	-0.003944091
213	0xbd1b39c0	-0.03789687
214	0x3bba9677	0.0056942063
215	0xbc4ff2e2	-0.012692185
216	0xbc4f7879	-0.012663
217	0x3b85b794	0.004080722
218	0x3cdb69b0	0.026783794
219	0x3c406785	0.011743431
220	0x3c24fe3e	0.010070382
221	0x3c8d3fcf	0.01724234
222	0x3cf87bb6	0.030332427
223	0x3c680843	0.014162126
224	0x3c8f2fc7	0.017478837
225	0x3b8beef7	0.00427043
226	0xbbc8fa05	-0.0061333203
227	0xbc15973f	-0.009130298
228	0xbc2e701f	-0.010646849
229	0x3c175471	0.009236441
230	0x3d16f27b	0.03685234
231	0x3c033ff1	0.00801085
232	0xbc510730	-0.012758061
233	0x3cb98636	0.022647005
234	0xbc8db822	-0.017299715
235	0xbc4dbae2	-0.012556763
236	0xbd9b3e05	-0.07580189
237	0xbc0c9d1d	-0.008582381
238	0xbc58b657	-0.013227067
239	0xbbd1f96b	-0.0064079068
240	0x3ce5e40e	0.028062847
241	0xbcdda76d	-0.027057374
242	0xbc457f41	-0.0120542655
243	0x3c8df4a6	0.017328572
244	0x3b0dfce1	0.002166562
245	0xbbcde2d5	-0.006283144
246	0xbbe17e62	-0.006881521
247	0xbc1d0635	-0.009583999
248	0x3ce0b282	0.02742887
249	0x3c786d37	0.015162758
250	0x3c20a630	0.009805247
251	0xbc811b48	-0.015760079
252	0xbc93cf7e	-0.018043276
253	0x3adf4a8b	0.0017035765
254	0xbacb6400	-0.0015517473
255	0x3c80a2d6	0.015702646

action_model._continuous_distribution.log_sigma f4 [1, 2]
0	0xbc06c585	-0.008225803
1	0xbc9811e5	-0.01856322

action_model._continuous_distribution.mu.weight f4 [2, 256]
0	0xbd098f99	-0.03358421
1	0x3c015311	0.00789334
2	0xbd00a338	-0.031405658
3	0xbae0c10c	-0.0017147376
4	0x3cc5a30c	0.024125598
5	0x3d0cbfca	0.03436259
6	0x3d595025	0.053054947
7	0x3bfb1300	0.007662177
8	0xbb229e3d	-0.0024813556
9	0xbcfaf0cd	-0.0306324
10	0x3cf75b1e	0.030194815
11	0x3c8b12aa	0.016976673
12	0x3d5fde8d	0.0546556
13	0x3cb23e5d	0.021758253
14	0x3caa4a9e	0.020787533
15	0xbc70413e	-0.014663992
16	0xbd25e537	-0.0405018
17	0xbd096afa	-0.033549286
18	0xbc6cc6c0	-0.014451683
19	0xbd38737d	-0.045032013
20	0xbc550e0b	-0.013003836
21	0xbd2307f4	-0.039802507
22	0x3d662645	0.05618884
23	0x3ca53b3c	0.020169847
24	0x3d0b9e7a	0.034086682
25	0x3b4b6e40	0.0031041056
26	0x3b9c4748	0.0047692396
27	0x3ce8b542	0.028406743
28	0xbb70e004	-0.0036754617
29	0xbd170173	-0.036866616
30	0xbc36ea9e	-0.0111643355
31	0x3c45c2c0	0.012070358
32	0xbb64e849	-0.0034928492
33	0x3d73a39f	0.059482213
34	0x3ca51861	0.020153226
35	0x3c11c30b	0.0088965995
36	0xbd87c7f9	-0.06629939
37	0xba5a5346	-0.0008328449
38	0x3ba9a323	0.005176918
39	0x3c245c3f	0.010031759
40	0xbc8a9774	-0.016917922
41	0xbbfbdc5f	-0.0076861824
42	0x3c0aae74	0.008464444
43	0xbc2a8c86	-0.01040948
44	0x3c0a7d3f	0.008452713
45	0xbc877244	-0.016533978
46	0x3d4d385c	0.050102577
47	0x3c86da9f	0.016461669
48	0xbcacb6b8	-0.02108322
49	0xbc6dee9e	-0.014522223
50	0x3cb849c7	0.022496117
51	0x3cd0670c	0.025439762
52	0xbcc00e20	-0.023444235
53	0x3c96bb73	0.01839993
54	0xbcd9acd0	-0.026571661
55	0xbbe9ceb8	-0.0071352385
56	0xbc6f874a	-0.014619658
57	0xbd182834	-0.037147716
58	0x3b12dac1	0.002240822
59	0xbc71e7f0	-0.014764771
60	0x3c3239ac	0.010878008
61	0xbd334f95	-0.043777067
62	0x3cfc592c	0.03080424
63	0x3ca379dd	0.01995557
64	0x3cf60107	0.030029787
65	0xbc593c6f	-0.013259037
66	0x3b6d4e04	0.003620983
67	0xbbf4d235	-0.0074713477
68	0x3d4b4845	0.04962947
69	0x3d03571a	0.03206549
70	0xbc80974e	-0.015697148
71	0xbc5e4e38	-0.0135684535
72	0xbd4b20ef	-0.049591955
73	0xbbde1c0f	-0.006778247
74	0x3c8a4843	0.01688016
75	0x3d109af9	0.035304043
76	0x3cd67b0f	0.026181726
77	0x3d262a49	0.04056767
78	0x3c3c6677	0.011499039
79	0x3cd4b2f8	0.025964245
80	0xbc93e984	-0.018055685
81	0x3af80f8e	0.0018925534
82	0xbcfa9b7e	-0.030591723
83	0xbcdb70ae	-0.026787128
84	0x3b85df87	0.0040854844
85	0xbd444a52	-0.04792244
86	0x3d1a842f	0.037723716
87	0xbd4f7d97	-0.05065688
88	0x3d56cd07	0.052441623
89	0xbb3404c6	-0.0027468666
90	0x3cc92537	0.024553878
91	0x3be149c8	0.0068752505
92	0xbcf9833e	-0.030458089
93	0x3c59c491	0.013291494
94	0x3c3d5ede	0.011558263
95	0xbca67a06	-0.020321857
96	0xbb9676fa	-0.00459182
97	0x3c52f4af	0.01287572
98	0x3bfaccfd	0.007653831
99	0x3cb2ba94	0.021817483
100	0x3d464711	0.048407618
101	0xbb466a82	-0.0030275886
102	0xbbe5888a	-0.007004802
103	0x3cf1d22c	0.029519163
104	0x3cba67d5	0.02275459
105	0xbd27e2b7	-0.040987696
106	0xbc41f6d6	-0.011838635
107	0xb9e112d3	-0.0004292937
108	0xbd255cae	-0.04037159
109	0xbc7c6885	-0.015405779
110	0x3b1a2448	0.002352016
111	0xbc8912b6	-0.016732555
112	0xbd0fd9ca	-0.03511981
113	0x3bdcf674	0.0067432467
114	0x3b69c783	0.0035671897
115	0xbc30ae00	-0.010783672
116	0xbd0c83d9	-0.034305427
117	0x3c0ac720	0.008470327
118	0xbb776bbc	-0.0037753424
119	0x3c82b030	0.015953153
120	0x3ae2f632	0.0017315804
121	0x3c16590b	0.009176503
122	0x3c7286d0	0.01480265
123	0x3c9f200e	0.019424465
124	0xbcaf1e9c	-0.0213769
125	0x3d8defb8	0.06930488
126	0x3c5f85cc	0.0136427395
127	0xbcf5acb7	-0.029989583
128	0xbb1f2636	-0.002428425
129	0x3cc8b273	0.024499154
130	0xbc73da3a	-0.014883572
131	0xbb7623b8	-0.003755791
132	0xbcd55be9	-0.026044803
133	0xbce1d179	-0.027565705
134	0x3b4b4a38	0.003101958
135	0x3d0b81fe	0.034059517
136	0x3c906e00	0.017630577
137	0xbba470d7	-0.0050183344
138	0xbdc11850	-0.09428465
139	0x3aaef2af	0.0013347472
140	0xbd6e1e5f	-0.058134433
141	0x3c9f9447	0.019479884
142	0x3d140f46	0.03614738
143	0xbc5f3d7d	-0.0136255
144	0x3c925076	0.017860632
145	0xbc745e42	-0.014915051
146	0x3d4729de	0.048623912
147	0x3cb7714c	0.022392891
148	0xbd23494c	-0.039864823
149	0xbcdde978	-0.027088866
150	0xbcb17246	-0.021660935
151	0xbbd16ce5	-0.006391155
152	0x3ca53146	0.020165097
153	0x3a6ae6c0	0.0008960776
154	0x3d9302c8	0.07178265
155	0xbc2984c1	-0.010346592
156	0xbbfd9307	-0.0077384743
157	0x3c2a9f95	0.010414024
158	0x3c2e6e74	0.010646451
159	0xbd8b4abd	-0.068013646
160	0x3ce75fb2	0.028243873
161	0x3a8efefd	0.0010909733
162	0xbc0e1f32	-0.00867443
163	0xbc750258	-0.014954172
164	0xbd2a1f0a	-0.041533507
165	0x3c0d2d26	0.008616721
166	0xbd036c73	-0.032085847
167	0xbbc9b125	-0.0061551505
168	0xbd9d59f5	-0.076831736
169	0x3d0bb328	0.034106404
170	0xbc2a4065	-0.010391329
171	0x3c5e720d	0.0135769965
172	0xbcd5cbcf	-0.02609816
173	0xbb9042cf	-0.0044024955
174	0x3b352674	0.0027641328
175	0x3d2e286f	0.04251903
176	0xbc3f32bb	-0.01166981
177	0xbbb4e056	-0.005519907
178	0x3c61375b	0.013746108
179	0x3d00d293	0.03145082
180	0xbd0e61ea	-0.034761347
181	0xbc6d836b	-0.0144966645
182	0xbd430922	-0.04761613
183	0xbccaeb00	-0.02477026
184	0x3be59c24	0.007007139
185	0xbc36d75b	-0.011159743
186	0xbd1253e6	-0.035724543
187	0x3beb69e0	0.007184252
188	0x3c5953e2	0.013264628
189	0xbcacdd53	-0.02110163
190	0x3c7bb2c1	0.0153624425
191	0xbbacde62	-0.0052755335
192	0x3cccfc4d	0.02502265
193	0xbabb271a	-0.0014278621
194	0x3cd4491e	0.025913771
195	0xbc6a5cc2	-0.014304342
196	0x3cf5ceae	0.03000578
197	0x3cd8cd3d	0.026465053
198	0x3c077ece	0.008269979
199	0x3bc0591d	0.005869998
200	0xbd0a64d4	-0.033787563
201	0x3c03b76d	0.008039338
202	0x3ac8d5af	0.0015322472
203	0xbbbbc85b	-0.0057306713
204	0xbbcc810b	-0.006240969
205	0xbcd1d7f3	-0.025615668
206	0x3cbea049	0.02326979
207	0x3bdc1a65	0.0067170137
208	0xbd188070	-0.037231863
209	0xbc9f142b	-0.019418797
210	0x3d058ff1	0.032607976
211	0x3c51c9ea	0.012804488
212	0xbc0f7071	-0.008754835
213	0xbcc21621	-0.023692193
214	0x3b6f3b4f	0.0036503857
215	0xbd872a51	-0.06599868
216	0xbc10f21e	-0.008846788
217	0xbd543fdf	-0.051818725
218	0x3cdb3aa6	0.026761364
219	0x3c4e07dd	0.012575117
220	0x3c428e19	0.011874699
221	0x3c68ac46	0.014201229
222	0x3bd02059	0.0063515124
223	0x3cc4aeae	0.024009075
224	0x3bcdac20	0.0062766224
225	0xb9a1ba8f	-0.0003084731
226	0xbb92e5fa	-0.0044829817
227	0xbd0f7dff	-0.03503227
228	0xbd8dc279	-0.06921858
229	0xbb7ea204	-0.0038853893
230	0x3d81f282	0.06345083
231	0xbd6d37a6	-0.0579144
232	0xba631418	-0.0008662357
233	0xbce4577f	-0.027873753
234	0xbcdef307	-0.027215494
235	0xbbb75cd7	-0.005595784
236	0xbc134394	-0.00898828
237	0x3b07fb89	0.0020749292
238	0xbd033189	-0.032029662
239	0xbbf37d82	-0.007430733
240	0x3c9ccdb5	0.019141058
241	0xbc39e631	-0.011346386
242	0xbbd2edc8	-0.006437037
243	0x3cfa1b9e	0.030530747
244	0x3a8df204	0.0010829573
245	0xbb01e86a	-0.0019822367
246	0x3b9c8bc3	0.004777403
247	0xbc759d1a	-0.014991069
248	0x3cde3bbd	0.027128095
249	0x3b1ef49f	0.0024254692
250	0x3c875ca1	0.016523661
251	0xbc8aaaf0	-0.016927212
252	0xbd55c7ef	-0.052192625
253	0xbd9c94ab	-0.07645544
254	0xbc67372d	-0.014112276
255	0x3b97df6f	0.0046347897

action_model._continuous_distribution.mu.bias f4 [2]
0	0x3c8f47a8	0.017490223
1	0x3c4c8896	0.0124837365

exp_avg f4 [256, 55]
0	0x3671cccd	3.6031008e-06
1	0x00000000	0.0
2	0x379d7287	1.876919e-05
3	0xb817b97d	-3.6173955e-05
4	0xb798a6f0	-1.8197548e-05
5	0x36089fed	2.0358668e-06
6	0x00000000	0.0
7	0xb4db0928	-4.079859e-07
8	0xb825b4cb	-3.9507442e-05
9	0xb7b65305	-2.173475e-05
10	0x368d8926	4.2180936e-06
11	0x00000000	0.0
12	0x379b00e1	1.847785e-05
13	0xb86d07d0	-5.651248e-05
14	0xb82e41e5	-4.1546202e-05
15	0xb7210277	-9.596922e-06
16	0x00000000	0.0
17	0x350b0b95	5.179839e-07
18	0x368c5028	4.1816565e-06
19	0x35cb609f	1.5152799e-06
20	0xb7275f64	-9.9761855e-06
21	0x00000000	0.0
22	0xb459209c	-2.0221563e-07
23	0x37be590b	2.2691229e-05
24	0x36f42a52	7.2766934e-06
25	0x3570c804	8.969803e-07
26	0x00000000	0.0
27	0xb43439fa	-1.6784898e-07
28	0xb82e8c93	-4.1615753e-05
29	0xb815a7b9	-3.5680572e-05
30	0x35860396	9.984822e-07
31	0x00000000	0.0
32	0x35ee2278	1.7742414e-06
33	0x383329e3	4.2715936e-05
34	0x37b2f3b7	2.1332742e-05
35	0x36795691	3.715428e-06
36	0x00000000	0.0
37	0xb5834735	-9.780985e-07
38	0xb7db97a4	-2.6177448e-05
39	0xb7cdc79e	-2.4530858e-05
40	0xb5550aa1	-7.936415e-07
41	0x00000000	0.0
42	0x350eedbf	5.324509e-07
43	0x3791c16d	1.7375418e-05
44	0x378e4d65	1.6963759e-05
45	0xb5dbad81	-1.6367268e-06
46	0x00000000	0.0
47	0x3523252b	6.077632e-07
48	0xb7b35de3	-2.1382182e-05
49	0xb80a4c14	-3.2972617e-05
50	0x3697d6b3	4.525145e-06
51	0x00000000	0.0
52	0x358ae0e9	1.0347259e-06
53	0xb7a2c823	-1.94051e-05
54	0xb8043b78	-3.1526637e-05
55	0xb572d7b1	-9.04659e-07
56	0x00000000	0.0
57	0x36a34f49	4.8670086e-06
58	0x3736e917	1.0902316e-05
59	0x372fb7d0	1.047361e-05
60	0xb66ea7bf	-3.5562405e-06
61	0x00000000	0.0
62	0x35f46b02	1.821056e-06
63	0xb566c494	-8.5967736e-07
64	0xb5e2b0ac	-1.688973e-06
65	0x3526865a	6.2035326e-07
66	0x00000000	0.0
67	0x36b23684	5.31116e-06
68	0x35898657	1.0246393e-06
69	0x35e70060	1.721095e-06
70	0xb60a9e54	-2.0655762e-06
71	0x00000000	0.0
72	0x36171757	2.251434e-06
73	0x377c78af	1.5048469e-05
74	0x37395860	1.1047436e-05
75	0x35c032ea	1.4319933e-06
76	0x00000000	0.0
77	0xb55e5394	-8.2823067e-07
78	0x3770570d	1.4325383e-05
79	0x377a6e24	1.4926805e-05
80	0x3652aa4c	3.1391564e-06
81	0x00000000	0.0
82	0x3519d324	5.730419e-07
83	0xb4fd0571	-4.712888e-07
84	0x35ae85f4	1.3002996e-06
85	0x34ed549c	4.4206251e-07
86	0x00000000	0.0
87	0xb5421b3e	-7.2310274e-07
88	0x36baea95	5.570541e-06
89	0x3735d3d4	1.0837761e-05
90	0x3621c054	2.410282e-06
91	0x00000000	0.0
92	0xb39dfc95	-7.3568266e-08
93	0x36d32266	6.2922945e-06
94	0x36a95576	5.0465414e-06
95	0x3683412a	3.9116903e-06
96	0x00000000	0.0
97	0x3403c31a	1.2271303e-07
98	0xb64908f8	-2.9956554e-06
99	0x37360dac	1.0851229e-05
100	0x3581442c	9.63109e-07
101	0x00000000	0.0
102	0x34b44d8d	3.3584038e-07
103	0xb776f0cc	-1.47188075e-05
104	0xb7806805	-1.5307227e-05
105	0xb4273f7d	-1.5576184e-07
106	0x00000000	0.0
107	0xb3e02ff8	-1.0439538e-07
108	0xb7095a2b	-8.18683e-06
109	0x32960835	1.746603e-08
110	0x35e6bed4	1.7191874e-06
111	0x00000000	0.0
112	0x37b213b2	2.1228425e-05
113	0xb8329d5c	-4.258506e-05
114	0xb7b18f60	-2.1166808e-05
115	0x35089ad6	5.0889264e-07
116	0x00000000	0.0
117	0xb488d246	-2.5484968e-07
118	0xb85074f9	-4.9700004e-05
119	0xb80f6af8	-3.419348e-05
120	0x3683fdb6	3.93364e-06
121	0x00000000	0.0
122	0x37f62ed0	2.9347284e-05
123	0xb896cb0e	-7.190379e-05
124	0xb8612433	-5.3677893e-05
125	0xb72f83e9	-1.0461526e-05
126	0x00000000	0.0
127	0x36a3777a	4.8716875e-06
128	0x372d6d90	1.0337113e-05
129	0x35f9b531	1.8604679e-06
130	0xb6f55580	-7.3115225e-06
131	0x00000000	0.0
132	0xb52eebe7	-6.5163334e-07
133	0x37f3d497	2.9066852e-05
134	0x37d2bede	2.512283e-05
135	0x364d7926	3.0617898e-06
136	0x00000000	0.0
137	0xb5a3f29b	-1.2215054e-06
138	0xb849c542	-4.8105845e-05
139	0xb8218eb1	-3.8518283e-05
140	0x35c5c5b0	1.4735178e-06
141	0x00000000	0.0
142	0x34a045dd	2.9853155e-07
143	0x3834aecb	4.3078133e-05
144	0x37e7a4ab	2.7614025e-05
145	0x36671fbe	3.4440159e-06
146	0x00000000	0.0
147	0xb5a1cb5b	-1.2054619e-06
148	0xb755a2c4	-1.2733686e-05
149	0xb76f9e49	-1.4282364e-05
150	0x3652fdf6	3.1440263e-06
151	0x00000000	0.0
152	0x34c36ef7	3.6402318e-07
153	0x3775c4dc	1.4648973e-05
154	0x37efad79	2.85718e-05
155	0xb6867865	-4.007527e-06
156	0x00000000	0.0
157	0x358e8dc4	1.0621084e-06
158	0xb82be91a	-4.098667e-05
159	0xb87453d8	-5.825222e-05
160	0x36f00233	7.1528134e-06
161	0x00000000	0.0
162	0x355b3bbd	8.167079e-07
163	0xb8660d0c	-5.4848424e-05
164	0xb88afa1a	-6.626938e-05
165	0x348b4999	2.5944317e-07
166	0x00000000	0.0
167	0x3668f210	3.4711593e-06
168	0xb589ea6d	-1.0275522e-06
169	0x35e69209	1.7178837e-06
170	0xb590647a	-1.0758079e-06
171	0x00000000	0.0
172	0x3464f572	2.1323447e-07
173	0xb606c627	-2.0082896e-06
174	0x348093f1	2.39495e-07
175	0x3551aeee	7.8113123e-07
176	0x00000000	0.0
177	0x368a001a	4.1127323e-06
178	0xb6e4d390	-6.8195586e-06
179	0xb63fc5fc	-2.857646e-06
180	0xb5aeb28b	-1.3015973e-06
181	0x00000000	0.0
182	0x35d97935	1.6203036e-06
183	0x373ba2ef	1.11840045e-05
184	0x37273d3c	9.968233e-06
185	0xb5a5fe6d	-1.2367506e-06
186	0x00000000	0.0
187	0xb4a7098a	-3.1113115e-07
188	0x373b96f5	1.1181216e-05
189	0x37391393	1.1031417e-05
190	0x3598c835	1.138315e-06
191	0x00000000	0.0
192	0x34e66900	4.2917236e-07
193	0xb6abcddd	-5.1201628e-06
194	0xb616f575	-2.2494617e-06
195	0x3450b2d4	1.9436567e-07
196	0x00000000	0.0
197	0x34226532	1.512424e-07
198	0x3707acf7	8.086899e-06
199	0x37098c66	8.198525e-06
200	0x35d7ad6c	1.6069221e-06
201	0x00000000	0.0
202	0xb4183e7b	-1.4178833e-07
203	0x35ec4f89	1.7606518e-06
204	0x35ce549f	1.5372824e-06
205	0x358c8e56	1.0472238e-06
206	0x00000000	0.0
207	0x341d217b	1.4633945e-07
208	0x368399f2	3.922026e-06
209	0x3726405d	9.909357e-06
210	0x352aa0b9	6.356382e-07
211	0x00000000	0.0
212	0x349637e0	2.7980332e-07
213	0xb725b6c5	-9.877321e-06
214	0xb74c3baf	-1.2173244e-05
215	0x35507e34	7.766969e-07
216	0x00000000	0.0
217	0x33f0a7e5	1.1206411e-07
218	0xb71ef6eb	-9.475024e-06
219	0xb6edcf7a	-7.087304e-06
220	0xb6a8dfda	-5.03285e-06
221	0x00000000	0.0
222	0xb75e6684	-1.32561e-05
223	0x38348a25	4.3044e-05
224	0x37aea235	2.081795e-05
225	0xb659e29b	-3.2467422e-06
226	0x00000000	0.0
227	0x35731ea6	9.0569154e-07
228	0x38250aeb	3.9349234e-05
229	0x37a1cb7f	1.9287456e-05
230	0xb68f6ebc	-4.2746233e-06
231	0x00000000	0.0
232	0xb7586487	-1.2898009e-05
233	0x3871e99d	5.7676447e-05
234	0x380bff9c	3.3378237e-05
235	0x3753ed63	1.2631851e-05
236	0x00000000	0.0
237	0x34b3f78f	3.352147e-07
238	0xb6ed9dc3	-7.0815163e-06
239	0xb7209831	-9.572178e-06
240	0x37a6b42d	1.9872643e-05
241	0x00000000	0.0
242	0x33402f53	4.4746525e-08
243	0xb7571c14	-1.2821536e-05
244	0xb75c1b4a	-1.3119376e-05
245	0xb5120604	-5.439799e-07
246	0x00000000	0.0
247	0x32434852	1.1366938e-08
248	0x389d5ce5	7.503646e-05
249	0x3883f9b0	6.293075e-05
250	0xb5d1a885	-1.5620759e-06
251	0x00000000	0.0
252	0xb6557eab	-3.1813204e-06
253	0xb7aadd29	-2.0368565e-05
254	0xb6c7e23b	-5.956999e-06
255	0xb611156b	-2.161915e-06

exp_avg_sq f4 [256, 55]
0	0x2faea2e6	3.1766162e-10
1	0x00000000	0.0
2	0x3004271e	4.807691e-10
3	0x32203a5e	9.326497e-09
4	0x32295aec	9.857768e-09
5	0x3024da4f	5.997309e-10
6	0x00000000	0.0
7	0x2fc2e1ba	3.5448783e-10
8	0x3235100b	1.0539234e-08
9	0x323ce4b1	1.0995039e-08
10	0x2f2ccbff	1.5715783e-10
11	0x00000000	0.0
12	0x2f9782db	2.7559718e-10
13	0x320ed9ed	8.315038e-09
14	0x321e8197	9.226276e-09
15	0x306042bb	8.1585555e-10
16	0x00000000	0.0
17	0x2faa967e	3.102975e-10
18	0x32179ca7	8.824975e-09
19	0x3220f0e4	9.367998e-09
20	0x2f4da88f	1.8704525e-10
21	0x00000000	0.0
22	0x2f2e93ee	1.5877763e-10
23	0x31e6f4c7	6.721709e-09
24	0x321563ab	8.695603e-09
25	0x30562fd7	7.792073e-10
26	0x00000000	0.0
27	0x2f80b9a3	2.3414967e-10
28	0x32332035	1.0426494e-08
29	0x32320de0	1.03641185e-08
30	0x2f2b6e9d	1.5591657e-10
31	0x00000000	0.0
32	0x2f66d653	2.0994521e-10
33	0x31d94a89	6.324005e-09
34	0x31ff0c63	7.422885e-09
35	0x30f236b4	1.7623365e-09
36	0x00000000	0.0
37	0x2f95cec9	2.7249872e-10
38	0x3206e428	7.851703e-09
39	0x32159d74	8.708742e-09
40	0x2f62dbfc	2.0632734e-10
41	0x00000000	0.0
42	0x2f84ef2c	2.4180602e-10
43	0x31bbf834	5.4706337e-09
44	0x31f42137	7.1051107e-09
45	0x305c1311	8.006263e-10
46	0x00000000	0.0
47	0x2f8e29f0	2.5859448e-10
48	0x321f52ce	9.273846e-09
49	0x322e21aa	1.0135787e-08
50	0x2f98d6fb	2.7801392e-10
51	0x00000000	0.0
52	0x2f865133	2.4432154e-10
53	0x31d04047	6.0609042e-09
54	0x3200bbe1	7.493299e-09
55	0x2ebad7fa	8.496666e-11
56	0x00000000	0.0
57	0x2e6ea768	5.426362e-11
58	0x30f030d7	1.7476179e-09
59	0x310c723d	2.0437618e-09
60	0x2f432605	1.7748654e-10
61	0x00000000	0.0
62	0x2e92924d	6.6652996e-11
63	0x30d2ae1c	1.5328996e-09
64	0x30fd66a8	1.8437349e-09
65	0x2e68e0ac	5.295024e-11
66	0x00000000	0.0
67	0x2e1a1bea	3.504034e-11
68	0x30e93484	1.6967907e-09
69	0x31088612	1.9866815e-09
70	0x2f991de7	2.7851785e-10
71	0x00000000	0.0
72	0x2e75d23f	5.5893287e-11
73	0x30e742f0	1.6826487e-09
74	0x3109f547	2.0075548e-09
75	0x2e47a962	4.5397804e-11
76	0x00000000	0.0
77	0x2dc6647b	2.2554616e-11
78	0x30f19f1f	1.7580283e-09
79	0x3114636e	2.1593354e-09
80	0x2f99414d	2.7876937e-10
81	0x00000000	0.0
82	0x2e544f61	4.8273722e-11
83	0x30e98675	1.6991196e-09
84	0x310b70c0	2.0291253e-09
85	0x2e63d91d	5.180666e-11
86	0x00000000	0.0
87	0x2deb12b2	2.672471e-11
88	0x310892cb	1.9874047e-09
89	0x31209995	2.3370366e-09
90	0x2fbb8666	3.4110598e-10
91	0x00000000	0.0
92	0x2e4d9b1d	4.6749372e-11
93	0x30fce58c	1.8400654e-09
94	0x31138f6f	2.1472848e-09
95	0x2ec11bea	8.7815824e-11
96	0x00000000	0.0
97	0x2e188d5a	3.4686344e-11
98	0x30dcff0c	1.6079595e-09
99	0x31127a3d	2.131528e-09
100	0x2e75a47c	5.5852642e-11
101	0x00000000	0.0
102	0x2e9992ad	6.983689e-11
103	0x313636ea	2.65157e-09
104	0x314f67ec	3.0181537e-09
105	0x2eb37d6f	8.162259e-11
106	0x00000000	0.0
107	0x2e0c8daf	3.1958155e-11
108	0x310fa152	2.0900939e-09
109	0x31293ea1	2.4628337e-09
110	0x2f7ea400	2.315943e-10
111	0x00000000	0.0
112	0x2f92436d	2.6605154e-10
113	0x32b86fef	2.147132e-08
114	0x32bdeaa8	2.2109205e-08
115	0x306a0b6d	8.514494e-10
116	0x00000000	0.0
117	0x2fbd0e31	3.4388983e-10
118	0x32c00e43	2.2358227e-08
119	0x32c5f0d3	2.3043333e-08
120	0x2f4cb351	1.8617398e-10
121	0x00000000	0.0
122	0x2f9a1385	2.8026306e-10
123	0x3275cdc9	1.4307667e-08
124	0x32900f29	1.67707e-08
125	0x3086ac3e	9.798737e-10
126	0x00000000	0.0
127	0x2fdf04e9	4.0566953e-10
128	0x32a4f51b	1.9203574e-08
129	0x32acd249	2.0119062e-08
130	0x2f49f6c3	1.8368511e-10
131	0x00000000	0.0
132	0x2e9243cf	6.6513565e-11
133	0x325608a2	1.2458402e-08
134	0x328ce4a8	1.6402126e-08
135	0x308b7d1d	1.014914e-09
136	0x00000000	0.0
137	0x2f904b5a	2.6246988e-10
138	0x32ad54e5	2.0178456e-08
139	0x32b18dd0	2.067e-08
140	0x2f46967e	1.806146e-10
141	0x00000000	0.0
142	0x2ed39eab	9.623354e-11
143	0x322a2f7f	9.906102e-09
144	0x326279b9	1.3182608e-08
145	0x31067fca	1.9572206e-09
146	0x00000000	0.0
147	0x2f9e1196	2.8752528e-10
148	0x329a2e35	1.7948972e-08
149	0x32a8c317	1.964649e-08
150	0x2fdcd61f	4.016991e-10
151	0x00000000	0.0
152	0x2ea74173	7.605907e-11
153	0x320faa7b	8.362458e-09
154	0x32438dc1	1.1382725e-08
155	0x30463215	7.210315e-10
156	0x00000000	0.0
157	0x2f79087e	2.2649435e-10
158	0x32bc2da5	2.1906837e-08
159	0x32ca4387	2.3546603e-08
160	0x2fd2bfdf	3.833511e-10
161	0x00000000	0.0
162	0x2eca08d0	9.187462e-11
163	0x323170ed	1.0328432e-08
164	0x3256f026	1.2511043e-08
165	0x2e6c526a	5.3733386e-11
166	0x00000000	0.0
167	0x2e060951	3.0476347e-11
168	0x30fda2bf	1.8454428e-09
169	0x3112f615	2.1385678e-09
170	0x2f4bc38f	1.8532219e-10
171	0x00000000	0.0
172	0x2ea670b3	7.5688254e-11
173	0x30acc781	1.257135e-09
174	0x30e61d43	1.6743019e-09
175	0x2e16a410	3.4251768e-11
176	0x00000000	0.0
177	0x2e47a138	4.5390552e-11
178	0x30e72be9	1.6819942e-09
179	0x3109b6b3	2.0039976e-09
180	0x2ed3c808	9.630702e-11
181	0x00000000	0.0
182	0x2e886ad5	6.203541e-11
183	0x30c793bb	1.4521143e-09
184	0x30ef1420	1.7395259e-09
185	0x2e90687d	6.566923e-11
186	0x00000000	0.0
187	0x2e224b41	3.6901374e-11
188	0x30ee7e70	1.7352715e-09
189	0x310ecd23	2.0780326e-09
190	0x2ed8c480	9.857448e-11
191	0x00000000	0.0
192	0x2e95c887	6.811356e-11
193	0x30ba740c	1.3566264e-09
194	0x30e86cef	1.6911182e-09
195	0x2e615ea1	5.1243124e-11
196	0x00000000	0.0
197	0x2e212f4e	3.6649177e-11
198	0x30ee6474	1.734533e-09
199	0x31107ce3	2.1025748e-09
200	0x2f11f5a0	1.3274937e-10
201	0x00000000	0.0
202	0x2e373ada	4.1661653e-11
203	0x30ebdd6d	1.7161433e-09
204	0x310e61f4	2.07194e-09
205	0x2ea43f42	7.4690934e-11
206	0x00000000	0.0
207	0x2e3e3391	4.32468e-11
208	0x31019542	1.8856814e-09
209	0x312195d6	2.3513755e-09
210	0x2eb57ac1	8.2527325e-11
211	0x00000000	0.0
212	0x2e283ea3	3.825441e-11
213	0x311b1152	2.2565314e-09
214	0x31318179	2.5830487e-09
215	0x2ec6d7d0	9.0423335e-11
216	0x00000000	0.0
217	0x2e4f1fec	4.7094703e-11
218	0x3114f37f	2.1675246e-09
219	0x3136c7fe	2.6598168e-09
220	0x2fb668cc	3.318007e-10
221	0x00000000	0.0
222	0x2f852f40	2.4226132e-10
223	0x32ab843e	1.9967157e-08
224	0x32b49243	2.102127e-08
225	0x301a3b09	5.610877e-10
226	0x00000000	0.0
227	0x2fd4aca9	3.8685258e-10
228	0x32a07ece	1.8684116e-08
229	0x32aa8dd0	1.9855094e-08
230	0x2f4031ae	1.7479948e-10
231	0x00000000	0.0
232	0x2f5d680c	2.0136798e-10
233	0x32adb909	2.0223995e-08
234	0x32b51222	2.1079419e-08
235	0x301575bf	5.437321e-10
236	0x00000000	0.0
237	0x2fb9f4c4	3.382522e-10
238	0x328e382d	1.6556521e-08
239	0x329ba293	1.8118305e-08
240	0x2fda62d0	3.972418e-10
241	0x00000000	0.0
242	0x2f42ab75	1.7705111e-10
243	0x32ad9809	2.0208988e-08
244	0x32c21396	2.2593479e-08
245	0x301bc1e3	5.66642e-10
246	0x00000000	0.0
247	0x2f814c88	2.3519342e-10
248	0x3299d2d0	1.790741e-08
249	0x329f96d4	1.8578625e-08
250	0x2fa28c93	2.9567512e-10
251	0x00000000	0.0
252	0x2f48f483	1.8276762e-10
253	0x32b47090	2.1005945e-08
254	0x32c0850e	2.2412248e-08
255	0x306f8064	8.713015e-10

exp_avg f4 [256]
0	0xb8838a66	-6.2723455e-05
1	0x37095865	8.186417e-06
2	0xb8b5bd7b	-8.666046e-05
3	0xb68f00af	-4.2618117e-06
4	0x38a27572	7.746638e-05
5	0x38a58dcf	7.894227e-05
6	0x39181c47	0.00014506384
7	0xb84c7737	-4.8748418e-05
8	0xb7a75d2e	-1.9951342e-05
9	0xb85274f4	-5.0176823e-05
10	0x38757f50	5.853112e-05
11	0x36f641e0	7.33904e-06
12	0x3900e5bf	0.00012292618
13	0x385b152b	5.2233383e-05
14	0x388f30de	6.8278736e-05
15	0xb818e44a	-3.6452235e-05
16	0xb8a7893b	-7.988742e-05
17	0xb8a3865d	-7.797473e-05
18	0xb7ecec88	-2.8243536e-05
19	0xb8d1e682	-0.00010008832
20	0xb7cd8915	-2.4501738e-05
21	0xb8d1597a	-9.982563e-05
22	0x38fc4540	0.00012029195
23	0x381eb7da	3.784136e-05
24	0x38e47c32	0.000108950204
25	0xb682b54a	-3.8954067e-06
26	0x36b02e74	5.2506166e-06
27	0x381733b6	3.6049365e-05
28	0x36b1d04c	5.29926e-06
29	0xb898ce4b	-7.28635e-05
30	0xb7836337	-1.5662617e-05
31	0x37d8161b	2.57595e-05
32	0x36dbd07b	6.550979e-06
33	0x39131e5c	0.00014030322
34	0x3800479e	3.0584277e-05
35	0x37ae489d	2.077623e-05
36	0xb9416afb	-0.00018445768
37	0xb770a178	-1.434271e-05
38	0x378e5f89	1.6972206e-05
39	0x37d03d01	2.482394e-05
40	0xb81a71d5	-3.6822476e-05
41	0xb76a59fa	-1.3968436e-05
42	0x37287e12	1.0042933e-05
43	0xb7e3f06c	-2.7172464e-05
44	0x3738220f	1.09751845e-05
45	0xb81d3dee	-3.7489393e-05
46	0x389389d7	7.035181e-05
47	0xb687c0a3	-4.0457394e-06
48	0xb879f17a	-5.959112e-05
49	0xb7de64a4	-2.6511327e-05
50	0x3801cda3	3.094751e-05
51	0x383283c6	4.256123e-05
52	0xb855cee8	-5.0975854e-05
53	0x38559f09	5.093127e-05
54	0xb89d0a20	-7.488229e-05
55	0xb80cc053	-3.3557717e-05
56	0xb81b8724	-3.708074e-05
57	0xb89638d8	-7.163145e-05
58	0xb588f4a0	-1.0203985e-06
59	0xb81aceab	-3.6908936e-05
60	0x38588ee4	5.163149e-05
61	0xb8e0f007	-0.00010725861
62	0x3886e560	6.432342e-05
63	0x3694eecb	4.438543e-06
64	0x38978f63	7.226949e-05
65	0xb80e28ba	-3.3893368e-05
66	0x36e7470a	6.8926065e-06
67	0xb7b48816	-2.1521042e-05
68	0x38f42e45	0.00011643445
69	0x387a49a1	5.9673217e-05
70	0xb867e1f7	-5.5285138e-05
71	0xb80d02aa	-3.36195e-05
72	0xb89f05e9	-7.582812e-05
73	0xb7e57d2a	-2.7357211e-05
74	0x36b8c108	5.506099e-06
75	0x38ab595d	8.1705606e-05
76	0x386a88d9	5.5917397e-05
77	0x38d0e60c	9.9610625e-05
78	0x37fdde26	3.0263396e-05
79	0x3802c65e	3.117916e-05
80	0xb8171314	-3.6018973e-05
81	0xb5a5c16b	-1.234975e-06
82	0xb8a47597	-7.842032e-05
83	0xb83ab541	-4.451466e-05
84	0xb7f738c2	-2.9471124e-05
85	0xb8e11774	-0.000107332045
86	0x3900f42b	0.00012297991
87	0xb8f53baa	-0.00011693624
88	0x391bcf31	0.00014859137
89	0xb674d7a6	-3.6484357e-06
90	0x37a1f2b9	1.9305722e-05
91	0x376e79b0	1.4214238e-05
92	0xb8a3171a	-7.776749e-05
93	0x376a6294	1.3970439e-05
94	0x38255f6d	3.9427938e-05
95	0xb81536df	-3.557547e-05
96	0xb6ba7c79	-5.5577225e-06
97	0x37a07b28	1.9130835e-05
98	0x374b17c6	1.2105278e-05
99	0x35a3af46	1.2195458e-06
100	0x38e0cdb9	0.00010719471
101	0xb7aac29d	-2.0356203e-05
102	0xb7d13037	-2.4937193e-05
103	0x387eb1ae	6.0723796e-05
104	0x37b766f3	2.186324e-05
105	0xb8bba502	-8.94759e-05
106	0xb7a75825	-1.9948997e-05
107	0x3680a52d	3.8339263e-06
108	0xb8c13ebb	-9.2146416e-05
109	0xb7c8feb5	-2.3960465e-05
110	0xb7a79e4b	-1.9981662e-05
111	0xb7e0e12b	-2.6807733e-05
112	0xb7e7614a	-2.758265e-05
113	0x376c00bb	1.4066866e-05
114	0x3692b223	4.371877e-06
115	0xb7a4ae04	-1.9631356e-05
116	0xb882b6d8	-6.23294e-05
117	0x37c3df98	2.334993e-05
118	0xb6303006	-2.6253997e-06
119	0x37af65fb	2.0909114e-05
120	0xb6b95cdc	-5.52424e-06
121	0x37a21c41	1.9325062e-05
122	0x37a2ef71	1.9423404e-05
123	0x37ad688f	2.0671896e-05
124	0xb83ed0ef	-4.5494115e-05
125	0x3907efed	0.00012963983
126	0x3805f319	3.1936073e-05
127	0xb8814529	-6.1640814e-05
128	0xb809a40e	-3.2816133e-05
129	0x38a2cc06	7.762764e-05
130	0xb775ac37	-1.4643235e-05
131	0xb7512cc7	-1.2467796e-05
132	0xb84f258e	-4.938762e-05
133	0xb88a9c1e	-6.609432e-05
134	0x369a8eb1	4.606169e-06
135	0x3842cde5	4.644496e-05
136	0x37b29bda	2.1291828e-05
137	0xb6eb7cf3	-7.0180918e-06
138	0xb934bc31	-0.00017236244
139	0x36a76f2c	4.98993e-06
140	0xb89e6c87	-7.554242e-05
141	0x3844a415	4.6882855e-05
142	0x38983e64	7.259546e-05
143	0xb8143b7d	-3.5341352e-05
144	0xb78a981c	-1.6521713e-05
145	0xb8861e1f	-6.3952284e-05
146	0x38fea259	0.000121419034
147	0x38150121	3.552542e-05
148	0xb8808827	-6.128876e-05
149	0xb84a1f8f	-4.8189944e-05
150	0xb83e97a9	-4.5440775e-05
151	0xb6c011ec	-5.7241323e-06
152	0x378c06bd	1.6692438e-05
153	0xb70f6229	-8.546319e-06
154	0x392c997c	0.00016460376
155	0xb81e1879	-3.7692927e-05
156	0xb7aaa7ce	-2.034372e-05
157	0x376065d8	1.3375153e-05
158	0x37efcd6a	2.8586674e-05
159	0xb9114460	-0.00013853749
160	0x3880403f	6.1154824e-05
161	0xb6fe3a4c	-7.5765765e-06
162	0xb75dee61	-1.3228128e-05
163	0xb7bc0c43	-2.2417056e-05
164	0xb9157686	-0.00014253901
165	0x37b7270a	2.1833479e-05
166	0xb7c7aaf4	-2.3802255e-05
167	0xb76cbfb5	-1.4111331e-05
168	0xb90809d9	-0.00012973639
169	0x389b858d	7.415852e-05
170	0xb84829be	-4.772259e-05
171	0x3849fe8e	4.8159207e-05
172	0xb80dc39d	-3.37992e-05
173	0xb75fa939	-1.3331236e-05
174	0x3681842c	3.8598864e-06
175	0x385277bc	5.0179413e-05
176	0xb7ab1665	-2.0395217e-05
177	0xb6cf9a75	-6.187062e-06
178	0x376fa7fe	1.4284624e-05
179	0x3892ba8c	6.9965696e-05
180	0xb890d03a	-6.90524e-05
181	0xb8428402	-4.6376146e-05
182	0xb8cd3c3f	-9.7863835e-05
183	0xb8775b99	-5.8974696e-05
184	0x37909958	1.7237544e-05
185	0xb7f5a418	-2.9282688e-05
186	0xb863731e	-5.422823e-05
187	0x364e9f6b	3.0789186e-06
188	0x38158473	3.564772e-05
189	0xb851627d	-4.9921207e-05
190	0x35ff6912	1.902956e-06
191	0x3786bee6	1.6062939e-05
192	0x382239cc	3.8677637e-05
193	0xb48160c0	-2.4098517e-07
194	0x3831b9a5	4.2372983e-05
195	0xb7e3816e	-2.712078e-05
196	0x388df6d6	6.769381e-05
197	0x3876e71b	5.8866204e-05
198	0x36faf1c2	7.478725e-06
199	0x376a9f8f	1.3984637e-05
200	0xb8a8e322	-8.053171e-05
201	0x37fa3386	2.9826315e-05
202	0x3664ae29	3.4076022e-06
203	0xb81b9eff	-3.7102956e-05
204	0x354018ff	7.156195e-07
205	0xb886f718	-6.435643e-05
206	0x3879c099	5.9545597e-05
207	0xb732f4a3	-1.0666586e-05
208	0xb8d096aa	-9.946276e-05
209	0xb84c8d0d	-4.8768754e-05
210	0x38738c3c	5.8066318e-05
211	0x37cb3082	2.4222074e-05
212	0xb86c6f37	-5.637036e-05
213	0xb796acd4	-1.7961873e-05
214	0x37f765f0	2.9492163e-05
215	0xb92fd5dc	-0.0001676897
216	0xb82b9179	-4.090506e-05
217	0xb8f8c487	-0.000118621676
218	0x3861d669	5.3843865e-05
219	0x378f9263	1.7115095e-05
220	0x37740c9b	1.4546468e-05
221	0x37fb406b	2.9951529e-05
222	0x382a79c1	4.064455e-05
223	0x3855012c	5.078425e-05
224	0x37841bd4	1.5748585e-05
225	0xb74eca07	-1.2325595e-05
226	0xb7c5291f	-2.3503379e-05
227	0xb8bb35c9	-8.926873e-05
228	0xb8faa36b	-0.00011951368
229	0x3601f87b	1.9367133e-06
230	0x38e67954	0.00010989854
231	0xb8da0f90	-0.00010397949
232	0xb82f2b51	-4.1763593e-05
233	0xb845cc22	-4.7158574e-05
234	0xb808ac68	-3.2585493e-05
235	0xb73f36f4	-1.1397282e-05
236	0xb719e78a	-9.17342e-06
237	0x36dc8826	6.5723607e-06
238	0xb8bd3536	-9.0221336e-05
239	0xb7995384	-1.8277911e-05
240	0x38376461	4.3724085e-05
241	0xb7fafa58	-2.9918898e-05
242	0xb6e9d378	-6.9685593e-06
243	0x3808476b	3.249144e-05
244	0xb86680f6	-5.4956377e-05
245	0xb7bf0228	-2.2769978e-05
246	0x369edb19	4.7342733e-06
247	0xb7f4e690	-2.919443e-05
248	0x38803b52	6.114565e-05
249	0x3793cff0	1.7620594e-05
250	0x37dea612	2.6541795e-05
251	0xb80b8a51	-3.3269e-05
252	0xb8cbe7d2	-9.722974e-05
253	0xb9575027	-0.00020533857
254	0xb7b1a1b1	-2.1175338e-05
255	0x37a98ff1	2.0213398e-05

exp_avg_sq f4 [256]
0	0x32ce75ce	2.4035128e-08
1	0x31df1946	6.4930274e-09
2	0x33285dc1	3.9200817e-08
3	0x31bdd48e	5.5247886e-09
4	0x33194c29	3.5692356e-08
5	0x33259f85	3.856214e-08
6	0x33a3e3bb	7.631703e-08
7	0x33521c82	4.8920363e-08
8	0x32150b8d	8.675568e-09
9	0x326c6ff4	1.3762463e-08
10	0x32b688c8	2.124979e-08
11	0x3206b5e4	7.841184e-09
12	0x339b2495	7.224404e-08
13	0x33342ba8	4.194922e-08
14	0x325e53cf	1.2941157e-08
15	0x328a7160	1.6116871e-08
16	0x327c3d7c	1.46823105e-08
17	0x33515baa	4.8744973e-08
18	0x318c0539	4.07513e-09
19	0x32fc6641	2.938316e-08
20	0x31e09e6c	6.5372685e-09
21	0x3325999b	3.855676e-08
22	0x3381d538	6.045815e-08
23	0x32f20c1f	2.817802e-08
24	0x32c777ac	2.322107e-08
25	0x3322a0e9	3.786491e-08
26	0x30c65673	1.4430966e-09
27	0x325b8077	1.2776687e-08
28	0x312ee9ee	2.5453306e-09
29	0x331f4673	3.7084146e-08
30	0x307ef4cd	9.2752545e-10
31	0x31f74dcd	7.197491e-09
32	0x32e41306	2.6551344e-08
33	0x33ac7fb3	8.0326025e-08
34	0x33255677	3.8495696e-08
35	0x324c2003	1.18816414e-08
36	0x33980c7d	7.080323e-08
37	0x337a3f5f	5.8265297e-08
38	0x31722d69	3.5241448e-09
39	0x31ae47a9	5.0722133e-09
40	0x3265faa8	1.3386547e-08
41	0x32220cf3	9.432585e-09
42	0x32223288	9.4411305e-09
43	0x3243c6be	1.1395683e-08
44	0x315e7ab6	3.2375005e-09
45	0x328861f0	1.587702e-08
46	0x33de1379	1.03412226e-07
47	0x328f345d	1.6671203e-08
48	0x32aff200	2.048273e-08
49	0x32124151	8.51317e-09
50	0x329e874a	1.8455143e-08
51	0x3324b4a1	3.8348507e-08
52	0x3293ee67	1.7221465e-08
53	0x3290adab	1.6842781e-08
54	0x32a80e67	1.9564323e-08
55	0x3319fe2b	3.5854253e-08
56	0x32c640e6	2.3079746e-08
57	0x32346dd7	1.0502354e-08
58	0x31907775	4.2045323e-09
59	0x323987b7	1.0799275e-08
60	0x337bfad8	5.8668633e-08
61	0x33d217cf	9.783218e-08
62	0x32944c7a	1.7264245e-08
63	0x33f83f3a	1.1559901e-07
64	0x3377e60f	5.7718406e-08
65	0x3198ae82	4.4436215e-09
66	0x31763d1e	3.5832453e-09
67	0x32d82247	2.5161297e-08
68	0x33639e94	5.2996782e-08
69	0x331c48e1	3.6387863e-08
70	0x32a1affa	1.8822892e-08
71	0x31faad25	7.295642e-09
72	0x3377687b	5.7604193e-08
73	0x32b5b037	2.1151306e-08
74	0x33893876	6.38983e-08
75	0x32c81189	2.3291038e-08
76	0x32a35fed	1.901932e-08
77	0x337cc8a7	5.8855814e-08
78	0x320f4918	8.340315e-09
79	0x330e74de	3.316824e-08
80	0x32e630c5	2.6797702e-08
81	0x32216efa	9.396667e-09
82	0x339eb3c2	7.390146e-08
83	0x31a893ad	4.9062323e-09
84	0x3296c639	1.755244e-08
85	0x32e69f98	2.6848099e-08
86	0x334af535	4.7254805e-08
87	0x33350b8f	4.215286e-08
88	0x33a4e37f	7.6782264e-08
89	0x30174c0e	5.504156e-10
90	0x336ddc27	5.538109e-08
91	0x31b429ba	5.2434332e-09
92	0x336c98dd	5.508706e-08
93	0x31b7191b	5.328855e-09
94	0x31c2ef97	5.6733813e-09
95	0x31916c27	4.232351e-09
96	0x3204100e	7.687062e-09
97	0x32bb251d	2.1786542e-08
98	0x32671c53	1.345241e-08
99	0x338b9684	6.5000705e-08
100	0x33a203fd	7.544438e-08
101	0x334e520b	4.803773e-08
102	0x331a55db	3.5934004e-08
103	0x33674b9e	5.3852652e-08
104	0x33bd88bd	8.825871e-08
105	0x32b1524f	2.0642942e-08
106	0x3205ba92	7.78404e-09
107	0x31582c35	3.1457266e-09
108	0x33257566	3.852383e-08
109	0x313c3a57	2.7390763e-09
110	0x32ad2293	2.0155573e-08
111	0x32df770b	2.6014751e-08
112	0x323d922e	1.1034485e-08
113	0x313814ec	2.6787417e-09
114	0x31c18ff9	5.633407e-09
115	0x32077271	7.884055e-09
116	0x3327fed5	3.9114486e-08
117	0x314c406f	2.9722533e-09
118	0x3243420c	1.1365511e-08
119	0x32308147	1.0273943e-08
120	0x32410029	1.1234115e-08
121	0x308ba45e	1.0160297e-09
122	0x318cb7b3	4.0954204e-09
123	0x330ceb58	3.2810334e-08
124	0x32831ebb	1.5264382e-08
125	0x33dcecfe	1.0287657e-07
126	0x326a1a0a	1.3626513e-08
127	0x332228c3	3.7755637e-08
128	0x32a37bf1	1.903206e-08
129	0x331c06a0	3.6327606e-08
130	0x31d9a0c8	6.33381e-09
131	0x320738d0	7.870952e-09
132	0x3351d1ed	4.885253e-08
133	0x31f974d9	7.260138e-09
134	0x32f27b42	2.8228559e-08
135	0x33186e25	3.5490434e-08
136	0x33478b90	4.646023e-08
137	0x3199902f	4.469278e-09
138	0x342fe4a5	1.6381325e-07
139	0x335600eb	4.9826593e-08
140	0x330c9f33	3.274108e-08
141	0x32386523	1.0733205e-08
142	0x331eaa7f	3.6942307e-08
143	0x32178596	8.819731e-09
144	0x33b2a683	8.319059e-08
145	0x32f22bd0	2.8192432e-08
146	0x33d72f01	1.00202676e-07
147	0x326976ce	1.3589398e-08
148	0x32b3dfdb	2.094014e-08
149	0x33ec53b1	1.100483e-07
150	0x33811214	6.010319e-08
151	0x30f670bf	1.79309e-09
152	0x32c1a314	2.2542316e-08
153	0x32fb8a24	2.9283065e-08
154	0x33c0eabb	8.983394e-08
155	0x3206ebad	7.853413e-09
156	0x32fbf27d	2.9330517e-08
157	0x32975562	1.7617541e-08
158	0x3187c441	3.9513286e-09
159	0x339b6fcb	7.238085e-08
160	0x32ba856c	2.1713923e-08
161	0x3316c493	3.510338e-08
162	0x31f6fd45	7.1883357e-09
163	0x329448f1	1.7262638e-08
164	0x33bb117b	8.711046e-08
165	0x3188b8ab	3.9791153e-09
166	0x3220b123	9.353502e-09
167	0x318cd050	4.0982187e-09
168	0x33ae91ec	8.1290494e-08
169	0x33b9aced	8.646189e-08
170	0x32916f97	1.6930967e-08
171	0x33ce3043	9.601401e-08
172	0x331935c5	3.567199e-08
173	0x322b3ecb	9.9677875e-09
174	0x318d0fc2	4.1054316e-09
175	0x3310fee8	3.375945e-08
176	0x31524bf7	3.0602203e-09
177	0x3369658e	5.4341903e-08
178	0x32667abb	1.3415668e-08
179	0x32eaa7e2	2.731753e-08
180	0x32f488e1	2.8467584e-08
181	0x332139a0	3.7538143e-08
182	0x334d739a	4.783542e-08
183	0x32df1915	2.5972023e-08
184	0x31fb67c8	7.31686e-09
185	0x3184b3da	3.8621524e-09
186	0x331a4883	3.5921868e-08
187	0x32f2b313	2.8253941e-08
188	0x323da499	1.1038673e-08
189	0x3306c00d	3.1373975e-08
190	0x33541c84	4.938603e-08
191	0x33ae9160	8.12895e-08
192	0x321ad10f	9.011514e-09
193	0x329ff642	1.8622021e-08
194	0x325b004c	1.2747545e-08
195	0x324066b7	1.11992255e-08
196	0x329ba6a5	1.8120156e-08
197	0x334d5c28	4.7814098e-08
198	0x319a8f79	4.498301e-09
199	0x31aba4ba	4.9954823e-09
200	0x33a8d04a	7.860997e-08
201	0x325d34c0	1.2875887e-08
202	0x31bcbdb9	5.493089e-09
203	0x3219e571	8.957941e-09
204	0x3234150c	1.04821645e-08
205	0x33210e94	3.7498992e-08
206	0x32bc0c6a	2.1891726e-08
207	0x3259812d	1.2660434e-08
208	0x3306765a	3.1306946e-08
209	0x321760c4	8.811359e-09
210	0x32f40cbd	2.8411131e-08
211	0x326b79cd	1.3706495e-08
212	0x333594ea	4.2277783e-08
213	0x31cec859	6.018166e-09
214	0x329790e7	1.7644608e-08
215	0x338cd0f6	6.557268e-08
216	0x33289c36	3.925762e-08
217	0x3386527a	6.254864e-08
218	0x3269aed6	1.3602138e-08
219	0x321cc1c8	9.124456e-09
220	0x318af7fb	4.0445207e-09
221	0x324c7dbd	1.1902952e-08
222	0x33195196	3.569729e-08
223	0x32d4ce3b	2.4773831e-08
224	0x325d697b	1.28878765e-08
225	0x32306d5b	1.0269413e-08
226	0x33247e3f	3.8299046e-08
227	0x33345fc9	4.1996632e-08
228	0x336a22df	5.4514086e-08
229	0x3271afc4	1.4068011e-08
230	0x338a303f	6.434902e-08
231	0x33fc0b2e	1.1736698e-07
232	0x33153d62	3.4747593e-08
233	0x3324f9d8	3.8411457e-08
234	0x31c68037	5.7771348e-09
235	0x31d81898	6.2892234e-09
236	0x30299098	6.168732e-10
237	0x32c48efc	2.2882425e-08
238	0x32bc2d31	2.1906631e-08
239	0x31988452	4.4388253e-09
240	0x323b6bcb	1.0909342e-08
241	0x3186c927	3.9227817e-09
242	0x314c1678	2.969868e-09
243	0x32c00193	2.2352458e-08
244	0x33703f31	5.5936827e-08
245	0x32e63bc3	2.68027e-08
246	0x320125f2	7.517416e-09
247	0x322e34b6	1.0140118e-08
248	0x34128289	1.3644798e-07
249	0x328842b8	1.5862824e-08
250	0x32353cf3	1.0549445e-08
251	0x32411f59	1.1241206e-08
252	0x33131850	3.4248217e-08
253	0x33b04d71	8.209725e-08
254	0x318623a9	3.9039674e-09
255	0x32296997	9.861103e-09

exp_avg f4 [1, 2]
0	0xbbd93009	-0.0066280407
1	0xbb38139e	-0.0028087865

exp_avg_sq f4 [1, 2]
0	0x398bc817	0.00026661225
1	0x396d9cc1	0.00022660477
