IAV_FINAL/results/results/WolfsRedo1/Wolfs/Wolfs-68637.onnx (onnx, 61030 bytes, 5 tensors)

action_model._continuous_distribution.log_sigma f4 [1, 2]
000000 20 7d 24 3c 31 86 0d 3c
       0.010039598 0.008637951

action_model._continuous_distribution.mu.bias f4 [2]
000000 62 cc 49 3b f1 c0 0b ba
       0.0030791988 -0.000533118

action_model._continuous_distribution.mu.weight f4 [2, 256]
000000 61 a9 7c 3b 3e 89 83 bb 55 3f d7 bc f8 b8 47 bc
       0.0038553106 -0.0040141633 -0.026275316 -0.012190096
000010 f8 f4 99 3c ee 25 9f 3c 0e 70 0a 3c be ad 0b bc
       0.018793568 0.019427266 0.0084495675 -0.00852531
000020 fc fb 8f 3c dd 96 4b 3c d8 51 1f 3d 3b 23 d3 bc
       0.01757621 0.012426105 0.03889641 -0.025773635
000030 b8 bf 22 3b 84 91 ea bb 03 cb 5f bc 19 c1 e3 bc
       0.0024833512 -0.00715846 -0.013659242 -0.027802037
000040 b6 71 83 3c 9b 96 a5 3c 07 a7 8d bb 02 05 87 3a
       0.016045433 0.020213416 -0.0043228897 0.0010301175
000050 cc c7 b5 3b 97 1e d1 3c 86 92 74 3c 01 eb ca 3c
       0.0055474993 0.025527282 0.014927512 0.024770262
000060 a6 f1 0c 3c 09 af 4c 3a f9 27 67 bb 0b ce 9c 3b
       0.008602535 0.00078080647 -0.0035271628 0.0047853044
000070 60 fd 6b 3c cf 7b 1d bb c2 56 5e bc bd 70 1c bd
       0.014403671 -0.0024030095 -0.013570489 -0.038193453
000080 ff 77 b3 ba 29 05 19 3d e2 fa 1a bd 7c e1 5b 3d
       -0.0013692378 0.037358437 -0.037836917 0.053681836
000090 b8 32 eb bb 4e 5e 0d bc d7 cb c5 bc c7 83 2e 3d
       -0.007177677 -0.008628441 -0.02414505 0.04260614
0000a0 dd f3 cc 3c ed 95 43 3b 89 d2 0d bd 81 89 c3 3c
       0.025018627 0.0029844001 -0.03462461 0.023869278
0000b0 2f 2d 87 bb b7 78 d7 3c 02 f2 0f bc c6 45 6d 3c
       -0.0041252594 0.026302679 -0.0087857265 0.014481967
0000c0 28 f0 64 bc 12 74 f9 bb 2e b9 16 bd 7f 1f ec bc
       -0.013973273 -0.0076127136 -0.036797695 -0.028823612
0000d0 ed cc 2e bc dd 0b 03 bd de b1 61 3c 4a a7 3a bb
       -0.010668975 -0.031993736 0.013775317 -0.002848106
0000e0 09 88 69 ba 9e 92 d8 3a 2f 4f 9d 3b d2 74 f4 bb
       -0.00089085154 0.0016523188 0.004800699 -0.007460215
0000f0 b3 8c 5b bb ff ea 30 bb ef 90 41 bc 67 35 db 3c
       -0.0033500611 -0.0026995537 -0.01181434 0.026758863
000100 3f 33 a4 bc 5d 43 2e bc fa b1 18 bc ee fb 95 3c
       -0.020043967 -0.010636178 -0.009319777 0.018308606
000110 5d de 33 3c 66 41 b4 3c ed e1 64 bc 43 b2 00 3d
       0.0109783085 0.02200384 -0.0139698805 0.031420004
000120 22 aa 6e 3b eb 29 71 bc 03 fc d0 bb 93 95 27 bc
       0.0036417325 -0.014719467 -0.0063776984 -0.010228532
000130 24 9e 11 bc ee 0a 44 bb af 85 88 3c f9 e4 13 3c
       -0.008887801 -0.002991374 0.016665308 0.009026759
000140 fd 0b 99 bc 1a 2c 22 bc ad 51 df 3c 99 13 14 3c
       -0.018682474 -0.00989821 0.027260626 0.009037876
000150 a5 90 e7 3a d9 a6 78 ba 3f bf 2f bb 09 0a b7 bc
       0.0017667009 -0.00094853115 -0.0026816872 -0.022343652
000160 b0 f4 38 bc 5d bd fe 3c 32 ef 2d bd 2d aa c3 bc
       -0.011288807 0.031096155 -0.042464443 -0.023884857
000170 2a ad 92 39 5f 33 12 bc 92 26 f2 3c 7e ca 98 bc
       0.00027976307 -0.008923381 0.029559407 -0.018651243
000180 a2 58 c6 3b 53 ae 02 3d ed 8c 19 bb b4 68 11 bd
       0.0060530463 0.03190453 -0.0023429946 -0.035500243
000190 b5 b9 3c 3d 55 96 9c bb 4e db 90 3c 93 44 49 3c
       0.04607554 -0.004778663 0.017682698 0.012284416
0001a0 3f 2c 53 b9 ad 9d 06 bd cf 6e 79 bc e7 aa e7 bb
       -0.00020139011 -0.032865215 -0.015224173 -0.0070699337
0001b0 a4 7c 69 3c 46 e2 9e ba 8f 14 22 bb 95 2d 6b 3c
       0.014250908 -0.0012121878 -0.0024731492 0.014354129
0001c0 ef 79 2c bc 09 e2 a1 3c 4b 09 85 3c 63 ad ec ba
       -0.010527118 0.019761102 0.016239783 -0.0018057044
0001d0 3a 9a 01 3d 87 ff 21 3b 89 0a f7 3c 89 10 4d 3d
       0.031641223 0.0024718957 0.03015639 0.050064597
0001e0 2d b5 a3 3b bc 5a 5e bc 19 87 3e 3c 6d 90 81 bc
       0.004995963 -0.013571437 0.0116288895 -0.015815938
0001f0 13 fc e3 bc 7d f1 25 bb 90 d8 e3 bc 6a 6a a0 bb
       -0.02783016 -0.002532094 -0.027813226 -0.004895498
000200 81 6e 07 3b b1 f1 d0 3b fd 62 18 bc 9f 13 0b bd
       0.002066523 0.006376468 -0.009300944 -0.03395426
000210 4e 17 59 bc d7 ac 82 3c e3 b8 f1 3c d9 fe bb 3c
       -0.013250185 0.015951557 0.029507106 0.02294867
000220 c7 be b0 3c a1 81 07 bd f8 23 67 bb ac 4b 17 3d
       0.021575345 -0.033082608 -0.0035269242 0.0369374
000230 be 04 80 bc 1e da 8b bc fa 62 5c bc 5d dc 8d 3c
       -0.015627261 -0.01707178 -0.013451332 0.017316991
000240 57 97 47 3c 00 30 a5 bc c9 97 a8 3c 2e 43 a6 bc
       0.012182078 -0.02016449 0.02058019 -0.020295706
000250 c4 4b b9 bb dc 85 be 3b 5e bf 51 3c 4b 9b 2b bb
       -0.005654784 0.005814297 0.012801973 -0.002618509
000260 89 3d 16 bd 09 a2 ef 3c 4c 80 53 bc 44 dd bb bc
       -0.03667978 0.02925207 -0.012909006 -0.022932656
000270 6e 1b 08 3d db ab 8a bc 7a fc bb ba 6c 9a 78 bb
       0.033229284 -0.01692765 -0.0014342212 -0.003793384
000280 3b a0 c1 bb 8c 79 b8 bc be d2 51 3c 1f 00 f7 3a
       -0.0059089935 -0.022518896 0.0128065925 0.001884464
000290 06 7f f9 3b 3e 54 bb bc dc 8e 86 bb 7e ee 0b 3d
       0.0076140193 -0.022867318 -0.0041063856 0.03416299
0002a0 bf 15 52 bc 0a a8 74 bc f2 56 4f bc 81 3c 3f 3c
       -0.0128225675 -0.014932642 -0.012655007 0.01167214
0002b0 6b 0e 71 3c b4 c2 1e bc 09 91 8d 3c 4b 5b 7b 3c
       0.01471291 -0.0096899755 0.017281072 0.01534159
0002c0 5b ed b7 bc 6b 11 1f bd 4d 6b 39 bc bc 77 38 3c
       -0.022452047 -0.03883497 -0.011317086 0.011259016
0002d0 78 7e 4a 3c e2 6f 62 3c 8c ab ae bc c1 a0 91 bc
       0.012359254 0.01382062 -0.021322034 -0.017776849
0002e0 54 5b 8e 39 36 eb 6a 3c 46 c8 05 bd 80 6b 65 bc
       0.00027152395 0.014338305 -0.0326617 -0.014002681
0002f0 4e f4 06 3d 71 dc 3a bc ae be 10 bb 9a d2 7c 3c
       0.03294783 -0.011405096 -0.002208631 0.015431071
000300 91 61 83 3c ec 55 12 3d 10 f7 39 3c d7 4c 06 3c
       0.016037734 0.035726473 0.011350408 0.008197031
000310 62 2c 76 bc 88 03 cd bb 07 5c c9 3c 11 19 f3 3c
       -0.01502523 -0.0062565245 0.024580015 0.029675039
000320 b0 cd b8 bc ba 10 75 3b 37 e9 e8 3c 8b 2b 65 bc
       -0.022559017 0.0037394003 0.028431518 -0.013987432
000330 54 2f c8 3b 4b 38 83 bb eb ab 8b 3c 9d e8 73 3c
       0.0061091576 -0.0040045134 0.01704975 0.014887002
000340 1a 37 e5 bc 19 26 a7 ba 5c fc 24 bc 0c 51 e9 3b
       -0.027980376 -0.0012752443 -0.010069933 0.0071202572
000350 17 c0 af 3c 36 f8 f2 3c 6a 8b 52 3c 06 68 d2 bb
       0.0214539 0.029659372 0.012850622 -0.006421092
000360 33 9f 2a bc db 99 82 bb 02 4a 01 3d 28 cf 2b bc
       -0.010413933 -0.003985626 0.03156472 -0.010486402
000370 43 97 f0 bb df a7 0a 3d ee 79 6f 3c ca fd 87 3c
       -0.0073422506 0.0338515 0.014616473 0.016600508
000380 21 cb 5f bb 7e 96 77 3b d2 cf 2d bc 6d 98 8f bc
       -0.0034148174 0.003777891 -0.01060863 -0.017528737
000390 f5 1b 3c bd 3a 18 07 3d 43 27 d7 bc a6 a5 a1 bc
       -0.0459251 0.03298209 -0.026263839 -0.019732308
0003a0 06 05 32 bc 3a f0 8b bc b4 b0 ae 3b 79 cf e7 bc
       -0.0108654555 -0.017082322 0.0053311232 -0.028297173
0003b0 52 9d 07 bc a9 42 76 bb a1 60 45 bc ea f9 13 ba
       -0.008277254 -0.0037576354 -0.012046964 -0.0005644845
0003c0 e4 c2 cf bc ae 10 0a 3c 5f 36 bb 3c e0 0c 5a bb
       -0.025361486 0.008426828 0.022853075 -0.0033271834
0003d0 14 0f 1e bc 63 70 1c 3c a4 5f d6 3c 18 71 84 bc
       -0.00964715 0.009548279 0.026168652 -0.016167209
0003e0 5f 58 a7 bc 8b de 14 3c e7 65 41 3c e7 6c 0c bd
       -0.02042788 0.0090862615 0.011804081 -0.034283545
0003f0 e1 fc 53 bb 82 dd 80 bc f8 00 af bc 2d c8 11 3c
       -0.0032346772 -0.015730623 -0.021362767 0.008897823

network_body._body_endoder.seq_layers.0.bias f4 [256]
000000 32 01 fa ba 25 16 ec 3a be 0b 21 3c 7e 31 a2 3a
       -0.0019073843 0.0018011971 0.00982946 0.0012374369
000010 21 f2 8f 3c fa 95 88 3c b6 93 96 bb b4 4b 80 bb
       0.01757151 0.016673077 -0.0045952452 -0.0039152745
000020 42 58 98 3b e6 c4 2b 3c e0 68 7a 3c df 37 75 b9
       0.004649193 0.010483956 0.015283793 -0.00023385834
000030 cd 98 bc 3b ca 15 45 3c a7 41 eb 3b e1 76 9d bb
       0.00575552 0.012029121 0.007179457 -0.0048054312
000040 15 59 3b 3b e2 42 b5 3b c0 ca 85 3b 3b 99 bc bb
       0.0028587033 0.0055316547 0.0040830076 -0.005755571
000050 7a 96 ec ba 6f 11 54 3c 34 14 6b 3c d7 11 7c 3b
       -0.0018050217 0.01294361 0.0143480785 0.0038462782
000060 e3 99 ac ba 2d 28 f5 ba ed aa 03 bc 02 c2 d5 ba
       -0.001316842 -0.001870399 -0.008036357 -0.0016308429
000070 fb 04 8c 3b 95 02 25 3c 34 c6 65 bb a1 53 7d 3b
       0.0042730547 0.010071416 -0.0035060765 0.0038654583
000080 f3 27 0a 3c 15 b4 54 3c 6d 78 fb 3b 0c 11 7b 3c
       0.008432376 0.012982388 0.007674268 0.0153238885
000090 e0 f2 f4 ba 65 a4 66 bb 8b b0 d7 3b 0e 06 39 3c
       -0.0018688105 -0.0035193202 0.006582325 0.011292947
0000a0 1e 72 7e 3b 65 58 04 bb 4c 7e 2b 3c a8 86 11 3c
       0.0038825343 -0.0020194289 0.010467123 0.008882202
0000b0 8b a9 46 3c a3 db 34 3c ef 4c b3 3c a7 57 5f 3c
       0.012125383 0.011038694 0.02188727 0.013631738
0000c0 bd 97 37 3b 8d 48 91 bb 1f b5 22 3b fc 55 54 3c
       0.0028014027 -0.0044336976 0.0024827195 0.012959953
0000d0 45 7b b5 bb bb cd 58 3a 44 c9 03 3c 94 a4 9c 3b
       -0.0055383765 0.00082704023 0.008043591 0.0047803614
0000e0 46 b1 72 3b 15 2b 61 bb 77 03 0d 3b 01 8f 00 bb
       0.0037031933 -0.0034357954 0.0021516958 -0.0019616487
0000f0 54 38 65 bb 6b fe d0 38 69 27 c3 3b 3d 0e 42 3c
       -0.00349762 9.965602e-05 0.005955626 0.011844215
000100 4b 73 24 bb 5a 92 41 3b 7c bd 4b ba 8a ac 88 3b
       -0.0025093134 0.0029536695 -0.0007772071 0.004170959
000110 76 d9 44 3c 6c cb bd 38 ee a5 f5 3a e1 76 bd 3b
       0.012014737 9.0501126e-05 0.0018741468 0.0057819937
000120 48 2b d6 ba 2d 07 b4 ba c4 71 40 3b 10 06 a1 bb
       -0.0016339803 -0.0013735049 0.0029364685 -0.004914053
000130 49 f5 77 3c 80 fb 53 3c 8d bf 3b 3c d9 e7 0c 3a
       0.015134164 0.01293838 0.0114592435 0.0005375124
000140 6e 29 df ba 23 05 0c bc 77 cf c4 3b d3 d6 6f ba
       -0.0017025897 -0.008546147 0.006006177 -0.0009149138
000150 50 0c 5d 3a ca f6 94 3a 50 05 60 3c a3 db ab 3a
       0.00084323157 0.0011365053 0.013673142 0.0013111721
000160 3c 20 00 bb 25 04 13 3c ae aa 78 3b 02 eb d0 3b
       -0.0019550463 0.008973156 0.003794353 0.0063756714
000170 fd 09 0c 3c b9 bb 1f 3b b9 a2 bb 3c e0 33 3d bb
       0.008547303 0.0024373366 0.02290474 -0.0028870031
000180 b3 c2 40 3c 01 60 8b 3b 12 4d 42 3b aa f0 24 bb
       0.01176517 0.004253388 0.0029647988 -0.002516786
000190 4a a9 82 3c ef 64 0c 3c b4 76 7d 3c 12 55 16 3b
       0.015949864 0.008568986 0.015470196 0.002293889
0001a0 5d b4 45 3c 08 bb 9f 3c a0 a3 dd b9 7a e0 8f ba
       0.012066928 0.019498363 -0.00042274315 -0.0010976933
0001b0 a3 cf bf bb 2e b7 17 3b 12 19 02 bc b0 35 1d 3a
       -0.0058536096 0.0023149955 -0.007940548 0.0005997075
0001c0 59 9a 97 bb e4 bf 5b 3b e8 f6 c8 3b 51 a1 c8 3b
       -0.004626554 0.0033531124 0.006132949 0.006122746
0001d0 b1 58 ae 3a 6e 9b 19 3b 73 c1 a7 3c d9 2a 40 3c
       0.0013301579 0.002343859 0.020477986 0.011728966
0001e0 8a 26 fa 3b fa 1e 5a ba bd 5b 2e 39 5f 0b dc 3c
       0.0076339887 -0.0008320656 0.00016628108 0.02686089
0001f0 8d 5d 1e bb 27 1a 9b 3b cc b4 f5 3a cf 10 02 bb
       -0.0024164647 0.004733342 0.0018745898 -0.0019846444
000200 43 7b cf bb 4a ac a7 bb 95 6e 21 3b 72 1c a7 b8
       -0.0063318326 -0.005116974 0.0024632562 -7.968479e-05
000210 24 e4 48 bb 82 7f 10 3b 9b ac 4b 3b 7f aa 1d 3c
       -0.003065356 0.0022048657 0.0031078223 0.009623169
000220 04 1a f3 3b 54 33 9d 3b 2d 9c 1f 3b 2e fb 96 3b
       0.007418873 0.0047973786 0.0024354563 0.0046075797
000230 54 11 41 3c ef 50 11 bb 9d 99 bf 39 c6 71 1d 3c
       0.0117839165 -0.0022173484 0.0003654481 0.009609645
000240 69 27 77 3c 57 8d 54 bb dd e1 12 3c 7c 4a 06 3c
       0.01508508 -0.0032432878 0.008964983 0.008196469
000250 d2 a6 38 3c 17 96 e0 ba bc c0 42 bb ce 40 80 3a
       0.011270242 -0.0017134574 -0.002971693 0.0009784938
000260 f5 8a d9 ba 17 be 63 3c b7 f9 47 bb 77 7d 51 3b
       -0.0016597199 0.013900301 -0.0030513832 0.0031965652
000270 dd 29 02 3c a2 be ae bb db 7c 87 3c 3f a1 d0 3b
       0.007944551 -0.005332784 0.016539028 0.0063668783
000280 a2 e3 d7 bb db 92 87 3b b2 a0 5c 3b ba be ea bb
       -0.0065884152 0.0041373796 0.0033665118 -0.0071638497
000290 6f 80 16 3c 70 86 b4 ba f0 f6 52 bb 0e 6a 09 3c
       0.009185894 -0.0013772976 -0.0032190643 0.008387102
0002a0 d7 bf 33 bb 93 28 3e 3b 65 8d 8e b8 97 dd 65 3a
       -0.0027427578 0.0029015883 -6.7974244e-05 0.0008768676
0002b0 92 a2 44 3c 33 9c 7d bb cd 80 01 3c 5d a6 a3 3b
       0.01200165 -0.0038697838 0.007904244 0.0049941973
0002c0 81 b7 ea 3a b6 c6 42 3a 8a 6e bd ba e6 f3 21 3b
       0.0017907472 0.0007430123 -0.0014452499 0.0024712025
0002d0 cb 51 29 3c 89 26 70 3c 52 c7 eb 3b 57 92 5a b9
       0.010334442 0.014657625 0.0071953917 -0.00020844616
0002e0 f3 84 15 bb 11 c4 48 b9 1b 63 35 3a a4 b3 65 bb
       -0.002281484 -0.00019146527 0.000691937 -0.00350497
0002f0 20 2c 49 3c 50 0b 09 bb d1 3d 16 3b ff 20 ec 3b
       0.012278587 -0.0020911284 0.002292503 0.007206082
000300 f6 4e 8f 3b 8f 6e a2 3b a4 bf ce 3a 7e 45 c9 ba
       0.0043734265 0.0049570273 0.0015773666 -0.0015355793
000310 bf 1c 10 bb 2b ae 41 bb 05 ee 34 3c 62 eb da 3b
       -0.002198979 -0.0029553275 0.011043076 0.006680892
000320 3b a3 90 ba 99 3a 91 bb 0f 75 ca 3b 4e f1 4d ba
       -0.0011034975 -0.004432034 0.0061785053 -0.00078560866
000330 14 f0 0d 3c 4a 6c b3 bb e6 c6 27 3c 36 a7 2c 3c
       0.008663196 -0.0054755555 0.010240292 0.010537913
000340 92 03 9d 3b db 04 74 bc 4d e1 aa b9 ec 91 0f 3c
       0.0047916854 -0.014893736 -0.0003259279 0.008762818
000350 cb ca 0b 3a c0 d2 b3 3b 5c f6 a1 3b 67 09 2c 3a
       0.00053326477 0.00548777 0.0049426984 0.00065626804
000360 28 16 0d 3b e9 c2 90 3b 80 d3 c1 3b 5b 19 dc bb
       0.0021528099 0.0044177664 0.0059151053 -0.00671689
000370 6f c4 29 3b 3b 1b 0a 3c 3c 59 e9 3b 8b 41 ee 3b
       0.0025904437 0.008429344 0.0071212333 0.007270997
000380 a6 f5 cd 3b 5f cc 13 3b ba 6b 02 3b 51 30 a7 ba
       0.006285387 0.0022552235 0.0019900636 -0.0012755488
000390 35 5f 0f 3c eb f9 c0 3b f3 69 d0 b9 c0 ca 7d bb
       0.0087507265 0.0058891675 -0.0003975179 -0.0038725585
0003a0 98 20 9b 3b d9 78 0a bb 5f f5 0e bb b0 ba 69 3b
       0.00473411 -0.002112916 -0.0021813733 0.0035664253
0003b0 9b e5 76 3c b5 08 10 bb 30 f6 09 3c 90 a8 14 bb
       0.015069391 -0.0021977846 0.008420512 -0.002268348
0003c0 ce be 64 b7 44 6a 6f b6 b6 7a c8 3b 69 04 ef ba
       -1.3634284e-05 -3.567563e-06 0.006118144 -0.0018235567
0003d0 21 10 58 bb 2a 3c 44 3b 1c 2b da 3b 3b a7 d5 ba
       -0.0032968598 0.0029943087 0.006657971 -0.0016300449
0003e0 58 26 12 3b cc 40 b1 ba 5e 13 d8 3b 3e 8e f7 3b
       0.0022300687 -0.0013523339 0.0065941056 0.0075547984
0003f0 74 19 04 b9 e1 c5 a7 3b 7b 57 29 3c 46 c6 01 3c
       -0.00012597983 0.0051200246 0.010335798 0.007920807

network_body._body_endoder.seq_layers.0.weight f4 [256, 55]
000000 9a 8b 95 bd d8 ec db 3c 5d 50 b7 3d d8 77 b8 ba
       -0.073020175 0.026846334 0.08950875 -0.0014073802
000010 51 c4 69 3e 1c 43 76 3d cf c5 15 3d 35 29 53 3b
       0.22828795 0.060122594 0.036565598 0.0032220606
000020 77 c9 0c be 41 43 73 be 27 6e 04 3e 58 af 99 3e
       -0.13748728 -0.23756124 0.12932645 0.3001659
000030 d8 b9 b5 bd a1 f0 f5 3c 9e a7 02 bc 13 48 84 3d
       -0.088733375 0.030021967 -0.007974533 0.064590596
000040 65 2d a5 3d 29 85 0b be 35 a8 10 bd db a8 1b 3d
       0.08065299 -0.13625015 -0.035316665 0.03800283
000050 08 17 60 3e ce 19 1e 3e e8 de 96 3e 19 aa 03 3e
       0.21883786 0.15439531 0.2946694 0.12857856
000060 dc 39 84 bc 88 4f 05 3e 2d 27 68 bd 26 da 1b 3d
       -0.01614087 0.1301862 -0.056677986 0.03804984
000070 e6 a7 ad be 3c f5 40 be d3 74 81 3d ae c5 3c 3d
       -0.3391716 -0.1884355 0.063211106 0.04608696
000080 2f 51 35 3e 4b 2a 20 be 5d 1a 6a 3d e5 0e c9 bd
       0.1770675 -0.15641133 0.05715405 -0.09817294
000090 86 1e 89 3d e1 e3 b4 3e 6b 46 92 3e a9 87 83 bd
       0.06695275 0.35330108 0.2856935 -0.064223595
0000a0 7f 30 1d bd a7 30 88 3d 94 c8 09 3e fa 14 42 3e
       -0.038376328 0.06649905 0.1345542 0.18953314
0000b0 67 88 94 bd 18 54 be 3d 52 c9 a0 3d a6 82 6a 3d
       -0.07252579 0.09293383 0.07850899 0.057253502
0000c0 ad ae 27 3c 73 5f 9b 3d 6b 83 6d 3c 64 0c 89 bc
       0.010234517 0.07586565 0.0144966645 -0.016729541
0000d0 77 5f e3 3e 04 f5 96 bd 16 b5 0b bd 29 61 14 3e
       0.4440877 -0.07370952 -0.034108244 0.14490189
0000e0 01 84 7c bc d3 8c 06 3e bd 7a a8 3e 45 f5 09 be
       -0.015412332 0.13139658 0.32906142 -0.13472469
0000f0 ad e5 9c bd 5f 0e 90 3d 7a 92 ff bc 2f 3a 09 3d
       -0.07660995 0.07033991 -0.031197775 0.033502754
000100 cc ef 9e bc bb 92 f2 bb b1 3a 22 be 7a 14 9a be
       -0.019401453 -0.0074027455 -0.15842701 -0.30093747
000110 e5 73 c3 3c 97 f5 66 bd 22 bf 29 be cc cf b1 3d
       0.023858974 -0.056386556 -0.16576818 0.08682212
000120 76 d2 8d be bd 42 2c 3e 4c 35 a0 bd 62 60 80 39
       -0.2769963 0.16822334 -0.078226656 0.00024485873
000130 94 eb 3b be e2 29 6e 3d a2 a9 6a bd f9 3f 43 3d
       -0.18351585 0.05814541 -0.05729068 0.04766843
000140 56 c4 06 be a2 3f 27 3e 07 86 04 be 09 6a cc 3b
       -0.13160834 0.16332868 -0.12941752 0.0062382263
000150 90 02 da 3c f3 86 91 bc a0 ff e5 3d 8d 13 6b bd
       0.02661255 -0.017764544 0.11230397 -0.057391692
000160 e9 fe 23 3d 7c 5a 9e 3c c4 55 f7 3d cf 47 91 3d
       0.040038023 0.019330256 0.12076905 0.070937745
000170 1a ee 9f bc e0 c4 1f bd 18 b7 d9 3c e6 33 1f bd
       -0.019522715 -0.039006114 0.026576564 -0.038867854
000180 0a 2a 5e 3e 75 cb 3b 3d 52 08 0d 3e f4 4b b4 3d
       0.21695724 0.04584833 0.13772705 0.088035494
000190 cb dc ff 3d 65 1e ab bb 05 71 92 bd 51 ef c5 3d
       0.12493285 -0.005222129 -0.07150463 0.096647866
0001a0 e5 f7 51 bd 21 c9 89 3e 05 5d 30 bd 59 60 c3 bc
       -0.0512618 0.26911262 -0.04305746 -0.023849653
0001b0 b5 65 e9 bd 60 2c 1a be 2e 0a b1 3c 1b 8a 55 3e
       -0.11396352 -0.1505599 0.0216113 0.20853464
0001c0 2a 0c e2 bd e6 ba aa bc a4 c8 c3 3d d3 fd 89 bd
       -0.11037476 -0.020841073 0.095597535 -0.06737866
0001d0 ed 26 8a 3e 67 6d 9e 3c 20 b4 e9 bc 0c 93 0b be
       0.26982823 0.019339276 -0.028528273 -0.13630313
0001e0 26 b3 cf bd 37 03 3c be c3 85 b3 3d b9 15 4e 3d
       -0.10141592 -0.18360601 0.087657474 0.050313685
0001f0 ab c3 25 3e 55 04 c9 3a d2 40 f6 3d 58 06 cb 3d
       0.16187923 0.0015336374 0.12024082 0.09913319
000200 59 4b e0 bc 06 e6 51 bc 80 f9 39 be 15 6c f0 bd
       -0.027379679 -0.0128111895 -0.18161583 -0.11739365
000210 fe bf be 3d 89 bc 2c 3e 59 53 d6 bb 71 fb 4d be
       0.09313963 0.16868795 -0.0065406975 -0.20115449
000220 6f 5b cc 3b bb 66 06 3e a7 fa 2a be 2e 8b 97 bd
       0.0062364857 0.13125126 -0.16697179 -0.07399593
000230 4b 93 86 3e 6e cb 95 3d c5 35 4b be ef 78 95 3c
       0.2628425 0.07314192 -0.1984473 0.018246142
000240 5c f6 07 3e 4c 47 62 bd 9e d6 1d be 19 fd c8 bd
       0.13277572 -0.055243775 -0.15413901 -0.098138995
000250 34 77 09 bd 52 75 7b bc 7d 8a 22 be 63 e3 a1 3d
       -0.033560947 -0.015347796 -0.15873142 0.07904699
000260 7d ad 9f bd 17 8f c7 bc ef 39 83 3c c9 cd 34 be
       -0.07796762 -0.024360223 0.016018836 -0.17656626
000270 fe fb 08 be bb 7e 4b be 9d 47 a5 bc 51 c5 11 be
       -0.13377377 -0.19872563 -0.02017575 -0.14235426
000280 25 72 2b 3e 2e b9 d2 3d c2 b7 13 3e 5b fc 51 be
       0.16742761 0.102892265 0.14425567 -0.20506422
000290 f0 67 d6 3d 30 dc 6e 3d 5d e4 7a be bd c9 88 3d
       0.10469043 0.058315456 -0.24501176 0.066791035
0002a0 89 85 34 be 15 5b ab 3d b9 d2 46 3d 17 cb bb be
       -0.17629065 0.08366982 0.048540805 -0.36678383
0002b0 2a 74 2f be 4b 13 0c 3c 51 af b9 3e cb c6 13 be
       -0.17134157 0.008549522 0.36266568 -0.14431302
0002c0 89 2c 07 be e8 e0 31 3e 3e 83 cb bd 50 66 ac be
       -0.13200583 0.17370951 -0.09937142 -0.33671808
0002d0 f5 c9 8c 3e ba 0d 47 be fe ad a9 3d fe 07 e3 3c
       0.2749783 -0.1943883 0.082851395 0.027713772
0002e0 e4 77 e9 3c d2 5d 21 3d 38 81 84 3c c4 5c cf 3c
       0.028499551 0.039396115 0.016174898 0.025312789
0002f0 6c 69 82 3e 50 14 96 bd d1 71 84 be ce 18 18 3e
       0.25471056 -0.07328093 -0.25868085 0.14853212
000300 0d 9c 12 3e 39 52 36 bd 14 16 68 bd 15 44 55 bd
       0.14317341 -0.044512007 -0.05666168 -0.05206688
000310 74 4f 24 be 08 f4 2e bd cc 2d b0 3e 6f 36 0b 3e
       -0.16045934 -0.042713195 0.3440994 0.13594984
000320 d1 16 98 bd 63 8a c4 bd a1 8a 84 3d 04 fa 26 be
       -0.07426227 -0.09596708 0.06471754 -0.16306311
000330 71 56 33 3c d2 56 d0 bd 4c 9b 31 be 68 9c 12 3d
       0.010945902 -0.1017281 -0.17344397 0.035793692
000340 ef 48 c1 bc 87 81 10 be b3 62 85 be 2f a4 a0 3d
       -0.023594348 -0.14111911 -0.26051864 0.078438155
000350 4b 80 de 3b ac 18 84 3d d9 cb 5e be 12 bd 98 bd
       0.006790196 0.06450018 -0.21757449 -0.07457937
000360 f0 fe 32 bc 38 09 5b be f4 e4 e2 3d 84 f0 7d 3e
       -0.01092504 -0.21390235 0.110788256 0.2479878
000370 88 e9 a5 3d 8e a0 96 3e 37 1a e6 3a 48 db 15 bd
       0.08101183 0.29419369 0.001755542 -0.036586076
000380 b8 4d 2b be ce 50 a1 3e 15 30 14 3e d9 2a 62 3e
       -0.16728866 0.31506962 0.14471467 0.22086658
000390 52 3b 89 be 59 69 94 3c 80 a6 be bb 51 10 04 3e
       -0.2680307 0.01811664 -0.005818188 0.12896849
0003a0 de 80 99 3d 6a 98 66 be 6c 94 c4 bd 3a 12 aa 3d
       0.074952826 -0.22519079 -0.09598622 0.08304258
0003b0 ce aa 7c 3c 36 21 38 bd 67 a2 14 bd dd 41 52 be
       0.015421582 -0.044953547 -0.03628769 -0.20532937
0003c0 81 b6 44 3e ed 7b 2e 3e af 47 fc bd 20 ee 19 bd
       0.19210245 0.17039461 -0.1231836 -0.03758061
0003d0 64 78 2c bd 59 fe 8d 3d 54 16 06 3e 2e 0a 3d be
       -0.042107 0.069332786 0.13094455 -0.18460914
0003e0 1d 11 45 3d 72 2d f6 bd 88 90 08 be 86 b9 84 be
       0.048112024 -0.12020387 -0.13336384 -0.25922793
0003f0 22 c2 8b bd fd 2e a1 3c 24 2e 4d 3d ac 98 6a bc
       -0.06824137 0.019675726 0.05009283 -0.014318626
