IAV_FINAL/results/results/WolfsRedo1/Wolfs/Wolfs-22678.onnx (onnx, 61030 bytes, 5 tensors)

action_model._continuous_distribution.log_sigma f4 [1, 2]
00000000: 5787 17bc e964 143b
-0.009248576 0.0022643155

action_model._continuous_distribution.mu.bias f4 [2]
00000000: de43 9cbb 28ef 73bb
-0.0047688326 -0.0037221406

action_model._continuous_distribution.mu.weight f4 [2, 256]
00000000: 9187 f0bc 7724 8d3c 0030 573c 11cc 273c
00000010: d6fa 00bb 6524 023c 15a5 993c 1e69 bb3b
00000020: e341 d2bb 6a59 d83b fb89 77bc c28a 93bc
00000030: 220a 823c 767d 453c 1bed 453c 548c fcbb
00000040: 6b0c 7f3b 9654 b63c 5787 94bc 1093 3f3b
00000050: 01bc 82bc 0ed5 3fbc 457f 02bd f3af 313c
00000060: 0202 8fbc 07fe b8bc 9c71 d2bb 8d50 a43b
00000070: b5ea 453c 7ece 49ba 5d20 8dbc 11a6 163c
00000080: 3559 573c 4275 9abc 44e8 93ba ce5c 8639
00000090: 8c54 11bd d99d 6cbc 8f87 ddbc b9d3 34bc
000000a0: 6c39 a43b 817c 50bb 106f ac3b f4aa 4a3c
000000b0: 15d1 bfbb 95cb 923c 98e9 813c 2ef2 563c
000000c0: 1ada 6e3c 4270 1d3d 9730 87bc 6e70 88bc
000000d0: e18d d7ba abf7 a1bb 4ba7 8fba ade8 143d
000000e0: e327 80bc 658b 8eba 6cea c0bb 8990 bfbc
000000f0: 021d 1a3b c1e0 8ebb 643b e63c b0ad 3b3c
00000100: 380e 313c ad6e f3ba 8f56 443b e793 cabc
00000110: 0ec6 4bbb d44e e83b 4419 b43c 0c47 84bc
00000120: 9757 46bc f599 a0bc 7755 223c c72d 1fbb
00000130: ca5a ae3c 093d 613a 5fcd 8cba 6ebd 713c
00000140: 9780 b8bb 36ad e33b 5652 0bbc bf9a 143b
00000150: a531 b33b c2c0 b2bc 51d5 bbbc b902 ca3c
00000160: ea64 133d 8019 953b aacb 20bc 7bef 9a3c
00000170: ee86 dabb 33d6 82b8 4bb3 9cbc e76c 823b
00000180: f625 ef3a 9f9c 4a3c 50b6 513c 7367 593c
00000190: b77a 113c 02c0 16bc 5f8f ecbb 1e22 0d3c
000001a0: 3bef 8dbc 2e45 abbc bd23 9b3c 43ff b8bc
000001b0: 27d9 8039 2a69 2b3c e153 91bc 72aa 103c
000001c0: aab6 943c 19e1 c2bc 96df 053c 9d10 f9bc
000001d0: 19a8 87bb 9699 02bc 54f4 b93c 395d da38
000001e0: 6a22 8fbb dcd7 13bc fa1c 84bb 4d67 9e3b
000001f0: 460c 4d3c fadb 0e3a 4f55 343b 025c cb3b
00000200: 12e9 343b 82be 233c da61 353c 00ef 563c
00000210: 7b54 cf3b 22ad 5ebc 38a5 44ba f03b 033c
00000220: e889 82ba 6e5b 66bc 7dbb cbbc 7a67 083d
00000230: 295d bf3c a9ee a3bc dcfd c03b 8f1e 4b3a
00000240: 5297 0e3c 9bff b4ba 059d 433c 4b11 18bc
00000250: 4dea 063d 2b51 9dbb 66c9 81bc 98ae 45bb
00000260: 1185 03bc f0c2 75bb 76b7 b03b 0087 a8bb
00000270: fd6c 3fbc d366 ad3c 9657 d93b 271d 3f3c
00000280: 32ef 7f39 bdf3 9e3c 80e4 7d3c d4ef dd3b
00000290: dce3 f2bb fe49 debc a820 62bc 2342 353c
000002a0: 3911 033c 8139 2cbc f996 f23b 6d0d b0bc
000002b0: 16b8 a5bc f7a0 0d3b bad9 dbbc 2540 153b
000002c0: 2b7e c2bb c98e c9ba 27aa 74bc 12d2 503c
000002d0: a79a d5bc a881 af3a 13e5 763c 68c5 fe3b
000002e0: 7501 243c 6cca 4939 fd9b a5bb 5997 2bba
000002f0: 4a8b bbbc 7880 c7b9 e2d3 c83b 6c3c 8b3b
00000300: 3216 763b a0e0 b83b 81de b13c e748 b53a
00000310: d5e5 17bc 7808 e0bb bcdd efbc b272 313c
00000320: c157 4cbc e14a f43a da9b 2abb 14a5 b0bb
00000330: 6686 31bc d575 383c 7f43 343c 2295 4a3c
00000340: 513a 073c aa03 ae3c 696b 9abc 8d57 4f3c
00000350: fa97 92bb 6a90 2aba 32d8 afba a10a c9bc
00000360: 149f 273c 877d cb3b af0d 193d 1107 05bc
00000370: 763c 4bbc eb30 d9bc 9ab0 7a3c 700e 4f3b
00000380: 37ab cebb a1fb b43a 55c0 cabb 049c 90bb
00000390: 3fcc de3a 1fca f03b c04b 053c c882 12bc
000003a0: b50c 80bc 6206 2cbb 3282 463c 1fe8 77bb
000003b0: 3e54 ca3a 8975 733c ee1a c5bc 4524 96bc
000003c0: 7b4a d93c da36 123c 0f2e 563c 509b 2abc
000003d0: ad68 e53a 5a09 0939 0a67 d0bb 95f5 dbbc
000003e0: c930 c4bc e5e8 723c 2509 f637 7860 823c
000003f0: 6d96 aabb a97c 8dbb a7a9 31bc 3838 7f3b
-0.029361518 0.017229302 0.013134003 0.010241524 -0.001968076 0.007943247 0.018755475 0.005719318
-0.0064165457 0.006602456 -0.015108581 -0.0180105 0.015873972 0.012053838 0.012080456 -0.007707158
0.0038917314 0.02225713 -0.018130941 0.0029231943 -0.015958788 -0.011708511 -0.031859655 0.010845172
-0.017457012 -0.022582067 -0.0064222347 0.005014485 0.012079884 -0.0007698311 -0.017227346 0.009194867
0.013143827 -0.018854741 -0.001128443 0.00025627617 -0.03548102 -0.014441931 -0.027042178 -0.011036807
0.005011728 -0.0031812491 0.005262263 0.01236986 -0.005853782 0.017919341 0.015858456 0.013119264
0.014578367 0.038437136 -0.016502662 -0.016655173 -0.0016445481 -0.0049428544 -0.0010959891 0.03635471
-0.01564402 -0.0010875283 -0.0058873203 -0.02338435 0.0023515825 -0.004360289 0.028104492 0.011454985
0.010806613 -0.0018572413 0.002995882 -0.024728728 -0.0031093392 0.007089475 0.021984704 -0.016147159
-0.012105844 -0.019604662 0.009908072 -0.002428876 0.021283526 0.0008592164 -0.0010742358 0.014754636
-0.0056305635 0.0069481386 -0.008503517 0.0022675244 0.0054685646 -0.02182043 -0.022928866 0.024659501
0.03598491 0.004550159 -0.009814182 0.018913021 -0.006668917 -6.238781e-05 -0.019128462 0.0039802673
0.0018245566 0.012366443 0.012799814 0.013269293 0.008879355 -0.009201052 -0.0072192396 0.008614091
-0.017325988 -0.02090701 0.01893794 -0.022582656 0.00024575854 0.010462085 -0.017740192 0.0088297
0.018153507 -0.023788976 0.008170983 -0.03040343 -0.004139912 -0.007971188 0.022699513 0.00010412414
-0.004368116 -0.009023633 -0.0040317746 0.0048340918 0.012515133 0.0005449649 0.0027516668 0.0062060365
0.002760474 0.009994151 0.011070693 0.0131185055 0.0063272095 -0.013591083 -0.0007501426 0.008009896
-0.0009959312 -0.0140598845 -0.024869675 0.033301808 0.023359852 -0.020011263 0.0058896374 0.0007748389
0.00870307 -0.0013809087 0.011939292 -0.009281467 0.03293829 -0.0048009357 -0.015843105 -0.003016388
-0.008027331 -0.0037500225 0.005392964 -0.0051430464 -0.0116837 0.021167194 0.0066327555 0.011664665
0.00024407802 0.019403333 0.015496373 0.0067729745 -0.007412417 -0.027134892 -0.013801731 0.0110631315
0.007999712 -0.010511757 0.0074032512 -0.021490777 -0.02022938 0.0021610835 -0.026837219 0.0022773829
-0.0059354506 -0.0015377636 -0.014933146 0.012745397 -0.02607472 0.0013390081 0.015069264 0.0077749975
0.010010113 0.00019244262 -0.0050539956 -0.0006545685 -0.022893567 -0.00038051954 0.006128774 0.004249146
0.003754985 0.0056420118 0.021712543 0.0013830931 -0.009271105 -0.006836947 -0.029280536 0.010830568
-0.012472094 0.0018638038 -0.0026032836 -0.0053907726 -0.010835266 0.011258562 0.01100242 0.012364658
0.00825365 0.021241982 -0.018850045 0.012655151 -0.0044736834 -0.0006506505 -0.0013415872 -0.024541201
0.010230798 0.0062100324 0.037366565 -0.008119361 -0.012404552 -0.026512584 0.015300894 0.0031594299
-0.0063070315 0.0013807901 -0.0061874785 -0.0044131298 0.0016998126 0.0073483135 0.008135736 -0.0089423135
-0.01563106 -0.0026248922 0.012116002 -0.0037827564 0.0015436483 0.0148595655 -0.024060693 -0.018327842
0.026524773 0.00892421 0.013072505 -0.010413006 0.0017502509 0.00013068822 -0.0063599395 -0.026850501
-0.023949044 0.014826034 2.9329743e-05 0.01591514 -0.0052059204 -0.004317839 -0.010843671 0.003894342

network_body._body_endoder.seq_layers.0.bias f4 [256]
00000000: dab6 d73b 5d2f 9bbb dda3 443b 0906 bb3b
00000010: e394 81bb 42a2 a1bb 5825 34bb c64b a5bb
00000020: 34d5 6d3a ce28 efb9 e6ee ae3b b54f 9f3b
00000030: fe99 21bb 619e c7bb 3d90 fcbb d72f a439
00000040: 08a1 91bb 53ad 2ebb 1167 db3b 7802 c5ba
00000050: f700 d43b b71b c73a 2b58 af3b 7d80 83bb
00000060: ae86 b93b abef 823b f59c a8ba 906f b2bb
00000070: 2baf 3e3b cf7b 043b d0e5 453b e714 21bb
00000080: 9413 c1bb e087 a13b f330 6ebb 4e34 db3b
00000090: f813 c33b e6ab a43b 1fb9 373b 2097 fb3a
000000a0: 7750 bfbb 212c e1bb 6c33 59ba ead6 85bb
000000b0: 1313 1c3b b3fa 1fbb df69 afbb 3d66 f53b
000000c0: 2293 8cbb f7c4 7ebb 8bd3 b73b 28cb 4c3b
000000d0: bc03 ccbb 2465 7b3b 49ab 85bb c2bc 64ba
000000e0: f702 653b 973d 2c3a bca0 7c39 3d07 b53b
000000f0: eb72 8fbb 6c26 ea3b fbd0 4ebb 31e7 5bbb
00000100: b5b3 9abb 6efe 183b a16d 7c3b 286c d63b
00000110: 1277 9dba 6321 99bb f6e8 28bb 529e b03b
00000120: 80b8 703b d1e3 a23b 058c c6bb d936 033c
00000130: da89 69bb 1cd9 0e3b 8aa0 4dbb a596 f63b
00000140: b96c 4d3b 206f a3bb 2a4c 8f3b 51fd b8bb
00000150: 8929 91bb 6fd8 933b 9dd6 f73b 5a3d 2cbb
00000160: 6092 12bb ebab b53a 09c7 bc3b 365f ac3b
00000170: 28dd 173b 5959 15ba 494a a13b 7c3d f73b
00000180: 7fde 98bb a90f 9dbb cdfa 9ebb 76fe 56bb
00000190: ef4b 32bb 8dd5 01bb bf3c cabb 21f3 0bbb
000001a0: 5488 7c3b 81f1 a93b bdae b5bb 1567 b63b
000001b0: 0bba 143c cd52 1dbb 1785 5c3b 9f9f adbb
000001c0: 9499 2f3a bb12 b53b ba91 36bb 9554 e13b
000001d0: 6772 b83a b7be df3b 1f62 ca3b 07d9 74ba
000001e0: be31 873b 6892 f23b 41d1 ddba a753 e83a
000001f0: 78a9 8cbb ca64 aebb f2e1 a43b 004f d23b
00000200: e8f2 63bb 7159 99b9 c699 453b 8e3c 62bb
00000210: 2565 723b 0bf0 fb3a f277 2abb 3700 0fbb
00000220: 7e70 963b cb77 aa3b a9d6 ca3b c824 463b
00000230: a67b 42bb f029 0a3b ba5d adbb 899e 9bbb
00000240: 2678 eabb 8125 2fba c24a 87bb 199b 8d3a
00000250: 623d 8cbb 5c54 a7bb 8e8f d33b 14eb 103a
00000260: 83f6 c13b 8f51 1bbb df76 71bb 5c32 aa39
00000270: 8294 fa3b 36b6 64bb 0be0 a13b d73b 40bb
00000280: c691 aebb e17f a13b cc99 14bb 2f05 9c3b
00000290: 5f38 6a3b 88a0 253b 5c1a e23b 6e89 33bb
000002a0: 5842 90ba c321 043c 18bf 83bb ea54 c43a
000002b0: 6312 3a3b 5f84 62bb 5f78 2a3b cf0c 74bb
000002c0: 3b10 b6b9 0c7a 083b 772b c83a a2ff e83b
000002d0: 5d3f ce3b 7d12 b2ba b596 5d3b f42c 42bb
000002e0: 1233 93bb 1e4d 6c3b 090d 7fbb 3b49 fd3b
000002f0: 9dca e83b 3886 993b e305 8cbb 5e77 e939
00000300: 97ed 81bb fb95 b6bb 5bb5 67bb 1d67 adbb
00000310: 9d7d 7cbb 8b27 613a 40c8 b23b d6e1 0abb
00000320: ea23 ab3b 89da 233c 89fb a6bb 7a12 b43b
00000330: ee77 99bb 1efc aabb 96cc ed3b 37d8 a2bb
00000340: 2ee0 123b 43fd 94bb 6ee3 b83b 2ab6 a3bb
00000350: 6c06 333b d3ed e8b9 9ebf 6c3b d0ff c23b
00000360: ead2 69bb fd4a ba39 86d4 88ba 70bb 2b39
00000370: 47be c53b a1f0 953b 6039 b1bb 491a d7bb
00000380: b4e6 963b 7fc4 473b e964 0a3b 9163 9d3b
00000390: 8e70 adbb 125e 9dbb f393 acbb e0aa 6f3b
000003a0: 68b5 003b 5f0c 64ba f152 a6ba 920a 3a3b
000003b0: 96b2 83bb cb5f 2c3b 73e4 ac3b 03a6 8d3b
000003c0: 5ea2 1e3b 10b7 2bbb 9a3a 533b ab30 a63b
000003d0: c3a5 e43b a805 0fbc e9cd f9bb 4cb5 923b
000003e0: dac8 b83b 313a 48bb e4bd aabb c9dd 5ebb
000003f0: 5c6f e5ba c7b9 52bb b24b c73b d3aa 033c
0.006583077 -0.0047358708 0.0030004897 0.0057075066 -0.0039545163 -0.0049326727 -0.002748808 -0.0050444333
0.0009072602 -0.00045616034 0.0053385375 0.0048617967 -0.0024658437 -0.0060918783 -0.007707624 0.0003131616
-0.0044442452 -0.0026653602 0.006695636 -0.0015030643 0.0064698416 0.0015190755 0.0053510866 -0.0040131197
0.005661807 0.003995856 -0.001286416 -0.005445428 0.0029096107 0.0020215397 0.0030196793 -0.002457911
-0.0058922265 0.0049295276 -0.0036345094 0.006689585 0.005953308 0.0050253747 0.0028033925 0.0019194819
-0.0058384496 -0.0068717157 -0.00082855555 -0.0040844576 0.002381508 -0.0024410903 -0.005353197 0.0074889944
-0.0042900005 -0.0038874724 0.0056099347 0.003124902 -0.006226031 0.0038359845 -0.0040792567 -0.0008725637
0.0034944394 0.0006570457 0.00024092471 0.0055245445 -0.004377713 0.0071456935 -0.0031557668 -0.003355455
-0.00472113 0.0023345011 0.0038517492 0.006543655 -0.0012013635 -0.0046731695 -0.0025773621 0.005389967
0.0036731064 0.0049710055 -0.006059172 0.008008682 -0.0035635144 0.0021796888 -0.0031376206 0.0075252824
0.0031345321 -0.0049876124 0.004373093 -0.005645432 -0.00443 0.004511885 0.0075634257 -0.0026281686
-0.0022365078 0.001386044 0.0057610315 0.0052603735 0.002317259 -0.0005697213 0.0049221856 0.0075451713
-0.0046651955 -0.0047931266 -0.004851675 -0.003280548 -0.0027205904 -0.0019811124 -0.0061717923 -0.0021354633
0.0038533406 0.00518626 -0.005544512 0.0055664876 0.009077559 -0.0024005652 0.0033648664 -0.0052985693
0.0006698605 0.0055259145 -0.0027857856 0.006876538 0.001407218 0.006828155 0.0061762477 -0.0009340201
0.004125803 0.007402707 -0.0016923324 0.0017725126 -0.004292663 -0.0053220736 0.0050318176 0.006418109
-0.0034782235 -0.00029249073 0.003015147 -0.0034520957 0.0036986556 0.0019221319 -0.0026011434 -0.0021820196
0.004591047 0.0052022687 0.0061901403 0.0030234326 -0.002967575 0.0021082126 -0.005290714 -0.0047491235
-0.007155436 -0.0006681309 -0.004128785 0.0010803669 -0.0042797783 -0.005106492 0.006456322 0.00055281934
0.005919279 -0.0023699736 -0.0036844534 0.00032462447 0.007647098 -0.0034898645 0.004940038 -0.0029332542
-0.005327436 0.0049285744 -0.0022674678 0.00476136 0.0035739166 0.0025272686 0.006900115 -0.0027395147
-0.00110061 0.00806469 -0.004020583 0.001497892 0.0028392307 -0.0034563763 0.0026011688 -0.003723908
-0.00034725838 0.0020824699 0.0015271743 0.007110552 0.0062941746 -0.0013585832 0.0033811752 -0.0029628845
-0.004492172 0.0036056708 -0.0038917682 0.007729677 0.0071042315 0.0046851896 -0.0042731627 0.0004453016
-0.0039650905 -0.0055720783 -0.00353559 -0.005291833 -0.003852702 0.0008588961 0.0054560006 -0.0021191738
0.005222787 0.010000833 -0.0050959033 0.0054953666 -0.004683486 -0.005218043 0.0072570546 -0.0049696225
0.0022411454 -0.0045467927 0.005642346 -0.004996081 0.002731706 -0.0004442768 0.0036124955 0.0059509054
-0.0035678693 0.00035532555 -0.0010439313 0.00016377657 0.0060346457 0.0045758043 -0.005408451 -0.0065644127
0.0046051387 0.003048211 0.0021117276 0.004803129 -0.0052929586 -0.004802474 -0.0052666604 0.0036570355
0.0019639377 -0.0008699353 -0.0012689513 0.0028387648 -0.004019092 0.0026302214 0.0052762567 0.0043227687
0.0024205665 -0.0026201643 0.0032230974 0.0050717196 0.006977768 -0.008729376 -0.0076234234 0.0044771787
0.0056391777 -0.0030552263 -0.005210625 -0.0034006706 -0.0017504501 -0.003215419 0.0060820216 0.008036333

network_body._body_endoder.seq_layers.0.weight f4 [256, 55]
00000000: bdc1 15bd 3739 113e 6df4 663d c1d1 2a3e
00000010: 177d 8e3d 43f5 1e3e 37e5 b0be b940 a63d
00000020: f4df ecbc b078 acbd 3f05 2dbe 2df8 ec3b
00000030: 18c6 013e af8a 5bbe 4626 f6bd 326d 61bc
00000040: 312e 19bd 3ae0 633d 2b8a 6b3d 0607 9d3d
00000050: d149 fd3d 5328 02bc cbfe 093e d5b0 833d
00000060: a219 fe3c 3a49 78bd 8a3d 0cbe 2533 0a3c
00000070: d714 bdbd 0dde 6a3e c340 373d 92f4 8c3d
00000080: ff74 9b3d b7ba 0e3e f1db cfbd c71a 0d3c
00000090: 1beb b33d 1ab0 eabd 3c2b 923d d67a 903d
000000a0: 8515 4f3e 17b5 ecbc 8fd0 2abd 964a 4dbd
000000b0: f339 76bc 97b1 3cbd 799d 65be c4b5 a13c
000000c0: e373 0fbb 331f a3be 2628 c53d da17 433d
000000d0: a625 b7bd bac1 693e 68f5 a03d d5e3 3abd
000000e0: 33d9 33bd 4a43 0ebd 639b c43d ca1e 923e
000000f0: 224b 293c 9944 6dbb 48c5 6c3d eed2 393d
00000100: 29d1 aa3d 69cb bfbc e16f 60be b70d 71bd
00000110: e760 c43c ec91 2abd 2822 ec3d b02e 893e
00000120: 9634 bcba e5d7 e93d eba7 2dbd aa97 06be
00000130: 2e9b 97bd 661d 653d 50f9 1fbe cf28 ce3d
00000140: 03d3 eabd e75f 15be 6afa af3d 6497 c6bd
00000150: 5d7f ecbd 0578 e03b 4caf 253d dfe2 4d3b
00000160: 5850 68be f3e8 583e 26ce 1d3e 1879 97bd
00000170: b190 12bd f9b4 6abd bbc2 273e 8d50 04be
00000180: ee73 57bd 3f34 e4be 886a 77bd 1c38 213e
00000190: dd3c 6d3d 06e1 b0bd e9c0 48be e54b 853e
000001a0: 245e 143e 543e 303d af22 9aba 6bd6 c23b
000001b0: a17f 1dbe 2efd e53b b0fd 1fbd d54a 9a3d
000001c0: 8da0 1bbe 62b8 853d 932d c0bd c6c7 bd3e
000001d0: 20c9 713e 1a2e 44be c223 40bd 8fae 4d3e
000001e0: 826a 4b3e e71e d6bd 613e 843d d63d d5bd
000001f0: ea09 f33d 6a33 2bbd 0720 c13c bcce 56bd
00000200: d066 7b3b 4134 42bd 37d7 f13d fd3f 3c3c
00000210: de9d 963c fe4a 323e 316a 813e 9c29 023e
00000220: 2218 bb3d 211b 6a3e f542 0cbe 1db5 4abe
00000230: 9f19 2b3e 2b3a 76bd 1853 8e3d ad21 90bd
00000240: b386 b53c f1a7 783d 7cdf dabd 4a7a 43bc
00000250: 08e6 af3b 07d6 983d 3544 053d 6be1 9f3b
00000260: 5c86 c73d 0f73 943c 8931 8abd a27b edbd
00000270: 0792 823e b1e3 c23d 8efe 033e a5b6 1b3c
00000280: 5a69 36bd 9cca 713e 00c9 943e 9ce4 9dbc
00000290: d66b 2c3d 5c81 0a3e c552 1b3e 943b 4cbe
000002a0: 81c4 9b3c 926b 2bbc ba0f 263b 5bad bb3d
000002b0: 2af1 f63c e140 4bbd 5e62 63bc 3985 423e
000002c0: 447e 2d3d c1ed 113d 2c80 09bd 8da0 c83d
000002d0: 4e3b 0dbd 4b46 f2bd 0104 5b3c 61ad 223d
000002e0: 41ff 113e e2e1 333d 5f42 c83c 64f3 cbbd
000002f0: a2d3 93bc 8639 55bd 6657 c33d af08 213d
00000300: 8154 123d add3 6cbb a5b9 90be d75a bd3e
00000310: 6602 cbbd f825 eabd 517d 14bd b906 563d
00000320: 8c18 d63d 2a8f 283e fa52 ddbd 2fbb a3bd
00000330: 7972 1dbe d16b 273d b6be 463a ab0a 313e
00000340: f237 99bd f545 343d 1014 1a3c 3b20 14be
00000350: d7ed d23d 94f7 47bd ed05 f83d 4f42 cabd
00000360: 8a56 fabc 5634 20bc 78fc 2a3e fd48 cabd
00000370: 72df 8a3e 4388 0fbe 6797 efbb 15ef 51be
00000380: 0f9a 3ebd 820e 1f3e d1f2 53bd a9a4 813e
00000390: 5b4c fd3d 0607 0bbe 26c6 b4bd 4085 2c3e
000003a0: a837 7d3d d300 21bc dd1e 203e 0fee b83c
000003b0: 0cec 4b3e da63 fabd af4b 283e 6f97 21be
000003c0: f428 d03d 7dcf 363e c783 0b3d eaf4 34bd
000003d0: 53bf 81bd 3c24 aabd 8a8b cebe a1e7 5d3e
000003e0: b140 ddbd 6d34 993d 688a 303e 0206 18be
000003f0: aa61 153c a0fc 3a3e 92c7 2b3e a0cc 61be
-0.036561716 0.14181982 0.056385446 0.16681577 0.06957453 0.15523247 -0.34549877 0.081178136
-0.028915383 -0.08421457 -0.16896532 0.0072317333 0.12673223 -0.21439622 -0.12019019 -0.013758944
-0.037397567 0.05563376 0.057504814 0.07667355 0.12367595 -0.007944184 0.13476102 0.064302124
0.031018082 -0.06061671 -0.1369535 0.008435045 -0.092324905 0.22936268 0.044739496 0.068825856
0.075906746 0.13938414 -0.10149372 0.008612341 0.08785077 -0.1145937 0.071371526 0.07054679
0.20223053 -0.028894944 -0.041702803 -0.05011996 -0.015028465 -0.0460678 -0.22423352 0.019739993
-0.0021889142 -0.3185974 0.09626798 0.04763017 -0.08942728 0.22827807 0.078593075 -0.045627434
-0.04390831 -0.03473214 0.0959995 0.28539115 0.010332854 -0.0036204217 0.05780533 0.045367174
0.083406754 -0.023412423 -0.21917678 -0.05885097 0.023971988 -0.04164307 0.11529952 0.26793432
-0.0014358934 0.11418132 -0.042396467 -0.13143793 -0.07402645 0.05593624 -0.15622449 0.10066377
-0.114660285 -0.14587365 0.085926846 -0.09696844 -0.1154773 0.006850245 0.04045038 0.0031415743
-0.22686899 0.21182613 0.1541067 -0.07396144 -0.03578252 -0.057301495 0.16382878 -0.12921353
-0.052600794 -0.4457111 -0.06040433 0.1574406 0.057919372 -0.0863667 -0.1960484 0.26034465
0.14489037 0.04302819 -0.0011759604 0.005945971 -0.15380718 0.0070187068 -0.039060295 0.07533804
-0.15197964 0.06529309 -0.093836926 0.37066478 0.2361188 -0.19158211 -0.0469091 0.2008612
0.19864848 -0.10455113 0.0645721 -0.10412185 0.11867125 -0.04179708 0.023574842 -0.05244325
0.0038360842 -0.047413114 0.11808627 0.011489865 0.018385824 0.1741142 0.2527633 0.12711185
0.09135462 0.22861911 -0.13697417 -0.19795652 0.16708992 -0.060114067 0.069494426 -0.07037673
0.022158956 0.060707036 -0.106871575 -0.011931011 0.005367998 0.074626975 0.03253575 0.004879167
0.09742424 0.01812127 -0.06747729 -0.11595847 0.25502035 0.09516085 0.12890074 0.009503995
-0.044534065 0.23612446 0.290596 -0.019274049 0.042095028 0.13525909 0.15168293 -0.19944602
0.019014599 -0.0104626585 0.0025338964 0.09163924 0.030144293 -0.04962242 -0.013878433 0.18996133
0.042356744 0.03562713 -0.0335695 0.09796248 -0.034480385 -0.118298136 0.013367654 0.03971613
0.14257528 0.04391659 0.02444571 -0.099585325 -0.01804525 -0.05205681 0.09538154 0.039314922
0.03572512 -0.003613691 -0.28266636 0.36983368 -0.09912567 -0.11433023 -0.036252324 0.052252505
0.10453901 0.16460863 -0.10806842 -0.07994687 -0.15375699 0.040874306 0.0007581519 0.17289226
-0.07481374 0.04401203 0.009404197 -0.1446542 0.102992706 -0.048820093 0.12110505 -0.098759286
-0.030558843 -0.009778103 0.16697872 -0.09877203 0.271236 -0.14016823 -0.0073117497 -0.20501359
-0.04653364 0.15532878 -0.05174524 0.25320938 0.12368079 -0.13576898 -0.08826856 0.16847706
0.061820656 -0.009826857 0.15636773 0.022574453 0.19914263 -0.122260764 0.16435121 -0.15780424
0.10164061 0.17852588 0.03406122 -0.04417888 -0.0633532 -0.083076924 -0.40340835 0.2167039
-0.108033545 0.074807025 0.17240298 -0.14846042 0.009117523 0.18260431 0.16775349 -0.22050714
