IAV_FINAL/results/results/WolfsRedo1/Wolfs/Wolfs-101065.pt (torch, 365951 bytes, 24 tensors)

network_body._body_endoder.seq_layers.0.weight f4 [256, 55]
0	0xbe172300	-0.14759445
1	0xbd17f9b5	-0.037103374
2	0xbda18ad7	-0.0788781
3	0x3cb20539	0.021731006
4	0xbe8c5637	-0.27409527
5	0x3e508bea	0.20365873
6	0xbe409970	-0.18808532
7	0xbcbc6cd5	-0.023001114
8	0x3d7420b1	0.05960149
9	0x3db389df	0.08766531
10	0x3e2ea45d	0.17054887
11	0xbdff6c69	-0.124718495
12	0xbca82fef	-0.020530669
13	0x3e65eb49	0.22453035
14	0x3e0a1b81	0.13487054
15	0xbd7c1317	-0.061541643
16	0xbd1e1988	-0.038598567
17	0x3ccca931	0.02498302
18	0xbd8e3110	-0.06942952
19	0xbc6a6c6e	-0.014308078
20	0xbe70a950	-0.23502088
21	0x3dd233f0	0.102638125
22	0x3d11e1d5	0.03561576
23	0x3d71f102	0.059067734
24	0x3e226ef0	0.15862632
25	0xbbc72c2e	-0.0060782647
26	0x3e54a5fd	0.20766445
27	0x3e814a0f	0.25251815
28	0x3c86ef23	0.016471451
29	0xbda847d7	-0.08216827
30	0xbe0ffffb	-0.14062493
31	0xbd6e4e76	-0.058180295
32	0xbde3ce56	-0.1112334
33	0x3dee31df	0.11630606
34	0xbe7e2daa	-0.24822107
35	0x3d2be5d1	0.041967217
36	0xbe6f348e	-0.23359892
37	0xbcd5cdfd	-0.0260992
38	0x3cee993d	0.029125804
39	0xbe121eb0	-0.14269519
40	0xbe03482a	-0.12820497
41	0x3d060617	0.03272065
42	0xbe05e551	-0.13075759
43	0x3e1a6940	0.15079212
44	0xbe166a45	-0.14688976
45	0x3e3ba0b3	0.1832302
46	0x3d0e88cf	0.03479844
47	0xbd4cbcac	-0.04998462
48	0x3d48d78a	0.04903368
49	0x3cd5f2a0	0.02611667
50	0xbe31380a	-0.17306533
51	0x3cff0a77	0.03113292
52	0xbe5d3f07	-0.21606074
53	0x3dd5848b	0.10425671
54	0xbe1817bd	-0.14852805
55	0x3b8106bb	0.00393757
56	0x3c61f1d3	0.013790566
57	0xbd32496d	-0.043527056
58	0xbded131c	-0.115759104
59	0xbe144f47	-0.14483367
60	0x3d10cfab	0.035354298
61	0x3cdf8e19	0.027289437
62	0xbe6f8021	-0.23388721
63	0x3e1cbbbe	0.15305993
64	0xbdf66c6f	-0.12032401
65	0x3daf1e43	0.08550694
66	0xbdaaa21c	-0.08331701
67	0x3e3bcffa	0.18341056
68	0xbe42026d	-0.18946238
69	0xbc75e0ab	-0.015007178
70	0x3dff320e	0.12460719
71	0x3dc504f1	0.09620083
72	0x3cde6b42	0.027150754
73	0xbd1a0d1e	-0.037610166
74	0xbcb2fd94	-0.021849431
75	0xbe129ba7	-0.14317189
76	0xbda9efe4	-0.08297709
77	0x3d83bbcf	0.06432306
78	0xbe38fcf0	-0.18065238
79	0xbdb5d252	-0.08878006
80	0xbd354e4a	-0.044264115
81	0xbd8712ca	-0.065953806
82	0x3d6c2a6d	0.057657648
83	0x3d24847f	0.04016542
84	0xbe6bfbca	-0.23045269
85	0xbe984484	-0.29739773
86	0xbde92544	-0.11384061
87	0x3e3e831a	0.18604699
88	0x3de4fb6e	0.11180769
89	0xbe21a789	-0.15786566
90	0xbc0a19b8	-0.008428983
91	0xbe83beb1	-0.25731423
92	0xbdbea5b0	-0.09308946
93	0x3e0d24a1	0.13783504
94	0x3dcb2590	0.09919274
95	0xbe338583	-0.175314
96	0xbc6a1739	-0.014287763
97	0x3e7797fa	0.24179068
98	0xbdc218ea	-0.09477408
99	0x3deacc07	0.114646964
100	0x3db302d0	0.08740771
101	0x3df796b6	0.12089293
102	0xbd6d7fad	-0.05798309
103	0x3bc77928	0.006087441
104	0x3e346c7c	0.17619509
105	0x3e562ed3	0.209163
106	0x3bbc76b7	0.0057514566
107	0xbd770543	-0.060307752
108	0x3dfd7369	0.12375528
109	0x3df5bc2a	0.1199878
110	0x3d1e3997	0.03862914
111	0x3e1bb5cb	0.15206067
112	0xbd13decb	-0.036101144
113	0x3e5f43d9	0.21803226
114	0x3df5e872	0.12007226
115	0xbd4806d6	-0.048834644
116	0x3e03a219	0.12854804
117	0xbad9939b	-0.0016599776
118	0xbe714909	-0.23563017
119	0x3e321bb8	0.17393386
120	0x3e14189d	0.14462514
121	0xbdec2d6e	-0.115321025
122	0x3e8690b6	0.2628228
123	0xbd94b8dc	-0.07261822
124	0xbd916099	-0.07098503
125	0x3e76d496	0.24104533
126	0xbdf44048	-0.11926323
127	0xbea08337	-0.3135011
128	0x3cd5fd14	0.026121654
129	0xbd489aeb	-0.048975866
130	0x3e82554d	0.25455704
131	0x3d76ea91	0.060282294
132	0x3d717493	0.058949064
133	0x3e6d7395	0.23188622
134	0x3d5411ce	0.051774792
135	0xbe32f022	-0.17474416
136	0x3d014fb9	0.03157017
137	0xbe1deb9b	-0.15421908
138	0xbe3e6819	-0.18594398
139	0x3de31bf8	0.11089319
140	0x3cff69ec	0.031178437
141	0xbc879fc8	-0.016555682
142	0x3e81a97d	0.25324622
143	0x3e097cba	0.13426486
144	0x3e29bf39	0.16576852
145	0xbe050554	-0.12990314
146	0xbe54b5a9	-0.20772423
147	0x3e2736b6	0.16329464
148	0x3d3f3d06	0.046689056
149	0x3cd9ddca	0.026595015
150	0xbe489a3f	-0.1959009
151	0x3e74bd99	0.23900451
152	0x3de45f05	0.11150936
153	0x3e20b660	0.1569457
154	0x3dd605d8	0.10450333
155	0x3d3eaca7	0.046551373
156	0xbe1da154	-0.15393573
157	0xbe606d1c	-0.21916622
158	0xbd5e2a5c	-0.054239616
159	0xbe24346e	-0.16035625
160	0xbe690f06	-0.22759637
161	0x3d44efdf	0.04808032
162	0xbdbe1b0b	-0.09282502
163	0xbec2063d	-0.37895384
164	0xbe219ef2	-0.15783289
165	0x3d54c731	0.051947776
166	0x3e2e2c8d	0.17009182
167	0xbd4e7e22	-0.05041326
168	0xbe27d068	-0.16388094
169	0xbc4313cf	-0.011906578
170	0x3d1b85e4	0.037969485
171	0x3e221ccc	0.15831298
172	0x3dbd0c98	0.09230918
173	0x3e1d1dd7	0.15343414
174	0xbdccc39c	-0.09998247
175	0x3d1f64f3	0.038914632
176	0x3db9ead9	0.09077997
177	0xbd944d9e	-0.07241367
178	0xbe15c6b1	-0.14626576
179	0xbe02318c	-0.12714213
180	0xbe2b113d	-0.16705795
181	0x3cefabee	0.029256787
182	0xbd32072d	-0.043463875
183	0xbcf1171e	-0.029429968
184	0xbe6f639f	-0.23377846
185	0xbe2ea864	-0.17056423
186	0x3db1ec80	0.08687687
187	0x3ce863e0	0.028367937
188	0xbe07e425	-0.13270624
189	0x3dad1b1b	0.084524356
190	0x3e5c1769	0.21493305
191	0xbda79f24	-0.081846505
192	0xbe0a2ce0	-0.13493681
193	0x3df11dc3	0.11773255
194	0xbd10737b	-0.03526638
195	0x3dce8e4a	0.10085733
196	0x3d4104af	0.047123607
197	0x3cc3d3b6	0.023904663
198	0xbd08b31e	-0.033373944
199	0xbc80c269	-0.015717702
200	0x3cc7f136	0.02440701
201	0x3c8ef31d	0.01744991
202	0x3da28b97	0.07936781
203	0xbdb05482	-0.086098686
204	0x3dd17924	0.10228184
205	0xbd9cb2bd	-0.07651279
206	0x3d6cdc94	0.057827547
207	0xbd6cd7da	-0.05782304
208	0x3cababa1	0.020955862
209	0x3e14bc77	0.14525019
210	0x3e82da1b	0.25557026
211	0xbce72256	-0.028214615
212	0x3ead4ad0	0.3384614
213	0xbd813efc	-0.063108414
214	0xbd9f8fa9	-0.07791073
215	0xbb09cf09	-0.0021027944
216	0x3d61cd8c	0.055127665
217	0x3caea801	0.021320345
218	0xbe26e882	-0.16299632
219	0xbda46605	-0.08027271
220	0xbe75d838	-0.24008262
221	0x3dd21656	0.102581665
222	0x3b404cb0	0.0029342584
223	0xbe4d6fe6	-0.20062217
224	0xbda8e3df	-0.08246588
225	0x3d29c422	0.041446812
226	0xbcfb5a4c	-0.030682705
227	0xbc5260d1	-0.012840466
228	0xbe11e4fd	-0.14247508
229	0x3e46659e	0.19374701
230	0xbd8feedf	-0.07027983
231	0x3e056777	0.1302775
232	0x3dcd4e84	0.10024741
233	0x3d3b8281	0.045778755
234	0x3d2d68e5	0.042336363
235	0x3d89f1c5	0.06735567
236	0xbd4abc39	-0.04949591
237	0x3cda6d7e	0.026663538
238	0x3c83eba7	0.016103579
239	0x3ecdc8a5	0.40192142
240	0x3e3df1d3	0.1854928
241	0x3e2ceff7	0.16888414
242	0xbd820dd0	-0.06350291
243	0xbda1768c	-0.07883939
244	0x3e07af7d	0.13250537
245	0xbc7e9ca7	-0.0155402785
246	0xbc9c8cc5	-0.019110093
247	0x3e071329	0.13190903
248	0xbdd93d67	-0.10607415
249	0x3d0c22d8	0.034212917
250	0xbaebb0ef	-0.0017981807
251	0x3e283e58	0.16430032
252	0xbd54eee4	-0.051985636
253	0x3cc1d67a	0.02366184
254	0x3c14a5f3	0.0090727685
255	0x3e2f9c33	0.17149429

network_body._body_endoder.seq_layers.0.bias f4 [256]
0	0xbb2e6c7d	-0.0026614957
1	0x3c3ac1d2	0.011398749
2	0x3c182c99	0.009287977
3	0xbc4e2747	-0.012582607
4	0x3ba9d49d	0.005182816
5	0x39019127	0.00012356472
6	0x3cc3b4af	0.023889868
7	0xbc008fa6	-0.007846748
8	0xbc8da731	-0.017291637
9	0x3bf41af4	0.007449502
10	0xbb838b42	-0.0040144036
11	0xbc1114f4	-0.008855093
12	0xbbe861b8	-0.007091727
13	0x3bd50f8e	0.0065020984
14	0x3b9cee1f	0.0047891284
15	0x3a1e24df	0.0006032716
16	0xbae0dfda	-0.0017156557
17	0xbbb8d6f1	-0.0056408574
18	0x3956cd8b	0.00020485201
19	0x3c5af9de	0.013365237
20	0x3c059f56	0.008155664
21	0xbbed11d5	-0.0072347918
22	0x3bc953a8	0.006144006
23	0x3b45f65c	0.0030206656
24	0x3bfcd9dc	0.0077164005
25	0x3ca52f93	0.020164287
26	0x3c5159bb	0.012777741
27	0xbaa3f0cb	-0.0012507675
28	0x3b8ea938	0.0043536685
29	0x3bde7557	0.0067888903
30	0x3c36fe17	0.011168978
31	0xbb04ae04	-0.0020245323
32	0x3bf6dd83	0.0075337305
33	0x3c20e90f	0.0098211905
34	0x3bdddc2f	0.0067706327
35	0xbacf9a8b	-0.0015838904
36	0x391fa87d	0.00015226188
37	0xbb9d92f8	-0.00480878
38	0xbc09b363	-0.0084045855
39	0x3ba6b7bf	0.005087822
40	0x39271243	0.00015933164
41	0xbbced58a	-0.006312077
42	0xbc0e7a7d	-0.008696196
43	0x3c2aa67d	0.01041567
44	0x3b5d1f86	0.0033740713
45	0x3bc97a3b	0.006148604
46	0xbc0d1789	-0.008611568
47	0x3b130c9f	0.0022437943
48	0xbb3a2beb	-0.0028407525
49	0x3c2041b1	0.009781287
50	0xbaeb1309	-0.001793475
51	0x3b9633fa	0.004583833
52	0x3ca9eb1b	0.02074199
53	0x3b6d488c	0.0036206571
54	0x3c27028b	0.010193477
55	0x3be069cd	0.00684855
56	0x3a6e7883	0.0009096937
57	0x3b9fe277	0.0048792916
58	0xbb859968	-0.0040771253
59	0xbc1b0383	-0.0094612865
60	0xba45d9ce	-0.0007547409
61	0xbc224e81	-0.009906412
62	0x3b398702	0.002830923
63	0x3ae9abe5	0.0017827718
64	0x3bec6730	0.0072144493
65	0x3bc34917	0.0059596407
66	0x3c86a796	0.016437333
67	0xbc10b20f	-0.008831515
68	0x3b31b629	0.0027116633
69	0x3b618cda	0.003441623
70	0xbb740bec	-0.0037238551
71	0x3badb21d	0.005300774
72	0x3c7fb804	0.015607838
73	0x3b8f3544	0.0043703634
74	0x3be797e7	0.0070676687
75	0x3c34b2d1	0.011028961
76	0xbbc51c8b	-0.0060153655
77	0x3b03e39c	0.002012468
78	0xbb1116fb	-0.0022138942
79	0xbb74bfe8	-0.003734583
80	0x3a6dcc70	0.0009071296
81	0x3c0d1108	0.008610018
82	0x3b3c4ae7	0.0028731169
83	0xbc58219b	-0.013191606
84	0x3a14d2e0	0.0005677175
85	0xbb00f668	-0.001967812
86	0x3b815903	0.0039473786
87	0xbbc7d5a5	-0.0060984665
88	0x3c271812	0.01019861
89	0x3bb72518	0.0055891387
90	0xba9f5362	-0.0012155587
91	0x38d85ee4	0.000103173574
92	0x3b8d9adc	0.004321439
93	0x3c22326e	0.009899719
94	0xbba032f1	-0.004888885
95	0xbbcd521a	-0.006265891
96	0x3b9df213	0.0048201173
97	0x3be5ce77	0.007013138
98	0xba22dc3d	-0.00062126276
99	0x37c4d3b2	2.3463599e-05
100	0xbc43d95f	-0.011953681
101	0x3b82cc66	0.0039916513
102	0x3c062125	0.008186613
103	0xbb158bd6	-0.0022818944
104	0x3b50c72d	0.0031857
105	0x3ad18621	0.0015985408
106	0x3c1d5d47	0.009604759
107	0x3c078472	0.0082713235
108	0x3bcac332	0.00618782
109	0x3a627165	0.0008638113
110	0xbb0b7a6a	-0.0021282681
111	0x3c03868c	0.008027684
112	0x3be80a52	0.0070813084
113	0x3b6326d9	0.0034660606
114	0x3c1d775a	0.009610975
115	0x3b91b612	0.0044467533
116	0xba9a45bd	-0.0011770051
117	0xbc12f033	-0.008968401
118	0xbb288dba	-0.0025719241
119	0x3a90b914	0.0011041486
120	0xba8dedeb	-0.0010828351
121	0xbb2cd5df	-0.0026372594
122	0xba9025c2	-0.0010997581
123	0x3c219ac6	0.009863561
124	0x3b9ff7b1	0.004881822
125	0xbb35a86d	-0.0027718798
126	0xbbe0c718	-0.0068596713
127	0xbc2839c8	-0.010267682
128	0x3a906977	0.0011017759
129	0x3c3d3abc	0.011549648
130	0x3933ac7b	0.00017135024
131	0x3c5b8a1f	0.01339963
132	0x3bedbf0d	0.007255441
133	0xbc3f22c3	-0.011666003
134	0x3cc36b5a	0.0238549
135	0xbc068303	-0.008209947
136	0xba2db521	-0.00066264166
137	0x3a04edf2	0.0005070857
138	0x3bf1b368	0.007376123
139	0xbb8dad7a	-0.0043236585
140	0xbaa21102	-0.0012364688
141	0x3c103fce	0.008804275
142	0x3bfd1312	0.0077232206
143	0x3cc4b458	0.024011776
144	0xbbe5509c	-0.006998135
145	0xbbd23173	-0.006414586
146	0x3c09ffb5	0.008422782
147	0x3c8bebeb	0.017080268
148	0x3be33f43	0.0069350316
149	0x3c879ab4	0.01655326
150	0xbc1d5cdd	-0.00960466
151	0xbb92f4bc	-0.004484741
152	0xbbd8ed83	-0.0066201105
153	0x3c04fc3d	0.008116779
154	0x3bdddd62	0.0067707757
155	0xbc8279b2	-0.01592717
156	0x3bb39dc3	0.005481453
157	0x3ae869d6	0.0017731737
158	0xbc2468b7	-0.010034732
159	0x3ca4f08c	0.020134233
160	0x3b1d4f4e	0.0024003568
161	0xbbc602f8	-0.0060428344
162	0x3bebea17	0.0071995365
163	0xb9e115ed	-0.0004293168
164	0xbbb3b797	-0.005484532
165	0x3a7547d2	0.00093567104
166	0xbb7387bf	-0.0037159768
167	0xbbac0ea7	-0.00525077
168	0x3a131fc2	0.0005612337
169	0x3c6fc0c8	0.014633365
170	0x3ba317c3	0.004977198
171	0xbb943746	-0.0045231907
172	0xbbd06bd2	-0.0063605094
173	0xbbbe42b3	-0.005806291
174	0x3c228708	0.009919889
175	0x3cc11e64	0.023574062
176	0x3b23fe39	0.0025023355
177	0x3c12ebe8	0.008967377
178	0x3b91bde6	0.0044476865
179	0x3b4a216d	0.0030842677
180	0xba450827	-0.00075161684
181	0xbc310de9	-0.010806539
182	0x3b8393c9	0.00401542
183	0x3c1f0f0d	0.009708178
184	0x3ac41f95	0.0014963025
185	0xbbfa2016	-0.0076332195
186	0x3a1a1826	0.0005878232
187	0x3c6eb23c	0.014568862
188	0x3aa53faa	0.0012607474
189	0xbaba3fef	-0.0014209728
190	0x3be5571a	0.0069989087
191	0xbb43bb58	-0.0029866304
192	0x3c683b5e	0.0141743105
193	0xbba6192e	-0.0050689196
194	0x3bd824dd	0.0065961913
195	0x3c35f4ca	0.011105726
196	0x3b9b6516	0.004742275
197	0x399df453	0.0003012741
198	0x3b8b0920	0.004243031
199	0xbaef2e53	-0.0018248059
200	0x3c499a7b	0.012304897
201	0xbb05d87a	-0.002042322
202	0x3c06c99d	0.008226779
203	0xba0cac79	-0.00053662766
204	0xbbe79171	-0.0070668985
205	0xb96b391c	-0.00022432621
206	0x3c0c0841	0.00854689
207	0x3ae3fd99	0.0017394304
208	0x3b5d921e	0.0033809016
209	0xba0de7e0	-0.0005413275
210	0x3c1e0dc0	0.009646833
211	0xbc23c9e0	-0.009996861
212	0x3bebc736	0.0071953787
213	0xbadecd96	-0.0016998525
214	0x3c3db521	0.011578829
215	0x3c4f6dc8	0.012660451
216	0xbac15dcd	-0.0014752686
217	0x3c239ee4	0.009986613
218	0x3a89eefe	0.0010523496
219	0xbaa7fb06	-0.00128159
220	0x3c39664b	0.011315892
221	0xbc39628f	-0.011315002
222	0xb7aa0527	-2.0267978e-05
223	0xbac415be	-0.0014960093
224	0x3c1329ab	0.008982102
225	0x3c18c74b	0.009324859
226	0x3c0143da	0.007889712
227	0xbb7403a5	-0.0037233618
228	0xbc10754c	-0.008817028
229	0x3a807713	0.0009801112
230	0x3bb3c238	0.005485799
231	0xbb0e1c32	-0.0021684286
232	0x3c61d6a0	0.013784081
233	0x3c624dc3	0.013812485
234	0x3c8928eb	0.016743144
235	0x392fc7ef	0.00016763782
236	0xbbae9d1f	-0.005328789
237	0x3b8e1495	0.0043359497
238	0xbc4f40cc	-0.012649726
239	0x3b03768e	0.0020059678
240	0x3b637e61	0.003471278
241	0xb9c84739	-0.00038200038
242	0xbb692611	-0.0035575668
243	0x3ba5401f	0.005043044
244	0x38bc6c6a	8.984732e-05
245	0x391244a2	0.00013949213
246	0xbbce5bed	-0.0062975795
247	0x3bd716ec	0.006564012
248	0x3c83e72a	0.016101439
249	0xbb19a477	-0.0023443976
250	0xba3fefaa	-0.00073217845
251	0xbc08f79b	-0.008359815
252	0xbb0c6381	-0.0021421614
253	0xbc1cc446	-0.00956828
254	0xbba54578	-0.0050436817
255	0x3b8927e7	0.004185665

action_model._continuous_distribution.log_sigma f4 [1, 2]
0	0x3c55b4e7	0.013043619
1	0xb96ed7c4	-0.00022777828

action_model._continuous_distribution.mu.weight f4 [2, 256]
0	0x3b426a68	0.0029665474
1	0x3c250891	0.010072843
2	0x3ca4fa8e	0.020139005
3	0xbc38c57c	-0.011277553
4	0x3ce7271a	0.028216887
5	0x3b8c1cdd	0.0042759017
6	0x3d264227	0.04059043
7	0xbc104bcc	-0.008807134
8	0xbc974a53	-0.018468058
9	0xbcd275a8	-0.025690868
10	0xbb807e50	-0.0039213076
11	0xbcb6cb76	-0.022313815
12	0xbc7c8af4	-0.015413988
13	0x3ca78cab	0.020452818
14	0xbc3c1b37	-0.011481098
15	0x3c1227e0	0.00892064
16	0xbcab0ad5	-0.020879189
17	0xbc744531	-0.014909075
18	0x3c24f2e9	0.01006768
19	0x3d09e1f8	0.033662766
20	0xbc490607	-0.012269503
21	0xbc991c86	-0.018690359
22	0x3cc104d0	0.023561865
23	0x3b97efaf	0.004636727
24	0x3cdb7752	0.026790295
25	0x3cba710e	0.022758987
26	0x3b239168	0.0024958495
27	0xbd13ffb6	-0.036132537
28	0x3c0bd215	0.008533974
29	0x3c52b58f	0.01286067
30	0x3cdc903b	0.026924243
31	0xbc08bfc1	-0.008346499
32	0xbb002457	-0.001955291
33	0x3ca4507b	0.020057907
34	0xbbfd9aa3	-0.0077393814
35	0xbbae9942	-0.0053283283
36	0x3b2af4ff	0.002608597
37	0x3aa89930	0.0012863036
38	0xbba425c8	-0.0050093867
39	0x3c95bb0f	0.018277673
40	0xbcb9506f	-0.022621362
41	0xbaba652f	-0.0014220829
42	0xbbd92c82	-0.00662762
43	0x3cbf19d3	0.023327744
44	0x3d05b64c	0.032644555
45	0xbcaa2ff9	-0.020774828
46	0xbb9f2279	-0.0048564044
47	0x3c1415a9	0.009038367
48	0x3c130f6c	0.008975845
49	0x3ad3d21b	0.0016160639
50	0x3bb85f56	0.0056265993
51	0xbca7ed9f	-0.020499049
52	0x3c262664	0.010140989
53	0xbd16e00a	-0.036834754
54	0x3a8424e4	0.0010081795
55	0xbbd7963f	-0.00657919
56	0xbc5631b2	-0.013073372
57	0x3c2938bb	0.010328467
58	0x3b40c86f	0.0029416343
59	0xbc557e8a	-0.013030658
60	0x366e4d40	3.550973e-06
61	0xbcf5112d	-0.029915417
62	0x3bdbab62	0.00670378
63	0x3a4c9dde	0.00078055065
64	0x3c18017e	0.0092776995
65	0x3c3588db	0.011079992
66	0xbbe8240b	-0.007084375
67	0xbb88813a	-0.0041657956
68	0x3b552f50	0.003252942
69	0x3c96506d	0.018348897
70	0x3917acc7	0.00014464847
71	0x3cc7725b	0.024346521
72	0x3c9f4790	0.019443303
73	0xbc89520e	-0.01676276
74	0xbb0158d7	-0.001973679
75	0xbd354e92	-0.044264384
76	0xba20da68	-0.00061360607
77	0x3c222acd	0.0098979
78	0xba06e494	-0.0005145755
79	0xbcdf9506	-0.02729274
80	0x3c19aec1	0.0093800435
81	0xbbd2d4da	-0.0064340653
82	0x3bf9fc07	0.007628921
83	0x3a75d991	0.0009378428
84	0xbbb4b349	-0.0055145365
85	0x3bc0d168	0.005884338
86	0xbac7a91f	-0.0015232897
87	0xbc216a4c	-0.009852003
88	0x3d0abac4	0.03386952
89	0x3c11d8d1	0.008901791
90	0xbc8abe91	-0.016936572
91	0x3c87dc2b	0.016584476
92	0xbd59a848	-0.053139
93	0xbb27f9af	-0.0025631
94	0xbc2ba530	-0.0104763955
95	0xbb491582	-0.0030682986
96	0x3c561c55	0.013068278
97	0x3c729c96	0.014807841
98	0xbb878835	-0.00413611
99	0xbca59c71	-0.020216199
100	0xbc557bb5	-0.013029982
101	0xbd21892c	-0.039437458
102	0x3cdc0d56	0.026861828
103	0xbb8aa486	-0.0042310385
104	0x3c2c71eb	0.010525207
105	0xbcab9cc4	-0.020948775
106	0x3cd0eb9d	0.025502974
107	0x3d08ff65	0.03344669
108	0x3b16b5e6	0.0022996604
109	0xbccb776d	-0.02483722
110	0xba9e73ed	-0.0012088992
111	0x3bffc6fa	0.0078057023
112	0x3cbc5970	0.022991866
113	0x3c22e7d1	0.009942965
114	0xbd0ef795	-0.03490408
115	0xbc5babda	-0.013407672
116	0xbb2fcfbe	-0.0026826705
117	0xbc89bf9f	-0.016815005
118	0xbbbcdf5e	-0.005763932
119	0x3b5791db	0.0032893333
120	0xbce9cf73	-0.028541302
121	0xbcf698de	-0.03010219
122	0xbcbd9938	-0.02314435
123	0x3d30ea8c	0.04319243
124	0x3b8f04d7	0.0043645906
125	0xbbd37583	-0.0064532175
126	0xbc078afe	-0.008272884
127	0xbc1db15c	-0.009624805
128	0x3c20e48d	0.009820116
129	0x3cf0b794	0.029384412
130	0x3b48f7c3	0.0030665256
131	0x3b0f9778	0.002191035
132	0x3c945c5e	0.01811045
133	0xbc018aab	-0.007906596
134	0x3d5a01c5	0.053224344
135	0xba71fe7d	-0.0009231342
136	0xbc20677c	-0.009790298
137	0x3c26e19a	0.010185624
138	0x3ce13567	0.027491285
139	0xbbf87ebc	-0.0075834673
140	0x3bb76959	0.005597275
141	0x3c90d3e8	0.01767917
142	0xbabd7dc0	-0.0014457032
143	0x3ccacb09	0.024755018
144	0xbc0c8ad4	-0.008578021
145	0xbcf5b8e1	-0.029995384
146	0x3c1af1e5	0.009457086
147	0xbbf462c6	-0.007458064
148	0x3c9caddc	0.019125871
149	0x3d277570	0.04088348
150	0xbc34db5f	-0.01103863
151	0xbcad134e	-0.02112737
152	0xbc203edc	-0.009780612
153	0xbc0efc4f	-0.008727147
154	0x3c864786	0.016391527
155	0xbbd598a2	-0.0065184394
156	0x3d094600	0.033514023
157	0x3b9ba3f5	0.00474977
158	0x39cee47e	0.00039461622
159	0x3d1c085f	0.03809392
160	0x3c4a83c8	0.012360521
161	0xbca82d7d	-0.020529503
162	0x3ac9e221	0.0015402475
163	0x3c0f43a4	0.008744154
164	0xb93ea72a	-0.00018182085
165	0x3bc83203	0.0061094775
166	0xbceafacb	-0.02868404
167	0xbc184ee3	-0.009296152
168	0xbcf5dd8f	-0.030012874
169	0x3ca01c3e	0.019544717
170	0x3ce5830f	0.028016595
171	0xbc822329	-0.015885906
172	0xbb8cb038	-0.004293468
173	0xbb8942d0	-0.004188873
174	0x3c950f67	0.018195821
175	0x3b880b66	0.0041517494
176	0x3c5ccc59	0.013476455
177	0x3cd43061	0.025901975
178	0x3cda1f46	0.02662624
179	0x3cca3ca4	0.024687119
180	0xba8fb684	-0.0010964428
181	0xbcef8c53	-0.029241716
182	0x3a24a635	0.00062808703
183	0x3cfa19e7	0.03052993
184	0x3c300803	0.010744098
185	0x3b806920	0.003918782
186	0x3bdabc73	0.006675297
187	0xba22bcdf	-0.00062079536
188	0x3c8381c8	0.016053095
189	0xbbe3bf29	-0.0069502783
190	0xbb78196b	-0.0037856947
191	0xbb0137cf	-0.0019717102
192	0x3d6f8c3e	0.058483355
193	0xbd36bf25	-0.044615883
194	0x3ca014c4	0.019541152
195	0x3cb8a97c	0.022541754
196	0xbc9d0fcd	-0.019172573
197	0x3b198d18	0.0023430046
198	0x3c054991	0.008135215
199	0xbc3952ba	-0.011311227
200	0x3ce095a3	0.027415102
201	0x3c257302	0.010098221
202	0x3ce127d5	0.027484814
203	0xbc19f5bb	-0.009396966
204	0xbcab39f1	-0.020901652
205	0x3bafee8f	0.0053690146
206	0x3ba5876a	0.005051543
207	0xbb89f40f	-0.0042100023
208	0x3c8cfe6c	0.017211162
209	0xb8488b4b	-4.7813443e-05
210	0x3ba33c08	0.0049815215
211	0xbc892235	-0.016739944
212	0x3cb858c8	0.022503272
213	0xbcaf200d	-0.021377588
214	0x3d13f2cf	0.036120232
215	0x3cd55a6a	0.02604409
216	0xbbfd8791	-0.007737108
217	0x3d13640b	0.03598408
218	0xbbf9da6e	-0.007624916
219	0xba7370d1	-0.00092865253
220	0x3c67be17	0.014144442
221	0xbc900186	-0.017578851
222	0x3ac9557a	0.0015360557
223	0xbbad1192	-0.0052816356
224	0x3cf0dfaf	0.029403536
225	0x3bb060d6	0.0053826375
226	0x39ed768b	0.00045292484
227	0xbb74c494	-0.0037348615
228	0xbc1fe049	-0.009758064
229	0xbbdd2c0d	-0.006749636
230	0xbc65749d	-0.014004854
231	0xba6396da	-0.00086818414
232	0x3cfd6375	0.030931214
233	0x3d160c83	0.036633026
234	0x3cf9b848	0.03048338
235	0xbbb3cec0	-0.005487293
236	0xbd18d8e7	-0.03731623
237	0x3ca6e7b7	0.020374162
238	0xbb786651	-0.0037902782
239	0x3c15974a	0.009130308
240	0x3c0056d2	0.0078332
241	0xbc848fac	-0.01618179
242	0xba31abaa	-0.0006777594
243	0xbcb5b65d	-0.022181684
244	0xbc98dead	-0.018660868
245	0xbbb04561	-0.0053793644
246	0xbc05f126	-0.00817517
247	0xbb3e2297	-0.0029012316
248	0x3cc86001	0.02445984
249	0x3bdbf577	0.0067126113
250	0x3b5cf3c1	0.0033714625
251	0x3ad38403	0.0016137365
252	0xbcda0876	-0.026615363
253	0xbc6486b4	-0.013948131
254	0xbce023a5	-0.027360747
255	0x3c5ed2c1	0.013600052

action_model._continuous_distribution.mu.bias f4 [2]
0	0x3c08d26a	0.008350948
1	0xbb436b47	-0.002981858

exp_avg f4 [256, 55]
0	0xb72e5265	-1.0390392e-05
1	0x00000000	0.0
2	0xb4772705	-2.3017863e-07
3	0x36822d0e	3.879547e-06
4	0x3794f0a3	1.775503e-05
5	0xb8ba3c2f	-8.880381e-05
6	0x00000000	0.0
7	0x35be1f69	1.4165245e-06
8	0x387d182a	6.0342405e-05
9	0x3886c6c7	6.426643e-05
10	0x37d6f55c	2.5625042e-05
11	0x00000000	0.0
12	0x3681770f	3.85836e-06
13	0xb80dd35d	-3.3813867e-05
14	0xb78fd0ad	-1.71441e-05
15	0xb897d6c2	-7.240243e-05
16	0x00000000	0.0
17	0x37c37441	2.3299946e-05
18	0x384868b3	4.7781225e-05
19	0x3883c418	6.283092e-05
20	0x36aaf805	5.095268e-06
21	0x00000000	0.0
22	0x3518bb07	5.6896573e-07
23	0xb7c0412d	-2.2918533e-05
24	0xb7571c8f	-1.2821648e-05
25	0xb7070272	-8.047196e-06
26	0x00000000	0.0
27	0xb6536d3e	-3.1505037e-06
28	0xb6e89ab3	-6.932148e-06
29	0xb6ce511e	-6.1487217e-06
30	0xb62cc7ab	-2.574622e-06
31	0x00000000	0.0
32	0xb50ae039	-5.1735293e-07
33	0x3702e3f7	7.801681e-06
34	0xb679ac9a	-3.7204359e-06
35	0xb67a7d04	-3.7325672e-06
36	0x00000000	0.0
37	0xb61e7254	-2.3610382e-06
38	0xb727d761	-1.00041225e-05
39	0xb6cee978	-6.1664578e-06
40	0xb6efd0b5	-7.1470517e-06
41	0x00000000	0.0
42	0xb5ea95e4	-1.7477983e-06
43	0x365c8bb3	3.286387e-06
44	0x35ed22c4	1.7667994e-06
45	0xb73f49e0	-1.14016875e-05
46	0x00000000	0.0
47	0x37251f37	9.842034e-06
48	0xb816ade0	-3.592472e-05
49	0xb80db685	-3.3787004e-05
50	0x370f1cf1	8.530203e-06
51	0x00000000	0.0
52	0x36925a4b	4.3616506e-06
53	0xb8066b99	-3.2048298e-05
54	0xb75f40e7	-1.3306947e-05
55	0xb7a7adff	-1.9988975e-05
56	0x00000000	0.0
57	0x342649d1	1.5486809e-07
58	0x3727e4af	1.000722e-05
59	0x36a00a4b	4.76957e-06
60	0x37c92b14	2.3981127e-05
61	0x00000000	0.0
62	0xb3fe50ba	-1.1842481e-07
63	0xb7228da5	-9.688932e-06
64	0xb787eea9	-1.6204389e-05
65	0xb79b79c2	-1.8534138e-05
66	0x00000000	0.0
67	0xb6feaaca	-7.5896724e-06
68	0x3791e6c0	1.7392798e-05
69	0x372a055b	1.01340365e-05
70	0x381f349d	3.7957554e-05
71	0x00000000	0.0
72	0xb72853b9	-1.00330735e-05
73	0xb7d65433	-2.5549996e-05
74	0xb81cafd3	-3.7357047e-05
75	0xb59c1621	-1.1629346e-06
76	0x00000000	0.0
77	0xb4df4184	-4.1584656e-07
78	0x36df8ec8	6.66254e-06
79	0x36f500ad	7.3016477e-06
80	0x36c05111	5.7314833e-06
81	0x00000000	0.0
82	0x36ebb43e	7.0245287e-06
83	0x35afd43e	1.3100287e-06
84	0xb5856d70	-9.941123e-07
85	0xb5207bb1	-5.978464e-07
86	0x00000000	0.0
87	0x33868a95	6.265069e-08
88	0xb69a2c42	-4.59471e-06
89	0x365800a9	3.2186892e-06
90	0x35af5c74	1.3065423e-06
91	0x00000000	0.0
92	0x35e27e56	1.6875081e-06
93	0x36bce733	5.6297517e-06
94	0x36caec17	6.0475536e-06
95	0x36527490	3.1360287e-06
96	0x00000000	0.0
97	0xb3f3eb38	-1.1358355e-07
98	0x36057801	1.9888396e-06
99	0xb640611f	-2.8666761e-06
100	0x36d5f67c	6.376589e-06
101	0x00000000	0.0
102	0x33b4d3c8	8.420426e-08
103	0x375e4290	1.3247729e-05
104	0x379be45f	1.8583783e-05
105	0xb6b89c91	-5.501854e-06
106	0x00000000	0.0
107	0xb621eece	-2.4129872e-06
108	0x37d78a64	2.569444e-05
109	0x370ff4d9	8.580472e-06
110	0xb7ceffd6	-2.4676247e-05
111	0x00000000	0.0
112	0xb48653bd	-2.5020373e-07
113	0x37d9bff0	2.5957794e-05
114	0x382c9558	4.1147083e-05
115	0xb8ba3b0c	-8.8801695e-05
116	0x00000000	0.0
117	0xb4520ba0	-1.9562003e-07
118	0x38a35085	7.7874436e-05
119	0x38a870b9	8.0318605e-05
120	0x37069da7	8.023729e-06
121	0x00000000	0.0
122	0x36173cd0	2.253615e-06
123	0xb39b649d	-7.2360514e-08
124	0x377ebee5	1.5184026e-05
125	0xb84b3517	-4.8448415e-05
126	0x00000000	0.0
127	0x37505f21	1.2419915e-05
128	0x38681acf	5.5338078e-05
129	0x388bfec1	6.675488e-05
130	0x374a41f9	1.2055499e-05
131	0x00000000	0.0
132	0xb5f73675	-1.8418783e-06
133	0xb78af7e0	-1.6566308e-05
134	0x368e43af	4.239809e-06
135	0x36171ae1	2.25164e-06
136	0x00000000	0.0
137	0x369c20f9	4.653001e-06
138	0x37d40626	2.5275232e-05
139	0x37c6506c	2.3640889e-05
140	0x35137ad5	5.494051e-07
141	0x00000000	0.0
142	0xb5a02ec2	-1.1934537e-06
143	0x381236da	3.4860197e-05
144	0x37f32ed8	2.898967e-05
145	0x3640b9e8	2.8718441e-06
146	0x00000000	0.0
147	0x3627bb71	2.4994044e-06
148	0x38194274	3.6539932e-05
149	0x380fb05d	3.4258108e-05
150	0xb610a31b	-2.1552612e-06
151	0x00000000	0.0
152	0xb6b023a0	-5.249356e-06
153	0x380f5bd4	3.417938e-05
154	0x37fae6e5	2.9909841e-05
155	0x339b78e1	7.239738e-08
156	0x00000000	0.0
157	0x373409c0	1.0731106e-05
158	0xb77c1091	-1.5024228e-05
159	0x374668b0	1.1826094e-05
160	0x36a4c3f0	4.910391e-06
161	0x00000000	0.0
162	0x36996d39	4.5724705e-06
163	0x377be9b8	1.5015183e-05
164	0x37b6ebb1	2.1805843e-05
165	0x36fcc385	7.5329467e-06
166	0x00000000	0.0
167	0x331152e5	3.3835835e-08
168	0xb5e8a18f	-1.7332367e-06
169	0xb6effc9d	-7.152163e-06
170	0x3769ec86	1.3942952e-05
171	0x00000000	0.0
172	0xb583b713	-9.813542e-07
173	0xb6f5d003	-7.3257847e-06
174	0xb7207815	-9.564702e-06
175	0x3662ed85	3.3814879e-06
176	0x00000000	0.0
177	0x3558ded3	8.079052e-07
178	0x35db97ee	1.6360989e-06
179	0xb62690dd	-2.482025e-06
180	0x3619a376	2.2893923e-06
181	0x00000000	0.0
182	0xb6027403	-1.9439037e-06
183	0x351d0426	5.8493094e-07
184	0xb58d394c	-1.0521994e-06
185	0x3599a7a5	1.1448179e-06
186	0x00000000	0.0
187	0x34e5e451	4.2820696e-07
188	0x3716aaf2	8.980498e-06
189	0x3601e01f	1.9352954e-06
190	0xb5a2aafd	-1.2119705e-06
191	0x00000000	0.0
192	0xb606ae4d	-2.0069012e-06
193	0x34e65e67	4.2909525e-07
194	0xb5f5c90c	-1.8312435e-06
195	0xb56e2af4	-8.8724414e-07
196	0x00000000	0.0
197	0x34097df9	1.2804948e-07
198	0x353eb86f	7.10489e-07
199	0xb68c9e92	-4.190785e-06
200	0xb5591b9d	-8.087898e-07
201	0x00000000	0.0
202	0xb608a8b0	-2.0363768e-06
203	0xb67d79fc	-3.7770942e-06
204	0xb6d96af4	-6.479555e-06
205	0x31915ee5	4.2308437e-09
206	0x00000000	0.0
207	0x351e0f0b	5.8881477e-07
208	0xb6d5bef6	-6.3701254e-06
209	0xb69d9733	-4.6965665e-06
210	0xb5a335bc	-1.2160085e-06
211	0x00000000	0.0
212	0xb630091c	-2.6231346e-06
213	0x36f0443c	7.160501e-06
214	0xb6a4cf2f	-4.9117e-06
215	0xb34eded0	-4.816576e-08
216	0x00000000	0.0
217	0xb46341b1	-2.1164921e-07
218	0xb6f7ef60	-7.3890405e-06
219	0xb6cc53ff	-6.089452e-06
220	0xb8b3cc83	-8.5734784e-05
221	0x00000000	0.0
222	0xb4ceeb79	-3.854182e-07
223	0x38a97c6b	8.0817226e-05
224	0x38e00221	0.00010681549
225	0xb90339f7	-0.00012514727
226	0x00000000	0.0
227	0x36fcca94	7.5337684e-06
228	0x38e7440f	0.00011027615
229	0x38f8d858	0.00011865859
230	0xb7cfd5a4	-2.4775807e-05
231	0x00000000	0.0
232	0xb5dcca88	-1.6450222e-06
233	0x3803c809	3.141913e-05
234	0x38672929	5.5113025e-05
235	0xb820483a	-3.821424e-05
236	0x00000000	0.0
237	0x379855c2	1.8159746e-05
238	0x3885b29b	6.375202e-05
239	0x388d7048	6.744318e-05
240	0x36961429	4.4726953e-06
241	0x00000000	0.0
242	0x34c934ad	3.7477494e-07
243	0xb79edc38	-1.8937615e-05
244	0x37eec19a	2.8461964e-05
245	0x3711667a	8.666533e-06
246	0x00000000	0.0
247	0x374eb8d4	1.23215905e-05
248	0x3848e1ea	4.7894115e-05
249	0x3846f555	4.7435362e-05
250	0x36dd8097	6.601283e-06
251	0x00000000	0.0
252	0x33684e8d	5.408815e-08
253	0x385c39d7	5.2505955e-05
254	0x388ce936	6.719159e-05
255	0x3704c2c9	7.913165e-06

exp_avg_sq f4 [256, 55]
0	0x30c3fe12	1.4260328e-09
1	0x00000000	0.0
2	0x2d17bfb8	8.625926e-12
3	0x316b684c	3.4256287e-09
4	0x31926550	4.260677e-09
5	0x30fcefa2	1.8403521e-09
6	0x00000000	0.0
7	0x2e076b94	3.0790995e-11
8	0x31869ea9	3.917951e-09
9	0x319cd1b3	4.5640376e-09
10	0x30acf206	1.2583434e-09
11	0x00000000	0.0
12	0x2d82ca7c	1.486921e-11
13	0x31c19286	5.633697e-09
14	0x31cafb29	5.9075274e-09
15	0x309dca25	1.1480706e-09
16	0x00000000	0.0
17	0x2ea34efb	7.4264116e-11
18	0x318d634f	4.11493e-09
19	0x31aa5d38	4.958249e-09
20	0x2f99a73d	2.7949368e-10
21	0x00000000	0.0
22	0x2d640df8	1.2963401e-11
23	0x31e4d605	6.6600045e-09
24	0x31f6a94e	7.17879e-09
25	0x300433bc	4.809484e-10
26	0x00000000	0.0
27	0x2eac50bc	7.835996e-11
28	0x31845905	3.851826e-09
29	0x31abaae7	4.9961844e-09
30	0x2f99044f	2.78336e-10
31	0x00000000	0.0
32	0x2d333f84	1.0189075e-11
33	0x31f842dc	7.225351e-09
34	0x3203344c	7.6370945e-09
35	0x30074c6f	4.922133e-10
36	0x00000000	0.0
37	0x2ea9810d	7.708154e-11
38	0x317e64a6	3.7019077e-09
39	0x31a37e34	4.758272e-09
40	0x2f1bf5f5	1.418455e-10
41	0x00000000	0.0
42	0x2d458a38	1.1228844e-11
43	0x32054abd	7.758612e-09
44	0x32075697	7.8777225e-09
45	0x2f52e238	1.9179758e-10
46	0x00000000	0.0
47	0x2e8d7df5	6.434312e-11
48	0x31791289	3.6244805e-09
49	0x319e0d98	4.5999506e-09
50	0x2f772dea	2.2480831e-10
51	0x00000000	0.0
52	0x2e523c0a	4.7801797e-11
53	0x3203334e	7.636869e-09
54	0x32032a04	7.634757e-09
55	0x310f8948	2.0887274e-09
56	0x00000000	0.0
57	0x2d97434e	1.7196602e-11
58	0x31116255	2.1156172e-09
59	0x31387687	2.68429e-09
60	0x30a14884	1.1734902e-09
61	0x00000000	0.0
62	0x2dca7c74	2.302001e-11
63	0x312db2b6	2.5276399e-09
64	0x316411de	3.3188523e-09
65	0x3113a122	2.1482909e-09
66	0x00000000	0.0
67	0x2e8fcc34	6.539161e-11
68	0x313ad493	2.7187397e-09
69	0x315aca94	3.1838328e-09
70	0x308ef14d	1.0400442e-09
71	0x00000000	0.0
72	0x2e559b6d	4.856864e-11
73	0x3138ec32	2.6909786e-09
74	0x31781303	3.6099557e-09
75	0x3032db6f	6.5067857e-10
76	0x00000000	0.0
77	0x2dd1eed2	2.3866607e-11
78	0x31991668	4.4554334e-09
79	0x31af3c1d	5.1000044e-09
80	0x300d534d	5.141388e-10
81	0x00000000	0.0
82	0x2e6af0a6	5.341918e-11
83	0x3138fe86	2.6920204e-09
84	0x31834a75	3.8210666e-09
85	0x2fbca6bd	3.4315475e-10
86	0x00000000	0.0
87	0x2e3c954a	4.2878846e-11
88	0x31ccdcbf	5.9622773e-09
89	0x31dd332a	6.437763e-09
90	0x2fa067bd	2.917754e-10
91	0x00000000	0.0
92	0x2e09db9f	3.1345256e-11
93	0x31530a7c	3.07105e-09
94	0x318f2d8b	4.1670254e-09
95	0x2f7eede3	2.318568e-10
96	0x00000000	0.0
97	0x2e04277f	3.0048405e-11
98	0x31d0c87e	6.07639e-09
99	0x31df3b1e	6.496875e-09
100	0x2f99742d	2.7913086e-10
101	0x00000000	0.0
102	0x2e68ea5e	5.2958853e-11
103	0x313a2401	2.7087028e-09
104	0x318abb7b	4.0376427e-09
105	0x3004d6aa	4.8326376e-10
106	0x00000000	0.0
107	0x2e829046	5.937344e-11
108	0x31ce6a64	6.0074843e-09
109	0x31da23bd	6.348698e-09
110	0x3129a831	2.4688342e-09
111	0x00000000	0.0
112	0x2dddcbc3	2.521528e-11
113	0x31d09bd3	6.071312e-09
114	0x31f513c6	7.1326864e-09
115	0x31615aae	3.2793355e-09
116	0x00000000	0.0
117	0x2e59ae7b	4.9495057e-11
118	0x31a29538	4.7317847e-09
119	0x31ca62c8	5.890204e-09
120	0x3143cf8d	2.8494214e-09
121	0x00000000	0.0
122	0x2eaa1e63	7.736103e-11
123	0x31f663af	7.170875e-09
124	0x3207e448	7.909939e-09
125	0x310828e6	1.9813853e-09
126	0x00000000	0.0
127	0x2e0e47d0	3.2350844e-11
128	0x31a9d43a	4.9426747e-09
129	0x31d4b012	6.190029e-09
130	0x30c42773	1.4272089e-09
131	0x00000000	0.0
132	0x2e1bcd35	3.542518e-11
133	0x320ecfd6	8.312744e-09
134	0x32200cd4	9.3161425e-09
135	0x3049cc6f	7.341389e-10
136	0x00000000	0.0
137	0x2e25b92d	3.7681126e-11
138	0x31b721c1	5.3298383e-09
139	0x31f05de4	6.9955934e-09
140	0x306b2dfc	8.555785e-10
141	0x00000000	0.0
142	0x2e0aac90	3.1530833e-11
143	0x3234690d	1.0501265e-08
144	0x323f470f	1.113382e-08
145	0x300313e2	4.768578e-10
146	0x00000000	0.0
147	0x2e99603a	6.974728e-11
148	0x31961725	4.368206e-09
149	0x31d2494d	6.1201377e-09
150	0x2fce427c	3.7518422e-10
151	0x00000000	0.0
152	0x2e8404d7	6.003525e-11
153	0x32349591	1.0511386e-08
154	0x323b3fba	1.0899322e-08
155	0x2f958850	2.7199798e-10
156	0x00000000	0.0
157	0x2e35e324	4.1356377e-11
158	0x31935cb3	4.2888018e-09
159	0x31d1eada	6.1094e-09
160	0x30466edd	7.2189527e-10
161	0x00000000	0.0
162	0x2f12b78f	1.3343836e-10
163	0x32141344	8.619114e-09
164	0x32272bf4	9.730673e-09
165	0x2f4317df	1.7743627e-10
166	0x00000000	0.0
167	0x2b633443	8.071913e-13
168	0x2eff3b19	1.1606555e-10
169	0x2f329673	1.6242456e-10
170	0x2ebc194a	8.5537424e-11
171	0x00000000	0.0
172	0x2bfa22e6	1.7773255e-12
173	0x2f2cbaf9	1.5709735e-10
174	0x2f594638	1.9760982e-10
175	0x2f36941d	1.6605424e-10
176	0x00000000	0.0
177	0x2bc71949	1.4146818e-12
178	0x2f2279b0	1.4777046e-10
179	0x2f50adf2	1.8979288e-10
180	0x2e249127	3.7418204e-11
181	0x00000000	0.0
182	0x2c1314be	2.090147e-12
183	0x2f4a35c1	1.839089e-10
184	0x2f6686d9	2.0966286e-10
185	0x2e7a0fa0	5.6857297e-11
186	0x00000000	0.0
187	0x2b4308d6	6.929018e-13
188	0x2f967101	2.7365135e-10
189	0x2fab83ad	3.119828e-10
190	0x2e2e69f8	3.965714e-11
191	0x00000000	0.0
192	0x2bdf5f6b	1.5871587e-12
193	0x2f39eee1	1.6910519e-10
194	0x2f75f8f1	2.2371062e-10
195	0x2e67ca8b	5.2703213e-11
196	0x00000000	0.0
197	0x2b9d1f2e	1.1164175e-12
198	0x2fb1f820	3.2372416e-10
199	0x2fc76315	3.626829e-10
200	0x2def08bd	2.7175035e-11
201	0x00000000	0.0
202	0x2c6fd399	3.4081403e-12
203	0x2f0c77c6	1.2775478e-10
204	0x2f53fa46	1.9279253e-10
205	0x2d757fa8	1.3954983e-11
206	0x00000000	0.0
207	0x2bb3c599	1.2773559e-12
208	0x2fddecf9	4.0368045e-10
209	0x2feb46ca	4.279655e-10
210	0x2e38f114	4.2050877e-11
211	0x00000000	0.0
212	0x2c9d9c96	4.479593e-12
213	0x2f033f72	1.1936921e-10
214	0x2f594aee	1.9762655e-10
215	0x2e4efbe1	4.706269e-11
216	0x00000000	0.0
217	0x2c968e45	4.2790515e-12
218	0x2fa35fd0	2.9717606e-10
219	0x2fc08dee	3.5025444e-10
220	0x31d32199	6.144728e-09
221	0x00000000	0.0
222	0x2e6a1f8c	5.323346e-11
223	0x323ceaf3	1.09964615e-08
224	0x3271f7de	1.4084405e-08
225	0x31e09730	6.536446e-09
226	0x00000000	0.0
227	0x2ee8190e	1.0554589e-10
228	0x322e91d3	1.016129e-08
229	0x325a265f	1.2697995e-08
230	0x31a24839	4.7230313e-09
231	0x00000000	0.0
232	0x2ecbc3f8	9.266182e-11
233	0x32966667	1.7508865e-08
234	0x32a45d4b	1.9134538e-08
235	0x3147b618	2.906182e-09
236	0x00000000	0.0
237	0x2efbf36f	1.1457401e-10
238	0x32707ee2	1.3998688e-08
239	0x3289b634	1.6031755e-08
240	0x315b5147	3.1914895e-09
241	0x00000000	0.0
242	0x2e112bf1	3.300821e-11
243	0x3294b741	1.7312802e-08
244	0x32aaa2f9	1.9864716e-08
245	0x30e3bf2f	1.6570761e-09
246	0x00000000	0.0
247	0x2edd1945	1.0054405e-10
248	0x32647a12	1.3299102e-08
249	0x328f4d6b	1.6682597e-08
250	0x310693bd	1.9583546e-09
251	0x00000000	0.0
252	0x2e439b12	4.4475597e-11
253	0x32b23110	2.0744238e-08
254	0x32c4fc87	2.293224e-08
255	0x30caeb58	1.4764323e-09

exp_avg f4 [256]
0	0x36fa16e0	7.4532436e-06
1	0xb7336989	-1.0693803e-05
2	0x37b43554	2.1482505e-05
3	0xb5cabf88	-1.5105916e-06
4	0x38697945	5.566447e-05
5	0x37ca9975	2.4151735e-05
6	0xb7c1cd36	-2.3102952e-05
7	0xb6322780	-2.654706e-06
8	0x37cd4d4d	2.44739e-05
9	0xb7a91422	-2.0155745e-05
10	0xb4b1534e	-3.302943e-07
11	0xb7ec4ff5	-2.8170625e-05
12	0x36a2bfe9	4.8503175e-06
13	0x373fe654	1.1438115e-05
14	0xb8849c2c	-6.32334e-05
15	0x36a2f7da	4.85683e-06
16	0xb7b12e28	-2.1121537e-05
17	0x373d0e09	1.1268546e-05
18	0xb8005784	-3.0599083e-05
19	0x374fef50	1.2393881e-05
20	0xb8bec1b8	-9.095989e-05
21	0x35c3d6c5	1.4591138e-06
22	0x38009e79	3.0665167e-05
23	0x3680a7f6	3.8342505e-06
24	0x383cd665	4.5022363e-05
25	0xb7949396	-1.77117e-05
26	0xb5fd68ef	-1.8880509e-06
27	0xb8887e73	-6.508538e-05
28	0x37692134	1.3895613e-05
29	0x36f40555	7.2723874e-06
30	0xb89a581b	-7.359703e-05
31	0x36cc05a4	6.0803304e-06
32	0xb7ed38ea	-2.8279104e-05
33	0x36bb8487	5.5884625e-06
34	0xb869afb3	-5.571516e-05
35	0xb762f0cf	-1.3526717e-05
36	0x36b74182	5.461451e-06
37	0x38312e7c	4.224338e-05
38	0x34f867e3	4.6269187e-07
39	0xb7493173	-1.1992047e-05
40	0xb8731ba6	-5.7961464e-05
41	0x356b60a0	8.768493e-07
42	0xb6176655	-2.2560318e-06
43	0x378fa645	1.7124354e-05
44	0x3895b4d3	7.138555e-05
45	0xb6af2bd4	-5.2205087e-06
46	0x3704aeeb	7.908539e-06
47	0x37154e4c	8.899322e-06
48	0x3816b6ca	3.5933022e-05
49	0xb73704b4	-1.0908745e-05
50	0x36e6e277	6.880898e-06
51	0xb766b962	-1.3752231e-05
52	0xb6d88481	-6.452727e-06
53	0xb6c185e5	-5.7674356e-06
54	0xb4acfa6f	-3.221971e-07
55	0xb7b59d60	-2.1650165e-05
56	0xb818ee4b	-3.646155e-05
57	0x36df7be3	6.66034e-06
58	0x35a46533	1.2248405e-06
59	0xb750bb1f	-1.2441334e-05
60	0xb73e83bf	-1.1355557e-05
61	0x3642a318	2.9003186e-06
62	0x3686eefb	4.021332e-06
63	0xb76ad168	-1.3996243e-05
64	0xb71a6fc5	-9.205139e-06
65	0x370184ba	7.719902e-06
66	0xb884367a	-6.3043975e-05
67	0x3748dac9	1.1971869e-05
68	0xb67da5ff	-3.779656e-06
69	0xb6d3b29e	-6.309084e-06
70	0x37b702b3	2.1816557e-05
71	0x380d225f	3.364903e-05
72	0xb7c194a8	-2.3076616e-05
73	0xb87e90f1	-6.0693306e-05
74	0xb823500b	-3.8936774e-05
75	0xb91d9907	-0.00015029694
76	0xb6a03a10	-4.775131e-06
77	0x375b3b2e	1.3067196e-05
78	0xb68242a2	-3.882059e-06
79	0xb80e125f	-3.3872548e-05
80	0xb61bc220	-2.3209795e-06
81	0xb720f859	-9.594566e-06
82	0xb65ae6d6	-3.2618896e-06
83	0x377bbe25	1.5005037e-05
84	0xb7828107	-1.555729e-05
85	0xb62ddb0a	-2.5906506e-06
86	0xb5751696	-9.130248e-07
87	0xb72f26f9	-1.0439887e-05
88	0x38247964	3.92137e-05
89	0x374db371	1.2260732e-05
90	0xb6a423cd	-4.8917486e-06
91	0x38738ed4	5.8068734e-05
92	0xb8cdcf05	-9.813722e-05
93	0xb8604240	-5.3467462e-05
94	0xb638767d	-2.7487106e-06
95	0x35916e8c	1.0835515e-06
96	0x365eabc9	3.318057e-06
97	0x37edb674	2.8337563e-05
98	0xb8068402	-3.207103e-05
99	0xb77f4e1f	-1.5217373e-05
100	0x36d34aab	6.2969825e-06
101	0xb9327855	-0.0001702023
102	0x37ccc1cc	2.4408939e-05
103	0x37c29ab4	2.3198641e-05
104	0x380fc9cf	3.4281806e-05
105	0xb8761185	-5.8667287e-05
106	0xb5d8eb1d	-1.6161681e-06
107	0x380aa3bf	3.3054264e-05
108	0xb7cf0623	-2.467918e-05
109	0xb750ca2f	-1.2444841e-05
110	0x37a1fe22	1.9311035e-05
111	0xb777b3a3	-1.4764172e-05
112	0x3824234c	3.913352e-05
113	0xb6ac10f2	-5.127972e-06
114	0xb905e59e	-0.00012769407
115	0xb722437e	-9.671667e-06
116	0xb75f721f	-1.3318407e-05
117	0x369a8c12	4.605864e-06
118	0xb5d2a7c5	-1.5695047e-06
119	0x36d89c19	6.455474e-06
120	0xb6b513ba	-5.396517e-06
121	0xb8243970	-3.915414e-05
122	0xb899a1cb	-7.325745e-05
123	0x379ad592	1.8457682e-05
124	0xb7a220fe	-1.9327268e-05
125	0xb4bbfbda	-3.501471e-07
126	0xb761bc2e	-1.3454859e-05
127	0x36faa841	7.470168e-06
128	0xb71fbedf	-9.521579e-06
129	0x3773d4bc	1.453346e-05
130	0xb70c459a	-8.360856e-06
131	0xb8095760	-3.274472e-05
132	0x37c5b313	2.3567618e-05
133	0xb72da2b7	-1.0349489e-05
134	0xb7fffdf2	-3.0516621e-05
135	0x35e37e74	1.6949621e-06
136	0xb891b72b	-6.9482565e-05
137	0x37588721	1.2906065e-05
138	0x37452c5d	1.1752444e-05
139	0xb810a0c6	-3.4482007e-05
140	0x379a6721	1.8406254e-05
141	0x37d13409	2.4938972e-05
142	0xb8293f00	-4.0351413e-05
143	0xb7f74fd3	-2.9481866e-05
144	0x378eaedf	1.700915e-05
145	0xb78b85c9	-1.663239e-05
146	0xb7d6a8a7	-2.5589323e-05
147	0xb8a9ffbd	-8.106183e-05
148	0x37a0cdcc	1.9169318e-05
149	0x37a8780f	2.0083067e-05
150	0x371dc5ca	9.403981e-06
151	0xb7a67448	-1.984289e-05
152	0x374029ad	1.1453795e-05
153	0xb6cf485b	-6.177504e-06
154	0x37e4abdb	2.7259744e-05
155	0x369888b1	4.545866e-06
156	0x3857441e	5.1323434e-05
157	0xb69f82e3	-4.7538065e-06
158	0x36fb2056	7.4841473e-06
159	0xb8238d0f	-3.89936e-05
160	0x37f1fa59	2.8846016e-05
161	0x371f5b7d	9.49844e-06
162	0xb80dec5f	-3.3837157e-05
163	0x37b257f2	2.1260206e-05
164	0x3557cd1d	8.039222e-07
165	0x3817064a	3.6007063e-05
166	0x3695f754	4.469339e-06
167	0xb52a7795	-6.350395e-07
168	0xb89748ce	-7.213802e-05
169	0x37309028	1.05239815e-05
170	0x37ff06d4	3.0401548e-05
171	0xb7a416fc	-1.9561026e-05
172	0x374fbf98	1.238277e-05
173	0xb717aa9a	-9.040023e-06
174	0x37319886	1.0585534e-05
175	0xb70caf4f	-8.3854675e-06
176	0x37f23e85	2.8877761e-05
177	0x37c753f8	2.376175e-05
178	0x38581b3b	5.1523773e-05
179	0x386d8afc	5.6634643e-05
180	0xb7ca2579	-2.4097726e-05
181	0x37846b14	1.5785488e-05
182	0xb75a784f	-1.3021824e-05
183	0x3767d49a	1.3818173e-05
184	0x377a05e8	1.4902536e-05
185	0x3694612c	4.422056e-06
186	0x37871b24	1.6105892e-05
187	0xb8438629	-4.661657e-05
188	0x369c87e9	4.6649843e-06
189	0x371f3b49	9.490942e-06
190	0xb836a6d3	-4.354755e-05
191	0x371af0a5	9.235145e-06
192	0x372f501a	1.0449463e-05
193	0xb80b6099	-3.3230146e-05
194	0x36e4e107	6.821126e-06
195	0x36296d82	2.5246704e-06
196	0xb7fb6da9	-2.9972596e-05
197	0xb705c4dc	-7.973253e-06
198	0x358cf560	1.0502226e-06
199	0xb72b641d	-1.0215704e-05
200	0xb793109e	-1.7531504e-05
201	0x38117ce9	3.4687026e-05
202	0xb82ef209	-4.1710246e-05
203	0xb80b57b3	-3.322186e-05
204	0xb68558d4	-3.97405e-06
205	0xb6fd3c3f	-7.547001e-06
206	0xb89edda4	-7.575311e-05
207	0x374116c5	1.1508998e-05
208	0x38067056	3.205271e-05
209	0x359a4fb5	1.1497092e-06
210	0xb891d2d2	-6.953407e-05
211	0x360fcce7	2.142793e-06
212	0x376e70ce	1.421217e-05
213	0xb8272bcc	-3.985669e-05
214	0x384ce729	4.8852675e-05
215	0xb688e388	-4.079604e-06
216	0xb7de4668	-2.6497248e-05
217	0x37a0c320	1.9164348e-05
218	0x36c194dd	5.769178e-06
219	0xb705cc82	-7.975033e-06
220	0x3632c5f2	2.6639286e-06
221	0x374e0835	1.2280468e-05
222	0x37b78966	2.1879281e-05
223	0x3785d081	1.5951928e-05
224	0x37de7da2	2.6522965e-05
225	0xb76eabc1	-1.4225895e-05
226	0xb6518c12	-3.1224959e-06
227	0x37d81864	2.5760564e-05
228	0xb692ccd5	-4.3749847e-06
229	0xb7579913	-1.2850639e-05
230	0xb88dd026	-6.7621746e-05
231	0x36f983e0	7.4361305e-06
232	0x36874a67	4.031975e-06
233	0x35b0e11c	1.3178537e-06
234	0xb703843d	-7.838998e-06
235	0x35c27f02	1.449109e-06
236	0xb84e0346	-4.9117276e-05
237	0x37ac5619	2.054409e-05
238	0xb5a4e18a	-1.2284593e-06
239	0x37924451	1.7436369e-05
240	0x3696ea64	4.497635e-06
241	0xb7e2300e	-2.6963677e-05
242	0x360e70dd	2.1225344e-06
243	0xb78fca98	-1.7141268e-05
244	0xb72d3d53	-1.0325882e-05
245	0xb691d078	-4.3456057e-06
246	0x364b4fba	3.0295764e-06
247	0x35f7953f	1.844637e-06
248	0xb7a75c92	-1.9951058e-05
249	0xb59b5537	-1.1573201e-06
250	0xb69c926f	-4.6662094e-06
251	0x378b40c6	1.6600254e-05
252	0xb85e2335	-5.2961714e-05
253	0x37d60640	2.5513698e-05
254	0xb68c9f34	-4.190859e-06
255	0xb81fde98	-3.811586e-05

exp_avg_sq f4 [256]
0	0x320ff7f5	8.380074e-09
1	0x31fa713e	7.2888318e-09
2	0x324fedbd	1.2103041e-08
3	0x3001973f	4.714486e-10
4	0x32e69860	2.6844816e-08
5	0x31b422a8	5.2426294e-09
6	0x32927032	1.7047658e-08
7	0x31f1fc60	7.042715e-09
8	0x31679aca	3.3702912e-09
9	0x31278821	2.4379079e-09
10	0x2f53a97c	1.9250551e-10
11	0x32bbc0c9	2.1857334e-08
12	0x30bcdc36	1.3741388e-09
13	0x3213671d	8.579971e-09
14	0x323ea177	1.1096168e-08
15	0x31357432	2.6405016e-09
16	0x312352bb	2.3766649e-09
17	0x314ba679	2.9635017e-09
18	0x32a4fd37	1.9207262e-08
19	0x32b6d406	2.1284006e-08
20	0x323db8c1	1.1043256e-08
21	0x317920de	3.6252952e-09
22	0x328e2086	1.6545766e-08
23	0x3039e893	6.7633116e-10
24	0x328f338f	1.6670837e-08
25	0x31d69c49	6.2459873e-09
26	0x2f12f9f3	1.3367422e-10
27	0x332e0796	4.051943e-08
28	0x3135aee7	2.6438387e-09
29	0x318b3487	4.051404e-09
30	0x338000f3	5.960637e-08
31	0x31711d6c	3.508684e-09
32	0x3158e6f7	3.1563425e-09
33	0x318c4a0f	4.0829558e-09
34	0x3160cb84	3.2711975e-09
35	0x3259fc60	1.2688446e-08
36	0x3142b9cf	2.8336336e-09
37	0x32d45f39	2.472335e-08
38	0x3162b2ce	3.2988967e-09
39	0x327ddb83	1.4776449e-08
40	0x3277bf5d	1.4420803e-08
41	0x2fa47411	2.9913896e-10
42	0x30afa8f7	1.2780949e-09
43	0x3267254e	1.3454452e-08
44	0x333a0bb1	4.3317133e-08
45	0x303d88af	6.895204e-10
46	0x31c79e58	5.809664e-09
47	0x309a2f86	1.1218482e-09
48	0x32c87e3f	2.3340474e-08
49	0x3106ac34	1.9597453e-09
50	0x301c7a46	5.692623e-10
51	0x30575f4b	7.8351964e-10
52	0x3000bf88	4.683831e-10
53	0x3139ef8d	2.7057212e-09
54	0x2e01052a	2.933579e-11
55	0x318e7cc9	4.1469304e-09
56	0x31a0c7c2	4.6793227e-09
57	0x324d0c53	1.1935373e-08
58	0x30ce906d	1.5029521e-09
59	0x32089d6f	7.952038e-09
60	0x312954d2	2.4640952e-09
61	0x317bb964	3.663069e-09
62	0x3197da14	4.419471e-09
63	0x31275a59	2.4353055e-09
64	0x31501eb1	3.028543e-09
65	0x3133bcef	2.6155325e-09
66	0x31ab7ce0	4.9909517e-09
67	0x30b69584	1.3284738e-09
68	0x315e2ff0	3.2332501e-09
69	0x31cad7cf	5.9035083e-09
70	0x328a39ec	1.6091654e-08
71	0x32b3203f	2.0853006e-08
72	0x32118606	8.470584e-09
73	0x32042994	7.692865e-09
74	0x31c2ce9b	5.6696314e-09
75	0x331b048f	3.6092896e-08
76	0x318fd65c	4.1862176e-09
77	0x31082441	1.9811213e-09
78	0x317b9e92	3.6615444e-09
79	0x31cf3cdb	6.0314114e-09
80	0x319dd7ac	4.5938204e-09
81	0x30981f7b	1.1068403e-09
82	0x30e166f8	1.640017e-09
83	0x304daf22	7.4827444e-10
84	0x31c02c21	5.5929523e-09
85	0x310e3c61	2.069804e-09
86	0x2e633efd	5.166977e-11
87	0x2fb7ca18	3.3431102e-10
88	0x330148e1	3.0101436e-08
89	0x3103a934	1.915919e-09
90	0x314589b3	2.8745546e-09
91	0x32eef008	2.7816e-08
92	0x32863da1	1.5627679e-08
93	0x3194b792	4.3282364e-09
94	0x2f01f780	1.1820411e-10
95	0x31a243ab	4.7225135e-09
96	0x32350d9c	1.0538681e-08
97	0x321b8e54	9.054549e-09
98	0x31b93125	5.3897957e-09
99	0x30e9057e	1.6954542e-09
100	0x317496ba	3.5592351e-09
101	0x32c641fe	2.3080243e-08
102	0x3283e0c3	1.5352617e-08
103	0x328280e2	1.5192601e-08
104	0x3240e67c	1.1228277e-08
105	0x324a4b91	1.1775129e-08
106	0x324cdb60	1.1924243e-08
107	0x32fb7105	2.9271641e-08
108	0x321a046f	8.964988e-09
109	0x30ed39b3	1.7260419e-09
110	0x31b2a02e	5.198692e-09
111	0x30a6eff7	1.2146292e-09
112	0x32b08fd5	2.0554504e-08
113	0x2ffe1e95	4.622406e-10
114	0x329fa453	1.8584762e-08
115	0x307ba47c	9.1547014e-10
116	0x3111b4f6	2.1203141e-09
117	0x31880a06	3.9592605e-09
118	0x3017924f	5.5141397e-10
119	0x3006a11e	4.897788e-10
120	0x30aaad41	1.241837e-09
121	0x32f7d48e	2.8851243e-08
122	0x32b1a973	2.0682569e-08
123	0x32bd3ed0	2.203106e-08
124	0x31119ec7	2.1190532e-09
125	0x2f8b747d	2.5366723e-10
126	0x310325d5	1.9084514e-09
127	0x313d1f42	2.7520888e-09
128	0x3135670c	2.6397542e-09
129	0x32b4242a	2.0971203e-08
130	0x3041a600	7.044889e-10
131	0x30af07b8	1.273512e-09
132	0x317bf5f9	3.6665126e-09
133	0x3013ce58	5.377152e-10
134	0x32d8c978	2.5237327e-08
135	0x3117b9bc	2.207897e-09
136	0x331d1d16	3.6580865e-08
137	0x3284ed93	1.5474859e-08
138	0x32421d73	1.1298982e-08
139	0x318309b6	3.813706e-09
140	0x31f6f718	7.1876336e-09
141	0x31db3177	6.3793624e-09
142	0x3228e2e8	9.8304795e-09
143	0x3215c51f	8.717762e-09
144	0x32714081	1.4042713e-08
145	0x31ac723b	5.0188453e-09
146	0x31dc57e1	6.4128334e-09
147	0x32762701	1.4327953e-08
148	0x320a300a	8.04358e-09
149	0x32e8ee7a	2.7116801e-08
150	0x328bb95a	1.6266018e-08
151	0x31082ed4	1.9817223e-09
152	0x313b8599	2.7288023e-09
153	0x30fae33d	1.8254479e-09
154	0x31d9b3db	6.3359784e-09
155	0x2ee109a5	1.02335286e-10
156	0x3314d241	3.465016e-08
157	0x30dd00a8	1.6080053e-09
158	0x321c7fe2	9.109472e-09
159	0x3288788f	1.5887307e-08
160	0x32194ce0	8.9232515e-09
161	0x306107a1	8.1865364e-10
162	0x3123d12a	2.3838518e-09
163	0x31c56f87	5.746134e-09
164	0x300c50da	5.10466e-10
165	0x33105772	3.3607144e-08
166	0x3236e549	1.0645928e-08
167	0x30926c66	1.0653707e-09
168	0x329d10f6	1.8284918e-08
169	0x3194567d	4.3171995e-09
170	0x3286fc36	1.5714345e-08
171	0x30ab6294	1.2469905e-09
172	0x31f64e87	7.16847e-09
173	0x31bed578	5.5539964e-09
174	0x31d92dfa	6.320758e-09
175	0x2f88b1e3	2.4864652e-10
176	0x32073219	7.869425e-09
177	0x326ff83d	1.3968074e-08
178	0x32a3c242	1.9064036e-08
179	0x32f80876	2.8874847e-08
180	0x322ffb30	1.0243454e-08
181	0x30e6a0fc	1.6780457e-09
182	0x31496803	2.9308473e-09
183	0x326fdc28	1.3961689e-08
184	0x320dec8e	8.2610665e-09
185	0x30293ea7	6.1570876e-10
186	0x3143f79f	2.851699e-09
187	0x328d0ad0	1.6419477e-08
188	0x30aaa08c	1.2414758e-09
189	0x307e99b8	9.262311e-10
190	0x30f89dac	1.8089188e-09
191	0x316bec66	3.4331378e-09
192	0x33750fb5	5.7057793e-08
193	0x328a2434	1.6081778e-08
194	0x31b9bd69	5.405742e-09
195	0x32322291	1.0368823e-08
196	0x30b5aabf	1.3218012e-09
197	0x3014d669	5.414678e-10
198	0x3073a366	8.863509e-10
199	0x3015878f	5.4398525e-10
200	0x32213e0f	9.385544e-09
201	0x3212543e	8.517473e-09
202	0x32511916	1.2171105e-08
203	0x31412ae0	2.8109568e-09
204	0x32aa86d2	1.9851914e-08
205	0x31100274	2.0956152e-09
206	0x336b958b	5.485121e-08
207	0x31be0720	5.530538e-09
208	0x325f1305	1.2984633e-08
209	0x2e0408c0	3.0021097e-11
210	0x324529bc	1.14763985e-08
211	0x301c6de6	5.6908644e-10
212	0x327f250f	1.485138e-08
213	0x3185b50c	3.891392e-09
214	0x333881f6	4.2959037e-08
215	0x32041085	7.687167e-09
216	0x318aedb8	4.043354e-09
217	0x331bc917	3.627164e-08
218	0x2ff3c434	4.4340853e-10
219	0x30a383a5	1.1897227e-09
220	0x30e70194	1.6807911e-09
221	0x30b09f62	1.2850985e-09
222	0x31406770	2.7998475e-09
223	0x327c40b3	1.46830414e-08
224	0x3298cb0b	1.7787462e-08
225	0x3142fcdb	2.8374447e-09
226	0x2f77dd18	2.2543067e-10
227	0x31c45e5b	5.7150777e-09
228	0x31acfe1d	5.034748e-09
229	0x30cd7d5a	1.495134e-09
230	0x32971edf	1.7592752e-08
231	0x30918633	1.058828e-09
232	0x322a0aa4	9.897722e-09
233	0x327dd321	1.4774543e-08
234	0x32042c34	7.693462e-09
235	0x30bfb0fc	1.3947381e-09
236	0x32676ebf	1.347115e-08
237	0x3257d890	1.2563888e-08
238	0x3020de0f	5.8523225e-10
239	0x31c3ce4c	5.6987e-09
240	0x3129dd95	2.4718692e-09
241	0x32f8f649	2.8982997e-08
242	0x2f502fd5	1.8934483e-10
243	0x31988dc8	4.439901e-09
244	0x32b2c0b1	2.0809553e-08
245	0x30edbcc8	1.7297674e-09
246	0x2faff74a	3.2008024e-10
247	0x2ffaf94a	4.5651866e-10
248	0x31a2d800	4.739377e-09
249	0x30ea6dc4	1.7056938e-09
250	0x324bd00f	1.1863462e-08
251	0x3175f0c4	3.5789052e-09
252	0x325e2cb5	1.2932266e-08
253	0x31501779	3.0281326e-09
254	0x320713ee	7.862566e-09
255	0x33190983	3.563174e-08

exp_avg f4 [1, 2]
0	0x3a82df3e	0.0009984744
1	0xb83f1843	-4.5560544e-05

exp_avg_sq f4 [1, 2]
0	0x39030091	0.00012493345
1	0x38f1ddda	0.000115330986
