IAV_FINAL/results/results/WolfsRedo1/Sheeps/Sheeps-0.onnx (onnx, 92097 bytes, 7 tensors)

action_model._continuous_distribution.log_sigma f4 [1, 2]
00000000: 0000 0000 0000 0000
0.0 0.0

action_model._continuous_distribution.mu.bias f4 [2]
00000000: 0000 0000 0000 0000
0.0 0.0

action_model._continuous_distribution.mu.weight f4 [2, 128]
00000000: fdcc d23c 3ab5 5bbc 6d9c aa39 8c5b 053b
00000010: cf57 a33c 70b5 cfbb 7b1c bcbc 1622 37bc
00000020: b0f6 39bc 066d 45bc da87 da3b 2370 e83c
00000030: 18cd 5b3b 5d1d 673c 0b97 acbb cb04 8b3a
00000040: 70a2 bb3c a8d0 d53b 64f6 94bc 8813 e23c
00000050: e2b6 ac3c fa85 62bc d5a9 72ba 6cfa 293d
00000060: aba4 7b3c e8f5 923c cde3 e03a e3b7 6f3c
00000070: e310 d6bb d519 1cbc 0db7 ed3c 2365 39bc
00000080: 2708 643c b24a cfbb 656e 503c 70fd 66bc
00000090: aa98 e33a 88d5 a13c e302 91bb 9f25 f2bc
000000a0: 2306 3bbc bdb6 7e3c 7fcf c73c 57c8 713c
000000b0: d50a 7b3b b762 bfbb 9862 053b 4a2d 163c
000000c0: 2b93 01bd e79f db3b 2b7a 31b9 8627 4b3c
000000d0: 867f 3fbc 07eb a03a b7ef 783a 1af4 45bc
000000e0: f5b9 6e3a 1bd0 3dbc 7a7a f8ba 3ee6 abbc
000000f0: c930 91bc 8acb eb3b 3ab5 c03c 2735 373a
00000100: 6990 04bd 4bef b63b b590 c33a 6fd8 78bb
00000110: 7f6f a5bc 0328 29bc 2ab8 65bc 9786 9ebb
00000120: 9eb4 8f3b 9be3 6fbc ba5d b3bc 9dc6 31bc
00000130: 6062 e8bc 85e3 fa3b d47d 353c cb85 b0bc
00000140: d274 6bbc 88d2 6d3b d4f4 c13b 9301 93bc
00000150: bbcc 253c b073 b03c 1d96 183d c0b0 e2bb
00000160: 1381 89ba b3f0 c53c 8adc f73c 5d44 2bbc
00000170: 227b ab3c d739 2abc 4375 45bc 3f2a 12bd
00000180: 4788 0dbc 0b7a af3b ba47 e7bc 377d 203c
00000190: 2ce6 4b3c 0001 50bc eeee 133c b6f1 bc3c
000001a0: cbb0 fb3b 0f9e f9bb 53eb 063c cdee d7bc
000001b0: 675a c7bc 617d 27bc dfcb 9e3c 2ab1 5dbb
000001c0: 2d8a 5c3c ca84 b3ba 1db7 683b af5f 193d
000001d0: 8c33 c4bc 15f9 03bc 4f9d 8f3c 5be4 1d3c
000001e0: e2b5 dcbc 1fe2 a0bb fbee 71bc 2d21 ddbc
000001f0: 8922 0abc 025a 1f3c 17d8 e63b bc05 47bc
00000200: dec6 bdbb 48c2 cfba c81f e5bb 1720 323b
00000210: d34c c1ba db19 01bc 678a 403c dbc2 a3bc
00000220: 7b8c 1d3d b1c5 123c 5b6d e53b 4281 b3bc
00000230: 3a1b d33b 3bc2 c63c 9891 a53c 9394 efbb
00000240: 4a9f bf3b b821 eebc cd0d 62bc ab61 04bd
00000250: b75e 903b cf82 85bc 07de 033b 11dd 2dba
00000260: 0b8d 273c 9a16 05bd ab8c 813c 92b6 703a
00000270: 169a 27bc 6a1c 693a 1909 98bc 3a50 ca3a
00000280: 9b37 9ebc 3ad7 c4bc d388 83bc 856a e4bb
00000290: f37e 99bc f00a 7b3c 47fd 1c3d 6fac 1ebc
000002a0: 0667 8dbc 5fd1 3bbc 62a4 73bc 95d9 d13c
000002b0: 2940 903c 5a6c e63c e5f4 52bc 9b0c 413b
000002c0: e09f f03c 974d 0cbc 22e8 753c 2b6d 823c
000002d0: 49cf 88bb 2dd1 113c 1442 123c e5a6 ca3c
000002e0: 9e4c 893c 4d94 d93c 7c3b 8a3c ffa0 403b
000002f0: 4ad9 e8ba 932f 02bc 8213 563c f63d 4bbb
00000300: 9a5e 31bc 4d00 25bc 12bf 66bc dff0 f03b
00000310: 6517 87bb 6531 cd3b 6030 9bbc ba5f afbb
00000320: 72ad d4bc 6584 5fbc 454a 713c ffc0 093d
00000330: e0fb e3bc 2595 32bc 0d61 813b 1d08 6abc
00000340: b0ac 093c 8549 f4bc c7a3 a5bc 2e6b aa3b
00000350: 3b78 a23b f018 d9bb a3be d43c ec3f 8c3c
00000360: b786 f1bb 0bf1 dcbb 47e9 ea3c b3be 9f3b
00000370: fcec a13c c1ec 2fba 58d7 3f3c 2e96 9c3b
00000380: 5331 853c 7584 5a3b 1e7b 2fbb 3e9b be3c
00000390: a817 a23b 0a98 f33a 4a58 723c a71f 873b
000003a0: 1b05 ebbc 7304 bebb f3e9 b5bb 2931 21bc
000003b0: dfcf febc a7ac 863c 83d0 b5bc f49f 8c3c
000003c0: f0d4 133d eb03 153b 603b 5dbc 15de 0abb
000003d0: 42d1 1f3c 7f23 83bb 0020 53bc 43a4 5cba
000003e0: 84c2 833b ff8d be3c cae3 64bc bf4c 73bc
000003f0: 09c3 323b c3b6 9abb d241 d83c c717 cf3c
0.025732512 -0.013409907 0.00032541473 0.0020348756 0.019939331 -0.0063387677 -0.0229628 -0.01117756
-0.011350319 -0.012049919 0.006669027 0.028373783 0.0033538993 0.014106122 -0.005267029 0.0010606287
0.022904605 0.006525118 -0.018183894 0.027597204 0.0210833 -0.013825888 -0.00092568743 0.041498587
0.015359084 0.017939523 0.0017157734 0.014631244 -0.006532775 -0.009527643 0.02901795 -0.011315617
0.013917959 -0.006326043 0.012721633 -0.01409851 0.0017364223 0.01975514 -0.004425393 -0.029558955
-0.011415037 0.015546498 0.024390934 0.014757237 0.0038306017 -0.005840625 0.0020352956 0.009166071
-0.03163449 0.0067024115 -0.00016925547 0.01239956 -0.011688119 0.0012277075 0.00094961695 -0.012082124
0.0009106689 -0.011585261 -0.0018957399 -0.020983811 -0.017723458 0.0071958946 0.023523916 0.00069888163
-0.032364283 0.005582725 0.0014920445 -0.0037970801 -0.020194767 -0.010324481 -0.014020959 -0.0048378217
0.004385545 -0.014641668 -0.021895278 -0.010850576 -0.028367221 0.007656517 0.011077363 -0.021548172
-0.014371114 0.0036288816 0.0059190784 -0.017945087 0.010119612 0.02153954 0.037252534 -0.006918043
-0.0010490738 0.024162626 0.030256528 -0.010453311 0.020932738 -0.010389767 -0.012051883 -0.03568482
-0.008638448 0.005355125 -0.028232444 0.009795479 0.012445014 -0.012695551 0.009029133 0.023064476
0.0076809875 -0.007617719 0.008234817 -0.026358986 -0.0243351 -0.010222764 0.019384323 -0.0033827522
0.013460678 -0.001369619 0.0035509535 0.037444767 -0.02395036 -0.008054991 0.017531065 0.009636964
-0.026942197 -0.0049097682 -0.01476645 -0.026993359 -0.008431085 0.009726049 0.007044803 -0.012147363
-0.005791529 -0.0015850747 -0.006992314 0.0027179772 -0.0014747627 -0.0078797 0.011751748 -0.019990375
0.03846405 0.008958266 0.0070015616 -0.02191222 0.0064424546 0.024262538 0.020211026 -0.0073114126
0.005847846 -0.029068813 -0.013797236 -0.032319706 0.004405822 -0.016297726 0.0020121352 -0.0006632368
0.010226498 -0.032492258 0.015814146 0.00091824785 -0.010229608 0.00088924787 -0.018559026 0.0015435286
-0.019313624 -0.02402841 -0.016056454 -0.006970706 -0.018737292 0.015322432 0.03832748 -0.009684666
-0.01726104 -0.011463492 -0.014870735 0.025616447 0.017608719 0.028127838 -0.01287577 0.0029456976
0.02937311 -0.008563421 0.015008958 0.015921196 -0.004175101 0.008899969 0.008926887 0.024737785
0.016760167 0.026559973 0.016874067 0.0029392836 -0.0017764952 -0.007945913 0.013066174 -0.0031012273
-0.010825777 -0.0100708725 -0.014083641 0.007352933 -0.004122662 0.006261992 -0.018943965 -0.0053519877
-0.025961611 -0.013642405 0.01472718 0.03363132 -0.027830064 -0.010899817 0.003948337 -0.014284161
0.008402988 -0.029820213 -0.020219697 0.005200765 0.0049581802 -0.0066252872 0.025969809 0.017120324
-0.0073707956 -0.0067426017 0.028675688 0.004875028 0.019766323 -0.00067109993 0.011709057 0.004778645
0.016258871 0.003334311 -0.0026776264 0.023267385 0.0049466677 0.001858474 0.014791558 0.0041236463
-0.028688958 -0.00579887 -0.0055515706 -0.009838381 -0.03110498 0.016439749 -0.022194153 0.017166115
0.036091745 0.002273793 -0.013502926 -0.00211895 0.009754481 -0.004002034 -0.012886047 -0.0008416811
0.004020991 0.023261068 -0.013970325 -0.014849841 0.0027276895 -0.004721494 0.026398573 0.025279893

network_body._body_endoder.seq_layers.0.bias f4 [128]
00000000: 0000 0000 0000 0000 0000 0000 0000 0000
00000010: 0000 0000 0000 0000 0000 0000 0000 0000
00000020: 0000 0000 0000 0000 0000 0000 0000 0000
00000030: 0000 0000 0000 0000 0000 0000 0000 0000
00000040: 0000 0000 0000 0000 0000 0000 0000 0000
00000050: 0000 0000 0000 0000 0000 0000 0000 0000
00000060: 0000 0000 0000 0000 0000 0000 0000 0000
00000070: 0000 0000 0000 0000 0000 0000 0000 0000
00000080: 0000 0000 0000 0000 0000 0000 0000 0000
00000090: 0000 0000 0000 0000 0000 0000 0000 0000
000000a0: 0000 0000 0000 0000 0000 0000 0000 0000
000000b0: 0000 0000 0000 0000 0000 0000 0000 0000
000000c0: 0000 0000 0000 0000 0000 0000 0000 0000
000000d0: 0000 0000 0000 0000 0000 0000 0000 0000
000000e0: 0000 0000 0000 0000 0000 0000 0000 0000
000000f0: 0000 0000 0000 0000 0000 0000 0000 0000
00000100: 0000 0000 0000 0000 0000 0000 0000 0000
00000110: 0000 0000 0000 0000 0000 0000 0000 0000
00000120: 0000 0000 0000 0000 0000 0000 0000 0000
00000130: 0000 0000 0000 0000 0000 0000 0000 0000
00000140: 0000 0000 0000 0000 0000 0000 0000 0000
00000150: 0000 0000 0000 0000 0000 0000 0000 0000
00000160: 0000 0000 0000 0000 0000 0000 0000 0000
00000170: 0000 0000 0000 0000 0000 0000 0000 0000
00000180: 0000 0000 0000 0000 0000 0000 0000 0000
00000190: 0000 0000 0000 0000 0000 0000 0000 0000
000001a0: 0000 0000 0000 0000 0000 0000 0000 0000
000001b0: 0000 0000 0000 0000 0000 0000 0000 0000
000001c0: 0000 0000 0000 0000 0000 0000 0000 0000
000001d0: 0000 0000 0000 0000 0000 0000 0000 0000
000001e0: 0000 0000 0000 0000 0000 0000 0000 0000
000001f0: 0000 0000 0000 0000 0000 0000 0000 0000
0.0 0.0 0.0 0.0 0.0 0.0 0.0 0.0
0.0 0.0 0.0 0.0 0.0 0.0 0.0 0.0
0.0 0.0 0.0 0.0 0.0 0.0 0.0 0.0
0.0 0.0 0.0 0.0 0.0 0.0 0.0 0.0
0.0 0.0 0.0 0.0 0.0 0.0 0.0 0.0
0.0 0.0 0.0 0.0 0.0 0.0 0.0 0.0
0.0 0.0 0.0 0.0 0.0 0.0 0.0 0.0
0.0 0.0 0.0 0.0 0.0 0.0 0.0 0.0
0.0 0.0 0.0 0.0 0.0 0.0 0.0 0.0
0.0 0.0 0.0 0.0 0.0 0.0 0.0 0.0
0.0 0.0 0.0 0.0 0.0 0.0 0.0 0.0
0.0 0.0 0.0 0.0 0.0 0.0 0.0 0.0
0.0 0.0 0.0 0.0 0.0 0.0 0.0 0.0
0.0 0.0 0.0 0.0 0.0 0.0 0.0 0.0
0.0 0.0 0.0 0.0 0.0 0.0 0.0 0.0
0.0 0.0 0.0 0.0 0.0 0.0 0.0 0.0

network_body._body_endoder.seq_layers.0.weight f4 [128, 44]
00000000: a05a 8f3d 458b 06bd e5dc e4bd 6c64 25be
00000010: e37d b8bd 4136 8f3e 5885 56be 93ca e53d
00000020: effd 8f3e e923 203d b6f9 70bc 23c2 963c
00000030: f9cd 7d3e bd60 383d 3855 e2bb cc7f 38be
00000040: 729f 80bd a98d 3f3e d68b 5ebc 2837 423d
00000050: b727 3ebe a326 673d 2053 b6ba b231 b9bd
00000060: dfb4 35bd 6294 48be 5b61 45be 65a1 8f3e
00000070: 7753 713d 2aef 6bbb ed70 b6bc 91f8 b53c
00000080: a21f 2abe c18b c53c 017a 58be b5e3 9ebe
00000090: c084 73be 1415 d7bd 4692 bfbd 4d5b 00bc
000000a0: 2af8 47be 24cd b0bd 761f 723e 2233 e3bd
000000b0: bed6 353e 08a1 553d 6782 7ebe ff09 8e3d
000000c0: 2996 b53c bcc4 483e c38e 423d 2cd9 df3b
000000d0: fe4c f53c b22a 1ebd 9c1b 75bd e6ff 013e
000000e0: 5e1d ea3c c2bb 97bc cd5a 393e a28e 66bc
000000f0: 3cf9 06bd e0d1 1a3e ed42 fa3d 13e2 b93e
00000100: 836d 6bbe 058a c3be 9d84 8d3d 4350 7a3e
00000110: d5c4 60be 86c6 d4bd c1cb ef3d a2ae 17bd
00000120: 7472 db3d a3a8 9abc 80be b33b e140 963e
00000130: 8c83 b8bd d642 e63d d2bb a63d e1ee 733d
00000140: 7ab7 0e3d f045 ab3d b2d7 86bd fefc 063e
00000150: abb5 9dbe fb9f a7be 68c3 3e3d 1d02 efbd
00000160: ea7d b53e 9b13 23be 1a7e 2ebe c536 4cbd
00000170: dcde 9bbd 22c3 1cbd fdb3 00be a389 84bd
00000180: b2e3 7cbe d1b7 7dbe 0a4a fd3c 584e 7ebd
00000190: 60f1 bb3d 089e a53e 3536 083e 3643 323d
000001a0: 9c86 8bbe abe3 963c 2936 8abd 495c b53d
000001b0: e96e a0bc f4ae 013b c799 90bc 4c1d a63e
000001c0: 4951 ac3c 9bc7 0abe e8f3 e5bd a026 843d
000001d0: 7d09 7e3e 8a49 533e 5c48 a5bd 93c4 043d
000001e0: af02 17bd 9a93 2bbe 77c6 293e 89bf 843c
000001f0: 0053 6abc cbf1 5d3d ced1 2d3e d23a 3abe
00000200: 25bf 843d d204 e0bd 4519 29be 8037 2b3e
00000210: 3df8 223e 9d96 1cbe a4b0 27be ecef 333b
00000220: b21f 7fbd 7bbe 71bd 70f4 09be 00e0 96bd
00000230: 3551 b3be b5cf 58be 1429 a03e 9c9f 093e
00000240: 48ea 03be 6bc0 a8bc 146b 3ebd eb45 8b3c
00000250: 6a06 873c dbee 2e3e d2cf 533e f0b0 5ebe
00000260: 1064 13be 8a13 3fbe 46ac 06be fe88 193d
00000270: f4ae dfbd 9dd1 f13d 9df4 2a3d 30be 56be
00000280: 3952 00bd 53cc 5f3d fd00 d5bd 7aef 47be
00000290: 4238 ca3c a3ca b63b 15e6 153d b463 7bbd
000002a0: 423a beba 8ae3 a13d da32 05bd 6780 a43e
000002b0: 6ebc 2f3e 0004 3a3e 5315 163e 2402 963d
000002c0: 1660 cf3c 21af a93e 59ac 603e 76a5 6bbd
000002d0: 2ad8 973d 99ca ac3d 6413 12be 2987 b5bd
000002e0: abbe 943e 0669 0fbe d164 e6bd ba0a bebc
000002f0: d698 afbe 7d90 35bc 4b8a 58be a8df 62bb
00000300: f463 98bd e108 9f3a f21b 603e a377 d0bc
00000310: 241d 493d e3e1 eb3d 6958 793d f3dd 95bd
00000320: 1ff0 3f3e 473e e0bd 4c7a e13c 3544 713e
00000330: 4ede 9cbd 746e 18bd 8b46 3ebe 7e87 b13d
00000340: 09dd 023d 6f77 36bd d94b 173e 10ce 34be
00000350: 92d6 3bbe a49e d0bd 0cfe a73d 8f3d 95be
00000360: b08e 973c f5e9 f53b a64e 48be f819 22be
00000370: 5af2 033e 5ffa 03be f553 f83d 64a6 54bd
00000380: 8fd4 913e 3aac 983e 997f 733d 7e16 66bc
00000390: 4e09 e33c 8959 56bd ef54 e5bd bd4d 41be
000003a0: 0f61 27be 3c36 d63d 247a 7e3e 4447 b13d
000003b0: d923 bdbe ce8f 91bc fcd0 24bd 97ea 11be
000003c0: 3f03 b33d d10a 20be 0fb0 d4bd aa18 303e
000003d0: d923 5b3d ef96 2f3e 22a5 68be 8d3d bebe
000003e0: 3dc1 593d 9301 91bc 4c12 593e 3d91 fcbd
000003f0: ca99 debc e509 7dbd 4494 98be 7131 813d
0.06999707 -0.03284766 -0.11174945 -0.16151589 -0.09008386 0.2797108 -0.20949304 0.112202786
0.28123423 0.039096747 -0.014707973 0.018403118 0.24785604 0.04501413 -0.0069071315 -0.180175
-0.06280412 0.18706383 -0.013583144 0.047415882 -0.18569838 0.05643333 -0.0013910271 -0.09042682
-0.044361945 -0.19587854 -0.1927542 0.28052822 0.05891749 -0.0036000707 -0.022270644 0.022213252
-0.1661363 0.024114491 -0.21140291 -0.31033102 -0.23781109 -0.10502067 -0.09354071 -0.007834268
-0.19528261 -0.086328775 0.23644814 -0.11093737 0.17757699 0.052155524 -0.24854432 0.069355
0.022166329 0.19606298 0.04749943 0.006831309 0.02994394 -0.038614936 -0.059840783 0.12695274
0.028578456 -0.018522147 0.18101044 -0.014072092 -0.032952532 0.15119123 0.12219796 0.36305293
-0.22990994 -0.38191238 0.069100596 0.2444468 -0.21950085 -0.10389428 0.11708785 -0.037031777
0.107151896 -0.01887924 0.005485356 0.29346374 -0.090094656 0.11243217 0.08141293 0.059553985
0.034842946 0.08362949 -0.06584109 0.13182446 -0.30802664 -0.32739243 0.046573073 -0.11670325
0.35447627 -0.15925448 -0.17040291 -0.04985692 -0.076108664 -0.03827203 -0.1256866 -0.064715646
-0.24696234 -0.24777152 0.030919094 -0.062086433 0.09176898 0.3234713 0.13301928 0.04352113
-0.27251136 0.018419107 -0.067486115 0.088554926 -0.019584136 0.0019788118 -0.017651452 0.32444227
0.021034854 -0.13552706 -0.11228162 0.0645268 0.24808307 0.20633522 -0.08070442 0.03241403
-0.036867794 -0.16755524 0.16579615 0.016204612 -0.014302015 0.05418567 0.16974565 -0.181865
0.064817704 -0.109384194 -0.16513546 0.1672039 0.15915008 -0.1529183 -0.16375977 0.0027456237
-0.062286086 -0.059019547 -0.13472152 -0.07366943 -0.35022894 -0.21172984 0.3128134 0.13439792
-0.1288234 -0.020599565 -0.046488836 0.017001113 0.01648255 0.17083304 0.20684746 -0.21747184
-0.1439364 -0.18659797 -0.13151655 0.03748416 -0.109220415 0.11807559 0.041737188 -0.20970988
-0.031328414 0.054638218 -0.10400579 -0.19524947 0.024685029 0.0055783554 0.036596376 -0.06137438
-0.0014513212 0.07904728 -0.0325192 0.32129213 0.17161724 0.18165588 0.14656572 0.07324627
0.025314372 0.33141425 0.21940745 -0.057530843 0.07414277 0.0843708 -0.1426521 -0.088636704
0.29051718 -0.14004907 -0.11249698 -0.023198474 -0.34296292 -0.011081812 -0.21146505 -0.0034618173
-0.074409395 0.0012133383 0.2188566 -0.025447672 0.049100056 0.11517694 0.06087533 -0.07317724
0.18743943 -0.109493785 0.027524136 0.23561175 -0.07659589 -0.03721471 -0.18581598 0.08668421
0.031949077 -0.044547495 0.14775027 -0.17656732 -0.18343571 -0.10186508 0.082027525 -0.29148528
0.018500656 0.0075046965 -0.19561252 -0.15830219 0.12885419 -0.12888478 0.121253885 -0.051916495
0.28482482 0.29818898 0.05944786 -0.0140434485 0.027714398 -0.05233148 -0.111978404 -0.18877311
-0.16345619 0.10459563 0.2485128 0.08656171 -0.36941412 -0.017768767 -0.040238366 -0.14249645
0.087408535 -0.15629126 -0.10385143 0.17196909 0.053500984 0.1714742 -0.22719243 -0.37156335
0.053162802 -0.017700946 0.21198386 -0.123323895 -0.027172942 -0.061777014 -0.29800618 0.06308258

network_body._body_endoder.seq_layers.2.bias f4 [128]
00000000: 0000 0000 0000 0000 0000 0000 0000 0000
00000010: 0000 0000 0000 0000 0000 0000 0000 0000
00000020: 0000 0000 0000 0000 0000 0000 0000 0000
00000030: 0000 0000 0000 0000 0000 0000 0000 0000
00000040: 0000 0000 0000 0000 0000 0000 0000 0000
00000050: 0000 0000 0000 0000 0000 0000 0000 0000
00000060: 0000 0000 0000 0000 0000 0000 0000 0000
00000070: 0000 0000 0000 0000 0000 0000 0000 0000
00000080: 0000 0000 0000 0000 0000 0000 0000 0000
00000090: 0000 0000 0000 0000 0000 0000 0000 0000
000000a0: 0000 0000 0000 0000 0000 0000 0000 0000
000000b0: 0000 0000 0000 0000 0000 0000 0000 0000
000000c0: 0000 0000 0000 0000 0000 0000 0000 0000
000000d0: 0000 0000 0000 0000 0000 0000 0000 0000
000000e0: 0000 0000 0000 0000 0000 0000 0000 0000
000000f0: 0000 0000 0000 0000 0000 0000 0000 0000
00000100: 0000 0000 0000 0000 0000 0000 0000 0000
00000110: 0000 0000 0000 0000 0000 0000 0000 0000
00000120: 0000 0000 0000 0000 0000 0000 0000 0000
00000130: 0000 0000 0000 0000 0000 0000 0000 0000
00000140: 0000 0000 0000 0000 0000 0000 0000 0000
00000150: 0000 0000 0000 0000 0000 0000 0000 0000
00000160: 0000 0000 0000 0000 0000 0000 0000 0000
00000170: 0000 0000 0000 0000 0000 0000 0000 0000
00000180: 0000 0000 0000 0000 0000 0000 0000 0000
00000190: 0000 0000 0000 0000 0000 0000 0000 0000
000001a0: 0000 0000 0000 0000 0000 0000 0000 0000
000001b0: 0000 0000 0000 0000 0000 0000 0000 0000
000001c0: 0000 0000 0000 0000 0000 0000 0000 0000
000001d0: 0000 0000 0000 0000 0000 0000 0000 0000
000001e0: 0000 0000 0000 0000 0000 0000 0000 0000
000001f0: 0000 0000 0000 0000 0000 0000 0000 0000
0.0 0.0 0.0 0.0 0.0 0.0 0.0 0.0
0.0 0.0 0.0 0.0 0.0 0.0 0.0 0.0
0.0 0.0 0.0 0.0 0.0 0.0 0.0 0.0
0.0 0.0 0.0 0.0 0.0 0.0 0.0 0.0
0.0 0.0 0.0 0.0 0.0 0.0 0.0 0.0
0.0 0.0 0.0 0.0 0.0 0.0 0.0 0.0
0.0 0.0 0.0 0.0 0.0 0.0 0.0 0.0
0.0 0.0 0.0 0.0 0.0 0.0 0.0 0.0
0.0 0.0 0.0 0.0 0.0 0.0 0.0 0.0
0.0 0.0 0.0 0.0 0.0 0.0 0.0 0.0
0.0 0.0 0.0 0.0 0.0 0.0 0.0 0.0
0.0 0.0 0.0 0.0 0.0 0.0 0.0 0.0
0.0 0.0 0.0 0.0 0.0 0.0 0.0 0.0
0.0 0.0 0.0 0.0 0.0 0.0 0.0 0.0
0.0 0.0 0.0 0.0 0.0 0.0 0.0 0.0
0.0 0.0 0.0 0.0 0.0 0.0 0.0 0.0

network_body._body_endoder.seq_layers.2.weight f4 [128, 128]
00000000: b11a 1fbc 6013 913c 585a acbd 48af 01be
00000010: 9d41 06bd c97a 6dbd 40cd 1b3e d6e8 2f3c
00000020: a264 b0bd 79bb 4dbc 66ad 3dbd d68f bc3d
00000030: 376c de3d 9e32 bebc 03ad 093d 4a95 41bc
00000040: fb19 593d 4a63 99bd 59ee 8fbd 5b53 97bd
00000050: 17dc 2bbe cfe7 8fbd 408c abbd 61b6 1ebe
00000060: 7ca2 c33d c3db ab3d c2fc fa3d 60b9 f73c
00000070: 8d1b f33d aa99 71bd cf45 033d 7cff 173d
00000080: 6754 5bbb 7708 3e3d 6834 d33d 4720 f73b
00000090: b462 ba3c 6169 11be 1b3e 8fbd 3af4 18bc
000000a0: 2cf4 473d f519 363d fda7 933d d0f8 b3bd
000000b0: f3d3 8c3c b694 323c b794 3dbe 632b 5fbd
000000c0: e3d5 c4bd 61e5 023e 80d5 c43d 0525 833c
000000d0: 9e8b a43d d4f4 103d 89f9 db3d 5619 4ebd
000000e0: 767a 08bd 01ef f83b c6c7 3b3d 0569 fd3d
000000f0: b651 193e e4fb 793c a6d1 2e3d eccf 303d
00000100: b453 87bd 1e95 e63d feea 52bd eac0 4e3d
00000110: e319 aebc c537 66bd 1cb3 423d 2fb9 ebbd
00000120: 0302 713d 1e61 9bbd 2b6a d83d 0179 5f3d
00000130: 8a2a f5bd 5cd3 4a3d e393 8ebc 5c01 15be
00000140: 7fc1 ecbc a260 c53d f505 08bd 3cec cebc
00000150: 23ee 913d 88cd ccbd 4066 543d 79b6 5d3d
00000160: 8f65 9dbc 929a bdbd 00cb 943d 74c3 85bc
00000170: fa70 2fbd 923d 3f3d 241e 843c 4424 f3bb
00000180: 7ee1 c6bc 5380 df3c 9c3b 1e3d d3f8 04be
00000190: a9e0 0b3d 1b89 acbc f344 223c e6b8 cf3d
000001a0: cc35 fcbd b40c 813c 2bc9 ba3d dd06 893d
000001b0: 3dde 54bb 368c 153e 340a 32bd 6c96 22bd
000001c0: 713b d2bd 86a9 e2bc 0ee5 f8bd 941c 193e
000001d0: d67e 7d3d ceaa 0bbd c322 8f3d 4624 53bd
000001e0: c194 433d d083 8e3c 50d1 fbbc 9c1d 15bd
000001f0: 5555 16bc c80f 9dbd 5c07 043e 8d0d b8bd
00000200: bb17 813c 28a1 ba3c 09fe ba3c 0770 2abd
00000210: 4604 1cbe 78ad 913c dfbe 41be 0a66 c53d
00000220: 5cdb f7bd cf21 b5bd 0660 493d 0ab1 463d
00000230: b14f ffbc 29d7 67bd fc6b 4c3d 8e1a cabd
00000240: 649e d5bd 8ff3 6e3d 5ec4 a13d 54d0 673d
00000250: 29b9 b03d 1592 5dbd 2f0c dabc 6847 0ebe
00000260: 3608 753d 6eb4 d1bd 2696 48bd fd84 ff3d
00000270: 2b0e fbbd 63b1 3cbd da97 94bd 1bb3 703d
00000280: f14b 703d 5166 9ebc 6882 173b 8835 213d
00000290: a0b6 70be b696 153e ac33 33bd fc49 3dbd
000002a0: c9c6 0d3d b587 933d 45f3 58bd 9ad8 193b
000002b0: ff39 553d eae3 06be 548e 84bd 77b5 7cbd
000002c0: 94b3 94bd 072b 38be 9e9d aabd 4199 cfbd
000002d0: add6 5bbd 62bf 1fbe d65d e93c bdb9 543e
000002e0: eb76 d63d e857 0dbe fbf1 78bd 0f03 163e
000002f0: 3b99 693d 027c 0b3b 6496 293d b9e2 0f3e
00000300: d12c abbd 7a6e 56bd 6601 673d aa95 db3d
00000310: aed5 40bc b3dc 183d 8c5f b2bd b7e3 82bd
00000320: 7d0f d73c f050 c23d 6134 47bd 2a03 4abe
00000330: cb21 20be 2d4d cdbc c50b 9fbd b30f 943d
00000340: 5c50 d1bc b354 e4bc a6ef b8bd 0108 afbd
00000350: 1ab2 c6bc 2ec5 693c b667 08be 5246 acba
00000360: ec2b 0e3d 5ca2 e83d 6fd7 fa3c e34d b9bc
00000370: b079 113d af4c 3b3e c8e2 8b3d d8fa eebc
00000380: 02db a0bd 3085 593e 02e9 ecbc 4ce0 e63d
00000390: 3d0d 3abd 6052 31bd 3fa9 0f3d c267 1ebd
000003a0: cfbb 923c 4d70 a83d 530e 073d ea05 943d
000003b0: f849 c93c 975e fbbd f2b7 593d 13ab df3d
000003c0: 1f45 0c3d 5b75 283d 21ef a6bd 3192 e5bd
000003d0: 8e26 87bd 178f 9eb9 c4ff 3ebc 46f4 603d
000003e0: 4f47 03be fbaa 363d d009 073d e70c 2b3d
000003f0: ca5d 4a3d 8886 20bd 8a96 d33d a49b 5cbd
-0.009710954 0.017709434 -0.08415669 -0.1266452 -0.032777417 -0.057978425 0.15215015 0.010736665
-0.08612944 -0.012556904 -0.046307944 0.09207122 0.10860484 -0.023217496 0.033612262 -0.011815378
0.053003293 -0.07489641 -0.07027883 -0.07388946 -0.16783176 -0.07026636 -0.0837636 -0.1549926
0.09552476 0.083915256 0.12255241 0.03023976 0.11870489 -0.058984436 0.032048997 0.037108883
-0.0033467056 0.04639479 0.1031273 0.0075416896 0.022752143 -0.14200355 -0.069942676 -0.009335572
0.048816845 0.04445835 0.072097756 -0.087876916 0.017190909 0.010899713 -0.18513761 -0.054484736
-0.09611108 0.12782814 0.096110344 0.016008863 0.08034442 0.035389736 0.107409544 -0.05031713
-0.033319913 0.007596851 0.045844816 0.123735465 0.14972576 0.015257809 0.042680405 0.04316704
-0.06607762 0.112589106 -0.051493637 0.050476946 -0.021252578 -0.05620553 0.047534093 -0.1150993
0.05883981 -0.07586883 0.10567125 0.054558758 -0.11971004 0.049517974 -0.017404502 -0.145513
-0.02890086 0.09637572 -0.033208806 -0.02525913 0.07125499 -0.100001395 0.051855326 0.054129098
-0.019213466 -0.092579976 0.07265282 -0.01632855 -0.042832352 0.046689577 0.016127653 -0.0074200947
-0.024277445 0.02728287 0.038631067 -0.12985544 0.0341498 -0.02106147 0.009904134 0.101426885
-0.123149484 0.015753128 0.09120401 0.06690762 -0.0032481097 0.14604267 -0.04346676 -0.039694235
-0.10265244 -0.027668726 -0.12153064 0.14952308 0.06188854 -0.03409844 0.06989052 -0.051548265
0.047749285 0.017396837 -0.030739456 -0.03640519 -0.009175618 -0.07669026 0.12893432 -0.089869596
0.015758386 0.022781923 0.022826212 -0.041610744 -0.15236005 0.017782912 -0.18920468 0.09638603
-0.12102386 -0.08844339 0.04916384 0.04850868 -0.03116593 -0.056601677 0.04990767 -0.09868346
-0.10430601 0.058337744 0.07898782 0.05659516 0.086290665 -0.054094393 -0.026617138 -0.13894427
0.059822284 -0.10239492 -0.048971318 0.124765374 -0.12258562 -0.046067607 -0.07255526 0.05876456
0.058666173 -0.019335898 0.00231185 0.039357692 -0.23507166 0.14608273 -0.04375045 -0.046213135
0.034613404 0.072036184 -0.052966375 0.0023475052 0.052057263 -0.1317288 -0.064724594 -0.061696496
-0.07260814 -0.17985164 -0.08330844 -0.10136653 -0.053671528 -0.1560035 0.028487127 0.20773979
0.104719006 -0.13803065 -0.060777646 0.14649604 0.057030898 0.0021283631 0.04140319 0.14051332
-0.083581574 -0.052351452 0.056397818 0.107219055 -0.011769695 0.03731985 -0.0870963 -0.063910894
0.026252503 0.09488094 -0.048633937 -0.1972777 -0.15637891 -0.025061214 -0.07765917 0.07229557
-0.025551014 -0.027872419 -0.09030084 -0.085464485 -0.024254847 0.014268203 -0.13320813 -0.0013143516
0.034709856 0.113590926 0.030620305 -0.022620147 0.03551644 0.18290971 0.068303645 -0.029172346
-0.078542724 0.21242213 -0.0289197 0.1127325 -0.04542278 -0.04329145 0.035073515 -0.03867317
0.01791182 0.08224545 0.032972645 0.072276905 0.024571404 -0.12273901 0.05315394 0.10921302
0.034245607 0.041127544 -0.08151079 -0.112095244 -0.065991506 -0.0003024272 -0.011657659 0.054920457
-0.12820171 0.044596653 0.032968342 0.04176035 0.04940585 -0.0391908 0.103314474 -0.053859368
