IAV_FINAL/results/results/WolfsRedo1/Sheeps/Sheeps-48918.pt (torch, 555871 bytes, 36 tensors)

network_body._body_endoder.seq_layers.0.weight f4 [128, 44]
00000000: 1e1c 753e 85ad 433d fd59 083d 4b85 70be
00000010: 24d4 a83e 7290 9cbd 79c7 b43c 7cb7 2dbe
00000020: 7c24 10bd 0930 02be 7af7 dd3c 870f 02be
00000030: fd09 c1bd feb5 4c3d fe24 773e 0af1 693d
00000040: 45db d9bd 315f 613d c6e0 593d 8407 263e
00000050: bcf0 8cbd c2f8 403e a99e 393e 7cc2 c83d
00000060: 28fa 07be 1fd5 083e c365 8b3c dc7c 00bf
00000070: 404d af3d 5ddb a1bd d61d 8b3d e875 e33d
00000080: b49f 3d3e dc94 253e cef5 393e 4260 9b3c
00000090: 0118 483e bfc6 6fbd 5744 183e 6147 6f3d
000000a0: 6530 1bbe d8bd 023e 511e 483e f092 0d3e
000000b0: 1e09 b4be 69d3 4c3e a804 953b 2116 01bd
000000c0: 9e8e b6be 9be5 813c f024 a8bc 25e7 9dbe
000000d0: 2d48 363e 5a3e 6c3d c7fb 963d 443e 183e
000000e0: df4a 5cbe 1895 aa3d 977a 0c3e f0ef dabd
000000f0: 6628 60bb 78da 00be 250a 7abc 1e10 36be
00000100: 23c1 8cbd 2de8 d03d 0200 793e 4c7e 463e
00000110: 84ae 153e 09eb 1ebd 0658 283e 34c2 e63d
00000120: f0a6 9bbd 5352 3ebe 74f6 ec3c d261 9b3e
00000130: 08e8 ba3b f132 b93d dc72 be3d df13 60bd
00000140: c261 22be e9e7 a0bd e215 d5bc 06a4 a23d
00000150: f8f1 a33e 3275 d53d 8784 423e a93c 8fbe
00000160: c2a9 c43d 0e0d a9bd 8ed2 d43d b0f5 acbe
00000170: 48ee 43be 41f7 0c3c 2d80 5e3e 48ff 073d
00000180: 9e44 1d3e 49ed c63c 33c7 b73e 3eb3 92bd
00000190: 4916 bd3d df2a efbd b792 e43d 67da 123c
000001a0: dac5 543e 9e0f 5b3e 0f28 b73d a0f3 aebd
000001b0: fde6 843d d4c8 313e 7be7 7b3e a330 863e
000001c0: fc51 e03c 1c07 d93d a9f7 8c3c db98 49be
000001d0: 9956 ecbd c07e 693e 6470 cfbc 07f4 213d
000001e0: 7b97 42be cced 9c3d 257f fc3d a3d8 c1bd
000001f0: ab56 bfbd 0688 cfbd f551 5abe 929e 383d
00000200: 0407 d53d c055 5fbd 280d 6e3e 4724 c3bc
00000210: c076 bd3d 1585 9c3e 3381 ad3e 4cbb ce3d
00000220: 7991 c8bd 48ec 633e a27c 15be ddf8 c5bd
00000230: f1b0 ec3d 6d88 09be c3d5 8fbe 95ed a0bd
00000240: 46d3 d83c 0d67 5cbc 8c78 d5bc 4a67 bf3d
00000250: 5029 303e 20a6 5cbe ae00 aabe 60a1 b7bd
00000260: 80d4 763e c2f1 6c3e 02d4 32be 2183 8a3d
00000270: 7646 41bc 7b1a 32be 8922 97bd a9fb 08bc
00000280: aa45 7bbd 6344 80be e550 483e b228 c63c
00000290: 3e4b 273e fe0c 403c f0fb 2c3e 1124 653e
000002a0: dfdd b2bc 2a3a 0b3d 6339 2a3d 090b febd
000002b0: 1abf cbbc ce4d a5bd 9beb 32be b33b 203c
000002c0: 3c69 9a3d 934c ee3d 7a5e a4be bab3 eabc
000002d0: a232 b83b ad17 c2bd 02ec d83c a344 e73c
000002e0: 7cce a7bd db6c a6bd ec05 79bd ef1e 4abd
000002f0: d0b6 483e 9475 87be 8153 583e 1a1e 04be
00000300: 2026 1d3e 8abd 54bc 8839 da3d 461d 09be
00000310: c2a1 303e 0622 93bd a74c 543e 3f2a 04be
00000320: 4521 0ebe 26ee b1be 1866 86bc 7249 6bbe
00000330: b6ff 013d 124a 5dbe 3609 8dbe 673d 50bd
00000340: 74c3 433e c791 2d3d 2307 40bd 148e 773d
00000350: b5b4 39be 0f7b d3bd 3c91 0fbe 8c1a 6e3d
00000360: 554e 893d 1610 60bc cf8e dabd 9645 eabd
00000370: 84dc 2dbc 7574 8bbd e60b d13d 87ad a6bc
00000380: 3c7e ecbd a723 dc3d 202f 3ebd e7f8 023e
00000390: 8d9d bdbe 2797 543e ae82 8bbd c41f 0dbe
000003a0: 6f65 f8bd 7287 9dbd b01f f13b c089 443d
000003b0: 594a 843e 9dbd f33d 6344 bf3c 1d47 353e
000003c0: b476 cf3c 8381 47be 43b9 c13e 6a7f e73d
000003d0: 3606 03be c2f7 e43c 0b2b eabd 1300 893c
000003e0: 3026 f43d 45d8 91bd d8e7 5fbd b67d 38be
000003f0: 635c e43d 6a54 a6be 9cf0 123e 8cf3 803d
0.23936507 0.047772903 0.033288945 -0.23488347 0.3297435 -0.07644738 0.022067772 -0.16964525
-0.035191044 -0.12713636 0.027095545 -0.12701236 -0.09425733 0.04997825 0.24135205 0.05711464
-0.106375255 0.055022422 0.053192876 0.16213804 -0.06881854 0.18844894 0.1812693 0.0980272
-0.13279021 0.13362549 0.017016297 -0.5019052 0.08559656 -0.07903168 0.067928 0.11106473
0.18517953 0.16170067 0.18160173 0.018966798 0.19540407 -0.05853915 0.1486982 0.05841768
-0.1515518 0.12767732 0.19542815 0.13825583 -0.35163206 0.20002522 0.004547674 -0.031515244
-0.35655683 0.015856555 -0.020525426 -0.30840412 0.1780097 0.05767665 0.073722415 0.14867502
-0.21512936 0.083292186 0.1371864 -0.10690296 -0.0034203767 -0.12583339 -0.015261208 -0.17779586
-0.068727754 0.10200534 0.24316409 0.19384116 0.14617354 -0.038798366 0.16439828 0.1126751
-0.076002 -0.18586092 0.028926112 0.30348068 0.00570393 0.090429194 0.092992514 -0.05470645
-0.15857604 -0.07856733 -0.026011411 0.07941441 0.32020545 0.10422744 0.18995868 -0.27975968
0.09602691 -0.08254443 0.103917226 -0.33781195 -0.19133866 0.008603872 0.21728583 0.03320244
0.15358207 0.024283068 0.35894164 -0.07163094 0.09232766 -0.11678099 0.11160796 0.008963204
0.207786 0.21392676 0.089431874 -0.085425615 0.0648937 0.17361766 0.24600022 0.26208982
0.027382843 0.10597059 0.017207937 -0.19687216 -0.11539955 0.22802258 -0.025322147 0.039539363
-0.19003098 0.07662544 0.123289384 -0.09465148 -0.093427025 -0.10133366 -0.21320327 0.0450731
0.10401729 -0.054525137 0.23247206 -0.02382101 0.092511654 0.30570284 0.33887634 0.10094318
-0.09793372 0.22258103 -0.14598325 -0.096666075 0.115571864 -0.13430949 -0.28092775 -0.07857815
0.02646793 -0.013452304 -0.026058458 0.09345873 0.1720326 -0.21547747 -0.33203644 -0.08966327
0.241045 0.23139098 -0.17463687 0.06763292 -0.011796584 -0.17392914 -0.07379634 -0.008360782
-0.061345734 -0.25052175 0.19562109 0.024189327 0.16337296 0.011721848 0.16892982 0.2237704
-0.021834312 0.033991016 0.041558634 -0.124044485 -0.024871398 -0.08071481 -0.17472689 0.009779858
0.07539603 0.11635699 -0.3210333 -0.028650153 0.0056212703 -0.09477172 0.026479725 0.02823097
-0.08193681 -0.08126231 -0.060796663 -0.049345907 0.19600987 -0.26456892 0.21125604 -0.12902108
0.15346575 -0.012984643 0.106555045 -0.13390073 0.17249206 -0.07184224 0.20732366 -0.1290674
-0.13879879 -0.34752005 -0.016406104 -0.22977236 0.031738006 -0.21610287 -0.2754609 -0.050839808
0.19117528 0.042375352 -0.046881806 0.06043823 -0.1813534 -0.10326206 -0.14020246 0.058130786
0.06704394 -0.01367571 -0.1067177 -0.11439054 -0.010611657 -0.06809322 0.102073476 -0.020346416
-0.11547515 0.10748988 -0.04643166 0.12790261 -0.37034264 0.20760785 -0.068120345 -0.13781649
-0.12128722 -0.0769185 0.007358514 0.04798293 0.25837973 0.119014 0.023348039 0.17702909
0.025325157 -0.19482999 0.37836656 0.11303599 -0.12795338 0.027950171 -0.11433991 0.016723668
0.11921346 -0.07121328 -0.054664463 -0.18016705 0.11150434 -0.32486278 0.14349598 0.06296453

network_body._body_endoder.seq_layers.0.bias f4 [128]
00000000: 06b8 29bc befc 0dbc 7d4b 52bc a97d c7bb
00000010: cb2e 993b e64f 0dbc f279 d43b e5ef 81bb
00000020: 1350 13bb 4983 dfbb dfc5 b83b b996 3eba
00000030: 031c 44bc 8570 0bb9 3849 e33b d84d 6f3b
00000040: 97b5 e83b d380 133a 8445 bbbb 77a0 10bc
00000050: f869 a43b d7c7 4f3b 75fe 453a 88ea cd39
00000060: 985e 593b 8116 3f3b 44a9 09bc 82e0 963b
00000070: e2d4 503b 4ec0 213a 8c9e 2bbc 5d20 413a
00000080: c4d6 f3ba ba4b 81bb aa5b 963b b2db edb9
00000090: 11e0 803b 4500 82bb 0313 463b e0b7 4c3b
000000a0: 178e 263b 5494 a63a 64a3 e83b d01a a2bb
000000b0: 20bb f5bb 38d7 1239 01e5 9cbb 515f 713b
000000c0: dd00 e63b 21e1 3a3b afe7 e23a e207 17bb
000000d0: 78e7 dfba 51f5 cbba 1da3 47bc b10e 68bb
000000e0: b268 f73a e7ea 14bc 22af cb3b 6af0 a2bb
000000f0: 6ab3 193b 754c 34b9 97cc 1ebc c992 d93b
00000100: 2b13 a8bb 6a67 bb3b 326d dbbb b151 8a35
00000110: b197 403a 0881 91ba de3c f0bb 3d2f ceba
00000120: bbc1 c23b 8a4e 0b3b 15e1 23bc 4a93 92bb
00000130: d90a f13b 433a f5b9 e362 0b3b 106a 3dbb
00000140: 8306 6bbb c873 d13b 46ec 023c 6d25 043b
00000150: 01d2 e737 c01d 88bb 886c c23b 84c6 d9bb
00000160: 18cc 3f3b 2a93 683a 3b71 7ebb c361 13bb
00000170: 63ce 8fbb 0117 4639 1ea4 a13a e541 b8bb
00000180: 9415 75bb 3c5d 0bbb 09ce 35ba 9ed8 f9bb
00000190: c288 1f3b 62e8 913b 3c0c 54bb 9721 42bb
000001a0: 0217 a53b 9c0d 4cbb 2896 123b 52f2 7b3c
000001b0: 7333 97bb be67 813c 6f2e 613b 9303 a83b
000001c0: 8204 4439 94fe 943b ac15 573a f1d4 223b
000001d0: 8ccb be3b 529b 7a3c f84c a53b 9c09 583a
000001e0: 3f6a b53a 0b64 a1bb a761 05bb bc94 9f3b
000001f0: e6ee 763b 8f95 a8ba e0bb 8cbb d5ff 05bc
-0.010358816 -0.008666215 -0.012835381 -0.006087978 0.0046747676 -0.008625006 0.0064842636 -0.0039653652
-0.0022478148 -0.0068210703 0.0056388224 -0.0007270384 -0.011969569 -0.0001329799 0.0069362186 0.0036514904
0.0071017253 0.0005626801 -0.005715074 -0.00882732 0.0050175153 0.0031704807 0.00075528707 0.00039275386
0.0033167955 0.00291577 -0.0084021725 0.0046044 0.003186517 0.0006170318 -0.010474812 0.0007367188
-0.0018603434 -0.003945795 0.004588564 -0.00045367848 0.003932961 -0.0039673173 0.0030223734 0.0031237528
0.0025414282 0.0012709 0.007099556 -0.004947044 -0.0074991137 0.0001400382 -0.0047880416 0.0036830495
0.007019146 0.0028515535 0.0017311479 -0.002304547 -0.0017082533 -0.0015560781 -0.012184885 -0.0035409147
0.0018875806 -0.009089208 0.006215946 -0.0049725072 0.0023452886 -0.0001719462 -0.009692333 0.0066398126
-0.005129238 0.005719115 -0.0066963667 1.0305577e-06 0.00073468225 -0.0011101076 -0.0073314747 -0.0015730631
0.0059435046 0.002125653 -0.010002394 -0.0044731246 0.0073560295 -0.0004677345 0.0021268658 -0.002890233
-0.0035862036 0.006391976 0.007990902 0.002016391 2.7635137e-05 -0.004153937 0.005933348 -0.0066459794
0.0029265936 0.0008872027 -0.0038824815 -0.002248869 -0.004388617 0.00018891321 0.0012332236 -0.0056230896
-0.0037396895 -0.0021265289 -0.00069353037 -0.0076246997 0.0024342989 0.004452751 -0.0032355925 -0.0029622072
0.005038143 -0.0031136042 0.0022367332 0.015377598 -0.0046142875 0.015796538 0.0034359952 0.005127379
0.00018693696 0.0045469496 0.00082048285 0.0024846161 0.0058226045 0.01529582 0.005044576 0.0008241178
0.0013840868 -0.004925256 -0.0020352395 0.0048700254 0.0037679016 -0.0012861955 -0.0042948574 -0.008178671

network_body._body_endoder.seq_layers.2.weight f4 [128, 128]
00000000: fdf9 7ebd b27e 72bb ce97 56bd e4fd af3c
00000010: 8d3a 9c3d cec4 2e3d 5165 b5bd f81d ec3d
00000020: 877d 7abd b2b9 463d 9471 a9bc 1360 2dbe
00000030: 3d4f c1bc 3da8 b53d 1e85 7ebd b748 c0bd
00000040: 4d5a 263d 3981 e23b f023 b03d 5e38 1dbe
00000050: dc73 623d 8484 213e 1786 7bbd 33e2 aebd
00000060: 60dc 8b3d ee8c fcbc 0767 ca3b aa4f 35bd
00000070: bee0 b83c 1860 babd 6597 ccbd abaa 90bd
00000080: d2b5 933d fa88 6d3e b8d9 ca3d 7fbf b5bd
00000090: 3a48 7abc 3c1a 703e bf14 e4bc 005d 66bc
000000a0: 51d7 88bd c3c5 20be 7b29 2f3d 381c eb3c
000000b0: 32c8 193d 6bb2 553d 6fb2 99bc f62c 223d
000000c0: 0981 8b3d a0e0 22be 1d11 cabd bc03 0d3d
000000d0: 501f 39bd bf33 17bd e83e 673e d9a8 31be
000000e0: 1d6d 3bbe f143 0ebe 1ea0 a5bc acdc 0dbd
000000f0: 1867 e4bd 1a59 8abd 15a9 1e3d 720b f13c
00000100: 850d 923c 9246 fe3d 6f77 873b 0a09 753d
00000110: 09c4 d03d d693 81bd 2046 e3bc 7fd7 05be
00000120: 8e6f 97bd 3d03 80bd 5b02 303d 993c 5abd
00000130: 9d3e 99bc 8eef 2a3e db52 66bd 1f56 aa3a
00000140: e731 123e 9856 0abd 2192 00be c20a 943d
00000150: a16d e8bd 324e 533c 5c14 f5bd 70d0 9cbc
00000160: d20f 0fbd 01f1 8fbd a7f8 aebd 25ac 2d3d
00000170: 8b2a c63d 716c c93d 8b29 a43d 8883 0ebc
00000180: 8a13 b1bd b5bb 13bd b67d 3d3d cc81 c6bc
00000190: 1779 8c3c ae48 a5bd 902c f43c 2150 f43d
000001a0: 6795 bd3c 61c7 c139 fece c23c 9f91 9d3b
000001b0: 55dd a0bd 56ae 483d af78 ddbd f6bf c53d
000001c0: e380 a03c 7db1 a53c 1578 303d 667b c2bd
000001d0: e3cc 5a3e 139b bd3d d4c2 903d ed54 403c
000001e0: 3362 6abd 7969 513d 67c3 75bd 5091 fc3b
000001f0: 1094 ed3b f076 953d cf97 babc 5d61 cfbd
00000200: 23fd 11bd 2860 953b 3592 81bd 7662 1d3e
00000210: 7f2f 3b3d 771c 33bd 03ef 41bd 986e b33d
00000220: 6971 d43d 9859 c4bd 0659 c13d 6fec 02be
00000230: 49b6 b03d ada9 74bc 1251 64bd a89c 343e
00000240: 389d 733b 69e5 98bb c4d1 de3d e319 c03d
00000250: a349 91bd 7b6a c93d 43f9 503d 6818 563d
00000260: 5fde e8bd 4e28 00be b71c c03d 528f 1ebe
00000270: d081 cf3c af7c cd3d 7595 903d d923 983d
00000280: 20f2 093d 4d6d 0b3e b746 cb3d 029a 183a
00000290: 9489 703c c309 3a3d 8bc5 433a 249d 23bd
000002a0: 6815 1aba a81f 12be 5abd 113e 01e2 dfbc
000002b0: c3c4 17be fffa 233d e553 03be 014a 92bc
000002c0: ec40 dabd 3794 58bd 1f75 e3bd d82b 883d
000002d0: 61b6 623d 413c 89be 7e96 bebd dbf0 01be
000002e0: 7a37 0abd f0f5 06be 6e9a 10bd 4ec1 4fbd
000002f0: 011b a63d 2929 a7bd 5751 41bd 6b47 963c
00000300: 8006 aa3d 32bd 45be 1eb3 20bd 51cf 54bd
00000310: 8ff5 99bb 9130 773b 5dbf 77bc 34f9 c7bb
00000320: 0e5d eabc acb8 033e 59f1 82bd d13a ba3b
00000330: 0e84 13bc 5d33 673d 561e 80bd 9324 c43b
00000340: ad97 343d 87fb 9c3d 0bda fa3d d9f4 6bbc
00000350: 3e7b 9dba 4378 893e ec65 2fbe d446 04bd
00000360: 7f36 7fbd 9aa3 db3d 81ad 823d 487c d73b
00000370: ba23 ccbd 1f7c 01be 6ded 0c3e 154d 97bb
00000380: 2cc8 20bc ad1a d83d a74f 96bd e171 0c3e
00000390: 79de 123d 738a 18bd 085c 833d 5e2e 983c
000003a0: 35a5 6fbd ca5b 563d 2f1d 14bd 3798 f7bd
000003b0: be56 643c fec8 1d3c 71df 8d3d 9520 abbd
000003c0: 19a6 503b 61a4 ff3d 5dd2 40bd ab21 f83a
000003d0: 0f3e d93d ec40 06bd 56fe 12bd b1a5 f53d
000003e0: 5230 883d 8e09 503d 2675 10be 517e 9cbd
000003f0: d87a 79bc f9d6 3abc b9cd b9bc 91c1 7dbd
-0.062250126 -0.0037001786 -0.052390866 0.02148337 0.07628355 0.042668156 -0.08857215 0.115291536
-0.06115487 0.048516937 -0.020684041 -0.1693118 -0.023597354 0.088699795 -0.06213867 -0.09388869
0.04061346 0.006912377 0.086006045 -0.15353534 0.055286273 0.15773207 -0.061407175 -0.08539238
0.068291426 -0.03082892 0.0061768326 -0.044265427 0.022568103 -0.0910036 -0.09989814 -0.07063802
0.07212414 0.23196784 0.09904808 -0.088744156 -0.015276009 0.23447508 -0.027841924 -0.014060259
-0.06681693 -0.1570044 0.04276417 0.02869998 0.037544437 0.052172106 -0.018761842 0.03959366
0.06811721 -0.15906 -0.09866545 0.03442739 -0.045195878 -0.036914583 0.2258259 -0.17349567
-0.18303342 -0.13893105 -0.020217951 -0.034634277 -0.11152476 -0.06755276 0.038735468 0.029424403
0.017828712 0.12415804 0.0041341106 0.059823073 0.10193641 -0.063270256 -0.0277434 -0.13070486
-0.07394324 -0.06250618 0.042970996 -0.053280447 -0.018706614 0.16692945 -0.05623136 0.0012995637
0.14276849 -0.03377399 -0.12555744 0.072286144 -0.11349035 0.012897061 -0.11966774 -0.01914236
-0.034927197 -0.0702839 -0.085435204 0.042400498 0.09676083 0.09835137 0.08015736 -0.008698352
-0.08646305 -0.036067683 0.046262465 -0.024231814 0.017147584 -0.08070503 0.029806405 0.11929346
0.02314253 0.00036960377 0.023780342 0.004808619 -0.07854716 0.048994385 -0.10814034 0.09655754
0.019592708 0.020226235 0.04308327 -0.09496193 0.2136722 0.09258094 0.070684105 0.011738998
-0.057222556 0.051125977 -0.060000803 0.0077077523 0.0072503164 0.07298076 -0.022777466 -0.101259924
-0.0356418 0.004558582 -0.06326715 0.15369591 0.045699593 -0.043728318 -0.04734708 0.087613285
0.10373194 -0.09587401 0.09440808 -0.12785505 0.08628518 -0.014933032 -0.055741377 0.17637885
0.0037172567 -0.0046660197 0.10879853 0.093799375 -0.07094123 0.09834763 0.051018964 0.05226937
-0.11370539 -0.12515375 0.09380477 -0.1548436 0.025330454 0.10033547 0.07059757 0.074287124
0.033678174 0.13615914 0.09925597 0.0005821289 0.014681239 0.045419466 0.0007468096 -0.039944783
-0.00058778236 -0.14269888 0.14232388 -0.027329447 -0.14821152 0.04003429 -0.12824972 -0.017857553
-0.10656914 -0.052875724 -0.111063235 0.066489875 0.05534971 -0.26803783 -0.09306048 -0.12689535
-0.033744313 -0.13179755 -0.035303526 -0.05072146 0.08110619 -0.081621476 -0.047196712 0.018344602
0.08302021 -0.19310454 -0.03923332 -0.051955525 -0.0046984623 0.0037718157 -0.015121308 -0.0061027054
-0.028608825 0.12863415 -0.0639369 0.005683281 -0.009003652 0.05644547 -0.06255786 0.0059858053
0.04408996 0.076651625 0.1224862 -0.014401638 -0.0012014878 0.26849565 -0.17128724 -0.03229411
-0.06230783 0.10724564 0.063807495 0.006576095 -0.09967752 -0.12645005 0.13762446 -0.004617343
-0.00981335 0.10551963 -0.07339411 0.13715316 0.035856698 -0.03724141 0.06414038 0.018576797
-0.058507163 0.05233363 -0.036160644 -0.120895796 0.013936697 0.00963044 0.06927384 -0.08355824
0.0031837283 0.12482525 -0.047075618 0.0018930932 0.1060754 -0.032776758 -0.035887085 0.11994494
0.06649841 0.050790362 -0.14107189 -0.076412804 -0.015227042 -0.011403793 -0.022681104 -0.061952177

network_body._body_endoder.seq_layers.2.bias f4 [128]
00000000: 17c4 b238 fd97 bfbb e6d7 bd3b a33c 2dbb
00000010: f597 cc3b 1594 cd3b a133 1f3b 4e7a 57bb
00000020: 8658 343b 75ed 3f3a f603 bfb9 75cc 98ba
00000030: cc19 74bb 5e64 b6bb 18db f9bb 80e6 f1ba
00000040: 7b99 62bb 8572 06bb 3091 573b aae7 813b
00000050: b225 95bb 7617 b73b 6203 80bb 2220 0a3c
00000060: 1658 5fbb e245 debb cf40 5bbb 68d1 bdba
00000070: 08ec 9e3a b682 6abb 75e2 8c3b 33c1 703a
00000080: 3e9a cf3b db67 f339 a53b 523b c91a 063b
00000090: 58fd 783b 7105 9abb 4518 e5ba 02ce 223a
000000a0: e2d9 8e3a 29cc 3e3b ead2 843b 96e6 80bb
000000b0: 5121 a3bb f076 6a3b 9aeb 9ebb a458 873b
000000c0: 3123 3bbb 8f72 50bb 168e c8bb 6cd7 de3b
000000d0: c749 78bb ca22 c03a ba58 90ba 3825 893b
000000e0: 79ca ac3b 9337 423b 35c2 9e3b 89e4 5b3b
000000f0: 6bf9 b2bb 9509 f1ba e920 2bba 7cd6 2abb
00000100: fb9d 93bb e208 7fbb b7a7 a73b 696e d0bb
00000110: c193 8a3b 8d6c 823a 6a35 c1bb 94b2 83bb
00000120: ed11 35bb e6be 833b 6ea0 f0bb 328e 783b
00000130: 297b 8b3b 2615 043a 274e 2d3a bf88 873b
00000140: 9b37 913b 15a7 8abb 5b30 833b 1aba 4ebb
00000150: 035f 8eba 23ca 9e3b 945f 973b fe65 9fbb
00000160: dc6b 863b ae27 1e3b c9c4 993b 0f03 c1bb
00000170: 4d8e dbb8 1ec5 843b 895e 99bb b403 8a3a
00000180: d1a9 8fbb 0e4e 1e3b 2318 f4bb 9277 463b
00000190: 7d71 a83b e599 713b 1e5c ef3b 8f9e b1bb
000001a0: cd6f 973b 0e37 90bb 9155 633b 3fb1 fbbb
000001b0: 9bf4 e939 9760 813b fa06 8e3b cf45 6fbb
000001c0: e27d 553b 833a 7f3b b67c 41b9 ad57 87bb
000001d0: d5a7 803b e162 a8bb ed41 a3bb b406 2e3b
000001e0: d161 de3b ede2 9ebb 157a 67bb 5203 3e3b
000001f0: be83 5d3b 0f1d 583b 4835 58bb 2208 b03b
8.524226e-05 -0.005846976 0.0057935594 -0.0026433847 0.0062437006 0.0062737563 0.0024292248 -0.0032879296
0.0027518584 0.00073214556 -0.0003643331 -0.0011657613 -0.0037246821 -0.005566164 -0.007624995 -0.0018455535
-0.0034576345 -0.0020515036 0.0032892935 0.003964384 -0.004551613 0.0055875136 -0.0039066533 0.008430513
-0.0034079603 -0.006783233 -0.0033455377 -0.0014481964 0.0012124786 -0.0035783476 0.0042994567 0.00091840624
0.006335526 0.0004642595 0.0032079008 0.0020462743 0.0037992802 -0.0047003557 -0.0017478546 0.0006210507
0.0010898674 0.0029113388 0.004053463 -0.003933738 -0.004978337 0.0035776459 -0.0048498632 0.00413044
-0.0028554911 -0.0031806563 -0.0061204536 0.0068005826 -0.0037885772 0.0014658805 -0.0011012771 0.004185345
0.00527316 0.0029635176 0.0048449286 0.0033552966 -0.005461862 -0.0018389696 -0.00065280363 -0.0026067784
-0.0045049167 -0.0038915207 0.0051164287 -0.006360818 0.0042290394 0.0009950564 -0.00589626 -0.004019091
-0.0027629093 0.0040205596 -0.0073433435 0.0037926552 0.004256625 0.0005038552 0.0006611072 0.0041361745
0.0044316775 -0.0042313435 0.004003567 -0.003154403 -0.0010862056 0.004845874 0.004619548 -0.0048644533
0.0041022133 0.0024132538 0.004692648 -0.005890257 -0.00010469239 0.0040518185 -0.004680459 0.0010529668
-0.0043842574 0.002415541 -0.0074491664 0.0030283672 0.005140482 0.003686541 0.0073046824 -0.005420513
0.004621482 -0.0044010943 0.0034688453 -0.0076810415 0.00044623468 0.003948282 0.0043343278 -0.0036510115
0.0032576253 0.0038944788 -0.00018452373 -0.004130325 0.003926257 -0.0051387404 -0.004982224 0.0026554288
0.006786563 -0.004848829 -0.003532057 0.0028993678 0.0033800448 0.0032976305 -0.0032990742 0.0053720633

action_model._continuous_distribution.log_sigma f4 [1, 2]
00000000: a65e b33c bff1 5ebb
0.021895718 -0.0034018604

action_model._continuous_distribution.mu.weight f4 [2, 128]
00000000: 8724 d53b 222c 093d d6b3 a9bb dfc7 27ba
00000010: 5521 9bba 93d7 3ebc e6c8 92bc b37f 5c3c
00000020: 6b10 49bc e1b0 01bc 4e76 e2ba 8658 173c
00000030: 2d70 813c 3bfa 8c3c 4eae 0dba bc77 8bbb
00000040: 9461 ca3c cf5c 713c 623c 70bb ad45 fcbc
00000050: cde7 e83c f71d 933a 5503 b93c 9523 7e3b
00000060: 4ccc 8b3c a20c ec36 41b5 feb9 ed7b c1bb
00000070: 4023 0f3b 9643 453c 5923 94bc df3a b9bb
00000080: 485e 613b 3d8f 5ebc 076c c9bc 1297 d8bc
00000090: 25dd babc 180d 3d3b 4379 9c3c b176 ad3b
000000a0: 8de1 0fbb 2681 45bd 7d7b 00bc 0417 ac3b
000000b0: 1d28 523d 46ae a5bb dd8c 143d dd9a 623a
000000c0: 91d4 6c3c bf1b 1d3b a897 acba c59a 32bc
000000d0: 9268 663c f870 533b f341 04bc 19b9 16bd
000000e0: e60c adba 033f 69bc 95f5 1cb9 b30c d0bc
000000f0: 50a4 e13c c3f9 973b 7a0b 453c 89b8 afb8
00000100: 40da 023b c592 41bb fb9b 82bc dd58 263c
00000110: c4b1 22bb 61ba 09bc 58a7 a93c b56b 023d
00000120: 2a41 343b 4911 6ebc 084b 073c 084c b4bc
00000130: 0454 00bd 0b9f 4ebc 54bf 4a3c d6f4 b7bc
00000140: 3560 03bc 35c0 083c fe8b 79bc 0b24 aa3c
00000150: e899 da3b dd2d 10bc 44e1 3aba 2c4f f43c
00000160: a5fc a4bc d0c8 85bb cf26 1cbc d8c0 82bb
00000170: 57d4 f439 c48c 1bbd fe3e b53c 919c c2bc
00000180: 6424 673a e423 473b c957 f53b 9aef 2fbc
00000190: 9147 11bd b26f 76bc 4226 74bc aeb8 6f3b
000001a0: 9a3b 57ba 7c53 e23c 35da 31bb d44d 0a3b
000001b0: 062e ecbb 9807 02bd f65d 4cbd b6ed f43b
000001c0: 7491 94bc 5e25 f7bc ccb1 dfbb 4bab d73c
000001d0: 4e0b b43a 8e30 d03c 0658 413b 62c4 f9bb
000001e0: 5f7e 94bb f8cf a63c 16ea d4bb e4c6 53bb
000001f0: 1284 b3bc 7551 31bc fa0f de3c a91c a939
00000200: 466c 253c 2f0d 193b 2def 87bc 4ff6 41bc
00000210: d432 a43a c98c afba 0e2d a03b b7a2 4b3b
00000220: 379b dbbb 688e 2c3c 62b4 47bb 9de0 433c
00000230: 58e6 c7bc 12c9 20ba 994b ef3b e8f9 99bc
00000240: 5d71 87bb 946d 6bbb 6881 cc3c 4108 e0ba
00000250: fc89 ad3b 1a30 0c3b 7df1 223a 1f29 cfbb
00000260: 5eb3 e63b 376d 4fba b515 23bc d29c 3dbc
00000270: f2b6 2cbb fae6 10ba ff50 d5bc fd54 39bb
00000280: a139 e1bb 78cf d03c 4b84 fe3a 78ca 2f3d
00000290: cb56 63bc c3dc b83c 64c3 afbc f9de 393c
000002a0: 2260 6fbc 751e 023d 3f83 f53c c809 c6bc
000002b0: c4e4 a73c c497 083d 4527 5c3c eb74 f6bc
000002c0: 5384 fbbc f186 c4bc ee75 413c 647e dabb
000002d0: bc04 543c ffcb 043d ed30 ce3b 52eb 843c
000002e0: b6a8 5c3c 23ef 073d c08b d33b a9c2 0dbb
000002f0: 8651 f63b 0969 31bc b274 f6ba fea2 c2bc
00000300: 66a4 4fbb 0063 bebb f9db fd3c 9283 003c
00000310: 0924 ed3b bb1c ae3c bc46 cdbb 9d0e a73c
00000320: ee6c e6bc 3802 e3bb c7d0 8e3b 8e37 ccbc
00000330: 2183 13bc 2db9 ba3c ed62 32bd 9aa6 10bc
00000340: 10cd 43bd 6f41 863b 6f44 93bc fdc5 dfbb
00000350: 5eb8 91bc fd62 cfbc 5d05 93bc 7b82 b3bc
00000360: 61a1 80bb a7f7 673b e42b 7e3b 5d09 0d3c
00000370: 3944 09bd d910 873c ab7d 81bc 1024 593d
00000380: 9f7c 9bb9 abd0 7cbc 0a2c 753c 6340 dbbb
00000390: 0bdb cc3a 1b27 0a3c 0c2f d1bc 2276 40bc
000003a0: debf f3bc c591 1a3d a9eb 16ba 7b33 c6bb
000003b0: dd93 4d3c 6f22 97bc 715c 5bba ec0e e5bc
000003c0: 0cc9 003c 9379 093c 3097 07bc b39f 10bc
000003d0: a635 7d3b ca7c 9d3c 8864 c33c 76f6 10bc
000003e0: 8341 5d3b 3e92 7bbb 31c6 adba 4f97 7c3c
000003f0: 3fa2 d53b 5488 0d3c f75e e3ba a401 1d3c
0.0065045985 0.033489354 -0.005178909 -0.00064003275 -0.0011835495 -0.011648077 -0.017918061 0.01345818
-0.012271981 -0.007915706 -0.0017277689 0.009237414 0.01580056 0.017209163 -0.00054046966 -0.004256217
0.024704732 0.0147316 -0.0036657085 -0.030794943 0.028430844 0.001122414 0.022584597 0.0038778533
0.01706519 7.0348187e-06 -0.000485817 -0.0059046657 0.002184108 0.0120400395 -0.018083261 -0.00565277
0.0034388471 -0.013583955 -0.024587644 -0.026439223 -0.022810528 0.0028846916 0.01910079 0.00529369
-0.0021954507 -0.04821887 -0.007841942 0.005251767 0.051307786 -0.0050561754 0.03626715 0.0008644292
0.014454977 0.0023972837 -0.0013167756 -0.010901158 0.014063017 0.003226338 -0.008072364 -0.036797617
-0.0013202697 -0.014236215 -0.00014968806 -0.02539668 0.02754417 0.004637928 0.012026662 -8.3790226e-05
0.0019966513 -0.0029536944 -0.015943518 0.010153023 -0.0024825195 -0.008406253 0.020709679 0.031841
0.002750466 -0.014530488 0.008257635 -0.02200891 -0.031330124 -0.012611161 0.012374718 -0.022455614
-0.008018543 0.008346607 -0.015231131 0.02076914 0.006671179 -0.008799997 -0.0007128904 0.029822908
-0.020140002 -0.0040827766 -0.009530737 -0.003990274 0.00046697512 -0.03797604 0.022124764 -0.023756297
0.00088173733 0.0030386383 0.0074872714 -0.010738278 -0.03546864 -0.015041279 -0.0149016995 0.0036578584
-0.00082104804 0.0276277 -0.0027138118 0.0021103518 -0.007207635 -0.031745523 -0.049894296 0.0074746264
-0.018135764 -0.030169185 -0.006826615 0.026326796 0.0013736279 0.025413778 0.002950193 -0.0076222876
-0.004531666 0.02036284 -0.006497632 -0.0032314593 -0.021913562 -0.0108226435 0.027107228 0.00032255545
0.010096615 0.0023353805 -0.01659354 -0.01183851 0.0012527355 -0.0013393398 0.0048881834 0.0031072327
-0.0067018527 0.010531999 -0.0030472507 0.011955407 -0.024401829 -0.00061334774 0.007302713 -0.018795922
-0.004133387 -0.0035923468 0.02496405 -0.0017092304 0.00529599 0.0021390975 0.0006215794 -0.0063220407
0.007040425 -0.00079126976 -0.009953906 -0.011573033 -0.002635416 -0.0005527582 -0.026039599 -0.0028279417
-0.006873325 0.025489554 0.0019418088 0.0429177 -0.0138756735 0.022566205 -0.021455474 0.011344665
-0.014610322 0.031767327 0.02996981 -0.024174586 0.020494826 0.03334786 0.013437097 -0.030085048
-0.030702746 -0.023990126 0.011807902 -0.006667899 0.012940582 0.03242111 0.0062924535 0.01622549
0.013467958 0.033187043 0.0064558685 -0.002163092 0.0075170426 -0.010828265 -0.0018803088 -0.023759361
-0.0031683682 -0.0058101416 0.03098868 0.007843869 0.0072369617 0.021253934 -0.0062645357 0.02039271
-0.028128114 -0.0069277547 0.0043583843 -0.024928834 -0.009003432 0.022793377 -0.043551374 -0.008828783
-0.047802985 0.0040971558 -0.017976968 -0.006829022 -0.017788108 -0.025315756 -0.017946893 -0.021912804
-0.003925488 0.0035395415 0.0038783485 0.008608189 -0.033512328 0.016487526 -0.015806993 0.053012908
-0.00029656754 -0.01543061 0.014964113 -0.006691025 0.0015629245 0.008432175 -0.025535129 -0.011746915
-0.029754575 0.037736673 -0.0005757162 -0.0060486174 0.01254746 -0.018449036 -0.0008367962 -0.027961217
0.007860433 0.008390802 -0.008275792 -0.008827138 0.0038636713 0.019224543 0.023851648 -0.008847823
0.0033760972 -0.0038386728 -0.0013257918 0.015416934 0.0065195854 0.00863846 -0.0017347027 0.009582911

action_model._continuous_distribution.mu.bias f4 [2]
00000000: 6bfb a3bb f6f5 0aba
-0.0050043366 -0.0005300933

exp_avg f4 [128, 44]
00000000: 0000 0000 0000 0000 04de 65ae e1c8 2bb3
00000010: 0000 0000 0000 0000 04de 65ae f9f2 6ab3
00000020: 0000 0000 0000 0000 04de 65ae 57e9 13b3
00000030: 68e4 b035 0000 0000 4dfe 8cb7 b847 acb7
00000040: 0000 0000 0000 0000 04de 65ae ae9a 0db3
00000050: 8650 3b36 0000 0000 6ae3 92b7 9458 b6b7
00000060: 0000 0000 0000 0000 04de 65ae bcb5 15b3
00000070: ec25 4136 0000 0000 7127 08b7 2e2d 83b7
00000080: 0000 0000 0000 0000 04de 65ae 80ea 2eb3
00000090: 63c3 6433 0000 0000 9b19 dd36 047d dab5
000000a0: 0000 0000 0000 0000 04de 65ae ca0a 72b3
000000b0: 0000 0000 0000 0000 2d2a 49af 1661 8933
000000c0: 0000 0000 0000 0000 2d2a 49af 7c35 bc33
000000d0: 0000 0000 0000 0000 2d2a 49af 39ca 6c33
000000e0: 2205 5435 0000 0000 dc70 0638 a4f0 1238
000000f0: 0000 0000 0000 0000 2d2a 49af 93aa 6233
00000100: 4277 9b34 0000 0000 1f79 dd37 10e7 0638
00000110: 0000 0000 0000 0000 2d2a 49af 8f6e 6e33
00000120: 52ca c7b2 0000 0000 5f2e 8c37 2989 ef37
00000130: 0000 0000 0000 0000 2d2a 49af ac53 8b33
00000140: ddb2 ba35 0000 0000 b2d3 fa36 d785 9137
00000150: 0000 0000 0000 0000 2d2a 49af 50a7 c133
00000160: 0000 0000 0000 0000 03e5 212f 987f 23b3
00000170: 0000 0000 0000 0000 03e5 212f c63d 60b3
00000180: 0000 0000 0000 0000 03e5 212f 8c0b 0db3
00000190: 566d 69b5 0000 0000 5e68 20b8 55be 06b8
000001a0: 0000 0000 0000 0000 03e5 212f ce05 07b3
000001b0: 163c 31b6 0000 0000 4438 acb7 835a cbb7
000001c0: 0000 0000 0000 0000 03e5 212f e6ba 0db3
000001d0: e36d 0db6 0000 0000 ecb3 c5b7 d1cb 01b8
000001e0: 0000 0000 0000 0000 03e5 212f 06b4 25b3
000001f0: 9014 17b5 0000 0000 2986 d8b7 cdd1 e5b7
00000200: 0000 0000 0000 0000 03e5 212f e020 68b3
00000210: 0000 0000 0000 0000 48c8 8bae ceba c632
00000220: 0000 0000 0000 0000 48c8 8bae a74d 0833
00000230: 0000 0000 0000 0000 48c8 8bae c190 ab32
00000240: 9ec5 1736 0000 0000 1da7 bb37 489c 8f37
00000250: 0000 0000 0000 0000 48c8 8bae 9939 a432
00000260: 2076 8936 0000 0000 126c 2837 854a 4c37
00000270: 0000 0000 0000 0000 48c8 8bae 03cc ab32
00000280: 1674 1a36 0000 0000 707e a037 2f90 9d37
00000290: 0000 0000 0000 0000 48c8 8bae 4994 c832
000002a0: ab94 7735 0000 0000 c80f e537 b81c c137
000002b0: 0000 0000 0000 0000 48c8 8bae 9385 0c33
000002c0: 0000 0000 0000 0000 351c 312d 30b3 37b2
000002d0: 0000 0000 0000 0000 351c 312d cc50 7db2
000002e0: 0000 0000 0000 0000 351c 312d d8b2 1eb2
000002f0: 998e cdb6 0000 0000 03a6 d2b7 6118 92b7
00000300: 0000 0000 0000 0000 351c 312d 57e3 17b2
00000310: 265a 01b7 0000 0000 d920 2bb7 7ec0 fab6
00000320: 0000 0000 0000 0000 351c 312d efa2 1cb2
00000330: c21c f1b6 0000 0000 93b9 93b7 d15f a0b7
00000340: 0000 0000 0000 0000 351c 312d c383 37b2
00000350: 18cb 99b6 0000 0000 4412 dcb7 85f2 c0b7
00000360: 0000 0000 0000 0000 351c 312d d835 85b2
00000370: 0000 0000 0000 0000 ca38 352f 095a c7b3
00000380: 0000 0000 0000 0000 ca38 352f f39a 08b4
00000390: 0000 0000 0000 0000 ca38 352f 82f4 abb3
000003a0: cfce 39b6 0000 0000 b84d bbb8 810a a8b8
000003b0: 0000 0000 0000 0000 ca38 352f 5aa3 a4b3
000003c0: 796b bab6 0000 0000 6c4b 69b8 95eb 85b8
000003d0: 0000 0000 0000 0000 ca38 352f 42e9 acb3
000003e0: e0bd 70b6 0000 0000 72fe 5fb8 6ec1 94b8
000003f0: 0000 0000 0000 0000 ca38 352f 2535 cab3
0.0 0.0 -5.226576e-11 -3.999674e-08 0.0 0.0 -5.226576e-11 -5.4703353e-08
0.0 0.0 -5.226576e-11 -3.4438326e-08 1.3179497e-06 0.0 -1.6807719e-05 -2.0537394e-05
0.0 0.0 -5.226576e-11 -3.29698e-08 2.7912042e-06 0.0 -1.7510454e-05 -2.1737338e-05
0.0 0.0 -5.226576e-11 -3.4857052e-08 2.8781315e-06 0.0 -8.115415e-06 -1.5637455e-05
0.0 0.0 -5.226576e-11 -4.072581e-08 5.326309e-08 0.0 6.589294e-06 -1.627865e-06
0.0 0.0 -5.226576e-11 -5.635483e-08 0.0 0.0 -1.8295827e-10 6.3972195e-08
0.0 0.0 -1.8295827e-10 8.764161e-08 0.0 0.0 -1.8295827e-10 5.5131952e-08
7.8983624e-07 0.0 3.2053198e-05 3.5033227e-05 0.0 0.0 -1.8295827e-10 5.2774862e-08
2.895777e-07 0.0 2.6401654e-05 3.2163283e-05 0.0 0.0 -1.8295827e-10 5.5514246e-08
-2.3258654e-08 0.0 1.6710894e-05 2.855489e-05 0.0 0.0 -1.8295827e-10 6.487912e-08
1.3910136e-06 0.0 7.475225e-06 1.7347671e-05 0.0 0.0 -1.8295827e-10 9.017697e-08
0.0 0.0 1.4724226e-10 -3.806744e-08 0.0 0.0 1.4724226e-10 -5.2210247e-08
0.0 0.0 1.4724226e-10 -3.2839623e-08 -8.695837e-07 0.0 -3.8244172e-05 -3.212535e-05
0.0 0.0 1.4724226e-10 -3.1437416e-08 -2.641003e-06 0.0 -2.0530199e-05 -2.4241634e-05
0.0 0.0 1.4724226e-10 -3.2999104e-08 -2.10746e-06 0.0 -2.3568013e-05 -3.0945816e-05
0.0 0.0 1.4724226e-10 -3.8580787e-08 -5.6281806e-07 0.0 -2.581168e-05 -2.7396623e-05
0.0 0.0 1.4724226e-10 -5.404661e-08 0.0 0.0 -6.356565e-11 2.3135183e-08
0.0 0.0 -6.356565e-11 3.1735592e-08 0.0 0.0 -6.356565e-11 1.9972846e-08
2.2615782e-06 0.0 2.2369955e-05 1.7119703e-05 0.0 0.0 -6.356565e-11 1.9118305e-08
4.0966697e-06 0.0 1.0038742e-05 1.2176698e-05 0.0 0.0 -6.356565e-11 1.9999794e-08
2.301536e-06 0.0 1.9132363e-05 1.8783e-05 0.0 0.0 -6.356565e-11 2.3350497e-08
9.223101e-07 0.0 2.7306276e-05 2.3020766e-05 0.0 0.0 -6.356565e-11 3.2717775e-08
0.0 0.0 1.0067548e-11 -1.06927445e-08 0.0 0.0 1.0067548e-11 -1.4744909e-08
0.0 0.0 1.0067548e-11 -9.237475e-09 -6.1260766e-06 0.0 -2.5111256e-05 -1.7415909e-05
0.0 0.0 1.0067548e-11 -8.841048e-09 -7.7099885e-06 0.0 -1.0200042e-05 -7.4729896e-06
0.0 0.0 1.0067548e-11 -9.117442e-09 -7.1857075e-06 0.0 -1.761018e-05 -1.9118104e-05
0.0 0.0 1.0067548e-11 -1.0681961e-08 -4.5833985e-06 0.0 -2.623455e-05 -2.3001116e-05
0.0 0.0 1.0067548e-11 -1.5507723e-08 0.0 0.0 1.648203e-10 -9.283037e-08
0.0 0.0 1.648203e-10 -1.2722357e-07 0.0 0.0 1.648203e-10 -8.007284e-08
-2.7687527e-06 0.0 -8.931331e-05 -8.012821e-05 0.0 0.0 1.648203e-10 -7.6665586e-08
-5.5557434e-06 0.0 -5.562177e-05 -6.385815e-05 0.0 0.0 1.648203e-10 -8.0518035e-08
-3.5873309e-06 0.0 -5.3404314e-05 -7.093219e-05 0.0 0.0 1.648203e-10 -9.416025e-08

exp_avg_sq f4 [128, 44]
00000000: 0000 0000 0000 0000 acbf 4129 45d3 5929
00000010: 0000 0000 0000 0000 acbf 4129 a1d5 6e29
00000020: 0000 0000 0000 0000 acbf 4129 68aa 5329
00000030: 84dc 472c 0000 0000 4dc5 9430 478d ab30
00000040: 0000 0000 0000 0000 acbf 4129 2632 5229
00000050: 6e7a e12c 0000 0000 8843 ac30 64ad b830
00000060: 0000 0000 0000 0000 acbf 4129 e5de 5329
00000070: f0c3 122d 0000 0000 d2c4 8630 0582 a330
00000080: 0000 0000 0000 0000 acbf 4129 386d 5a29
00000090: ff5c bc2c 0000 0000 820e a330 587c aa30
000000a0: 0000 0000 0000 0000 acbf 4129 d546 7129
000000b0: 0000 0000 0000 0000 7562 142b 6a5c 112b
000000c0: 0000 0000 0000 0000 7562 142b b481 112b
000000d0: 0000 0000 0000 0000 7562 142b 637b 112b
000000e0: 96d7 ba2c 0000 0000 7431 0731 ed24 1531
000000f0: 0000 0000 0000 0000 7562 142b 6588 112b
00000100: 23b7 6d2d 0000 0000 ef8b 0831 47d4 0e31
00000110: 0000 0000 0000 0000 7562 142b a77a 112b
00000120: 8d51 ec2c 0000 0000 5198 fb30 986a 1231
00000130: 0000 0000 0000 0000 7562 142b 215c 112b
00000140: 9c9f e82d 0000 0000 344d f230 4e7d 0e31
00000150: 0000 0000 0000 0000 7562 142b 908f 112b
00000160: 0000 0000 0000 0000 1c36 c02a bf15 c42a
00000170: 0000 0000 0000 0000 1c36 c02a 42cf c62a
00000180: 0000 0000 0000 0000 1c36 c02a 0e41 c32a
00000190: 938c f22c 0000 0000 950b 8130 c2ff 8a30
000001a0: 0000 0000 0000 0000 1c36 c02a 2a0d c32a
000001b0: b2b3 bd2c 0000 0000 61e1 7b30 5d15 8c30
000001c0: 0000 0000 0000 0000 1c36 c02a 2749 c32a
000001d0: f8f4 952c 0000 0000 55e2 8630 8e40 9530
000001e0: 0000 0000 0000 0000 1c36 c02a d62e c42a
000001f0: a797 992c 0000 0000 92fa 8930 281e 9330
00000200: 0000 0000 0000 0000 1c36 c02a 3627 c72a
00000210: 0000 0000 0000 0000 8e4a 8f29 a09d 9529
00000220: 0000 0000 0000 0000 8e4a 8f29 1478 9b29
00000230: 0000 0000 0000 0000 8e4a 8f29 58ef 9329
00000240: 516a a72c 0000 0000 3a65 4330 b089 4f30
00000250: 0000 0000 0000 0000 8e4a 8f29 3f88 9329
00000260: 4bac aa2c 0000 0000 2c97 5030 0b0a 5730
00000270: 0000 0000 0000 0000 8e4a 8f29 0cfd 9329
00000280: b6e8 702c 0000 0000 50f8 4430 d8a9 5130
00000290: 0000 0000 0000 0000 8e4a 8f29 e3cc 9529
000002a0: 127d 8c2c 0000 0000 78fd 4f30 acde 5130
000002b0: 0000 0000 0000 0000 8e4a 8f29 b92a 9c29
000002c0: 0000 0000 0000 0000 000a e626 d2dd 0028
000002d0: 0000 0000 0000 0000 000a e626 d580 5728
000002e0: 0000 0000 0000 0000 000a e626 3123 cf27
000002f0: fb9f b22d 0000 0000 e55a 9430 8e22 9b30
00000300: 0000 0000 0000 0000 000a e626 5d01 c327
00000310: f633 8e2d 0000 0000 bb86 9230 fafd 9b30
00000320: 0000 0000 0000 0000 000a e626 a7df d027
00000330: 8436 ae2d 0000 0000 6176 5930 0c7c 8630
00000340: 0000 0000 0000 0000 000a e626 e593 0328
00000350: eeb8 402d 0000 0000 2273 8530 34ea 8f30
00000360: 0000 0000 0000 0000 000a e626 6986 6128
00000370: 0000 0000 0000 0000 15d8 f02a bb68 012b
00000380: 0000 0000 0000 0000 15d8 f02a 1d69 072b
00000390: 0000 0000 0000 0000 15d8 f02a d41a ff2a
000003a0: 922f b92d 0000 0000 a1f3 8431 acbd 8d31
000003b0: 0000 0000 0000 0000 15d8 f02a 0f34 fe2a
000003c0: a825 e82d 0000 0000 2272 7e31 b478 8d31
000003d0: 0000 0000 0000 0000 15d8 f02a a042 ff2a
000003e0: a7d4 2e2e 0000 0000 2567 7e31 8e0e 9131
000003f0: 0000 0000 0000 0000 15d8 f02a f6a0 012b
0.0 0.0 4.3020858e-14 4.8366926e-14 0.0 0.0 4.3020858e-14 5.303191e-14
0.0 0.0 4.3020858e-14 4.6999216e-14 2.8402012e-12 0.0 1.0824494e-09 1.2482041e-09
0.0 0.0 4.3020858e-14 4.6672864e-14 6.408477e-12 0.0 1.2533841e-09 1.3437043e-09
0.0 0.0 4.3020858e-14 4.7044742e-14 8.342646e-12 0.0 9.805723e-10 1.1896765e-09
0.0 0.0 4.3020858e-14 4.8500456e-14 5.353606e-12 0.0 1.1863934e-09 1.2404469e-09
0.0 0.0 4.3020858e-14 5.3574187e-14 0.0 0.0 5.27168e-13 5.16426e-13
0.0 0.0 5.27168e-13 5.169435e-13 0.0 0.0 5.27168e-13 5.168558e-13
5.310373e-12 0.0 1.9673196e-09 2.1703344e-09 0.0 0.0 5.27168e-13 5.1703634e-13
1.3512555e-11 0.0 1.9870148e-09 2.0784385e-09 0.0 0.0 5.27168e-13 5.168456e-13
6.7165774e-12 0.0 1.8305945e-09 2.1306388e-09 0.0 0.0 5.27168e-13 5.1642203e-13
2.6446227e-11 0.0 1.762976e-09 2.0734947e-09 0.0 0.0 5.27168e-13 5.171358e-13
0.0 0.0 3.4143597e-13 3.4831683e-13 0.0 0.0 3.4143597e-13 3.531568e-13
0.0 0.0 3.4143597e-13 3.46841e-13 6.8936606e-12 0.0 9.389277e-10 1.0113512e-09
0.0 0.0 3.4143597e-13 3.4648093e-13 5.3916533e-12 0.0 9.163355e-10 1.0192412e-09
0.0 0.0 3.4143597e-13 3.4689718e-13 4.2620317e-12 0.0 9.814111e-10 1.0859524e-09
0.0 0.0 3.4143597e-13 3.4849093e-13 4.3653583e-12 0.0 1.0039278e-09 1.0704229e-09
0.0 0.0 3.4143597e-13 3.537671e-13 0.0 0.0 6.363409e-14 6.644273e-14
0.0 0.0 6.363409e-14 6.904213e-14 0.0 0.0 6.363409e-14 6.569631e-14
4.758229e-12 0.0 7.108444e-10 7.5501827e-10 0.0 0.0 6.363409e-14 6.551746e-14
4.850819e-12 0.0 7.588479e-10 7.8230816e-10 0.0 0.0 6.363409e-14 6.572008e-14
3.4235232e-12 0.0 7.165726e-10 7.627512e-10 0.0 0.0 6.363409e-14 6.6524714e-14
3.992925e-12 0.0 7.566636e-10 7.6350193e-10 0.0 0.0 6.363409e-14 6.935203e-14
0.0 0.0 1.5962166e-15 7.153527e-15 0.0 0.0 1.5962166e-15 1.19628335e-14
0.0 0.0 1.5962166e-15 5.7492196e-15 2.0307303e-11 0.0 1.0794251e-09 1.1287555e-09
0.0 0.0 1.5962166e-15 5.412485e-15 1.6166606e-11 0.0 1.0661191e-09 1.1349919e-09
0.0 0.0 1.5962166e-15 5.797408e-15 1.980572e-11 0.0 7.9112367e-10 9.78504e-10
0.0 0.0 1.5962166e-15 7.30403e-15 1.0954999e-11 0.0 9.709746e-10 1.0471184e-09
0.0 0.0 1.5962166e-15 1.2519155e-14 0.0 0.0 4.27825e-13 4.597535e-13
0.0 0.0 4.27825e-13 4.810751e-13 0.0 0.0 4.27825e-13 4.5315715e-13
2.105319e-11 0.0 3.869403e-09 4.1252033e-09 0.0 0.0 4.27825e-13 4.5155587e-13
2.6392069e-11 0.0 3.7026742e-09 4.1173625e-09 0.0 0.0 4.27825e-13 4.534333e-13
3.9751893e-11 0.0 3.7020496e-09 4.22171e-09 0.0 0.0 4.27825e-13 4.6053385e-13

exp_avg f4 [128]
00000000: d798 afb7 a85a 0d38 8fff a9b7 2abc 4d37
00000010: 472f c6b6 768b 4eb8 6feb aab7 a3ba a937
00000020: b739 7db7 ca51 8a37 bf52 f336 1422 3838
00000030: 6c3f ea36 30b5 a0b6 0cfa 0fb7 2c75 2e38
00000040: 12ff 0a36 1074 f8b7 2d1e d737 8001 4937
00000050: b9d2 57b6 108a e4b7 b5d3 40b7 4215 3eb7
00000060: 2de9 d6b7 d2c8 dbb6 06fd ff37 dadc 1837
00000070: 44dd 6bb8 ca68 4d37 ee07 c736 c2bc 4d38
00000080: 79d5 d636 f3c9 2e38 5294 c6b7 fa9c 7b37
00000090: 9281 6336 1cf9 ae37 b714 f136 5a8d 0bb7
000000a0: 7a91 c1b7 0cf4 8837 31b2 ecb5 f097 8db7
000000b0: fb8d 3cb7 2b78 6336 27cc 6d38 c19c 09b8
000000c0: 3c9e 0db5 3a72 ac37 7d77 74b8 b920 7738
000000d0: 433d 3038 303f 0038 5700 79b7 7419 1338
000000e0: d54f 6237 6f87 e837 4bc4 b7b7 1c0b fc37
000000f0: 0a58 84b6 5d7a 54b7 148e 1ab8 84ad 88b7
00000100: 6fa7 8838 9453 0e37 fc6c 0f38 c69f 1f37
00000110: d3e5 6cb8 db63 76b8 4c52 b637 c592 2d37
00000120: a865 3cb5 1479 b6b8 f301 d337 9996 6437
00000130: db21 ef37 4366 1cb6 550a d8b7 2ce4 32b8
00000140: c593 d337 ced8 a835 2ece 46b4 964f b237
00000150: 2ddd 18b6 2884 cc37 6da7 0e38 65ef 1e38
00000160: af60 0eb8 cbe0 86b8 0e43 cdb5 c818 e237
00000170: bd5f 9038 b63a a936 0957 03b8 37de 6537
00000180: 391c 3337 0705 8b37 af48 4b37 c2bd 0f38
00000190: 12c1 89b8 d8c5 4737 5da0 6638 fe68 5d38
000001a0: 4e1f 94b8 5be2 e937 0582 e5b7 3b5b 68b6
000001b0: 570f 0437 9136 1037 1d70 d7b8 a798 cf36
000001c0: 41ff a7b7 33ea de34 2abe da37 c909 2cb8
000001d0: ab11 e737 086b 8db6 8828 9d37 4b63 82b8
000001e0: e82a 90b7 1a11 2bb7 ae5f 3838 63fa 10b8
000001f0: e295 ddb7 c5b8 9438 cdda 85b8 effa 03b7
-2.0932797e-05 3.370145e-05 -2.0265374e-05 1.22627625e-05 -5.9063636e-06 -4.924411e-05 -2.0375212e-05 2.023328e-05
-1.5093413e-05 1.6488968e-05 7.2515973e-06 4.3900756e-05 6.9811267e-06 -4.7894646e-06 -8.581683e-06 4.1593958e-05
2.0712073e-06 -2.961795e-05 2.5644049e-05 1.1980883e-05 -3.2160153e-06 -2.7244008e-05 -1.1493384e-05 -1.1329832e-05
-2.5619369e-05 -6.550087e-06 3.0516192e-05 9.111327e-06 -5.6234436e-05 1.224335e-05 5.9315853e-06 4.9051603e-05
6.4025485e-06 4.1672913e-05 -2.3672506e-05 1.4997315e-05 3.3901056e-06 2.0858417e-05 7.184771e-06 -8.317957e-06
-2.3075136e-05 1.6326107e-05 -1.7635231e-06 -1.6879261e-05 -1.1238731e-05 3.3895583e-06 5.6695335e-05 -3.2809334e-05
-5.2756855e-07 2.0557189e-05 -5.8285415e-05 5.8919864e-05 4.2018724e-05 3.0576426e-05 -1.4841636e-05 3.5071236e-05
1.3489237e-05 2.7719621e-05 -2.1906706e-05 3.0045914e-05 -3.9441557e-06 -1.2664675e-05 -3.684878e-05 -1.6293263e-05
6.516172e-05 8.483319e-06 3.4195356e-05 9.514339e-06 -5.6480825e-05 -5.8743968e-05 2.1734413e-05 1.0345776e-05
-7.0183387e-07 -8.700989e-05 2.5154068e-05 1.3624923e-05 2.8506785e-05 -2.3305336e-06 -2.5754018e-05 -4.265101e-05
2.522197e-05 1.2580074e-06 -1.8515195e-07 2.1256314e-05 -2.2778506e-06 2.4380235e-05 3.4011366e-05 3.789309e-05
-3.3945482e-05 -6.431489e-05 -1.5293206e-06 2.695284e-05 6.884288e-05 5.0434273e-06 -3.131389e-05 1.3701202e-05
1.06758025e-05 1.6572432e-05 1.2116666e-05 3.4270583e-05 -6.568631e-05 1.1907388e-05 5.4985623e-05 5.2788288e-05
-7.063021e-05 2.788117e-05 -2.7359472e-05 -3.4623797e-06 7.871385e-06 8.595774e-06 -0.000102728816 6.186852e-06
-2.0026813e-05 4.1521125e-07 2.6076177e-05 -4.101711e-05 2.7545573e-05 -4.2145875e-06 1.8734732e-05 -6.217378e-05
-1.7186117e-05 -1.0196376e-05 4.3958127e-05 -3.4565466e-05 -2.6415048e-05 7.091606e-05 -6.382689e-05 -7.8666335e-06

exp_avg_sq f4 [128]
00000000: 78ad c930 c599 2631 de55 ad30 9ea8 6830
00000010: fc5a cc30 9f2b b431 6502 9d30 9b01 3f31
00000020: b6ba 6d30 a0b4 9d31 32af 832f 40e6 c931
00000030: fce8 d42f c2ad 7730 6fa2 362f d7e2 1532
00000040: caa4 4430 9317 9d31 f190 bb30 6b76 1730
00000050: bc1b 612f 63e4 d530 f982 2f30 4620 1430
00000060: 9feb c830 93d3 8330 27f5 6830 0921 2330
00000070: 0e8c 3931 024d 7a32 7dab 2030 76e2 c631
00000080: 384f bf31 1bc4 8f31 86d1 1331 ae37 6b30
00000090: ed25 232f f07c 2631 9131 1130 7130 5c2f
000000a0: 04bb e731 14b9 1631 7c7b 8d2f 7291 0630
000000b0: 2859 ce2f 6482 8e30 afb3 a031 0de5 b530
000000c0: 9535 6030 de97 8130 8d4e a531 d713 af31
000000d0: eebb 4931 52d3 e830 95e9 1330 9c58 6f31
000000e0: a787 1430 fb32 e930 ca03 a430 6709 1831
000000f0: d4b2 9330 5a4d dd30 e7b5 9130 d3a1 a12f
00000100: e4f9 f631 2624 5a2f 7f67 c530 987f e030
00000110: 77b3 8531 1f7d 3432 06a9 4130 09c5 2130
00000120: 188c e22f 13f8 3b32 4599 3630 17a7 d630
00000130: d066 b330 6651 fb30 4228 bb30 4ddb 1d31
00000140: 9fcc 5131 7fb7 ee2f 8711 7d30 50ba b230
00000150: 38b4 0d30 7149 9931 9765 ca31 21a8 b930
00000160: c994 9430 5591 0032 6208 a030 7ad8 d630
00000170: 6368 cc31 a0f8 1930 8f97 8431 55a0 1d31
00000180: 623b c130 d5b1 b630 dae3 4f30 cb16 7b31
00000190: 66ed b831 5c63 3632 30c1 0132 2530 0232
000001a0: 155a 9f31 5536 a431 3a89 6332 8a97 222f
000001b0: e927 9530 b1c1 a02e 0455 0d32 494d 322f
000001c0: 7d86 9f30 fb58 0c30 d2e7 2f31 8703 b531
000001d0: 2fd1 a131 0acd 762e f8ae 8632 decd d031
000001e0: 8a6d 4e31 0078 3b30 c013 a031 79f7 a830
000001f0: 0486 cb30 2cae 2e32 773c af31 233d 6530
1.4673978e-09 2.4243587e-09 1.2611812e-09 8.464073e-10 1.4868813e-09 5.2436486e-09 1.1423934e-09 2.779507e-09
8.648543e-10 4.589836e-09 2.3953245e-10 5.8760463e-09 3.872812e-10 9.0105e-10 1.6610512e-10 8.724519e-09
7.1538564e-10 4.5719815e-09 1.3647236e-09 5.510176e-10 2.0473484e-10 1.5562701e-09 6.385075e-10 5.388795e-10
1.4618883e-09 9.591637e-10 8.474949e-10 5.9346e-10 2.7000655e-09 1.4569425e-08 5.845136e-10 5.788304e-09
5.5678377e-09 4.1841424e-09 2.1510416e-09 8.557163e-10 1.4838238e-10 2.4227198e-09 5.282113e-10 2.0026093e-10
6.744246e-09 2.1933078e-09 2.5735492e-10 4.8955606e-10 3.753453e-10 1.0368919e-09 4.6770405e-09 1.3234583e-09
8.156687e-10 9.429149e-10 4.811062e-09 5.095426e-09 2.9356175e-09 1.6940283e-09 5.381023e-10 3.4829446e-09
5.403486e-10 1.6967471e-09 1.1933647e-09 2.2124256e-09 1.0746484e-09 1.6101851e-09 1.0601838e-09 2.9400712e-10
7.1879516e-09 1.9839827e-10 1.4363052e-09 1.6334409e-09 3.8912122e-09 1.0505828e-08 7.045319e-10 5.885146e-10
4.1208703e-10 1.0941238e-08 6.6429023e-10 1.5618039e-09 1.3053185e-09 1.8285788e-09 1.3617483e-09 2.2971165e-09
3.0529816e-09 4.342233e-10 9.206577e-10 1.3004158e-09 5.155161e-10 4.4612354e-09 5.890523e-09 1.3508307e-09
1.0810705e-09 7.483625e-09 1.1643915e-09 1.5632076e-09 5.949049e-09 5.6014393e-10 3.858936e-09 2.2937645e-09
1.4059476e-09 1.3292786e-09 7.562996e-10 3.6538264e-09 5.382094e-09 1.0616386e-08 7.552714e-09 7.577943e-09
4.63775e-09 4.779205e-09 1.3244341e-08 1.4787652e-10 1.085252e-09 7.310364e-11 8.2266105e-09 1.6216463e-10
1.1606996e-09 5.105815e-10 2.5597626e-09 5.2681943e-09 4.709498e-09 5.6116035e-11 1.567922e-08 6.077001e-09
3.0039211e-09 6.8200734e-10 4.658858e-09 1.2293945e-09 1.4808283e-09 1.0167735e-08 5.1000444e-09 8.3396595e-10
