IAV_FINAL/results/results/WolfsRedo1/Sheeps/Sheeps-136858.onnx (onnx, 92097 bytes, 7 tensors)

action_model._continuous_distribution.log_sigma f4 [1, 2]
0	0x3d34ed8b	0.04417185
1	0x3b92a978	0.0044757687

action_model._continuous_distribution.mu.bias f4 [2]
0	0x3c2cdb04	0.010550264
1	0x3a0a62df	0.0005279015

action_model._continuous_distribution.mu.weight f4 [2, 128]
0	0x3c0a8345	0.008454149
1	0x3d14e7a1	0.03635371
2	0xbb935219	-0.004495871
3	0xbc16c579	-0.009202355
4	0xbc3e920c	-0.0116315
5	0xbc8118e1	-0.015758933
6	0xbc863d4c	-0.01638665
7	0x3b02bb3f	0.0019948033
8	0xbab60f82	-0.001389012
9	0xbba4c87f	-0.005028784
10	0x3bd322d0	0.006443359
11	0x3bdd1935	0.0067473897
12	0x3ccaa0d3	0.02473489
13	0x3bf10cda	0.0073562684
14	0xbc2a94ac	-0.010411423
15	0xbbf9adfb	-0.007619617
16	0x3c9fee02	0.01952267
17	0x3c1d9b0b	0.009619485
18	0xbc045e88	-0.008079179
19	0xbcde4844	-0.027134068
20	0x3c18fec2	0.009338083
21	0x3bf6fe11	0.0075376113
22	0x3ca69d2c	0.020338617
23	0x3b14a43a	0.0022680894
24	0x3c85bc42	0.01632512
25	0x3c4ec4b9	0.0126201445
26	0xbaa0aa71	-0.0012257827
27	0xbbcfd591	-0.006342598
28	0x3b5398a2	0.0032287021
29	0x3bb06a6f	0.0053837816
30	0xbc7270b6	-0.01479738
31	0x395af316	0.00020880657
32	0xbbd90c2f	-0.006623767
33	0xbc0d778a	-0.008634457
34	0xbca89f51	-0.02058378
35	0xbca8adb5	-0.020590642
36	0xbce17063	-0.02751941
37	0x3ca66262	0.020310584
38	0x3c572d63	0.01313338
39	0xb949d8ec	-0.00019249663
40	0x3c64e8ae	0.013971491
41	0xbd2e9c01	-0.042629246
42	0xbc023679	-0.007947558
43	0x3be68fa6	0.007036167
44	0x3d48e1e5	0.049043555
45	0xbc0e6f4b	-0.0086935265
46	0x3cfb53be	0.03067958
47	0x3b205e5a	0.00244703
48	0x3cb3fdc8	0.021971598
49	0x3c3eed4f	0.011653258
50	0xbc01b910	-0.0079176575
51	0xbc9e41ed	-0.019318545
52	0x3c467e9e	0.012115149
53	0x3b87748d	0.004133767
54	0xbc0c8039	-0.008575493
55	0xbd1c55e3	-0.038167845
56	0xbb05124f	-0.0020305102
57	0xbc86c6c8	-0.016452208
58	0xbb2b31e2	-0.0026122262
59	0xbcacd9c1	-0.021099927
60	0x3c8744d3	0.01651231
61	0x3bbd375a	0.0057744207
62	0x3bfaca9e	0.0076535484
63	0x3b3980c5	0.0028305512
64	0xb9ca8cf5	-0.00038633464
65	0xbb907fd4	-0.0044097695
66	0xbc95c1ec	-0.018280946
67	0x3c8b65a2	0.017016236
68	0xbb222c47	-0.002474563
69	0xbb05f501	-0.0020440223
70	0x3ca94ac1	0.020665528
71	0x3ced1938	0.02894269
72	0x3b6ab3e0	0.003581278
73	0xbcad7ce7	-0.021177722
74	0x3b76fa4d	0.0037685812
75	0xbca80126	-0.02050836
76	0xbceb81a6	-0.028748345
77	0xbbf000f9	-0.0073243347
78	0x3c832c71	0.016012402
79	0xbcaa0806	-0.020755779
80	0xbc477448	-0.01217372
81	0x3bc7ccb1	0.006097399
82	0xbc81d535	-0.015848735
83	0x3c558332	0.013031768
84	0x3b92a721	0.0044754897
85	0xba88bc21	-0.0010432043
86	0x3b10aa6f	0.0022074243
87	0x3d09d962	0.033654578
88	0xbc892b2d	-0.01674422
89	0xbba794c0	-0.005114168
90	0xbc9c3972	-0.01907036
91	0xba931bfe	-0.0011223552
92	0xbc41edcf	-0.011836483
93	0xbcdde26b	-0.027085504
94	0x3c7bcc99	0.015368604
95	0xbceb2801	-0.028705599
96	0xbb5e11c6	-0.0033885106
97	0x3c59e457	0.013299069
98	0x3c802feb	0.015647849
99	0xbb403a12	-0.0029331488
100	0xbd20a8b4	-0.039223388
101	0xbcc9185c	-0.024547748
102	0xbc7c7874	-0.015409578
103	0x3c078d22	0.008273395
104	0x3c42f247	0.011898584
105	0x3ce61aec	0.02808901
106	0xbbcacad1	-0.0061887284
107	0x3c045612	0.008077161
108	0xbc29e5fe	-0.010369776
109	0xbcfec73f	-0.031100867
110	0xbd4f310d	-0.050583888
111	0x3be78de0	0.0070664734
112	0xbcb7eb26	-0.022450995
113	0xbcac436a	-0.02102824
114	0xbc92403d	-0.017852897
115	0x3c19e419	0.009392762
116	0xbc42cb5d	-0.011889306
117	0x3c778be9	0.015109041
118	0x3b466901	0.003027499
119	0xbc07525c	-0.008259382
120	0xbbda775b	-0.0066670603
121	0x3d07249e	0.032993905
122	0xbbd99ab8	-0.0066407584
123	0x3b383765	0.002810919
124	0xbc690b0b	-0.014223824
125	0xbbd03975	-0.0063545057
126	0x3ccd6662	0.025073234
127	0x3b347773	0.0027537018
128	0x3c4885cd	0.012238932
129	0xbbc2a0eb	-0.005939593
130	0xbcc31e95	-0.023818294
131	0xbc9d74f9	-0.019220816
132	0x3bd03de8	0.006355036
133	0xbb98982e	-0.004656813
134	0x3c0871e7	0.008327938
135	0xb9603c9c	-0.00021384883
136	0xbbfeb549	-0.0077730757
137	0x3c9ab77d	0.018886322
138	0xbb7c5cf7	-0.003850756
139	0x3c49fb83	0.0123280315
140	0xbcdb2d04	-0.026754864
141	0x3be9f560	0.0071398467
142	0x3c42dae7	0.011893011
143	0xbc4475a5	-0.011990939
144	0xbbd01030	-0.006349586
145	0xbb5c90b0	-0.0033655576
146	0x3cddffe7	0.027099563
147	0x3ab428b2	0.0013745038
148	0x3c3536e5	0.011060451
149	0xbb8a6e8b	-0.0042246035
150	0xbb5f64bb	-0.003408714
151	0xbc607d67	-0.013701773
152	0x3b7b1619	0.0038312732
153	0xbbd16d65	-0.0063912147
154	0xbc84976c	-0.016185485
155	0xbbbc4466	-0.0057454584
156	0xbc63a9ca	-0.013895461
157	0xbbb64621	-0.0055625592
158	0xbcd835b6	-0.026392799
159	0x3b97354a	0.004614507
160	0xbbb6ea37	-0.00558212
161	0x3d04eae1	0.03245056
162	0x3bce78a2	0.0063010016
163	0x3d4b4896	0.04962977
164	0xbc32ab79	-0.01090514
165	0x3ce48d54	0.027899422
166	0xbce5f40e	-0.028070476
167	0x3bd7c610	0.00658489
168	0xbcac2623	-0.021014279
169	0x3d183256	0.03715738
170	0x3cf41cf1	0.029798957
171	0xbcdc0cea	-0.026861627
172	0x3c6ce6b5	0.014459302
173	0x3d0a3314	0.03374012
174	0x3c3d9d7d	0.011573193
175	0xbd20a869	-0.03922311
176	0xbd1eeaf3	-0.038798284
177	0xbcdc97d8	-0.026927873
178	0x3c968900	0.018375874
179	0xbc6c252a	-0.0144131575
180	0x3c3b48b3	0.011430907
181	0x3d1e0d1b	0.038586717
182	0x3c197c63	0.009368035
183	0x3c7c2212	0.015388982
184	0x3c6bb1a6	0.014385616
185	0x3ceb1268	0.0286953
186	0x3c13060b	0.008973609
187	0x3a7301b7	0.000926997
188	0x3bb6133f	0.0055564935
189	0xbcbc0425	-0.022951195
190	0xbb5388ff	-0.00322777
191	0xbcb107ed	-0.021610225
192	0xbb7e6b23	-0.0038821183
193	0xbbd67c76	-0.0065455986
194	0x3d13ace2	0.036053546
195	0x3c54997f	0.012976049
196	0x3bd8aedd	0.006612642
197	0x3d03080b	0.031990092
198	0xbc1804f8	-0.009278528
199	0x3cb7b0c8	0.022423163
200	0xbd0c0d7f	-0.03419256
201	0x3a9c5d06	0.0011929579
202	0x39a85bf7	0.00032111976
203	0xbca499ad	-0.02009281
204	0xbbcb9bd7	-0.006213646
205	0x3cf6f4c1	0.030146005
206	0xbd64f77a	-0.055900075
207	0xbbb82111	-0.005619176
208	0xbd64a64c	-0.055822656
209	0xbbc09040	-0.005876571
210	0xbc833d0c	-0.01602032
211	0xbc0f5093	-0.008747238
212	0xbcd48633	-0.025942897
213	0xbd01adc0	-0.03165984
214	0xbcb4d413	-0.022073781
215	0xbcac3741	-0.02102244
216	0xb991a72a	-0.00027781102
217	0x3c5862d8	0.01320716
218	0x3c0edb62	0.008719297
219	0x3c5aa074	0.013343919
220	0xbd000f20	-0.031264424
221	0x3ccd3303	0.025048738
222	0xbce24ad2	-0.027623568
223	0x3d5b5dd0	0.053556263
224	0x38b2f87a	8.533984e-05
225	0xbc94a462	-0.01814479
226	0x3c961e0a	0.01832487
227	0xbbceb9c1	-0.0063087647
228	0x3a0d655d	0.00053938275
229	0xb910f718	-0.0001382496
230	0xbd187b98	-0.037227243
231	0xbc490710	-0.01226975
232	0xbd2c674a	-0.04209069
233	0x3d08fc83	0.03344394
234	0xbb1b28e7	-0.0023675503
235	0xbc242238	-0.010017924
236	0x3c7c1979	0.0153869325
237	0xbc606326	-0.013695514
238	0x3b1f5039	0.002430929
239	0xbcd91fe4	-0.026504464
240	0x3c926672	0.017871115
241	0x3c62345d	0.01380643
242	0xbbb77d6e	-0.005599669
243	0xbb2726fa	-0.002550541
244	0xbb3148f0	-0.002705153
245	0x3cbb51ab	0.02286609
246	0x3cf0c9c4	0.029393084
247	0xbc1db8c1	-0.009626568
248	0xbac30f4e	-0.001488188
249	0xbc01f7e9	-0.007932642
250	0xbacb0901	-0.0015490354
251	0x3bec4153	0.0072099357
252	0x3c65a8a3	0.014017257
253	0x3c66b376	0.014080873
254	0xba8e2c09	-0.0010846864
255	0x3c9da5bd	0.01924407

network_body._body_endoder.seq_layers.0.bias f4 [128]
0	0xbcc92d79	-0.024557816
1	0xbbb38c36	-0.005479361
2	0xbc78c25f	-0.01518306
3	0xbc67be9f	-0.014144569
4	0x3c400914	0.011720914
5	0xbc22fbfe	-0.009947775
6	0xbafb2d5c	-0.0019163298
7	0x3a9cf19a	0.0011973858
8	0x3c0c533e	0.008564768
9	0xbb601e0c	-0.0034197597
10	0x3b4ebfcf	0.0031547432
11	0xb9c1fd36	-0.00037000485
12	0xbca04a0b	-0.019566556
13	0x3c74b4fa	0.014935726
14	0x3c1fbfc0	0.009750307
15	0x3c326ead	0.010890645
16	0xbb8ca3b0	-0.004291974
17	0xbc4899ea	-0.012243727
18	0x3bbdcfed	0.005792609
19	0x3b177330	0.0023109429
20	0xbc98f61f	-0.018672047
21	0x3a988f08	0.0011639306
22	0xbb8b5d7d	-0.004253088
23	0xbc54c894	-0.012987275
24	0xbb7b1a0f	-0.0038315093
25	0xbbd38207	-0.0064547095
26	0x3bb5dd51	0.0055500646
27	0xb9d059fd	-0.00039739898
28	0xbbfbb4c1	-0.0076814597
29	0xbc1d5f4d	-0.009605241
30	0xbcabed0f	-0.020987062
31	0x3c576aad	0.013147992
32	0xbc3fe0b5	-0.011711289
33	0x3c37ea9a	0.011225367
34	0x3929fd1e	0.0001621139
35	0x3c8f6dd1	0.01750842
36	0x3cb2efde	0.021842893
37	0x3bb9e379	0.005672869
38	0x3c307d48	0.010772057
39	0xbc28d590	-0.0103048235
40	0xbc14c3f3	-0.009079921
41	0xbbd28cb5	-0.006425465
42	0x3bc79513	0.006090769
43	0xbc94f8a4	-0.018184967
44	0xbc81ce10	-0.015845329
45	0x3be3e3db	0.0069546527
46	0xba36e86d	-0.0006977383
47	0xbb568c7b	-0.0032737541
48	0x3b5db055	0.0033827026
49	0x3cacfcaf	0.021116583
50	0xbb4180c0	-0.0029526204
51	0xbbec9552	-0.007219949
52	0x3c4238a0	0.011854321
53	0x3c24df06	0.010062939
54	0xbcdba6c7	-0.026812924
55	0x3bdde4a5	0.0067716413
56	0x3c91d6a2	0.01780254
57	0xbb5a3fc7	-0.0033302174
58	0xbb9df0e9	-0.0048199785
59	0x3bec7e64	0.0072172154
60	0x3c41c1d4	0.011825997
61	0x3b63c98d	0.0034757585
62	0xbc286452	-0.0102778245
63	0xbc42aa66	-0.0118814465
64	0xbba34901	-0.004983068
65	0xbb331c3f	-0.0027330068
66	0xbc5afbcc	-0.013365697
67	0x3bfd5c70	0.0077319667
68	0xbc1f1163	-0.009708735
69	0xbb131eec	-0.002244885
70	0x3b199209	0.002343299
71	0x3a4f434e	0.00079064525
72	0x3bf25d6c	0.0073963907
73	0xbc1732bb	-0.009228404
74	0xb9f484d6	-0.00046638277
75	0xbc15043e	-0.00909525
76	0x3c843835	0.016140083
77	0xbbfb55fc	-0.0076701622
78	0xbc51095f	-0.012758582
79	0xbc879991	-0.016552718
80	0xbc59c475	-0.013291468
81	0x3bfb97b7	0.007677998
82	0x3c8b6a39	0.017018424
83	0x3ca2fb28	0.019895151
84	0x3c4c6240	0.0124745965
85	0x3bf40ad8	0.0074475817
86	0x3c0ea8ff	0.008707284
87	0xbaa2b43a	-0.0012413331
88	0xbbb6eec0	-0.0055826604
89	0xbc0380a7	-0.008026279
90	0x3b43491c	0.0029798215
91	0x3c85ac3c	0.01631748
92	0x3b7ad948	0.0038276482
93	0x3c7f069b	0.01556554
94	0xbb7f3ce9	-0.0038946217
95	0x3c44d4e0	0.012013644
96	0xbb972494	-0.0046125147
97	0x3c990068	0.018676952
98	0x3cac68ae	0.021046009
99	0x3b62b446	0.0034592315
100	0xbb974306	-0.004616144
101	0xb9f16872	-0.0004604492
102	0xbb872d77	-0.004125293
103	0xbaeca2bb	-0.0018053869
104	0xbb4f02fa	-0.0031587468
105	0xbb8c44c4	-0.0042806584
106	0xbc200a91	-0.009768144
107	0x3bf75f6e	0.007549218
108	0xbc145cb3	-0.009055304
109	0x3d02f35b	0.031970363
110	0xbc161fe3	-0.009162876
111	0x3be81606	0.0070827035
112	0xbc3fa195	-0.011696239
113	0x3cab67b6	0.020923477
114	0x3c1b4965	0.009477948
115	0xbc163bff	-0.009169578
116	0x3c481f48	0.012214489
117	0x3c8297ee	0.015941586
118	0xbb477b23	-0.0030438385
119	0xbc0b80de	-0.008514611
120	0xbac3d929	-0.0014942038
121	0xbb61e27b	-0.0034467268
122	0x3c6fa970	0.014627799
123	0xbc3fd154	-0.011707623
124	0xbc74c8d0	-0.014940456
125	0x3aa78cc5	0.0012783041
126	0xbc566d24	-0.013087545
127	0xbc2052e9	-0.009785392

network_body._body_endoder.seq_layers.0.weight f4 [128, 44]
0	0x3e751c1e	0.23936507
1	0x3d43ad85	0.047772903
2	0x3d12ddb9	0.035855982
3	0xbe740cfa	-0.23833075
4	0x3ea8d424	0.3297435
5	0xbd9c9072	-0.07644738
6	0x3cc9cef8	0.024634823
7	0xbe32f48b	-0.17476098
8	0xbd10247c	-0.035191044
9	0xbe023009	-0.12713636
10	0x3cf2fef9	0.029662596
11	0xbe04d73c	-0.1297273
12	0xbdb96d51	-0.090540536
13	0x3d4cb5fe	0.04997825
14	0x3e753e38	0.23949516
15	0x3d53fafc	0.05175303
16	0xbdd9db45	-0.106375255
17	0x3d615f31	0.055022422
18	0x3d646482	0.055759914
19	0x3e236f06	0.15960321
20	0xbd74fedf	-0.059813377
21	0x3e40f8c2	0.18844894
22	0x3e3834b2	0.17988852
23	0x3dbc8edf	0.09206938
24	0xbe07fa28	-0.13279021
25	0x3e08d51f	0.13362549
26	0x3ca06d42	0.019583348
27	0xbf0131cc	-0.5046661
28	0x3dc6307c	0.096772164
29	0xbda1db5d	-0.07903168
30	0x3d868c51	0.06569732
31	0x3dd3e3a1	0.10346151
32	0x3e3d9fb4	0.18517953
33	0x3e2594dc	0.16170067
34	0x3e3c96be	0.18416879
35	0x3c7c9902	0.015417339
36	0x3e48b75c	0.19601196
37	0xbd6fc6bf	-0.05853915
38	0x3e11afca	0.14227214
39	0x3d47b3b9	0.04875538
40	0xbe1b3065	-0.1515518
41	0x3e02bdd8	0.12767732
42	0x3e4abf41	0.1979952
43	0x3e07e7dd	0.13272043
44	0xbeb4091e	-0.35163206
45	0x3e4cd369	0.20002522
46	0x3ba8ca4d	0.0051510693
47	0xbcf9bd71	-0.03048584
48	0xbeb68e9e	-0.35655683
49	0x3c81e59b	0.015856555
50	0xbca33386	-0.01992203
51	0xbe9d4bd4	-0.30721915
52	0x3e36482d	0.1780097
53	0x3d6c3e5a	0.05767665
54	0x3d98381e	0.074325785
55	0x3e193ce7	0.14964639
56	0xbe649c7b	-0.22325318
57	0x3daa9518	0.083292186
58	0x3e0654fe	0.1311836
59	0xbddeac95	-0.10872761
60	0xbb602866	-0.0034203767
61	0xbe00da78	-0.12583339
62	0xbc702753	-0.014657813
63	0xbe351565	-0.17683943
64	0xbd9375ae	-0.0720018
65	0x3dd0e82d	0.10200534
66	0x3e7128a8	0.23550665
67	0x3e44713d	0.19183822
68	0x3e15ae84	0.14617354
69	0xbd1eeb09	-0.038798366
70	0x3e28f634	0.16500169
71	0x3de8c094	0.11364856
72	0xbd92947c	-0.071572274
73	0xbe3e5253	-0.18586092
74	0x3c97c069	0.018524365
75	0x3e99a7a9	0.30010727
76	0x3bbae808	0.00570393
77	0x3db932f1	0.090429194
78	0x3dbfaf33	0.093595885
79	0xbd5bd069	-0.053665552
80	0xbe1d1e73	-0.15343647
81	0xbda0e7e9	-0.07856733
82	0xbd03e2d2	-0.032198735
83	0x3da1bd68	0.078974545
84	0x3ea3f1f8	0.32020545
85	0x3dd57532	0.10422744
86	0x3e4322b5	0.19056208
87	0xbe8e9a17	-0.27851936
88	0x3dc4a9c2	0.09602691
89	0xbda90d0e	-0.08254443
90	0x3dcb7dd1	0.09936107
91	0xbeaf8087	-0.34277746
92	0xbe43ee48	-0.19133866
93	0x3c0cf741	0.008603872
94	0x3e59d5c8	0.21272957
95	0x3ce63b04	0.028104313
96	0x3e1d449e	0.15358207
97	0x3cc6ed49	0.024283068
98	0x3eb57205	0.35438552
99	0xbd9cba14	-0.07652679
100	0x3db8908c	0.09011945
101	0xbdef2adf	-0.11678099
102	0x3df09a51	0.117481835
103	0x3c5ba6a1	0.013406427
104	0x3e54c5da	0.207786
105	0x3e5b0f9e	0.21392676
106	0x3dadd352	0.08487572
107	0xbdb8f3f2	-0.09030904
108	0x3d99c40c	0.07508096
109	0x3e31c8d4	0.17361766
110	0x3e7edf79	0.24889936
111	0x3e874afc	0.26424396
112	0x3ce051fc	0.027382843
113	0x3dd9071c	0.10597059
114	0x3c4f491b	0.012651707
115	0xbe4e9ce1	-0.20177032
116	0xbdca1923	-0.09868076
117	0x3e697ec0	0.22802258
118	0xbceef1b2	-0.029167984
119	0x3d1a0ad8	0.037607998
120	0xbe42977b	-0.19003098
121	0x3d9cedcc	0.07662544
122	0x3df32a68	0.11873323
123	0xbdcc040b	-0.09961709
124	0xbdaae495	-0.0834438
125	0xbdcf8806	-0.10133366
126	0xbe5b67fb	-0.21426384
127	0x3d363363	0.0444826
128	0x3dd50704	0.10401729
129	0xbd5f55c0	-0.054525137
130	0x3e6962c3	0.22791581
131	0xbced682a	-0.028980333
132	0x3dbd76c0	0.092511654
133	0x3e9c8515	0.30570284
134	0x3eaf8cef	0.3428721
135	0x3dd3e82a	0.10347016
136	0xbdc89179	-0.09793372
137	0x3e63ec48	0.22258103
138	0xbe11652f	-0.14198755
139	0xbdc1ea87	-0.09468561
140	0x3decb0f1	0.115571864
141	0xbe09886d	-0.13430949
142	0xbe8dca07	-0.27693197
143	0xbd9b5de8	-0.075862706
144	0x3cf24750	0.02957502
145	0xbc5c670d	-0.013452304
146	0xbd04ac60	-0.032390952
147	0x3dae99e3	0.08525445
148	0x3e302950	0.1720326
149	0xbe5ca620	-0.21547747
150	0xbea7f4f2	-0.32804066
151	0xbdb1f467	-0.08689194
152	0x3e70726c	0.23481148
153	0x3e6cf1c2	0.23139098
154	0xbe37095d	-0.17874666
155	0x3d774025	0.060363907
156	0xbc414676	-0.011796584
157	0xbe321a7b	-0.17392914
158	0xbd8ef39b	-0.06980058
159	0xbbb92eb7	-0.005651321
160	0xbd97f3d2	-0.07419552
161	0xbe804463	-0.25052175
162	0x3e47a49d	0.19496389
163	0x3ca0f8b5	0.019649843
164	0x3e274b3e	0.16337296
165	0x3c400cfe	0.011721848
166	0x3e311363	0.17292552
167	0x3e67b420	0.22627306
168	0xbd02a7e2	-0.031898387
169	0x3d0b3a2a	0.033991016
170	0x3d1bbe51	0.038023297
171	0xbe05a3c8	-0.13050759
172	0xbccbbf1a	-0.024871398
173	0xbda54dce	-0.08071481
174	0xbe2ed428	-0.17073119
175	0x3c409091	0.011753217
176	0x3d9a693c	0.07539603
177	0x3dee4c93	0.11635699
178	0xbea67281	-0.32509235
179	0xbcd29223	-0.025704449
180	0x3bb832a2	0.0056212703
181	0xbdc217ad	-0.09477172
182	0x3cb7ab7c	0.022420637
183	0x3d03b463	0.032154452
184	0xbda7ce7c	-0.08193681
185	0xbda66cdb	-0.08126231
186	0xbd84d310	-0.064855695
187	0xbd3fd46c	-0.04683344
188	0x3e48e65f	0.1961913
189	0xbe877594	-0.26456892
190	0x3e619696	0.220301
191	0xbdf2cfec	-0.11856064
192	0x3e1d2620	0.15346575
193	0xbc54bd8a	-0.012984643
194	0x3dd1e96f	0.10249602
195	0xbe06b22c	-0.13153905
196	0x3e3bd502	0.18342975
197	0xbd932206	-0.07184224
198	0x3e5d6ad5	0.21622784
199	0xbdf5036b	-0.119635426
200	0xbe0e2145	-0.13879879
201	0xbeb1ee26	-0.34752005
202	0xbca7a69e	-0.020465191
203	0xbe68ab75	-0.22721656
204	0x3d355871	0.044273797
205	0xbe5d4a12	-0.21610287
206	0xbe8c31cd	-0.27381745
207	0xbd39a1d7	-0.045320358
208	0x3e43c374	0.19117528
209	0x3d2d91c7	0.042375352
210	0xbd50a75f	-0.050940868
211	0x3d81fe80	0.0634737
212	0xbe2b1aa8	-0.16709387
213	0xbdd37b0f	-0.10326206
214	0xbe0b0bad	-0.13578673
215	0x3d843a07	0.0645638
216	0x3d894e55	0.06704394
217	0xbc601016	-0.01367571
218	0xbde2dee8	-0.11077672
219	0xbde24501	-0.11048318
220	0xbc2ddc84	-0.010611657
221	0xbd8b7475	-0.06809322
222	0x3dca4759	0.0987689
223	0xbcc652cd	-0.024209404
224	0xbdec7e3c	-0.11547515
225	0x3ddc23a7	0.10748988
226	0xbd4bb83a	-0.04973624
227	0x3dfdc6b4	0.12391415
228	0xbebd9d8d	-0.37034264
229	0x3e549727	0.20760785
230	0xbd92473b	-0.071424924
231	0xbe10fce9	-0.14158978
232	0xbdfa8031	-0.12231482
233	0xbd9d8772	-0.0769185
234	0x3c51e24b	0.0128103
235	0x3d590bb0	0.05298966
236	0x3e844a59	0.25837973
237	0x3df3bd9d	0.119014
238	0x3ca43231	0.020043464
239	0x3e316d45	0.1732684
240	0x3d18dc2b	0.037319344
241	0xbe478183	-0.19482999
242	0x3ec3013b	0.38086876
243	0x3ded6451	0.115913995
244	0xbe030636	-0.12795338
245	0x3ce4f7c2	0.027950171
246	0xbdf0ef98	-0.11764449
247	0x3c541920	0.012945443
248	0x3e0a8792	0.13528278
249	0xbd91d845	-0.07121328
250	0xbd6f77a6	-0.058463715
251	0xbe39d4dd	-0.18147607
252	0x3de45c63	0.11150434
253	0xbea6546a	-0.32486278
254	0x3e0f8e57	0.14019142
255	0x3d721606	0.059103034

network_body._body_endoder.seq_layers.2.bias f4 [128]
0	0x3bf6a4b4	0.0075269584
1	0x3c1fd4c8	0.009755321
2	0x3b8587bd	0.004075019
3	0xbab58781	-0.0013849587
4	0xbbce61ea	-0.0062982934
5	0xbbc9e5f8	-0.0061614476
6	0xbc272135	-0.010200788
7	0x3c255be5	0.01009271
8	0xbbac381e	-0.005255713
9	0xbbf2fb95	-0.007415245
10	0x3baff7d1	0.005370118
11	0x3be1d3d0	0.006891705
12	0x3bdb1cb3	0.006686771
13	0x3af45bc1	0.0018643067
14	0xbc8473de	-0.016168531
15	0xbbef69c0	-0.0073063076
16	0x3c6a8ffb	0.014316554
17	0x3c2c37fa	0.010511393
18	0xb9a0126c	-0.00030531303
19	0xbc186ac2	-0.009302797
20	0x3b9425c3	0.004521103
21	0x3c5e5a4e	0.013571335
22	0x3c768f26	0.015048778
23	0x3c995c4d	0.01872077
24	0x3c60c1b6	0.013718059
25	0x3baa1eee	0.0051916754
26	0x3b07c669	0.0020717627
27	0xbc21ab34	-0.009867478
28	0x3c888981	0.01666713
29	0x3c21ba48	0.009871073
30	0xbb52577e	-0.0032095606
31	0xbbf339f0	-0.007422678
32	0x3c1df50c	0.009640943
33	0xbbab176e	-0.005221299
34	0xbc2f9dc5	-0.0107187675
35	0xbb7faa17	-0.0039011294
36	0xbc1306ea	-0.008973816
37	0x3a5b2bad	0.0008360695
38	0x3c2ec812	0.010667818
39	0x3bda8708	0.006668929
40	0x3bd57dce	0.006515241
41	0xbc0a9a25	-0.0084596025
42	0xba24f49e	-0.00062925543
43	0xb99af98e	-0.00029559102
44	0x3c3a0a18	0.011354946
45	0x399edf66	0.00030302553
46	0x3c189af2	0.009314286
47	0x3bd94f1f	0.0066317464
48	0x3bb0da20	0.0053970963
49	0x3a7f67ee	0.0009742965
50	0xbc69cbfa	-0.014269823
51	0xbb84fc95	-0.0040584304
52	0x3bf9657d	0.0076109753
53	0x3b351e1c	0.0027636355
54	0xbc44cd28	-0.012011804
55	0xbc317787	-0.01083172
56	0x3b0702ef	0.0020601114
57	0xbbadc817	-0.0053033936
58	0xb910d2c9	-0.00013811434
59	0xbc28d25f	-0.010304063
60	0x3bd8ba45	0.006614002
61	0x3c24f7f2	0.01006888
62	0x3c578021	0.013153107
63	0xbb6b4755	-0.0035900672
64	0x3aeac707	0.0017912098
65	0xbbea7976	-0.0071555926
66	0xbb1fd388	-0.0024387557
67	0x3b8a5163	0.004221128
68	0xba57c3db	-0.0008230784
69	0xbb324d9a	-0.0027206899
70	0x3be53e78	0.0069959722
71	0x3c248473	0.010041344
72	0x38f045ac	0.00011457069
73	0xbc2101c9	-0.009827086
74	0x3aea5c81	0.0017880352
75	0xbbc64519	-0.0060507176
76	0xbc19444d	-0.009354663
77	0xbbaf1678	-0.0053432547
78	0x3c069b7c	0.008215781
79	0xbc06538f	-0.008198633
80	0x3b2ada57	0.0026070082
81	0x3c0d5a50	0.008627489
82	0xbba1054d	-0.004913962
83	0x3c443887	0.011976368
84	0x3bcbd85e	0.0062208613
85	0x3b4ba7d9	0.0031075387
86	0x3bb0dffa	0.005397794
87	0x3bc68cbc	0.0060592573
88	0xbc175484	-0.009236459
89	0xbc75fe98	-0.015014313
90	0xbc402d1d	-0.011729506
91	0xbc1fdaff	-0.009756803
92	0xba6a140c	-0.0008929379
93	0xbc12d9de	-0.008963076
94	0x3c10314a	0.008800814
95	0xbb90dabe	-0.0044206074
96	0xbbee3674	-0.007269675
97	0x3c041b01	0.008063079
98	0x3a3b4758	0.0007144115
99	0xbbafae49	-0.0053613526
100	0xbc4d9839	-0.0125485
101	0xbbf67888	-0.0075216927
102	0x3ae2f9ab	0.0017316838
103	0xb9bb1c20	-0.00035688374
104	0x3c1b3b77	0.009474627
105	0x3bbcb6ad	0.0057590813
106	0x3b90a923	0.004414694
107	0x3af1dfa8	0.0018453496
108	0xbbf3bcf7	-0.007438298
109	0xbc0a5a00	-0.008444309
110	0xbc1c3fcc	-0.009536695
111	0xb9ab8abd	-0.0003271903
112	0xbc35e134	-0.011101056
113	0xbc14662c	-0.009057563
114	0xbc4b93c9	-0.012425371
115	0x3b82b31a	0.0039886357
116	0x3b31995f	0.0027099473
117	0x3b689d95	0.0035494317
118	0xbb3db690	-0.0028947927
119	0xbb951aae	-0.0045502996
120	0xbb829eef	-0.0039862315
121	0x3c377ef4	0.011199702
122	0xbc822270	-0.015885562
123	0x3b3893ed	0.0028164343
124	0xbc2f1665	-0.010686492
125	0xbbe20768	-0.0068978556
126	0x3c4918cb	0.0122739775
127	0x3b07c969	0.0020719415

network_body._body_endoder.seq_layers.2.weight f4 [128, 128]
0	0xbd641386	-0.05568268
1	0x3adbbf7b	0.001676544
2	0xbd36a643	-0.044592153
3	0x3c9c5753	0.019084608
4	0x3da14a62	0.078755155
5	0x3d4f3db1	0.050595943
6	0xbdbc7a2f	-0.09202992
7	0x3ddba6f2	0.10725202
8	0xbd4d63a9	-0.05014387
9	0x3d63821a	0.055543996
10	0xbccfe5d8	-0.025378153
11	0xbe2ded46	-0.16985044
12	0xbce1536f	-0.027505605
13	0x3da2f1dd	0.07956288
14	0xbd7cfbe6	-0.061763667
15	0xbde1bf89	-0.110228606
16	0x3d0f2a2e	0.034952335
17	0x3c9cd9b9	0.019146787
18	0x3d96e643	0.07368138
19	0xbe2c3678	-0.16817653
20	0x3d404fe6	0.046951197
21	0x3e28b791	0.16476275
22	0xbd8d4856	-0.068985626
23	0xbdb93d28	-0.09044868
24	0x3d65cebe	0.056105368
25	0xbcef549d	-0.029215151
26	0x3c8aaf0c	0.016929172
27	0xbd659ecc	-0.056059644
28	0x3d1aa4b7	0.03775474
29	0xbdaf4f4f	-0.08560049
30	0xbdbc963f	-0.09208345
31	0xbda9d4ed	-0.082925655
32	0x3da5806e	0.08081137
33	0x3e6947db	0.22781317
34	0x3dc38a12	0.09547819
35	0xbdcb175e	-0.09916566
36	0xbc4d0b33	-0.012514877
37	0x3e6ac6fd	0.2292747
38	0xbd2410e9	-0.04005519
39	0xbba479f9	-0.005019423
40	0xbd7d0283	-0.061769973
41	0xbe1fbae6	-0.1559864
42	0x3d1c9284	0.038225666
43	0x3d2f30ee	0.042771272
44	0x3d2bbec6	0.041929983
45	0x3d37a2c3	0.044832956
46	0xbc6ea4c7	-0.014565653
47	0x3cffb378	0.031213507
48	0x3d8dc46b	0.069222294
49	0xbe2a58a7	-0.1663538
50	0xbdc12954	-0.09431711
51	0x3d25530f	0.040362414
52	0xbd5c8e90	-0.053846896
53	0xbd219368	-0.03944722
54	0x3e69aac2	0.22819045
55	0xbe2ccb93	-0.16874532
56	0xbe417a9c	-0.18894428
57	0xbe09a03b	-0.1344003
58	0xbcf62822	-0.030048434
59	0xbd492ca0	-0.049114823
60	0xbdf440de	-0.11926435
61	0xbd629e2e	-0.055326633
62	0x3d348008	0.044067413
63	0x3cd0638d	0.025438095
64	0x3ca5c86a	0.020237166
65	0x3de75bde	0.11296819
66	0x3bdb20de	0.0066872677
67	0x3d6159d0	0.055017292
68	0x3de2d0a5	0.11074952
69	0xbd7c5169	-0.061601076
70	0xbceb7e05	-0.028746614
71	0xbe0bc971	-0.13651063
72	0xbda23edc	-0.07922146
73	0xbd82b2b8	-0.06381744
74	0x3d3b6320	0.04574883
75	0xbd7a184f	-0.06105834
76	0xbccc4b93	-0.02493838
77	0x3e2de82c	0.16983098
78	0xbd4fa3f7	-0.05069348
79	0x3b380665	0.0028079983
80	0x3e1245c8	0.14284432
81	0xbd23c3f5	-0.0399818
82	0xbe0bbc06	-0.13645944
83	0x3d88d163	0.06680562
84	0xbdfb9ae6	-0.12285404
85	0x3ca99ab6	0.020703655
86	0xbe0786fe	-0.13235089
87	0xbc99aee4	-0.018760152
88	0xbcd62ae5	-0.0261435
89	0xbd87a36d	-0.06622968
90	0xbda4452c	-0.08021006
91	0x3d3f568e	0.046713404
92	0x3dc9c827	0.09852629
93	0x3dbdec2a	0.0927356
94	0x3daa3665	0.08311156
95	0xbc328e61	-0.010898204
96	0xbdb827bd	-0.089919545
97	0xbd37260d	-0.044714022
98	0x3d1ef41f	0.03880703
99	0xbca6a6e3	-0.02034325
100	0x3cd62e38	0.026145086
101	0xbd948ed6	-0.07253806
102	0x3d0cde12	0.03439147
103	0x3deeaefa	0.11654468
104	0x3d2d2c54	0.042278603
105	0xbbd0adc7	-0.006368372
106	0x3cef4326	0.029206824
107	0x3b117cf5	0.0022199724
108	0xbd9ac5b9	-0.07557244
109	0x3d370482	0.044682033
110	0xbdd3f713	-0.1034986
111	0x3dd38ec6	0.10329966
112	0x3cbb6726	0.022876333
113	0x3cbb1560	0.02283734
114	0x3ceaac66	0.02864666
115	0xbdb572d5	-0.08859793
116	0x3e52e7c3	0.20596223
117	0x3dc291f4	0.095004946
118	0x3d9bbf02	0.07604791
119	0x3c91c91f	0.017796097
120	0xbd87bb57	-0.06627529
121	0x3d7be15c	0.061494216
122	0xbd6fc140	-0.058533907
123	0x3c8bcb76	0.017064791
124	0x3a81a0cb	0.0009889839
125	0x3d8ad34d	0.06778584
126	0xbc62a825	-0.013834034
127	0xbdc68f9b	-0.09695359
128	0xbd0a2ff7	-0.03373715
129	0x3be417e6	0.0069608567
130	0xbd7b87be	-0.06140875
131	0x3e19eafc	0.15031046
132	0x3d232aed	0.03983586
133	0xbd2463c2	-0.0401342
134	0xbd6611ab	-0.056169193
135	0x3d935843	0.07194569
136	0x3df5db0f	0.12004673
137	0xbdc280c4	-0.09497216
138	0x3db61246	0.08890204
139	0xbe0085db	-0.12551062
140	0x3da308a7	0.07960635
141	0xbca4487b	-0.020054093
142	0xbd3d056f	-0.04614776
143	0x3e3454b3	0.17610435
144	0xbb90b61d	-0.004416241
145	0x38df0c1a	0.00010635723
146	0x3de783e6	0.113044545
147	0x3da02cb6	0.07821028
148	0xbda18c5b	-0.07888099
149	0x3dc71d2d	0.09722362
150	0x3d58dd09	0.05294517
151	0x3d3ecc95	0.046581823
152	0xbdea0fdc	-0.11428806
153	0xbe012c6a	-0.12614599
154	0x3dd6069b	0.10450479
155	0xbe35071d	-0.17678495
156	0x3cff5c3d	0.031171912
157	0x3dce3952	0.10069527
158	0x3d98d3bc	0.0746226
159	0x3da91149	0.0825525
160	0x3d12030c	0.035647437
161	0x3e105a5b	0.14096968
162	0x3dc5daed	0.096608974
163	0xbb99f619	-0.0046985266
164	0x3cb3b339	0.021936046
165	0x3d0ceb43	0.03440405
166	0x3b190d4d	0.0023353875
167	0xbd3b4cf2	-0.045727678
168	0xbb4417c3	-0.002992139
169	0xbe106983	-0.1410275
170	0x3e0aeb1b	0.13566248
171	0xbcc0c117	-0.023529572
172	0xbe1dd17a	-0.1541194
173	0x3cf211af	0.029549448
174	0xbdf07ce4	-0.11742571
175	0xbc6ebf0e	-0.014571918
176	0xbde89726	-0.11356954
177	0xbd318c95	-0.04334696
178	0xbe037b02	-0.12839893
179	0x3d8d1d97	0.068904094
180	0x3d327a8a	0.043573894
181	0xbe8cdca1	-0.27512076
182	0xbdc6afc0	-0.097014904
183	0xbdd83a2c	-0.105579704
184	0xbcee2fd1	-0.029075535
185	0xbe048220	-0.12940264
186	0xbd1874c9	-0.03722075
187	0xbd6e9d76	-0.058255635
188	0x3da575a9	0.080790825
189	0xbda8fc9a	-0.08251305
190	0xbd32363b	-0.04350875
191	0x3c685845	0.014181201
192	0x3daa45b0	0.08314073
193	0xbe578e82	-0.21050456
194	0xbd29695e	-0.04136025
195	0xbd6e0784	-0.058112636
196	0x3a91f1b2	0.0011134653
197	0x3a41bbb0	0.00073903333
198	0xbc66e110	-0.014091745
199	0xbc9194b9	-0.017771112
200	0xbd08814f	-0.033326443
201	0x3deeb69e	0.11655925
202	0xbd75ae0b	-0.059980433
203	0xbbbbfbb0	-0.0057367906
204	0x3a46e8a8	0.0007587769
205	0x3d8367c4	0.06416276
206	0xbd8449ce	-0.064593896
207	0x3c14a541	0.009072603
208	0x3d2af152	0.041734047
209	0x3d93dde6	0.07220058
210	0x3def5d69	0.116877384
211	0xbb69680f	-0.0035615002
212	0xbbe7b83f	-0.0070715244
213	0x3e88881f	0.26666352
214	0xbe2fff2b	-0.17187183
215	0xbce8fda2	-0.028441254
216	0xbd7bbedd	-0.06146132
217	0x3de068c6	0.10957484
218	0x3d8560d3	0.065126084
219	0x3c76184a	0.015020439
220	0xbdbf5183	-0.09341719
221	0xbdfe8433	-0.12427559
222	0x3e14b784	0.1452313
223	0x3c2b2905	0.010446792
224	0xbc026f42	-0.007961096
225	0x3dcd8826	0.10035734
226	0xbd9efe3f	-0.07763337
227	0x3e11be0a	0.1423265
228	0x3d42850c	0.047490165
229	0xbcf20287	-0.02954222
230	0x3d89d740	0.06730509
231	0x3baf208e	0.005344457
232	0xbd75a124	-0.05996813
233	0x3d4aa6a5	0.04947533
234	0xbd04fc5b	-0.032467227
235	0xbdfdfceb	-0.12401756
236	0x3c2c96cc	0.010534
237	0x3bc2c02c	0.005943319
238	0x3d75fd3c	0.060055956
239	0xbd8c90b6	-0.06863539
240	0xbb082bfb	-0.0020778168
241	0x3e04e009	0.12976088
242	0xbd672db2	-0.056440063
243	0x3bc555d4	0.0060221944
244	0x3de13375	0.10996143
245	0xbce0890b	-0.027409097
246	0xbd0d021e	-0.034425847
247	0x3dfb9c29	0.122856446
248	0x3d922daa	0.07137616
249	0x3d5215e9	0.051290426
250	0xbe00e102	-0.12585834
251	0xbda84492	-0.08216204
252	0xbca531ca	-0.020165343
253	0xbc49a746	-0.0123079475
254	0xbcb15e61	-0.021651449
255	0xbd8c78d5	-0.068589844
