IAV_FINAL/results/results/WolfsRedo1/Sheeps/Sheeps-14290.pt (torch, 555871 bytes, 36 tensors)

network_body._body_endoder.seq_layers.0.weight f4 [128, 44]
00000000: e412 1d3e 2403 033e f622 0cbc f199 e43d
00000010: 77a1 413e 60bd 6d3e 35ec 703d 8340 8cbe
00000020: aa73 78bd 3b90 44bd 09d9 1c3e e1a3 0ebd
00000030: b1d1 4c3c 9823 943d 7db4 f83d d9e1 79bd
00000040: 981f 0f3e 7a10 08be 5a3b 05be ac5b a7bc
00000050: 05c1 47bd 8201 593e bcac 1abd ca01 80bd
00000060: 9bf8 b43d a31a ae3d b119 cbbd ca3d 17bd
00000070: 4bc7 9d3e 324a 723e 0a89 383e a2c7 f7bd
00000080: 8e4f 853e 198c 85bd 3a06 72bd 958c 96bc
00000090: f254 4e3e 83c0 c13d 0bac 6dbe a1a4 15be
000000a0: d542 ac3d d5bb 8d3e 6f91 0bbe daf2 b33d
000000b0: 7d9b 6f3d 0318 583e 2c04 84bd ece8 bbbd
000000c0: df45 033d b179 6d3e f8df 093e a455 3f3e
000000d0: 3b6d b23d f081 043e 2896 16bd 80d0 763e
000000e0: a5b8 d03d 35f2 093e b515 07be 06f0 833c
000000f0: 5190 743e 84cc 6a3d 0583 6c3e a355 0cbe
00000100: f64b d43d 4935 d2bd ac33 5abc 0f16 bbbd
00000110: 1ba4 983c 63ba be3d 1e79 1b3e 89b5 ca3e
00000120: 53b1 debb 0262 a5be 5629 49be 59ef ff3b
00000130: 2666 e6bc ad90 603e 38cc d1bd 8e6b 01be
00000140: 623a 8bbd a284 753d c675 0f3d 4aa7 41bc
00000150: 0c02 80be 627f 61bc c311 93bb 7bb1 b9bd
00000160: 60b9 2a3b b5f8 013e d511 a6bd 7e9d b5bd
00000170: 499a 863d 98d1 b8ba bff6 c23d d708 aa3e
00000180: a6b5 383e 51d2 86bd b643 29be 63d5 91bd
00000190: 615e 403e ec1f 35be dd3d 84be 602c fb3d
000001a0: 81a5 83bd a771 bc3d 4ba6 bd3e 4328 d53e
000001b0: 523d 9f3e 3682 35be c495 803d b913 1fbe
000001c0: 15ac 2c3e 6df8 0a3e 3407 dabd 227f 453d
000001d0: 2d43 41bd 951f d5bb 6fb6 4f3e 4780 35be
000001e0: aa6e 333e bd14 373e 4a1a 37be 26f0 b13d
000001f0: 7abd 193e 6799 2abe 7506 6a3e a5e3 19be
00000200: dd05 be3e 1859 61bd 9045 87be 253d cebd
00000210: fd13 993d 34f8 1fbe fe29 1e3e 020b 98bd
00000220: ecc4 32be 1638 d13d 4216 103e 01f7 543d
00000230: 1eac db3c 0f3c 093d 08df 8b3e a74e 2ebe
00000240: 803b 5fbe 4d2b a53e 50e0 cfbc 12d8 8c3e
00000250: 81d9 4bbe 827a 22bd c00f 2e3d 2c95 343e
00000260: d8d3 81be 2271 523d 418b 323e 456e a6bd
00000270: 0523 febd 4bec c73c 5576 9cbd eceb 77be
00000280: fda3 cd3d e8ba 053e 98e8 86be e394 cd3c
00000290: ebc0 643e 3f2e 09bd 83ca 953e 1d81 613e
000002a0: 2026 1f3e a47c 8f3d a3da 61be bda0 c4bc
000002b0: d9cf 74bd 5e63 5e3d 9cd7 fb3d bd90 d2bd
000002c0: a357 e13d 5b10 6ebe 0658 e03d 8755 1b3e
000002d0: 6453 293a 98cd efbd bf7f e83d f5bb 873c
000002e0: cf12 36be 5502 f83d 4c68 263e c480 56be
000002f0: 0338 083e 1d44 72be 4dcd 283d 38e2 453e
00000300: b624 2fbe 0301 aebe f79a 3dbd e721 fabc
00000310: d7da fabd ccd4 77bd 6f7a 2ebe 5b9d 833d
00000320: a768 8a3e 51df abbc ade1 3d3d 9828 f7bc
00000330: c9fa 9dbe 9b79 65bd 555b 2e3e 1251 49bd
00000340: 7209 17bc 98e2 92be 62f8 29be 7dda 213e
00000350: 673b 59be 0d53 fc3d 75de 103e 2bc5 df3d
00000360: c1c8 bebc f75a c5bd 585d a33d 90e2 4ebe
00000370: b54c e83c 9754 c53d cdcd 803c b1c7 fe3d
00000380: 8bef 8abc 42a0 e4bd 2f00 e5bd 8e9b cebc
00000390: 5430 edbd 2495 f4bd b73d 883e 6389 1ebe
000003a0: bd8b ebbd 2abd 90be 6223 0ebd 5451 02be
000003b0: 61a7 e23d 4b93 7f3e ba8c fa3c 8067 8dbc
000003c0: f88d d0bc 41ef 81be c3ce 27be cedc 28bd
000003d0: 3e75 173d d79f 5b3d 0e8d 3bbe 3c08 b1bd
000003e0: 7a51 2fbe afb2 d03c 1909 86bc 9b4c 903e
000003f0: 20e6 afbd aa08 1abe 9ade 73be bc20 513e
0.15339237 0.12794167 -0.008553257 0.111621745 0.1890925 0.23216772 0.058819015 -0.2739297
-0.06065718 -0.04798911 0.15317167 -0.034824256 0.012501166 0.072333515 0.121438004 -0.0610064
0.13976896 -0.13287535 -0.13010922 -0.020429455 -0.048768062 0.21191981 -0.03776239 -0.06250341
0.0883648 0.08501174 -0.099170096 -0.03692416 0.3081611 0.23661116 0.18021026 -0.12098624
0.26037258 -0.06520862 -0.05908797 -0.018377582 0.20149592 0.09460547 -0.2321016 -0.14613582
0.08411185 0.27682367 -0.13629697 0.08786555 0.058497895 0.2110291 -0.06446108 -0.09175286
0.032049056 0.23190953 0.13464344 0.18685013 0.0871224 0.12940192 -0.036764294 0.24102974
0.10191468 0.13471301 -0.13191874 0.016105663 0.23883177 0.057323948 0.23096855 -0.13704543
0.10366051 -0.102640696 -0.013317984 -0.09135067 0.01863294 0.09312894 0.15182921 0.39591625
-0.006796041 -0.32301337 -0.19644675 0.007810515 -0.02812488 0.2193019 -0.1024403 -0.12638685
-0.06798245 0.05994094 0.035024427 -0.01181967 -0.25001562 -0.013763281 -0.0044882013 -0.09067055
0.0026050434 0.1269253 -0.0810887 -0.0886793 0.06572396 -0.001410055 0.09519719 0.3320987
0.18038043 -0.065830834 -0.16529736 -0.071207784 0.18786003 -0.17687958 -0.25828448 0.12264323
-0.06428052 0.09201365 0.37040934 0.4163228 0.3110147 -0.17725453 0.062785655 -0.15534867
0.16862519 0.1357133 -0.10645905 0.048216946 -0.047183204 -0.006504009 0.20284437 -0.17724715
0.17522684 0.17879005 -0.17881122 0.08688383 0.15013686 -0.16660081 0.22854026 -0.15028246
0.37113848 -0.055016607 -0.2642026 -0.10070256 0.074745156 -0.15622026 0.15445706 -0.074239746
-0.17457932 0.10215776 0.1407099 0.051993374 0.02681547 0.033504542 0.27318597 -0.17022191
-0.21800041 0.32259598 -0.025375515 0.275086 -0.1990719 -0.039667614 0.04249549 0.1763503
-0.25356936 0.051377423 0.17435934 -0.08126501 -0.12409023 0.024404665 -0.076397575 -0.24211091
0.10041044 0.1305958 -0.2634933 0.025095409 0.22339217 -0.03349137 0.29256067 0.22021909
0.15541887 0.07006195 -0.2205606 -0.024002427 -0.05976853 0.054293983 0.122969836 -0.10281513
0.110030435 -0.23248427 0.10954289 0.15169345 0.00064592646 -0.11709136 0.11352491 0.016569117
-0.17780612 0.1210982 0.16250724 -0.20947558 0.13302617 -0.23658796 0.041211415 0.19324577
-0.17103848 -0.33985147 -0.046290364 -0.030533744 -0.12248772 -0.060505673 -0.17038892 0.064264975
0.27032968 -0.020980509 0.0463578 -0.030170724 -0.30855396 -0.056024175 0.17027028 -0.04914958
-0.0092185605 -0.28688502 -0.16598657 0.15806003 -0.21214066 0.12320528 0.1414736 0.10926279
-0.023289086 -0.09636491 0.07976788 -0.20203614 0.02835689 0.09635275 0.015723133 0.12440432
-0.016959926 -0.11163379 -0.11181676 -0.025220659 -0.115814835 -0.11942509 0.26609585 -0.15482096
-0.11501262 -0.2826932 -0.034701712 -0.12726337 0.11067081 0.24958532 0.030584682 -0.017261267
-0.025458321 -0.2537785 -0.16387467 -0.0412262 0.036977045 0.053619232 -0.18315527 -0.08644149
-0.17120925 0.025475828 -0.01636176 0.28183445 -0.08588815 -0.15042368 -0.23815385 0.20422643

network_body._body_endoder.seq_layers.0.bias f4 [128]
00000000: 2b8c 62bb 7b96 a93b 312e 72bb 0db5 d13a
00000010: 59cd fbba 3c56 30bb 31d7 893a d588 143b
00000020: f424 613b da20 38ba 3a9b 2bbb e132 d1ba
00000030: 457d 0cbb c82b 32ba 3489 b73b 0489 fc38
00000040: 15b5 8f3b 4b53 003b 74e1 9aba b3d3 823b
00000050: ed4d 40bb 9c67 c73a fab8 ac3a 5688 d93a
00000060: 2d1c 57ba 9a08 693a 5051 87bb da04 e63b
00000070: 44c5 88ba 018c 40ba cdc2 1c3b b848 2eba
00000080: 4c87 c5bb e092 20bb 4ffa bfbb 6ba4 473a
00000090: 4f14 ccba 2dad 4cbb ca59 5f3b ed54 df3a
000000a0: fc12 083b 324e d739 1b51 7c39 270b 37bb
000000b0: 0820 f13a 5a47 3ebb afec 47bb 03f0 9c3a
000000c0: 1ed1 5ebb b51e fd3a 55d1 f6ba eb56 bdba
000000d0: 2368 7d3b 146b b63a b9de 0e3b 2ec4 edb9
000000e0: e243 85bb b81d 91ba 25f6 31bb a43b 243b
000000f0: f6e7 15bb 37ab a4bb 5ad8 e33a 596a 7c3b
00000100: 2a3a 043b 8b32 743b 7345 faba 65b5 063b
00000110: fd79 42bb 48a9 ac3a 0c0e a33a 5bb4 343a
00000120: 30a4 15bb 22ab 4e3a c8b9 723b f6c1 ba3a
00000130: 2eef 1cbb e214 6f3b ca6e b63a a629 46bb
00000140: 5e10 3fbb 0cfb 0c3b 64a5 2fbb 29db 6abb
00000150: 3c80 923a d41c 7939 3ae8 61bb f32e 023c
00000160: f9b7 79bb ff49 dcba c356 da3a 0e94 9dbb
00000170: 1b90 d03a 0ce8 dbba 6558 c13a d150 c9ba
00000180: b91c b83a d9e2 993b 52d2 e6ba a432 143a
00000190: 5c5f 94bb 9b3e 3bbb 6b41 ddba d62f 7c39
000001a0: 8f0c 893b 50bf 5ebb 4573 723b d56e 2bbb
000001b0: 0365 a8b7 304e edba 2ad9 e4ba d6f1 ddba
000001c0: 9190 ba3b 3c87 68bb afd4 b0bb 0751 d83a
000001d0: 87c9 c9ba 227f 0bbb c77f 0e3b 2872 20bb
000001e0: eb2a 09bb e031 a639 fea9 40ba 4b35 2ebb
000001f0: 24e7 5ebb 27f2 0039 c5fd c33b aa14 97ba
-0.003456841 0.0051754094 -0.0036953802 0.0015999392 -0.0019210979 -0.0026906868 0.0010516403 0.0022664566
0.0034354301 -0.0007023938 -0.0026185052 -0.0015960598 -0.002143697 -0.0006796685 0.0056010727 0.000120418175
0.0043856003 0.0019580896 -0.0011816458 0.0039925217 -0.0029343322 0.0015213373 0.0013177686 0.0016596417
-0.00082057976 0.00088895264 -0.0041295663 0.0070196213 -0.0010434766 -0.0007345081 0.0023919821 -0.0006648409
-0.0060280915 -0.0024501607 -0.0058586965 0.0007615748 -0.0015570017 -0.003123115 0.0034080618 0.001703886
0.0020763269 0.00041066256 0.00024062807 -0.0027930231 0.0018396387 -0.0029034228 -0.0030506065 0.0011973385
-0.0033999155 0.001931152 -0.0018830696 -0.0014445459 0.0038666807 0.001391741 0.0021800234 -0.00045350328
-0.00406693 -0.0011071479 -0.002715477 0.0025059963 -0.0022873855 -0.005025293 0.0017383203 0.0038515537
0.002017627 0.0037261571 -0.0019094184 0.0020554897 -0.0029674761 0.0013173008 0.0012440099 0.000689333
-0.002283346 0.0007883777 0.0037037004 0.0014248479 -0.0023946273 0.0036480953 0.0013918516 -0.0030237227
-0.0029154043 0.002151194 -0.0026801461 -0.0035836196 0.0011177133 0.0002375723 -0.0034470693 0.007945764
-0.003810404 -0.001680672 0.0016657937 -0.0048089093 0.0015912087 -0.0016777529 0.0014751075 -0.0015359168
0.0014046646 0.004696232 -0.0017610288 0.0005653298 -0.0045279693 -0.0028571251 -0.0016880458 0.00024050413
0.0041824053 -0.0033988543 0.0036994976 -0.002615859 -2.0074198e-05 -0.0018104967 -0.001745974 -0.0016933035
0.005693503 -0.0035480997 -0.0053964476 0.001650364 -0.0015395143 -0.0021285494 0.0021743642 -0.0024482105
-0.0020930122 0.00031699147 -0.00073495496 -0.0026582058 -0.0034012282 0.0001229724 0.0059811794 -0.0011526544

network_body._body_endoder.seq_layers.2.weight f4 [128, 128]
00000000: d712 cd38 cf8d 01be 850d df3c 775b 2c3c
00000010: 1352 af3d e620 8abe cb65 b13d 0b91 f2bd
00000020: 53a3 c2bd 26e5 033e 89a8 013c ba48 9a3d
00000030: df2c 16bd a38d 9e3c c6a9 a93d 377e 063e
00000040: 42ad ccbd 092d 70bd 5019 e03b 4734 0a3d
00000050: cacc 6e3d 2c17 9a3c 4870 7cbe bd92 0cbd
00000060: 45c6 1ebe dbb9 93ba 1ad9 873d b74d 88bd
00000070: b984 cb3d 36bd d3bd 3820 f43b 2fb2 233e
00000080: c8e8 2dbd 84c8 85bd 61dd 093e bad2 72bd
00000090: dd7c 423e 8fdc 1fbe 45a0 9d3c a94e cabd
000000a0: de68 e33d fcd4 2bbe e57c aabd 434b e6bd
000000b0: 3a1b f2bd 49f7 84bd 2687 d3bb 66fb 973d
000000c0: 0edd 10bd 94ed dd3d 1608 e0bd 6885 46bd
000000d0: a00e 8d3d 2b0f 203d 6816 37bd dbb3 31bd
000000e0: 989c ed3c 1312 ef3d e336 d8bd eca4 403d
000000f0: e6bb 26be dcab 523d 92ad 863d 66be 303c
00000100: 0e66 ebbd 58bd 2fbd f4cb 63be 88b7 79bd
00000110: f87e e73d ead4 0a3c d5b3 a4bc 21cf 8cbd
00000120: 72ad 8d3c d5c6 e9bd d536 e33c 4f07 213d
00000130: 3ced e73d 8942 34bd d84b 89bd 9564 1b3c
00000140: ec73 f63d 701a 86bd 6d80 1bbe eb0e b03c
00000150: a862 26be a34b f9bd b454 06bd 42e3 a4bd
00000160: 91ee d0bd c8da 92bd 5282 3abd 4c4f fdbc
00000170: 3ccf 96bd e034 d33d 67be 4bbd 144b 703d
00000180: 2402 643d a4fe b03d 555b 113d 7d24 f43d
00000190: 31b0 e4bd 8bf4 5cbd 88a4 eb3d 371b 2abe
000001a0: ec76 7cbd d5d2 a43d a36d 253a f063 033c
000001b0: 49f8 243d 9689 a9bd 75c2 a4bd 6f3f 8c3d
000001c0: 3cbc c03d ecd9 713e b809 3fbc 1d9a 393c
000001d0: b80f 08be b416 8e3c b0c5 013d 1ebd 5ebe
000001e0: 3d53 e2bd 9230 55bd f108 8c3d 6e4a a93d
000001f0: d40a acbc a037 84bb 0092 113e 1901 99bd
00000200: 38e4 17be ee40 9dbd 21d2 c4bd 36ab d03d
00000210: 81be 16be 3c75 9b3d 2fa2 bc3d 6ae4 b73d
00000220: d67a 40bd b203 48be 2e8a 393d aab3 213d
00000230: 61b8 3f3e c448 c5bb d2f2 a73d 8404 9bbd
00000240: 8619 873d ad64 663d 1bc9 5fbd 5d24 f23b
00000250: 688c d83d 8e6e 09be 8075 093e 9899 b0bd
00000260: a93e 653d 9c5f 9ebd 032c 483d 57b9 b8bd
00000270: f22e 32bc c053 cdbc 3b3f f8bd 1c87 093c
00000280: 93a2 a5bd 2901 493e 10cc ae3c c1e5 b5bd
00000290: 5862 b5bd 2053 483e f27d c9bd 3e5a be3d
000002a0: aa36 a63c 5c2e fc3d 0505 c5bc b48b 963d
000002b0: a2a2 023e 629e a53d d120 983d fdfb c6bc
000002c0: 213e 503d ec59 f138 8962 b13c b14c a8bb
000002d0: 7b2b b4bd c92c 8e3d e162 53bd a961 edbb
000002e0: a4bc b93d cb90 003e 3a57 1abe 516b 7bbd
000002f0: 09e1 b8bd fbfb 223d 8c64 ab3c 48da 3abe
00000300: 4ec4 0a3e 1274 7b3d d7e2 433d 6b2a cf3d
00000310: 66f2 cbbd b41e 133d 751c 69bd 3e59 c23d
00000320: fb5f 063e 8f4e 26bd 9f54 903d 576b 543d
00000330: 2614 11bd 07dc 60be 4ccf 833d 8b77 2a3d
00000340: 9141 37bd d600 43be 22a8 c5bc e2b5 733d
00000350: 32e9 8a3e 31f2 483d acb6 7bbd 00b3 6f3d
00000360: 5ae9 0e3d 7992 58be d410 86bd 6b95 693d
00000370: 2f16 8b3c c73c 1fbd a85c c8bd ea12 cf3b
00000380: cc11 d3bd a764 f53d 1a8e 9cbd 21da 083d
00000390: f38c e2bd 8b0a 423c 682a 533d 17a2 19bd
000003a0: aa93 e7bd 7937 b63d 0f60 1f3d 38e9 173d
000003b0: 63a0 303e 7492 42be 1e7f 243e 2b66 b9bd
000003c0: d954 8d3d fa0a 98bd 2236 32bc ee3b 103e
000003d0: fdd4 bfbd cf8e 363d a74a 9dbd bd2c acbc
000003e0: 9e5e 0f3d 68e5 a33d 0729 87bd 9774 f53c
000003f0: a50a 2c3e e8e3 573d e272 6d3c 26e5 083e
9.778671e-05 -0.12651752 0.027228126 0.010519854 0.08560576 -0.26978225 0.086619936 -0.11844071
-0.09503808 0.12880382 0.007913717 0.07533403 -0.036663886 0.019354647 0.08284335 0.13134085
-0.09993984 -0.0586367 0.006838955 0.03374126 0.05830077 0.018809877 -0.24652207 -0.034319628
-0.15505321 -0.0011270599 0.06633206 -0.06655448 0.09937424 -0.103388235 0.00745013 0.1598594
-0.042458326 -0.06532386 0.13463356 -0.059282996 0.18992944 -0.1561148 0.019241462 -0.098782845
0.11103986 -0.16780466 -0.08324603 -0.11244824 -0.11821599 -0.064924784 -0.00645532 0.07420997
-0.035367064 0.1083633 -0.10939042 -0.04846707 0.06887555 0.039076965 -0.044699103 -0.043384414
0.029005334 0.11673369 -0.10557344 0.04703228 -0.16282615 0.05143343 0.06576075 0.010787582
-0.11494075 -0.04290518 -0.2224577 -0.060966045 0.11303514 0.008473614 -0.020105282 -0.06875444
0.01729462 -0.11414877 0.027736107 0.03931361 0.11324546 -0.044008765 -0.06703919 0.00948443
0.12033829 -0.06548011 -0.1518571 0.021491488 -0.16248572 -0.1217263 -0.032795623 -0.080511585
-0.10201753 -0.071706355 -0.04553444 -0.0309216 -0.073637456 0.103128195 -0.04974213 0.05866535
0.055666104 0.08642319 0.03548749 0.11921022 -0.11166418 -0.05394415 0.11505991 -0.16611944
-0.06163685 0.080480255 0.00063105876 0.008019432 0.040275846 -0.082781956 -0.08044902 0.068480365
0.09410903 0.23618287 -0.011660032 0.011328247 -0.13287246 0.01734481 0.03168267 -0.2175183
-0.11051033 -0.052048273 0.06837643 0.082661495 -0.021001257 -0.0040349513 0.14215851 -0.074709125
-0.14833152 -0.076784 -0.096103914 0.10188906 -0.14721109 0.0759072 0.092106216 0.089791134
-0.046992145 -0.1953266 0.045297794 0.03947798 0.18722679 -0.006020637 0.08200611 -0.07569221
0.06596665 0.056248356 -0.05463515 0.0073895887 0.10573655 -0.1342108 0.13423729 -0.08623046
0.05596796 -0.0773308 0.048870098 -0.09019726 -0.01087545 -0.02506435 -0.12121435 0.008394029
-0.08087649 0.19629349 0.021337539 -0.08881713 -0.08856648 0.1956296 -0.09838475 0.09294556
0.020289738 0.1231353 -0.024050245 0.07350865 0.12757352 0.0808685 0.07428134 -0.02429008
0.0508405 0.00011508525 0.02165343 -0.0051360955 -0.08797356 0.06942136 -0.05160797 -0.007244308
0.090691835 0.12555234 -0.15072337 -0.06138164 -0.09027297 0.03979109 0.020921968 -0.1824733
0.13551447 0.06138999 0.047823753 0.101155125 -0.09958343 0.035917953 -0.056911904 0.09489678
0.13122551 -0.040602263 0.0704739 0.05186018 -0.035419606 -0.21958934 0.06436023 0.04161791
-0.044740263 -0.19043288 -0.024128024 0.05949963 0.2713104 0.049059097 -0.061453506 0.058520317
0.03489051 -0.21149625 -0.065461785 0.05702726 0.016978351 -0.03887632 -0.09783298 0.0063193934
-0.10306129 0.119820885 -0.07644291 0.03341115 -0.1106204 0.011843334 0.051554114 -0.037508097
-0.113074616 0.08897299 0.038909968 0.03708765 0.17248683 -0.1900118 0.16064116 -0.0905269
0.06900949 -0.074239686 -0.010877164 0.14085361 -0.09366796 0.044569787 -0.076802544 -0.021017427
0.035002343 0.0800274 -0.06599622 0.029962821 0.16800936 0.052707583 0.014492722 0.13368663

network_body._body_endoder.seq_layers.2.bias f4 [128]
00000000: c891 7e3b 9aac 803a bb02 033b 6f86 5bbb
00000010: 4632 cdba 2464 f6ba 5dac 0bbb 9c3d 33bb
00000020: 9705 053b e274 3cbb c9ca 0cbb f4ec df3a
00000030: 114b b43a d74e 813a aeef 20bb 1430 4dbb
00000040: c750 963a 0be3 7e3b 622f 37bb 024b 4cba
00000050: 7eba b13a 73d3 0e3b 366f 863b dddc a33a
00000060: bcc1 273a 4e99 46bb f359 653b fbbe 54bb
00000070: 21ac 233a 93e6 6d3b 0246 2fbb 7efc 2b3a
00000080: 39eb 0bbb 3c40 29bb 8250 10bb 3a36 143b
00000090: ff60 d23a 0f53 bc3a 97ad 273a cfe8 20bb
000000a0: c7a3 1d3b 3fbc 90ba 1eda 51bb f620 a23a
000000b0: 809c 8fbb 7515 c53a ab81 5dba 49cd d03a
000000c0: 2d7f faba 1a57 89bb fa4e e53a 985e 1a3b
000000d0: 6d6d 5e3b ff04 65b9 8f5b 8bbb 4036 073b
000000e0: 2fff bb3a 7a3b 0bbb 8baa a63a 1788 de3a
000000f0: 6982 f73a 8f7a 803a c3c1 133b eddf 1fbb
00000100: d3c6 d63a 2778 c6ba 357f e0b7 bc33 ec3a
00000110: f8ef c43a 8e49 53bb 8b72 133b 9ce6 c73a
00000120: 0d7e 18bb 754f e6ba 1351 dfba a2f5 0fbb
00000130: ed43 4dba e720 15bb 6a96 fcba 2f6c b5ba
00000140: b046 c5ba daa0 6bbb 231d 213b c092 07bb
00000150: 8974 973a 301a 14bb df79 a93a 6781 1dbb
00000160: a767 cd3a 4173 99ba 522b 8f3a 58f4 7e3b
00000170: 7dba 3dbb 6a56 de3a bcd2 c73a 3224 47bb
00000180: cb0f c73a 7c37 913a ec3e 933a 961c 24bb
00000190: 656a cd3a 09ed 59bb b982 943a 2d8e 2f3a
000001a0: 28b1 52bb 9de3 b73a a557 b5ba f748 ffba
000001b0: cd71 21bb b0ed 86ba a0b9 0cbb e98d 1c3b
000001c0: 9354 793a 73ea 46bb e384 df3a 7a23 32bb
000001d0: 8cf1 a43a 034d 32bb 03dd 103b 7f80 b23a
000001e0: fb23 2dbb 4748 05bb 0ac9 b139 bc58 0dbb
000001f0: b81c 1339 aaf7 faba a112 11bb 11e2 913a
0.0038844217 0.0009817064 0.001999064 -0.0033496877 -0.0015655241 -0.0018798155 -0.0021312453 -0.0027349954
0.0020297521 -0.002875619 -0.0021483174 0.0017084167 0.0013755282 0.0009865415 -0.0024556923 -0.0031309174
0.0011468165 0.0038892652 -0.0027951826 -0.00077931595 0.0013559607 0.0021793514 0.004102613 0.0012501735
0.0006399413 -0.003030378 0.003499624 -0.0032462466 0.0006243606 0.0036300763 -0.0026744609 0.00065607566
-0.002134992 -0.002582564 -0.0022020643 0.002261533 0.0016050636 0.0014368015 0.00063964113 -0.0024552827
0.0024053918 -0.001104243 -0.0032020877 0.0012369442 -0.00438267 0.0015036302 -0.0008449803 0.001593032
-0.0019111388 -0.0041912915 0.001749485 0.0023554917 0.0033939735 -0.00021841003 -0.004252858 0.00206317
0.0014343018 -0.0021245168 0.0012715621 0.0016977814 0.001888347 0.000980215 0.002254591 -0.0024394945
0.0016386159 -0.0015142009 -2.6762116e-05 0.0018020789 0.001502513 -0.0032239887 0.0022498693 0.0015251222
-0.0023268491 -0.0017571287 -0.0017037712 -0.0021966477 -0.0007830251 -0.0022755207 -0.0019270901 -0.0013841445
-0.0015050974 -0.003595403 0.0024584017 -0.0020686835 0.0011555116 -0.0022598617 0.0012929997 -0.0024033429
0.001567115 -0.0011707322 0.0010922945 0.0038902964 -0.0028950267 0.0016963009 0.0015245299 -0.0030386564
0.0015187202 0.0011079158 0.0011233962 -0.0025041453 0.0015671967 -0.0033252856 0.0011330462 0.0006696906
-0.003214905 0.0014029626 -0.0013835324 -0.0019476701 -0.002463448 -0.0010294225 -0.0021472946 0.0023888296
0.0009511199 -0.0030352145 0.0017053153 -0.002718179 0.0012584194 -0.0027206547 0.002210439 0.0013618617
-0.002641915 -0.002033727 0.00033909857 -0.0021567782 0.00014029711 -0.0019147296 -0.0022136348 0.0011129995

action_model._continuous_distribution.log_sigma f4 [1, 2]
00000000: b0c6 553b a40b ffb8
0.0032619648 -0.00012161516

action_model._continuous_distribution.mu.weight f4 [2, 128]
00000000: e3ac 4ebc 350b 973b 6f83 d7bc ae06 273c
00000010: afb2 de3a 24b6 02bc 7399 d43c 50c5 203d
00000020: 1061 5fbc 7c3b b63c ab58 d23c a387 debc
00000030: 1941 25bc 4b66 573c 0815 f13c 62eb b33c
00000040: 51b6 2939 3c00 87bc d821 053c 0220 ac39
00000050: a37a 40bb 3e20 a4bc e481 85bc 052a 243b
00000060: 445d eb3b e36c a63c 7deb 7dbc a7e4 a03c
00000070: 6dd4 e43b 069a 96bc c989 113d 7598 97ba
00000080: 9c96 9b3b ff89 b83c c09c 97ba 9288 3bbd
00000090: 7f22 153c 25b5 56bc 306a 25bc 8700 773c
000000a0: d526 b2bb 5d44 d93b 2798 9a3c 32f4 1abc
000000b0: 4655 363c 6ad3 26bc 2ab8 913b 2f62 86bc
000000c0: c3af 243c c030 1f3d e864 6bbc eb88 f4bc
000000d0: a448 e4bc f1b6 acbb ccf0 b63c f78f 6fbc
000000e0: 1276 a1ba fb04 de3c 45d1 dbbb 729c 97bc
000000f0: 835a 79bc 25e9 a23b 0a85 0ebd aa72 993c
00000100: a078 fbbc 573b 043c 31ec d1ba 1977 a7bc
00000110: 5b42 9cbb 4c19 573c b36f 13bd d86f 46bc
00000120: ce31 a73c ad09 713a dc6e 713c 0ac1 873b
00000130: e600 3b3b 79de e23b 934c e73c 4077 513b
00000140: c3ae 503c c106 dd3c d26f 45bd cf2f 8b3c
00000150: 0d5e ecbb 2179 423c 2f95 90bc cb76 a43c
00000160: 8a65 dcbb b853 333c 3f0b 253b f4fb 7dbc
00000170: be0e 093c cd07 1bbd 753f 93bc 9818 26bb
00000180: abba 7fbc efdd e3bb 6459 c4ba e3ea 043c
00000190: 604b 52bc 48da b23c f840 eebb 8965 0ebc
000001a0: a328 c23c dffc 7abb 7afb 993b 1d36 623c
000001b0: 66df 823c 6bb4 bb3b 2d4e 473b f153 02bd
000001c0: c74b 82bb c51b 8d3c 8676 15bc 6d8d a53c
000001d0: 5a79 0fbc 5581 9f3c af2b 9ebc 5d4e 21bb
000001e0: 6c9f 183d 1c0a 873c 65cf 843b 69df 083d
000001f0: 0dd7 c3bc e419 0a3c 6bf7 203d 3dc6 8aba
00000200: b004 063c 1a56 c8bc e71c 01bc f767 a739
00000210: cc7d 2b3c a396 043a 88d4 c13b d1c5 4c3c
00000220: 0b9b b43c 16b4 8639 7ff4 263c 6f24 3b3b
00000230: 87dc b6bc 3914 e9bc cd59 c13b 4a3b 2ebc
00000240: 765c 84bc bd49 413b db7a 8e3b 825d ac3c
00000250: 5abc adba 7496 043b fe3c e73b 10b9 ccbc
00000260: 3e78 88bc 521c 253b 5541 ecba de3d 2abc
00000270: 692c 9dbc 5c6c 1aba 4a3a 99bb 5522 bdbb
00000280: 9ac9 7e3c c7d4 463c 5031 7b3c 2d43 703c
00000290: af23 14bc ebbe 7ebc 183b 113c c0cd f63b
000002a0: ccf6 1e3c 8ce5 983c 3ad1 1fbb 2f63 17bc
000002b0: fbf4 b9bb cae6 abbc 026f 483c 18cd 3e3c
000002c0: 971c e83b 34a1 a5bc f136 1c3c c360 65bc
000002d0: 5fa7 213c 66ee 8a3c 4f59 69bb b2bb c93c
000002e0: 8742 12bc bdf3 883c e70f fdbc fcda d9bc
000002f0: 1dfc 163c 3029 c7bb 5bdf 9d3c d89d 94bc
00000300: 4532 8dbc 5092 b43b cc8b f73b 467b 6c3c
00000310: 4400 32bc a288 64bb 256c 43b9 db84 7b3b
00000320: f1ec 34bc 66ed b73c b7a3 893c e916 b83b
00000330: 548e 113c 1f05 813a a15c a03c d172 393c
00000340: 09ae 953c 1da8 2abb 0b8e 6a3b 215c f73b
00000350: 884e dcbb 5dc5 c1ba cc85 803c 711e ff3b
00000360: f959 7b3c a74b 13bc 26a6 abbc ec6b bb3b
00000370: 5a4b 80bb e880 3abc fa0a 203c 201f 8b39
00000380: 2978 c4bc eb07 2dbc 1aa4 d6bc 1b57 4abb
00000390: 2056 a8bb 041e 50bc c18c 273a 9edf b73c
000003a0: 2cd1 f7bb 304f 6fbc bf44 bd3c ad5f 863c
000003b0: 2728 013c 77c3 a53c 3872 53b8 f872 d7ba
000003c0: 1382 21bc 34c1 38bc 31f5 8dbc 5ad1 6e3b
000003d0: 67b4 06bd 646f f8bb a3f2 083c 1eca 13bc
000003e0: 5cf6 41bb b66f ed3b 28e1 bdbb 1523 b73c
000003f0: bac1 963d 4f67 a93b aab4 d13c 41ef 35bc
-0.012614462 0.0046094903 -0.02630779 0.010194464 0.0016990508 -0.007977996 0.025952077 0.039250672
-0.013633981 0.022245161 0.025677046 -0.027164286 -0.010086321 0.013146947 0.029428974 0.021962825
0.00016185014 -0.016479604 0.008125745 0.00032830244 -0.0029369972 -0.020034906 -0.016297288 0.002504946
0.007182749 0.020315593 -0.015498039 0.01964028 0.006983331 -0.018383991 0.035531793 -0.0011565821
0.0047481786 0.02252674 -0.0011567101 -0.04578454 0.009102463 -0.013104712 -0.010096118 0.015075809
-0.005436758 0.006630464 0.01887138 -0.009457635 0.011128729 -0.010182241 0.004447003 -0.01640424
0.0100516705 0.03886485 -0.01436732 -0.029850444 -0.027866669 -0.0052708318 0.022331618 -0.014621726
-0.0012318513 0.027101984 -0.0067082965 -0.018507216 -0.015219334 0.0049716407 -0.034794845 0.018731434
-0.030697167 0.008070788 -0.0016015825 -0.020442532 -0.0047686524 0.01312859 -0.035995197 -0.012111627
0.02040949 0.0009194862 0.014735904 0.004142885 0.002853447 0.0069234935 0.028234756 0.0031961948
0.012736979 0.02698076 -0.048202343 0.01699057 -0.00721336 0.0118697 -0.017649261 0.020076176
-0.0067259716 0.010945253 0.0025183705 -0.015501965 0.008365331 -0.037849236 -0.017974595 -0.002534425
-0.01560847 -0.006953947 -0.0014980254 0.008112642 -0.012835354 0.0218326 -0.0072709285 -0.0086912
0.023701018 -0.0038297696 0.004699168 0.013806847 0.015975665 0.0057282946 0.0030411587 -0.031818334
-0.0039763185 0.017225156 -0.0091224965 0.020209039 -0.00875696 0.01947085 -0.01930794 -0.0024613359
0.03726141 0.016484313 0.0040530437 0.033416186 -0.023906255 0.008429024 0.039298456 -0.0010587644
0.0081798285 -0.024455119 -0.007880426 0.00031930182 0.010467004 0.0005057847 0.0059152283 0.012498335
0.022046586 0.00025692646 0.010190128 0.0028555652 -0.022321953 -0.028452026 0.0059005977 -0.010634253
-0.01615737 0.0029493414 0.0043481416 0.021040682 -0.0013254986 0.0020231279 0.0070568314 -0.024990588
-0.016658898 0.0025193882 -0.0018024842 -0.010390727 -0.019186215 -0.00058907806 -0.004676138 -0.005771915
0.015550995 0.012135691 0.015331581 0.014664453 -0.009041711 -0.015548448 0.008864187 0.0075318515
0.009702396 0.018664144 -0.0024386183 -0.009239956 -0.005674956 -0.020984072 0.012233498 0.011645578
0.0070834863 -0.02021847 0.009534583 -0.014000121 0.009866565 0.01695938 -0.003560621 0.024625633
-0.008926994 0.016717786 -0.030891372 -0.026593678 0.009215382 -0.006077908 0.019271543 -0.018141672
-0.017235884 0.005510606 0.007554507 0.014433688 -0.010864321 -0.0034871479 -0.00018636936 0.0038378749
-0.011042819 0.022452068 0.016801698 0.0056179655 0.008884031 0.0009843445 0.019575419 0.011318878
0.018271463 -0.0026040145 0.003579023 0.0075488244 -0.006723229 -0.001478355 0.0156888 0.0077856113
0.015341275 -0.008990205 -0.02095325 0.0057196524 -0.0039152326 -0.011383273 0.009768242 0.00026535336
-0.023983078 -0.01056097 -0.026201297 -0.0030874673 -0.00513722 -0.012702469 0.00063915184 0.022445496
-0.007562777 -0.014606282 0.02310407 0.016403044 0.007883108 0.020234806 -5.0412695e-05 -0.0016437462
-0.009857672 -0.011276532 -0.01732883 0.0036440701 -0.03288689 -0.007581638 0.00835863 -0.009020356
-0.0029596305 0.007245983 -0.005794663 0.022355596 0.07361169 0.005169786 0.025598843 -0.011104406

action_model._continuous_distribution.mu.bias f4 [2]
00000000: 01cf 33bb 5ccc a7ba
-0.0027436616 -0.0012801993

exp_avg f4 [128, 44]
00000000: 0000 0000 0000 0000 4bf2 a932 0948 e932
00000010: 0000 0000 0000 0000 4bf2 a932 8f3f 0133
00000020: 0000 0000 0000 0000 4bf2 a932 4688 e032
00000030: a0d7 11b7 0000 0000 54aa 8d36 8911 0c37
00000040: 0000 0000 0000 0000 4bf2 a932 2da6 dc32
00000050: 9f8b 6e35 0000 0000 3fda de35 9cae d236
00000060: 0000 0000 0000 0000 4bf2 a932 4b68 e232
00000070: 3172 0d36 0000 0000 da1d a8b6 de70 d8b4
00000080: 0000 0000 0000 0000 4bf2 a932 ba20 e932
00000090: 106a 1b36 0000 0000 78eb 7bb5 adc6 85b6
000000a0: 0000 0000 0000 0000 4bf2 a932 167d fe32
000000b0: 0000 0000 0000 0000 05b9 6db2 afbc 08b2
000000c0: 0000 0000 0000 0000 05b9 6db2 c41b cbb1
000000d0: 0000 0000 0000 0000 05b9 6db2 3d39 15b2
000000e0: 2eb2 7c36 0000 0000 f943 07b4 bf21 fab5
000000f0: 0000 0000 0000 0000 05b9 6db2 a62b 17b2
00000100: 0933 ca35 0000 0000 0de3 70b5 a04f e6b5
00000110: 0000 0000 0000 0000 05b9 6db2 a66e 18b2
00000120: 9445 19b5 0000 0000 d54d 2b36 f72c c135
00000130: 0000 0000 0000 0000 05b9 6db2 0b48 09b2
00000140: 624f 87b5 0000 0000 25a1 3a36 54ad 9a36
00000150: 0000 0000 0000 0000 05b9 6db2 3ba7 c1b1
00000160: 0000 0000 0000 0000 1c57 9033 811b 9733
00000170: 0000 0000 0000 0000 1c57 9033 ab17 9a33
00000180: 0000 0000 0000 0000 1c57 9033 0856 9633
00000190: 8381 3bb7 0000 0000 9c67 5e36 aa64 9536
000001a0: 0000 0000 0000 0000 1c57 9033 e288 9533
000001b0: 8e2e 8cb6 0000 0000 e239 a235 15fc 3e36
000001c0: 0000 0000 0000 0000 1c57 9033 66ab 9633
000001d0: eddb 6135 0000 0000 6539 05b7 e9ea 71b6
000001e0: 0000 0000 0000 0000 1c57 9033 6315 9733
000001f0: 580d 4836 0000 0000 6178 04b7 cb2e f7b6
00000200: 0000 0000 0000 0000 1c57 9033 15dc 9833
00000210: 0000 0000 0000 0000 c99e a5b2 b598 ba32
00000220: 0000 0000 0000 0000 c99e a5b2 bcf0 1d33
00000230: 0000 0000 0000 0000 c99e a5b2 5b84 8b32
00000240: c02d feb5 0000 0000 fe4b 9f37 08f8 9537
00000250: 0000 0000 0000 0000 c99e a5b2 4291 7c32
00000260: 1569 b3b5 0000 0000 7d59 8737 1047 8a37
00000270: 0000 0000 0000 0000 c99e a5b2 28b2 8b32
00000280: 319a 0633 0000 0000 0cf4 6c37 d2af 8137
00000290: 0000 0000 0000 0000 c99e a5b2 6e59 be32
000002a0: af72 c734 0000 0000 b8e1 4837 e1bc 8037
000002b0: 0000 0000 0000 0000 c99e a5b2 4853 2433
000002c0: 0000 0000 0000 0000 34d3 52b0 b56d 99b3
000002d0: 0000 0000 0000 0000 34d3 52b0 988f d1b3
000002e0: 0000 0000 0000 0000 34d3 52b0 3f84 85b3
000002f0: aa5d 7e37 0000 0000 32da 14b8 06e7 1ab8
00000300: 0000 0000 0000 0000 34d3 52b0 b330 7eb3
00000310: 28c7 c336 0000 0000 7237 09b8 f5ad 12b8
00000320: 0000 0000 0000 0000 34d3 52b0 0677 86b3
00000330: 3968 e6b5 0000 0000 ba69 88b7 438f c5b7
00000340: 0000 0000 0000 0000 34d3 52b0 7a64 9bb3
00000350: dc78 b6b5 0000 0000 6ea1 84b7 255d 97b7
00000360: 0000 0000 0000 0000 34d3 52b0 f9ef d5b3
00000370: 0000 0000 0000 0000 a16f 3833 944b 3d33
00000380: 0000 0000 0000 0000 a16f 3833 e79d 4033
00000390: 0000 0000 0000 0000 a16f 3833 1219 3d33
000003a0: 4791 13b7 0000 0000 cfcd 6bb5 237d 6d36
000003b0: 0000 0000 0000 0000 a16f 3833 e9e0 3b33
000003c0: d880 a4b6 0000 0000 101e cf36 4b45 cf36
000003d0: 0000 0000 0000 0000 a16f 3833 1888 3e33
000003e0: fecc 3b36 0000 0000 f5d8 f4b6 12c4 9eb5
000003f0: 0000 0000 0000 0000 a16f 3833 6e15 3e33
0.0 0.0 1.9784371e-08 2.7157528e-08 0.0 0.0 1.9784371e-08 3.009296e-08
0.0 0.0 1.9784371e-08 2.6139002e-08 -8.692878e-06 0.0 4.2219563e-06 8.348733e-06
0.0 0.0 1.9784371e-08 2.5686939e-08 8.8865085e-07 0.0 1.6603807e-06 6.278815e-06
0.0 0.0 1.9784371e-08 2.635729e-08 2.1077105e-06 0.0 -5.0102653e-06 -4.0315257e-07
0.0 0.0 1.9784371e-08 2.7139652e-08 2.3158536e-06 0.0 -9.384744e-07 -3.986838e-06
0.0 0.0 1.9784371e-08 2.9626374e-08 0.0 0.0 -1.3837284e-08 -7.959144e-09
0.0 0.0 -1.3837284e-08 -5.911234e-09 0.0 0.0 -1.3837284e-08 -8.685956e-09
3.765464e-06 0.0 -1.2597583e-07 -1.8636273e-06 0.0 0.0 -1.3837284e-08 -8.799281e-09
1.5065026e-06 0.0 -8.973737e-07 -1.7159509e-06 0.0 0.0 -1.3837284e-08 -8.872723e-09
-5.709819e-07 0.0 2.552629e-06 1.4392707e-06 0.0 0.0 -1.3837284e-08 -7.99083e-09
-1.0081387e-06 0.0 2.7809958e-06 4.6097357e-06 0.0 0.0 -1.3837284e-08 -5.636051e-09
0.0 0.0 6.7213676e-08 7.0364884e-08 0.0 0.0 6.7213676e-08 7.175489e-08
0.0 0.0 6.7213676e-08 7.000568e-08 -1.1176223e-05 0.0 3.3140886e-06 4.452265e-06
0.0 0.0 6.7213676e-08 6.963252e-08 -4.177745e-06 0.0 1.2086787e-06 2.8458937e-06
0.0 0.0 6.7213676e-08 7.0160965e-08 8.4139066e-07 0.0 -7.940781e-06 -3.6048534e-06
0.0 0.0 6.7213676e-08 7.035376e-08 2.981009e-06 0.0 -7.895841e-06 -7.366621e-06
0.0 0.0 6.7213676e-08 7.118084e-08 0.0 0.0 -1.9280735e-08 2.1722693e-08
0.0 0.0 -1.9280735e-08 3.6773358e-08 0.0 0.0 -1.9280735e-08 1.6241918e-08
-1.893779e-06 0.0 1.8989664e-05 1.7877683e-05 0.0 0.0 -1.9280735e-08 1.4701358e-08
-1.3367122e-06 0.0 1.6134925e-05 1.6483973e-05 0.0 0.0 -1.9280735e-08 1.6262746e-08
3.1339543e-08 0.0 1.4123518e-05 1.5459871e-05 0.0 0.0 -1.9280735e-08 2.2159579e-08
3.7150082e-07 0.0 1.1973483e-05 1.5346743e-05 0.0 0.0 -1.9280735e-08 3.825997e-08
0.0 0.0 -7.669769e-10 -7.144573e-08 0.0 0.0 -7.669769e-10 -9.7584405e-08
0.0 0.0 -7.669769e-10 -6.2173505e-08 1.5161388e-05 0.0 -3.548916e-05 -3.693162e-05
0.0 0.0 -7.669769e-10 -5.9183275e-08 5.8346377e-06 0.0 -3.2714983e-05 -3.4971123e-05
0.0 0.0 -7.669769e-10 -6.2615115e-08 -1.7166668e-06 0.0 -1.6261696e-05 -2.3550941e-05
0.0 0.0 -7.669769e-10 -7.2360265e-08 -1.3595231e-06 0.0 -1.5810798e-05 -1.8043977e-05
0.0 0.0 -7.669769e-10 -9.962236e-08 0.0 0.0 4.2942364e-08 4.407373e-08
0.0 0.0 4.2942364e-08 4.4847095e-08 0.0 0.0 4.2942364e-08 4.4027793e-08
-8.795708e-06 0.0 -8.7843813e-07 3.5388591e-06 0.0 0.0 4.2942364e-08 4.3743885e-08
-4.9025803e-06 0.0 6.1725805e-06 6.1771475e-06 0.0 0.0 4.2942364e-08 4.43616e-08
2.7984493e-06 0.0 -7.297024e-06 -1.1828981e-06 0.0 0.0 4.2942364e-08 4.4257312e-08

exp_avg_sq f4 [128, 44]
00000000: 0000 0000 0000 0000 1741 8e27 3fee bd27
00000010: 0000 0000 0000 0000 1741 8e27 1878 ec27
00000020: 0000 0000 0000 0000 1741 8e27 a68e b027
00000030: 1183 382e 0000 0000 bfbc 822f 432f a02f
00000040: 0000 0000 0000 0000 1741 8e27 1051 ad27
00000050: 6177 fc2d 0000 0000 3eaf 842f 1b39 9c2f
00000060: 0000 0000 0000 0000 1741 8e27 b806 b127
00000070: 27b9 aa2d 0000 0000 b78c 832f 6725 982f
00000080: 0000 0000 0000 0000 1741 8e27 210c bf27
00000090: cc9c e72d 0000 0000 d529 642f 5848 952f
000000a0: 0000 0000 0000 0000 1741 8e27 578f f127
000000b0: 0000 0000 0000 0000 162c 0b27 df65 1327
000000c0: 0000 0000 0000 0000 162c 0b27 3cc6 1d27
000000d0: 0000 0000 0000 0000 162c 0b27 7281 1027
000000e0: 190d ee2c 0000 0000 db5a c72d e919 0e2e
000000f0: 0000 0000 0000 0000 162c 0b27 b6d4 0f27
00000100: bb63 cf2c 0000 0000 4647 d42d f828 112e
00000110: 0000 0000 0000 0000 162c 0b27 db9c 1027
00000120: 4033 2c2c 0000 0000 f413 de2d 66e1 0b2e
00000130: 0000 0000 0000 0000 162c 0b27 7695 1327
00000140: e206 5b2c 0000 0000 a2f2 a52d 7ecb ff2d
00000150: 0000 0000 0000 0000 162c 0b27 db92 1e27
00000160: 0000 0000 0000 0000 813b 4d29 d3bc 4c29
00000170: 0000 0000 0000 0000 813b 4d29 dc31 5029
00000180: 0000 0000 0000 0000 813b 4d29 1cf0 4b29
00000190: 96e4 5e2e 0000 0000 3550 5f2f 0319 912f
000001a0: 0000 0000 0000 0000 813b 4d29 27c3 4b29
000001b0: 8ae4 2b2e 0000 0000 5314 762f cc75 992f
000001c0: 0000 0000 0000 0000 813b 4d29 66f6 4b29
000001d0: 68e8 502d 0000 0000 4e28 8f2f 96f2 a22f
000001e0: 0000 0000 0000 0000 813b 4d29 70c8 4c29
000001f0: fae5 932d 0000 0000 307e 8a2f df00 a82f
00000200: 0000 0000 0000 0000 813b 4d29 a980 5029
00000210: 0000 0000 0000 0000 9a1a 8727 8c2c 8f27
00000220: 0000 0000 0000 0000 9a1a 8727 f955 9b27
00000230: 0000 0000 0000 0000 9a1a 8727 60f2 8b27
00000240: 9905 802c 0000 0000 596d 042f 2f9a 0e2f
00000250: 0000 0000 0000 0000 9a1a 8727 2f31 8b27
00000260: 5ac1 942c 0000 0000 b78d 002f bece 0d2f
00000270: 0000 0000 0000 0000 9a1a 8727 8e09 8c27
00000280: 008d 162d 0000 0000 8290 cb2e 4f6b df2e
00000290: 0000 0000 0000 0000 9a1a 8727 6976 8f27
000002a0: 8737 3b2c 0000 0000 642f f82e 782a 042f
000002b0: 0000 0000 0000 0000 9a1a 8727 1eb8 9c27
000002c0: 0000 0000 0000 0000 7aeb da22 f868 ac27
000002d0: 0000 0000 0000 0000 7aeb da22 43ba 2028
000002e0: 0000 0000 0000 0000 7aeb da22 0e2b 8127
000002f0: d7ec c42e 0000 0000 c5f3 8c30 a9cc 9630
00000300: 0000 0000 0000 0000 7aeb da22 9dc3 6c27
00000310: b60f b62e 0000 0000 5603 6730 2054 8930
00000320: 0000 0000 0000 0000 7aeb da22 a4b1 8127
00000330: 040c 8a2d 0000 0000 3291 8b30 c1d3 9030
00000340: 0000 0000 0000 0000 7aeb da22 0b50 af27
00000350: cd90 452d 0000 0000 66c9 9f30 ea0e a330
00000360: 0000 0000 0000 0000 7aeb da22 26a4 2928
00000370: 0000 0000 0000 0000 a78b a728 8d97 a828
00000380: 0000 0000 0000 0000 a78b a728 41b1 b328
00000390: 0000 0000 0000 0000 a78b a728 3dfc a528
000003a0: 3608 0a2e 0000 0000 b72e fd2f 449f 1030
000003b0: 0000 0000 0000 0000 a78b a728 e36f a528
000003c0: 36a4 162e 0000 0000 247d 1230 805a 1d30
000003d0: 0000 0000 0000 0000 a78b a728 633a a628
000003e0: a392 3e2d 0000 0000 aec4 1030 3395 1730
000003f0: 0000 0000 0000 0000 a78b a728 5111 a928
0.0 0.0 3.948349e-15 5.2716345e-15 0.0 0.0 3.948349e-15 6.5633364e-15
0.0 0.0 3.948349e-15 4.9004473e-15 4.1953167e-11 0.0 2.3780974e-10 2.9137412e-10
0.0 0.0 3.948349e-15 4.8105034e-15 2.8702098e-11 0.0 2.4135177e-10 2.841681e-10
0.0 0.0 3.948349e-15 4.9134653e-15 1.9408987e-11 0.0 2.3928745e-10 2.7675215e-10
0.0 0.0 3.948349e-15 5.30263e-15 2.6331291e-11 0.0 2.0751341e-10 2.7154345e-10
0.0 0.0 3.948349e-15 6.7046347e-15 0.0 0.0 1.9314024e-15 2.0455573e-15
0.0 0.0 1.9314024e-15 2.189559e-15 0.0 0.0 1.9314024e-15 2.0054187e-15
6.765821e-12 0.0 2.2664029e-11 3.2310075e-11 0.0 0.0 1.9314024e-15 1.9960547e-15
5.894366e-12 0.0 2.4133261e-11 3.300557e-11 0.0 0.0 1.9314024e-15 2.0069046e-15
2.447112e-12 0.0 2.5247339e-11 3.1805135e-11 0.0 0.0 1.9314024e-15 2.048137e-15
3.1125593e-12 0.0 1.8866079e-11 2.9080512e-11 0.0 0.0 1.9314024e-15 2.2006515e-15
0.0 0.0 4.5570755e-14 4.546088e-14 0.0 0.0 4.5570755e-14 4.6228524e-14
0.0 0.0 4.5570755e-14 4.5283316e-14 5.067998e-11 0.0 2.0310227e-10 2.6393118e-10
0.0 0.0 4.5570755e-14 4.5244322e-14 3.9083882e-11 0.0 2.238079e-10 2.7914238e-10
0.0 0.0 4.5570755e-14 4.528877e-14 1.1875036e-11 0.0 2.6040187e-10 2.9639996e-10
0.0 0.0 4.5570755e-14 4.547095e-14 1.6814095e-11 0.0 2.5191715e-10 3.055964e-10
0.0 0.0 4.5570755e-14 4.6296873e-14 0.0 0.0 3.749887e-15 3.973877e-15
0.0 0.0 3.749887e-15 4.3114354e-15 0.0 0.0 3.749887e-15 3.8843034e-15
3.6386003e-12 0.0 1.2044178e-10 1.2969602e-10 0.0 0.0 3.749887e-15 3.8633575e-15
4.2278793e-12 0.0 1.169188e-10 1.2897325e-10 0.0 0.0 3.749887e-15 3.8868165e-15
8.557821e-12 0.0 9.257041e-11 1.0159928e-10 0.0 0.0 3.749887e-15 3.9818854e-15
2.6605122e-12 0.0 1.12861526e-10 1.2020418e-10 0.0 0.0 3.749887e-15 4.349832e-15
0.0 0.0 5.933834e-18 4.7853397e-15 0.0 0.0 5.933834e-18 8.922173e-15
0.0 0.0 5.933834e-18 3.5851373e-15 8.955119e-11 0.0 1.0255624e-09 1.0972104e-09
0.0 0.0 5.933834e-18 3.2857621e-15 8.2791926e-11 0.0 8.404205e-10 9.991972e-10
0.0 0.0 5.933834e-18 3.599729e-15 1.569412e-11 0.0 1.0154848e-09 1.0537563e-09
0.0 0.0 5.933834e-18 4.865904e-15 1.1230306e-11 0.0 1.1626013e-09 1.186405e-09
0.0 0.0 5.933834e-18 9.416979e-15 0.0 0.0 1.8601289e-14 1.8717471e-14
0.0 0.0 1.8601289e-14 1.9949864e-14 0.0 0.0 1.8601289e-14 1.842807e-14
3.138486e-11 0.0 4.6053625e-10 5.2613225e-10 0.0 0.0 1.8601289e-14 1.8367203e-14
3.42519e-11 0.0 5.3292326e-10 5.7244876e-10 0.0 0.0 1.8601289e-14 1.8455023e-14
1.08328095e-11 0.0 5.2666393e-10 5.5145505e-10 0.0 0.0 1.8601289e-14 1.8770279e-14

exp_avg f4 [128]
00000000: eb2e 8636 8d9f 4536 a645 ef35 a962 b337
00000010: a93b 1bb8 5199 5435 e43e 7338 557f 3535
00000020: 37d2 3935 b919 18b7 6876 6cb7 cd4d 5bb8
00000030: c0ca 21b6 6b64 bc38 514e 4ab7 e7f2 f537
00000040: 1c07 00b8 6aef 4e37 0268 b6b7 c7d8 45b7
00000050: 8ae3 5fb7 60df 4f37 7581 c137 d64f f137
00000060: b403 f7b7 603c 95b7 11bd 50b4 be2d d8b6
00000070: 15f2 9237 8603 e437 9bee 3033 4bc9 1cb8
00000080: 89ea c236 bfd6 d437 51d2 ae36 16a1 7038
00000090: 8879 9ab7 d3e2 4737 71ab 6a35 20d3 fb36
000000a0: 9a28 df36 ebe4 ab37 2884 7438 87a5 ba34
000000b0: c7ad ce37 5c0d 86b7 7a6f ed36 9c18 fa36
000000c0: 2190 1638 9eb0 da37 6fce df37 99d6 bfb7
000000d0: abb9 c3b5 be76 be37 8bc6 7337 8128 a2b7
000000e0: 0ca8 3838 e69e 8ab6 3882 e5b6 4d38 0637
000000f0: 873b 6238 3dea e736 e637 de37 9827 2fb7
00000100: b801 7637 3e6e 1837 b109 bab4 6a35 9337
00000110: e2f4 50b6 7b67 2637 a512 f337 b55b 9138
00000120: cb80 7437 bfd0 2838 91ff 8836 7690 4338
00000130: b2cd c3b7 23a5 98b7 fa2e 08b8 54ce ee36
00000140: 3b49 30b8 320e 5935 41df 4cb6 4d3a 1237
00000150: 213b a138 c7d6 1738 9127 0437 b14d 0ab7
00000160: dbb9 18b5 ed44 11b8 7135 4fb7 ab09 2cb7
00000170: b080 c037 4ec1 a8b8 8793 6f38 b427 02b8
00000180: 072a ed37 0fd0 3535 6bd8 67b8 9b1d 9237
00000190: c4bf 0236 ca22 8738 b313 c5b7 a3ef 75b7
000001a0: cc59 6cb7 193a c036 5412 2eb7 bf23 ebb6
000001b0: 94e5 a1b7 7694 3db8 7644 6238 e337 cdb7
000001c0: 3cd4 86b7 c487 1cb7 0541 2937 32b5 c637
000001d0: 52dc 1bb8 1b85 2db7 79d0 1138 e5da 2fb7
000001e0: 1ca7 3138 06ea 5037 ae29 b4b7 3ce8 2db5
000001f0: 5121 88b6 bb1c 7436 df5d 33b7 2bd0 a7b6
3.998973e-06 2.9448158e-06 1.7827158e-06 2.1384405e-05 -3.7010443e-05 7.919926e-07 5.7994286e-05 6.7613047e-07
6.9223773e-07 -9.065895e-06 -1.4094265e-05 -5.2286126e-05 -2.4108886e-06 8.983243e-05 -1.2058373e-05 2.9319386e-05
-3.05242e-05 1.23343e-05 -2.1744523e-05 -1.1792587e-05 -1.3344814e-05 1.239017e-05 2.3067676e-05 2.8766615e-05
-2.9446419e-05 -1.7790298e-05 -1.9440292e-07 -6.4426267e-06 1.7517285e-05 2.7181359e-05 4.1195204e-08 -3.7380767e-05
5.808954e-06 2.5372368e-05 5.210088e-06 5.7370482e-05 -1.8414823e-05 1.1914136e-05 8.7421273e-07 7.504961e-06
6.6506445e-06 2.0491387e-05 5.8297213e-05 3.4765637e-07 2.4638035e-05 -1.5980266e-05 7.076128e-06 7.4534455e-06
3.5897017e-05 2.6069869e-05 2.66798e-05 -2.2868904e-05 -1.4582669e-06 2.2705059e-05 1.4530156e-05 -1.9330766e-05
4.4025524e-05 -4.1312187e-06 -6.8398913e-06 8.000131e-06 5.3938038e-05 6.9116054e-06 2.6490492e-05 -1.04400315e-05
1.4663143e-05 9.085574e-06 -3.465225e-07 1.7548638e-05 -3.1136956e-06 9.9184645e-06 2.897654e-05 6.9312206e-05
1.457352e-05 4.024873e-05 4.0828677e-06 4.6626163e-05 -2.3341596e-05 -1.819671e-05 -3.2468677e-05 7.1169725e-06
-4.202987e-05 8.0859456e-07 -3.052832e-06 8.715852e-06 7.688092e-05 3.6201232e-05 7.877025e-06 -8.24353e-06
-5.689487e-07 -3.4634886e-05 -1.2350604e-05 -1.025425e-05 2.2948108e-05 -8.04687e-05 5.7119436e-05 -3.103139e-05
2.8272172e-05 6.773052e-07 -5.5276247e-05 1.7418342e-05 1.9483132e-06 6.4437816e-05 -2.3493403e-05 -1.4658933e-05
-1.4087604e-05 5.7288094e-06 -1.03754755e-05 -7.007707e-06 -1.9299601e-05 -4.5199376e-05 5.3946358e-05 -2.4463929e-05
-1.6072874e-05 -9.329935e-06 1.00883235e-05 2.3687815e-05 -3.716007e-05 -1.0342595e-05 3.476485e-05 -1.0481778e-05
4.235572e-05 1.2452254e-05 -2.147708e-05 -6.478547e-07 -4.0569944e-06 3.6375557e-06 -1.06910875e-05 -5.001222e-06

exp_avg_sq f4 [128]
00000000: 8ed2 f22f 84e9 722e ef65 f52f 5bb9 1a2f
00000010: 74fd b630 8af1 3030 0f96 fe30 a0d5 dc2f
00000020: f1de c32e d8e0 032f 2063 c22f a6a5 a630
00000030: ae0a b82e 80c4 4431 bdb8 542e dda3 922f
00000040: cd03 a930 f77e 842f f94f 612f 4efa 092e
00000050: 7c0c 902f c0a5 d02e 1273 882f f8ac b22f
00000060: 25b6 ea2f 5f12 0b2f 6717 8d2e cd5b 202d
00000070: 0c4f 372f 132d 882f 8e43 9130 8a11 d22f
00000080: ce30 c32e 0de7 a430 777e 1c2e 244e a230
00000090: 29b0 a72f 9fcd 9e2f db2d 592f cd78 4e30
000000a0: 9c6e 0b31 6207 1c2f 8617 0731 6cf5 4b2f
000000b0: 4af1 6b2f 493c 632f 0024 0130 0f73 2c31
000000c0: 9d33 7630 8abd 0031 a3f1 3930 a3b6 8b2f
000000d0: 784a 5a30 3764 8b2f 6e04 ad2f 21ee f92e
000000e0: cc0c e32f 5898 bb2e a791 4c30 1f28 bf2e
000000f0: 9a54 a030 7be6 732e 38ab 7c30 1c09 c02f
00000100: 5091 622e 68a4 b62f cbb0 5b2f 0abb 592f
00000110: 21a0 4930 c1b6 1030 afd8 9e30 1269 b530
00000120: dbdc 452f cbcd 9530 66e0 962f a18b a230
00000130: 1dca 1130 e06e 5f2f 7891 bf2f 309d 9030
00000140: 4e27 b930 1de9 d32f cc3e bc2d ae20 122e
00000150: 0f50 e230 f167 a030 f82a 892f 24a1 082e
00000160: f12a 372f b6c4 4130 b4c9 6230 0237 e92f
00000170: 9ac2 4c30 1fbf 5c31 2d13 fa31 585c 3230
00000180: 6617 ae30 efd9 632e c80b b230 8075 0b2f
00000190: f29d fb2e 78ee eb30 e087 842f 8842 cc2e
000001a0: 4e59 662f 0d69 192f a1f9 4b2e 7a02 eb2f
000001b0: c6e8 1830 a4fc 8330 6e4d 8030 80ac 922f
000001c0: 2468 b22f b129 d92e a8f8 812e 57a5 c02f
000001d0: 6988 2f30 4c85 532e a713 0931 b8c7 4430
000001e0: 224e 0530 5022 a42e f3bc 2d2f 6c2c 8d30
000001f0: 92e2 ef2f 84ad cc2d 957e 3b2e c13d 412f
4.4169152e-10 5.5231833e-11 4.4637669e-10 1.407207e-10 1.3314279e-09 6.4371675e-10 1.8523582e-09 4.0169557e-10
8.907176e-11 1.1994261e-10 3.5358827e-10 1.212517e-09 8.3692483e-11 2.8633451e-09 4.83673e-11 2.6673677e-10
1.2297449e-09 2.4100874e-10 2.0492043e-10 3.137251e-11 2.6202318e-10 9.488188e-11 2.4820018e-10 3.2500913e-10
4.2693774e-10 1.2648503e-10 6.416095e-11 9.115331e-12 1.6671836e-10 2.4770283e-10 1.0569339e-09 3.821124e-10
8.876243e-11 1.1998239e-09 3.5582617e-11 1.180926e-09 3.0502292e-10 2.8886135e-10 1.9752326e-10 7.511403e-10
2.0290036e-09 1.419074e-10 1.9658457e-09 1.8549934e-10 2.1458849e-10 2.0666947e-10 4.6981086e-10 2.5094697e-09
8.9567626e-10 1.8734192e-09 6.7645994e-10 2.5413724e-10 7.9413764e-10 2.535516e-10 3.1471664e-10 1.1365509e-10
4.1300152e-10 8.530837e-11 7.442175e-10 8.692801e-11 1.1665577e-09 5.545651e-11 9.192038e-10 3.493107e-10
5.1515514e-11 3.3222425e-10 1.9980743e-10 1.9802485e-10 7.335093e-10 5.2646604e-10 1.1557598e-09 1.3199346e-09
1.7995509e-10 1.0899667e-09 2.7444286e-10 1.1826736e-09 5.3037913e-10 2.0321123e-10 3.484606e-10 1.0522054e-09
1.3471693e-09 3.8546313e-10 2.1401013e-11 3.3225582e-11 1.6466418e-09 1.1671074e-09 2.4950686e-10 3.106594e-11
1.6659009e-10 7.0492534e-10 8.250496e-10 4.2421539e-10 7.4491313e-10 3.2122853e-09 7.2781376e-09 6.488725e-10
1.2666816e-09 5.1807388e-11 1.2954553e-09 1.2683721e-10 1.1442215e-10 1.7166277e-09 2.4107205e-10 9.288664e-11
2.0950106e-10 1.395259e-10 4.637857e-11 4.274801e-10 5.562807e-10 9.603309e-10 9.335233e-10 2.6679814e-10
3.2452008e-10 9.8754234e-11 5.910411e-11 3.5042078e-10 6.385848e-10 4.8094237e-11 1.9947295e-09 7.15882e-10
4.849615e-10 7.463952e-11 1.5801387e-10 1.0271726e-09 4.3634835e-10 2.3269171e-11 4.2631305e-11 1.7575187e-10
