IAV_FINAL/results/wolfFinal2/Wolfs/Wolfs-205960.pt (torch, 243071 bytes, 24 tensors)

network_body._body_endoder.seq_layers.0.weight f4 [256, 35]
000000 2c 14 ed 3d 16 da 02 be e8 eb 84 be 9f d7 1c be
       0.11576113 -0.12778506 -0.25961232 -0.15316628
000010 57 07 70 3d 7b 8b 9a bc a4 ad 07 be e5 b5 2f be
       0.05860075 -0.018865338 -0.13249832 -0.17159231
000020 bd bf 4d 3e 9f 26 19 be 7d da ac 3e 9c 40 78 be
       0.20092674 -0.14956139 0.33760443 -0.24243397
000030 35 f1 d0 be 60 17 33 bc 7a 03 b7 3d a0 44 ad bd
       -0.40809026 -0.010930866 0.0893621 -0.08460355
000040 74 9c 14 be 5a 64 90 be ef 2e fa bc 77 51 ad bc
       -0.14512807 -0.28201562 -0.030539958 -0.02115701
000050 56 eb 1b be 3d 83 a4 3c ca b1 03 bd a2 dd 34 3e
       -0.15226492 0.02008211 -0.032151975 0.17662671
000060 e6 af d5 bd 74 78 2e 3d d0 f8 c3 bd f3 96 5b 3e
       -0.104339406 0.04259534 -0.095689416 0.21444301
000070 d4 5b ce bd 28 ee 17 3e 39 cd cf 3d 58 2c b6 3e
       -0.100761086 0.14836943 0.10146565 0.35580707
000080 d7 a1 11 3e 94 2d 46 3e 72 2f 75 3d 3f 10 cd bd
       0.14221893 0.19353324 0.0598597 -0.10012864
000090 c8 34 01 3e 9e ca 00 3e 99 a3 bf 3d c0 4e 1b be
       0.1261779 0.12577292 0.09357376 -0.1516676
0000a0 c1 89 c9 bc ab 3a 91 be c1 34 22 3e 75 00 8c bd
       -0.024601819 -0.28365073 0.15840437 -0.06836025
0000b0 02 20 ba 3c 03 0a 43 be ad 09 0b be 69 da 73 3c
       0.02272034 -0.19046788 -0.1357791 0.014883616
0000c0 50 13 47 3d b5 f0 f7 3d ba f9 8b 3e 38 df 8d be
       0.048602402 0.12106458 0.27338964 -0.27709365
0000d0 4e 2d 00 3f a6 3f 68 3d 50 27 58 be 4b e4 37 3d
       0.5006913 0.056701325 -0.21108747 0.04489545
0000e0 fc 96 1e 3e da d4 2d be 9b f7 f2 bd ba ac 7d 3d
       0.15487283 -0.16975728 -0.11863633 0.061932303
0000f0 3d 7b 8d be fa 95 d7 bc c1 43 74 3e a1 0b 01 bf
       -0.27633086 -0.026316632 0.23853971 -0.5040837
000100 2b b5 fc 3d 49 9b 58 bc 78 63 d8 3d aa 7e 88 3e
       0.123392425 -0.013220617 0.10565847 0.26659137
000110 0e d4 e4 3c e1 70 ba 3b 32 4c e6 bd 87 95 08 be
       0.027933147 0.0056897257 -0.11245002 -0.1333829
000120 d3 1f 15 3e 0f 78 21 be 7d 48 91 3e bc 42 2d 3e
       0.14562921 -0.15768455 0.28375617 0.16919988
000130 b3 90 d0 3e e6 a8 60 3c c4 f4 45 3e b6 db 9c 3e
       0.40735397 0.0137121435 0.19331652 0.30636376
000140 6c 37 87 be 21 92 43 be f1 5b 6f 3e 57 89 5a 3c
       -0.2640947 -0.19098713 0.23374917 0.013338408
000150 15 49 3d 3a f9 a9 0b bd da 04 75 bd c2 80 97 bc
       0.0007220668 -0.034097645 -0.05981908 -0.018494014
000160 b3 5b 2f 3e 53 04 0e be b2 92 82 3c 25 5f 6f be
       0.17124824 -0.13868837 0.01593909 -0.23376139
000170 43 24 e4 bd 71 f1 8c be 65 f4 85 bc 83 c7 84 3d
       -0.11139729 -0.27527955 -0.016351888 0.06483366
000180 6f a6 ef 3d 94 2a 86 bd a9 fe bc 3d 1c 48 50 3d
       0.117016666 -0.0655109 0.0922826 0.05085002
000190 a9 50 34 3e 1a 42 2f be 5c f5 11 bd 85 d1 4c be
       0.17608894 -0.1711506 -0.035634384 -0.200018
0001a0 df 27 14 3e d4 83 9e 3e b3 a4 02 3e 35 92 c8 bd
       0.14468335 0.30959952 0.1275814 -0.09793512
0001b0 62 21 39 3e 75 c6 a1 3e ff 75 17 3d f1 be 8d 3d
       0.18079141 0.31596723 0.036977764 0.06921185
0001c0 6f e0 b5 3d 74 3b 9d 3d f4 f0 b0 be fb bd 91 3d
       0.08880698 0.076773554 -0.34558833 0.07116314
0001d0 b2 ea 91 3d 76 74 a3 be e4 34 98 be 73 ce 64 be
       0.07124843 -0.3192479 -0.29727852 -0.22344379
0001e0 5f 48 41 3e 39 93 4a 3d eb f1 50 be da 88 d7 bd
       0.18875264 0.04945681 -0.20404784 -0.10524149
0001f0 df 20 6b be 63 2c 91 3e 4d 78 06 3d 5c 4e 88 3d
       -0.22961758 0.28354177 0.03282957 0.06655571
000200 39 09 0a be ba a4 87 3d e2 b5 36 bd 98 9b 09 be
       -0.1348008 0.06623216 -0.04460705 -0.1343826
000210 16 f9 6d be 10 84 77 3e 45 45 b0 bd db 6b 1f be
       -0.2323955 0.24171472 -0.08606962 -0.15568487
000220 a5 6b b7 3d 0b 6b 3c 3e d5 c3 00 be 6f 4e cc 3c
       0.089560784 0.18400209 -0.12574704 0.024939744
000230 92 38 31 bd 3b 2e 8b 3d d6 db 12 be 9e fe 1b be
       -0.04326684 0.06795927 -0.14341673 -0.15233847
000240 7b 20 38 3e b0 c7 1d 3e 5c da 4f bd b0 2e 51 3e
       0.1798114 0.15408206 -0.050745353 0.20427966
000250 7e 11 19 3e b6 44 7c bd 8c 33 07 be 83 fd 1c bc
       0.14948079 -0.061588965 -0.13203257 -0.009581926
000260 dd c6 81 bd ef 5f 2a bd ae 5c c0 bc 6d e3 47 bc
       -0.06336758 -0.041595396 -0.023481693 -0.012200219
000270 df 6b 37 be 0b 75 c2 bd 33 98 01 bd bd bb 8a be
       -0.17912243 -0.094949804 -0.03163929 -0.27096358
000280 0a b3 82 be 58 55 b2 bd fb f6 6e 3c a7 8c 37 be
       -0.2552722 -0.08707684 0.014585252 -0.17924748
000290 c5 79 09 be 67 25 32 bd 88 26 08 3e b8 07 f2 bb
       -0.13425358 -0.0434927 0.13295949 -0.007386174
0002a0 d7 44 f3 bd bd 9e e9 3e 91 10 c8 bc 85 0f 50 be
       -0.118783645 0.4562892 -0.024421962 -0.2031842
0002b0 b9 c0 a5 bd a7 b7 72 be bc 2f 27 3d e1 1f a0 be
       -0.080933996 -0.2370287 0.040817007 -0.31274322
0002c0 b2 ee 43 bd c5 30 c6 3d 2a 3b 85 3d ca 1d ae 3b
       -0.04783506 0.09677271 0.06505425 0.0053136097
0002d0 16 88 79 bd bc 80 a3 be 4d 1f a1 3e 4e 0d 1e be
       -0.060920797 -0.31934154 0.31469193 -0.15434763
0002e0 02 a9 6e 3e 74 3a 15 be d6 64 a9 be db bb 4e 3e
       0.23306659 -0.1457308 -0.33084744 0.20188849
0002f0 f5 89 7a 3e ca fe 14 3e 68 ff 7c be 6a c6 ce 3c
       0.24466689 0.1455032 -0.24706805 0.025241096
000300 6b 65 f5 3d bc 3a 1e 3e 3d e4 c4 bd 62 71 47 bd
       0.119822346 0.15452093 -0.096138455 -0.048692115
000310 46 b7 12 3d 26 ac 63 3e 1b a4 1d bd ad 53 ff 3d
       0.035819314 0.22233638 -0.03848658 0.12467132
000320 43 f0 35 3e a4 80 93 be 58 f2 85 be f6 6b 07 be
       0.17767434 -0.28809083 -0.26161456 -0.13224778
000330 e1 bf 01 3e 71 06 76 be b9 e1 e8 be 97 13 6d 3e
       0.12670852 -0.24025895 -0.45484713 0.23152004
000340 4c 72 d7 3d 1e cf 79 be c4 a1 13 be 7a 50 08 be
       0.10519847 -0.24395415 -0.14417177 -0.1331195
000350 16 b2 e0 3d 61 f9 a7 3d d7 df 72 be f2 64 f3 bd
       0.10971467 0.08201862 -0.237182 -0.11884488
000360 16 6c 4b be 33 e5 a1 bd 27 74 3f be ba f5 80 3d
       -0.1986545 -0.079050444 -0.18696652 0.062968686
000370 d0 52 8c 3e 9d 50 54 bd c6 09 fa bc 50 8a 13 bd
       0.2740693 -0.05183469 -0.030522238 -0.036020577
000380 67 fb 96 be 54 23 21 be e8 bc 85 3d ca 7d 9a be
       -0.2948868 -0.15736133 0.06530172 -0.30174094
000390 5c b5 82 3d b5 ac 97 3e f1 b1 c5 3d 6c aa 45 bc
       0.06382248 0.29623953 0.0965308 -0.0120645575
0003a0 59 0e f8 3c 84 61 f8 3c 4c 7e 7b 3d 6a 85 2a 3e
       0.030280279 0.030319937 0.061399743 0.16652456
0003b0 ef 92 e2 bd 09 4a 99 3d 69 17 24 3e 52 f8 e2 bd
       -0.110631816 0.07484824 0.16024555 -0.110825196
0003c0 e1 24 ec bd 53 c5 27 3e 6e 8e 15 be 13 f7 30 3d
       -0.115304716 0.16383867 -0.14605114 0.04320438
0003d0 d6 94 66 3e 2e 8c 90 be e9 81 8b 3d 56 df 44 be
       0.22517714 -0.2823195 0.06811888 -0.19225821
0003e0 cc 63 f5 3c cb 41 1a 3e 85 72 1d 3e 8d 3a ae bd
       0.029954813 0.1506416 0.15375717 -0.085072614
0003f0 a9 a4 bc 3d 4a 9e 65 bd 03 18 17 bd 21 72 6d bd
       0.09211094 -0.05605916 -0.036888134 -0.05797017

network_body._body_endoder.seq_layers.0.bias f4 [256]
000000 39 fb 02 3d f7 16 07 3c 47 a2 85 3b d5 8b 01 bc
       0.031977866 0.008245221 0.004078183 -0.007906874
000010 af 57 92 ba 1b ee bb 3c 18 4d 03 3c 50 d4 db bb
       -0.0011165048 0.022940686 0.008013986 -0.006708659
000020 53 f9 e7 3b 24 ec 70 3c e8 6f 91 ba 56 4d ff 3b
       0.0070792823 0.014704738 -0.0011095973 0.0077912016
000030 12 ad 01 3c aa 7d b5 3b 9d 7f d6 3a a1 99 6e 3c
       0.007914798 0.005538662 0.0016364936 0.014562995
000040 e7 9f 29 3c 44 3e 29 3c 9d dc 82 3b 88 8e b2 3a
       0.010353065 0.010329787 0.0039935843 0.00136228
000050 d9 73 e9 bb 4f 33 25 3c 24 88 49 bb 8d 84 c3 b9
       -0.007124406 0.010083034 -0.0030751312 -0.00037292056
000060 4e e7 26 3c 7a e6 43 bb 8d f5 e5 3b b8 fe 72 3b
       0.010186983 -0.0029892013 0.0070177973 0.0037078094
000070 22 55 3a 3c e4 8c 74 3c 6d f9 95 3b 4d 81 47 3b
       0.011372836 0.014926169 0.004576853 0.003044206
000080 dd 0e 80 bb 6d 21 b3 3b bd 18 9b 3b 0a 28 21 3c
       -0.003908022 0.005466631 0.0047331736 0.009836206
000090 bf 3c 8f 3b 84 5a 22 3b 77 82 38 3c ea 0d 9a 3c
       0.004371255 0.002477319 0.011261574 0.018805463
0000a0 69 8e 1c 3c 25 48 35 3c 53 5e ac 3b c1 e3 8f 3b
       0.009555438 0.011064564 0.0052602678 0.004391164
0000b0 3b c1 88 3b 22 73 3d 3c a0 9d d4 3c 03 0a 03 bc
       0.0041734255 0.011563094 0.025954068 -0.007997992
0000c0 39 cd c1 bb 44 6d 02 3b 41 cc 41 3c 7b 51 19 3c
       -0.005914357 0.0019901553 0.011828483 0.009357805
0000d0 d1 a4 83 bb 58 7b f8 3b b4 13 eb bb 27 aa 40 3c
       -0.0040174504 0.007583063 -0.0071739797 0.0117593175
0000e0 75 6c 5f bc 4e 95 3d ba 99 67 c2 b9 cc 5c 24 3b
       -0.013636698 -0.0007232026 -0.0003707975 0.0025079725
0000f0 89 50 4b 3c 8d 15 d7 3c 4b 90 57 bc 43 3a d2 3c
       0.012409338 0.026255393 -0.013156961 0.025662547
000100 45 a6 b7 ba ad d3 ae 3b 93 0b a5 bb 82 b1 1b 3c
       -0.0014011344 0.0053352923 -0.00503678 0.00950277
000110 1c 2a c7 ba 3c 8b b0 ba 96 06 c0 3b 18 5c b8 3c
       -0.0015195045 -0.001346923 0.00586016 0.022504851
000120 8b c6 58 3c 92 2c 4f 3c fd 20 0b 3c ba 4e a5 3c
       0.01323093 0.012644904 0.008491752 0.020179141
000130 ed 5e 4e 3c 58 41 a2 3c f6 47 5c 3c a7 e5 60 3c
       0.012595874 0.019806549 0.013444891 0.013726628
000140 93 34 c1 3a 8c 8e 5d 3b 14 51 0e bb 7b 91 a8 3b
       0.00147404 0.0033806888 -0.0021715807 0.0051442957
000150 8b 4d 19 bc 76 dc 53 bb cd 05 e5 bb 25 3f 64 3c
       -0.009356867 -0.003232745 -0.006989217 0.01393107
000160 45 65 bd 3b bd 8c e6 3b f0 dc bb 3c 5d 8d ca 3b
       0.0057798945 0.0070358203 0.0229325 0.0061814026
000170 4f c1 16 3c b8 15 77 b9 9b ad 83 bc 4f 1d 7f 38
       0.009201362 -0.00023563846 -0.016073992 6.0824033e-05
000180 2a 16 71 3c 3e 92 f1 bb 1e 4e 1a 3c 11 e4 06 bc
       0.014714757 -0.0073721698 0.009418039 -0.008233086
000190 58 0e 86 3c 2e 7d 23 3c c5 74 0b 3c 39 11 a5 3c
       0.016364262 0.009978576 0.008511727 0.020149814
0001a0 ee 3e 09 bb 3e 25 64 bc 0c 57 e5 3b 5a 3e 11 3c
       -0.002094205 -0.013924895 0.006998902 0.008864963
0001b0 d7 f2 80 3c a1 8e 8a 3c 3b 3f 12 3c f8 2b 25 3c
       0.015740795 0.016913714 0.008926208 0.010081284
0001c0 d4 b8 81 3c 31 e5 f9 3c 9d 65 7e bb ef 4c 03 3c
       0.015835203 0.030504795 -0.003881789 0.008013948
0001d0 b9 00 91 3a 3d 50 2d 3c 07 b1 93 3c bd 5f 2b bb
       0.0011062837 0.010578212 0.01802875 -0.0026149594
0001e0 1f 92 c9 3b 4c e8 72 3b 19 24 c5 3c fd 1e af 3b
       0.006151452 0.003706473 0.024065064 0.0053442703
0001f0 53 0a c4 3a 64 92 99 bb 60 aa e0 bb 4a a5 e3 bb
       0.001495669 -0.0046866406 -0.006856248 -0.006947194
000200 3a 60 31 bc 35 11 1f 3c bc b7 e5 3b de a0 09 ba
       -0.010826165 0.009708692 0.0070104282 -0.00052501063
000210 51 61 5a 3c f7 44 02 3c 49 e2 fb 3b 70 a6 07 bb
       0.013328866 0.007951013 0.0076868874 -0.002069857
000220 f9 cd ac bb 8d ff 38 3c c6 33 04 3c 4e 33 f4 3a
       -0.0052735773 0.011291397 0.008068984 0.0018631013
000230 cb 32 63 3b f1 8c b4 ba 55 f5 12 3c f3 83 24 bb
       0.0034667726 -0.0013774914 0.0089696245 -0.0025103062
000240 b9 96 f1 ba fd 54 18 3c f7 b6 e1 3c 41 4a 3a 3c
       -0.001843176 0.009297607 0.027553065 0.011370243
000250 d1 4f da 3a f4 23 20 3c 41 72 0a 3b 09 29 00 3d
       0.0016655867 0.009774197 0.002112523 0.031289134
000260 19 77 15 bc 65 a3 ca 3c ab 8f 11 3c a3 15 86 bb
       -0.009122633 0.024736116 0.008884351 -0.0040919348
000270 e9 f9 41 3a ac 21 fd 3b 9f bd cf 3b e5 71 a3 bb
       0.0007399605 0.0077249613 0.0063397433 -0.0049879425
000280 98 a7 76 3c 54 e9 6e bb c2 56 5e bc 8e 52 fe 3b
       0.015054606 -0.0036454992 -0.013570489 0.007761306
000290 72 26 4c ba 45 6b 57 bb 14 cc dd bb 17 f0 99 3c
       -0.0007787711 -0.0032870334 -0.006768713 0.018791242
0002a0 e8 bd c8 3c 2e 2f 32 3c 16 fc 87 bb de 32 74 3b
       0.024504617 0.010875506 -0.004149924 0.0037261765
0002b0 49 5f a2 3a dd f5 83 bb ac ac a7 3b 64 92 16 3d
       0.0012388016 -0.004027112 0.0051170196 0.036760703
0002c0 08 24 c9 3a 38 f8 af 3b f8 9a 22 3b 7f 1c 52 3c
       0.0015345821 0.005370166 0.0024811607 0.012824177
0002d0 57 96 2c 3c 6a 8d 3a 3c 61 48 8e 3c 56 79 94 3c
       0.010533891 0.011386255 0.017368497 0.018124264
0002e0 48 06 37 3b 6f db e6 bb 62 c0 76 3c bb d3 0c 3d
       0.0027927328 -0.0070452015 0.015060516 0.03438161
0002f0 db 41 80 3c 39 c1 1c 3b 13 ec 6c 3b 5e ea bf 3c
       0.015656402 0.002391888 0.0036151453 0.023427185
000300 56 ae b3 b7 d9 bc e8 bb bd df f2 ba e9 e7 9c bb
       -2.1419644e-05 -0.0071025905 -0.0018529814 -0.004788388
000310 40 00 0d bc a7 92 84 3b 38 e7 19 3b b0 29 0d bc
       -0.008606017 0.0040458026 0.0023483764 -0.008615896
000320 03 8e fe 3a bb c8 36 bb b3 8e d9 ba 4b 9a 0b 3c
       0.0019420985 -0.002789064 -0.0016598314 0.008520673
000330 8d cf d3 bb bf 26 7e 3c d2 22 6b 3b f2 7c d3 ba
       -0.006463951 0.0155121675 0.0035878909 -0.0016135259
000340 cc 57 ef 3c 5c 5d f7 3c 95 40 0d 3c 14 3f a8 3b
       0.02921667 0.030195884 0.008621355 0.0051344726
000350 6c 70 aa bb fa be 7e 3c 9c 99 e5 3a d4 27 ac ba
       -0.00520139 0.015548462 0.0017517093 -0.0013134428
000360 ff 69 d4 bb b4 c8 f0 3a f8 16 41 3c 58 d1 b1 bb
       -0.0064823623 0.0018370361 0.011785261 -0.005426567
000370 1b 17 19 3c a2 02 5b 3c 3c b0 32 3c 56 d6 00 3c
       0.009343888 0.013367327 0.010906275 0.007863602
000380 3a 7b 83 bb 43 8b d5 3b 3b 18 1e 3d 35 cc 19 3c
       -0.0040124925 0.0065168454 0.038597327 0.009387066
000390 a9 56 1a 3d 27 56 07 3c e1 22 58 3b ff 4d eb bb
       0.0376803 0.008260286 0.0032979774 -0.0071809287
0003a0 c7 03 ec bb 53 7e 5b 3c 03 f4 30 3b a8 c9 e8 3b
       -0.0072025987 0.013396817 0.002700091 0.0071041174
0003b0 a2 d3 3c bc 60 21 0a 3c 89 e6 f6 3c 3f 3b 40 bb
       -0.011525067 0.008430809 0.030139225 -0.0029332188
0003c0 9b bb a4 3c 4d 72 98 3c 8b 0d bc bb c7 48 f4 bb
       0.020108989 0.01860919 -0.005738919 -0.007454965
0003d0 78 b6 07 3c 6e dd 37 3b 9c 49 ae 3b 9f ab 31 3a
       0.00828325 0.0028055566 0.0053188335 0.00067775877
0003e0 21 60 85 3b 95 84 48 3c ef 16 28 39 56 c8 e7 38
       0.0040702973 0.012238641 0.00016030272 0.00011052254
0003f0 d0 bc 5c 3c 15 70 13 3d 35 9f 0a 3c 80 25 a8 3c
       0.013472751 0.03599556 0.0084608095 0.020525694

action_model._continuous_distribution.log_sigma f4 [1, 2]
000000 72 92 29 3c 65 4f 77 3c
       0.010349857 0.015094613

action_model._continuous_distribution.mu.weight f4 [2, 256]
000000 67 6c 8b 3d 02 3a 1c bd 3b 3a d7 bb a8 a9 8b 3c
       0.068077855 -0.038141258 -0.006568221 0.017048672
000010 1c ec 41 bc a7 6f 47 bd 97 82 bf 3c 6e 0e 48 bc
       -0.011836078 -0.048690464 0.0233777 -0.012210472
000020 5e 54 0a 3d c7 ef 13 3d ba 67 0c bd a4 f9 38 3c
       0.033771865 0.03611734 -0.03427861 0.011289988
000030 37 a0 8e 3c b9 8e bf bb 4d d8 f5 bc 33 fe 17 3c
       0.01741038 -0.0058458713 -0.030010367 0.009276914
000040 88 42 1c bd 99 9e 10 bd b0 ff 07 bd 71 84 fa bb
       -0.038149387 -0.0353075 -0.033202827 -0.007645183
000050 88 ca c8 3b e7 94 18 bc 0d ba 9b b9 5e 44 cb bc
       0.006127659 -0.009312845 -0.00029702522 -0.024812873
000060 32 25 2c bd 09 68 0c 3c 82 6a 31 bd d3 1a 5f 3c
       -0.04202766 0.008569726 -0.043314464 0.013617235
000070 8f ce fb bc 57 20 35 3d f0 7a c8 3c 6a 3e d1 3b
       -0.030738143 0.044220295 0.024472684 0.006385614
000080 42 32 56 bc 3e ea 30 bd 55 55 ca bc e4 cd 39 bc
       -0.013073506 -0.04319214 -0.024698893 -0.011340592
000090 cd bc b5 3c 92 15 51 bc 18 83 84 3c 71 52 09 bd
       0.022184754 -0.01276149 0.016175792 -0.033525888
0000a0 7f b8 0b 3d a3 b9 cf bc ea 42 74 3c c9 8d 9a 3c
       0.034111496 -0.025357073 0.014908532 0.018866437
0000b0 d3 e1 07 bd f5 5b 07 3d 96 07 77 3d c3 93 5c ba
       -0.033174347 0.03304668 0.06030997 -0.0008414352
0000c0 a0 d0 9a bc 08 b4 bf b9 32 5f ae bc 61 37 c5 3c
       -0.018898308 -0.00036564493 -0.021285627 0.024074258
0000d0 5b 60 23 bc f9 84 c3 3c a6 e4 ed bb 76 ca e8 3c
       -0.009971703 0.023867117 -0.007259923 0.028416853
0000e0 c5 21 6b bc d2 0b 68 bc 15 3d a2 bc ea 04 6f 3c
       -0.014351313 -0.014162974 -0.019804517 0.014588574
0000f0 a7 b4 1b bd e1 5a ea 3c 94 44 b5 bc 6b c8 45 3d
       -0.03801408 0.028607788 -0.022127427 0.048286837
000100 34 51 b4 bc 7f f5 86 bc 40 3e c3 bb 3a c0 46 bd
       -0.022011377 -0.016474484 -0.0059583485 -0.048523165
000110 d9 72 7d bc 53 cf 2f 3b db 02 e9 ba 9d 65 4e 3d
       -0.015469276 0.0026826456 -0.001777734 0.050389875
000120 da 92 a1 3c ad e2 09 3d 00 ed 24 bb 11 91 19 3d
       0.019723345 0.03366344 -0.0025165677 0.03749186
000130 1d a1 01 3d ff d7 1d 3d cc 73 f0 3b 34 9f a2 3c
       0.03164779 0.038536068 0.007338023 0.019851305
000140 22 50 07 bd b1 8e 83 3c 82 e4 b9 bb 8a 05 08 bd
       -0.033035405 0.016059252 -0.005672992 -0.033208407
000150 7d 3f 88 bc d0 5e b9 bc 23 1f 61 bb 56 0e 36 3d
       -0.016631836 -0.022628218 -0.0034350834 0.044447266
000160 99 e7 93 3c c6 ee 8c bc ff e3 49 3d 0d d8 19 bd
       0.01805477 -0.0172037 0.0492897 -0.037559558
000170 8b 09 c0 3c 09 6c 81 3c 7c d1 84 bc 7c d5 24 ba
       0.02344205 0.015798585 -0.016213171 -0.0006287915
000180 43 5d 43 bd 52 b6 81 bc 7e 38 34 bd fc 54 cd 39
       -0.047696363 -0.015834007 -0.043999188 0.00039163965
000190 7c 35 55 bd 21 1a 2b 3d f5 a8 dc 3c a0 a5 51 ba
       -0.05205296 0.041772965 0.026936034 -0.00079973973
0001a0 a7 6c 62 bc c1 cb a5 bb a7 60 14 3d bf 2b 79 bd
       -0.01381985 -0.0050596897 0.036224987 -0.060832735
0001b0 2d c2 91 3d f4 35 25 3d 10 08 64 3c a7 60 52 bd
       0.07117114 0.040334657 0.013917938 -0.051361706
0001c0 24 4a da 3c e0 5a 84 3d 36 77 44 bc b8 b2 8d 3c
       0.026646681 0.064626455 -0.011991313 0.017297134
0001d0 99 75 4a bc a0 80 58 bc 56 13 ab bd 3d e6 25 bb
       -0.012357139 -0.01321426 -0.083532974 -0.0025314235
0001e0 07 02 3a 3d 92 34 20 bc 47 31 56 3c 26 f5 48 bd
       0.04541209 -0.009778159 0.013073272 -0.049061917
0001f0 40 c7 20 3c ed 00 2e bc d6 5d 48 bc 4a 42 6c bc
       0.00981313 -0.010620338 -0.0122294035 -0.014420101
000200 87 9f b0 bc ee 90 23 bd cd 48 ca 3c 2f 93 05 3c
       -0.021560444 -0.039933138 0.024692917 0.008152767
000210 36 6a 16 bd 34 f2 ed bc 39 89 4d bd b0 41 c2 bc
       -0.036722384 -0.029046156 -0.050179694 -0.023712963
000220 26 ad c5 39 38 7e 57 3b 76 d6 ad 3c 61 97 9b 3c
       0.00037703774 0.0032881629 0.021220427 0.018993082
000230 7a 86 d6 3c 6f a1 96 bc a7 55 f6 3b fe 5d 0f 3c
       0.02618717 -0.018387524 0.007517535 0.008750437
000240 6e 84 1b bd da e5 10 3d a2 82 61 3d 9f 2f 96 3c
       -0.03796809 0.035375454 0.05505622 0.018333254
000250 5a 8c 91 3c 93 37 64 bc 81 a5 4c 3c 87 26 77 bd
       0.01776712 -0.013929266 0.012490631 -0.060339477
000260 dd f3 7d 3b 60 4e 16 3d 65 8f 5b bc f3 1f f6 bb
       0.003875009 0.036695838 -0.013400887 -0.007511133
000270 84 2f 0e 3c ed 7f 43 bd 07 6a a7 bc 2a 19 af 3b
       0.008678321 -0.04772942 -0.0204363 0.005343576
000280 0a ba 2f bd 67 b2 ac bc 09 ed 56 bb 4e 83 1b bd
       -0.04290203 -0.021081163 -0.0032795093 -0.03796702
000290 ab a1 3a 3b 2b 5f 8d 3b 0b 2e 2c bc f2 01 08 3d
       0.002847771 0.0043143234 -0.010509024 0.03320498
0002a0 6f 28 78 3d aa 3f db 3c b6 f8 94 bc fc 47 33 bd
       0.060585435 0.026763756 -0.018185 -0.04376982
0002b0 a2 b9 d4 bc 30 d5 00 3c da 3a f0 bc 44 32 a1 bd
       -0.025967423 0.007863328 -0.029324938 -0.078709155
0002c0 34 39 62 3c 7f b6 a6 3b d6 f0 ee bc e2 60 a3 bc
       0.013807584 0.005087673 -0.029167574 -0.019943658
0002d0 99 89 e8 bc 2c b7 dd 3c 79 31 d3 3c 07 b8 3a 3d
       -0.028385924 0.027064882 0.025780426 0.04558566
0002e0 36 e2 3a 3c c1 09 b2 3b c4 5d 3f 3d 79 86 85 bd
       0.011406472 0.0054332917 0.04672028 -0.06519789
0002f0 d0 ff 56 3c d1 83 5c 3b 23 7a f4 bc 3d b6 a2 bd
       0.013122514 0.0033647905 -0.029843396 -0.079449154
000300 63 6a c9 b9 dd 86 9a bc e2 85 05 ba 4a be 46 bc
       -0.00038416972 -0.018863136 -0.00050934975 -0.012130329
000310 2f ab 74 bc 5d 98 8b bc e6 8f 1f 3c da 8d c3 bb
       -0.0149333915 -0.017040426 0.009738898 -0.0059678378
000320 74 4a 60 3c 25 29 af 3b cf 11 80 bb e9 5f f0 3c
       0.013689626 0.005345481 -0.003908373 0.029342609
000330 19 65 8d bc 4f 55 a2 bc 3a 42 99 3c 7c 64 92 bc
       -0.017260121 -0.019816069 0.018708337 -0.01787018
000340 2f fa 87 3d e7 17 13 bd c6 31 5d bc a4 85 96 3c
       0.066395156 -0.035911467 -0.013500636 0.018374272
000350 37 01 45 3c dc 85 26 bd ca ac 4d 3c 03 a6 bb bc
       0.012024215 -0.040655002 0.012553403 -0.022906309
000360 9c fb c9 bc 5d 76 79 3c a9 6e 06 bd 19 cf 87 bc
       -0.02465611 0.015225974 -0.032820377 -0.016578244
000370 36 54 88 3c 7a cf 0a 3d 99 37 14 3d 8f 6b ac 3c
       0.016641717 0.03388927 0.036185835 0.021047382
000380 8b 94 46 bc e1 9d fd bc 97 b7 85 3d cb e9 27 bd
       -0.012120376 -0.030959072 0.065291576 -0.040994447
000390 6f 17 27 3d 9a 12 8d bb a2 5b d0 3c 85 32 36 bc
       0.040793832 -0.004305196 0.025434319 -0.011120443
0003a0 cc e9 b0 3b 36 fa 2d bd eb f6 a9 bb 9c 42 68 bd
       0.0053989645 -0.042474948 -0.0051869056 -0.05670415
0003b0 f8 fb 98 ba 33 88 a7 3c 18 e9 55 3d 8f 03 06 bc
       -0.0011671772 0.020450687 0.05222425 -0.008179559
0003c0 21 50 50 bd d5 0a 92 3d b0 ec e9 bc 11 be b7 bc
       -0.050857667 0.07130972 -0.028555244 -0.022429498
0003d0 f9 cd 3c bd 29 8d 0e 3d a1 b1 d9 bc fb 72 fa 3b
       -0.04609487 0.03480259 -0.026573958 0.0076431013
0003e0 6f 02 fa bc e2 10 1d 3d 14 65 a0 3b 22 bc 24 bd
       -0.030518739 0.03834618 0.004894862 -0.04021848
0003f0 81 4a f2 3c cf 24 4f 3d 47 92 1a bd c2 92 6b 3d
       0.029576542 0.050572213 -0.037737157 0.057513006

action_model._continuous_distribution.mu.bias f4 [2]
000000 7a 38 a9 3b ee f5 bd bb
       0.0051642032 -0.0057971394

exp_avg f4 [256, 35]
000000 b3 7b 85 b8 00 00 00 00 ae 3b cb b5 ec cf cd b6
       -6.364975e-05 0.0 -1.5142048e-06 -6.1336814e-06
000010 5a ab c8 37 f0 e8 6e 38 00 00 00 00 f3 4e be b7
       2.392165e-05 5.696056e-05 0.0 -2.2686529e-05
000020 84 f9 f2 b8 bb 4b ab b8 88 2b b3 34 00 00 00 00
       -0.00011585935 -8.168021e-05 3.337302e-07 0.0
000030 69 b1 bf b5 7c ea c7 b7 0b d4 f8 37 0d bc 09 39
       -1.4282242e-06 -2.3831839e-05 2.9662644e-05 0.00013135393
000040 00 00 00 00 68 3e 3a b8 77 82 e4 b7 12 7e 1d b8
       0.0 -4.4403976e-05 -2.724047e-05 -3.754913e-05
000050 cf 1d c8 b7 00 00 00 00 2e 72 d6 b5 05 58 bb b8
       -2.3855739e-05 0.0 -1.5977473e-06 -8.93325e-05
000060 da d0 60 b8 ee e5 0f 37 00 00 00 00 18 94 9c b8
       -5.360027e-05 8.576999e-06 0.0 -7.466244e-05
000070 78 72 98 b7 a7 0d 68 b8 12 de b8 b7 00 00 00 00
       -1.8173116e-05 -5.5325825e-05 -2.2037919e-05 0.0
000080 00 87 6a 36 2c f0 9d b8 dd 97 f6 b8 18 9f 8a 37
       3.4947298e-06 -7.531079e-05 -0.00011758481 1.6524966e-05
000090 00 00 00 00 85 73 5f b5 8c d1 a0 b7 4b 7d fe b7
       0.0 -8.3242077e-07 -1.9171064e-05 -3.0337504e-05
0000a0 8e c6 51 b6 00 00 00 00 cd 49 65 b6 63 47 9d 36
       -3.1259e-06 0.0 -3.4166617e-06 4.687275e-06
0000b0 d6 7c b5 b6 bf a0 13 36 00 00 00 00 ac 6d 10 36
       -5.408753e-06 2.1998273e-06 0.0 2.152151e-06
0000c0 ae b4 2d b7 19 98 ac b7 21 64 45 b8 00 00 00 00
       -1.0353671e-05 -2.0574824e-05 -4.7061712e-05 0.0
0000d0 ac f6 c4 37 39 47 8b 33 61 da 9c b6 59 b0 85 b7
       2.3479886e-05 6.485647e-08 -4.674585e-06 -1.5936954e-05
0000e0 00 00 00 00 f7 bb 76 b6 34 d1 37 38 19 42 f7 37
       0.0 -3.6766266e-06 4.3825436e-05 2.9475474e-05
0000f0 e8 aa 76 b7 00 00 00 00 c8 cb 2e 38 0e 0b 78 b6
       -1.4702535e-05 0.0 4.167462e-05 -3.6961314e-06
000100 cb 29 68 b6 ab 56 8f 36 00 00 00 00 0f 28 a1 b6
       -3.459502e-06 4.2718216e-06 0.0 -4.8028373e-06
000110 4d ea f9 37 e9 47 20 38 1d 26 6b b6 00 00 00 00
       2.9792218e-05 3.8213944e-05 -3.5039914e-06 0.0
000120 68 64 a8 36 11 35 cc b5 8f 0a 3f b7 08 2b 71 b7
       5.018479e-06 -1.5214629e-06 -1.13869455e-05 -1.4374738e-05
000130 00 00 00 00 c9 9c 00 b6 00 41 fa 35 68 b9 f7 b6
       0.0 -1.9164747e-06 1.8645369e-06 -7.3827578e-06
000140 49 92 8a b7 00 00 00 00 4c 50 27 b7 48 7c 44 34
       -1.6519001e-05 0.0 -9.972671e-06 1.8299136e-07
000150 98 f7 cf b6 29 66 88 b7 00 00 00 00 ea f6 59 37
       -6.1979044e-06 -1.6260035e-05 0.0 1.2991697e-05
000160 22 2f ab b7 3e 1f 9b b7 c1 d7 ca b7 00 00 00 00
       -2.0406736e-05 -1.8491988e-05 -2.4180745e-05 0.0
000170 1a 36 c4 b6 5a 27 20 38 37 4d 73 37 e1 86 e1 b7
       -5.8475534e-06 3.818362e-05 1.4501907e-05 -2.6884898e-05
000180 00 00 00 00 13 29 c6 b4 3b 92 e6 35 ff c2 10 36
       0.0 -3.691026e-07 1.7178894e-06 2.1571175e-06
000190 9c e9 9c b5 00 00 00 00 bb 94 76 33 b1 89 79 b7
       -1.1690895e-06 0.0 5.7411608e-08 -1.4873615e-05
0001a0 73 f4 f1 b6 03 60 b5 36 00 00 00 00 6b 41 b3 34
       -7.2108173e-06 5.4053976e-06 0.0 3.3388946e-07
0001b0 9c dd 99 35 9c 4b dd 36 da f3 ec 37 00 00 00 00
       1.1463885e-06 6.5951153e-06 2.8246945e-05 0.0
0001c0 e9 4b 84 35 ef 65 53 b7 a3 7e a9 b6 21 e3 45 37
       9.856859e-07 -1.2600313e-05 -5.051335e-06 1.1794998e-05
0001d0 00 00 00 00 16 81 0b 36 c8 25 dd 36 5a 83 72 37
       0.0 2.0787752e-06 6.5907116e-06 1.4454907e-05
0001e0 3c ea 16 38 00 00 00 00 4b 6d ef b6 4f 51 fb 35
       3.5980935e-05 0.0 -7.1354784e-06 1.8724621e-06
0001f0 f8 a7 92 35 cf b5 8b 37 00 00 00 00 95 ca 43 36
       1.0926733e-06 1.6654752e-05 0.0 2.9175183e-06
000200 d4 89 b5 b7 49 ef 07 b7 f6 cb d3 37 00 00 00 00
       -2.1641063e-05 -8.10234e-06 2.5248137e-05 0.0
000210 6c ed 0f b7 2f 38 39 34 4c 51 88 b6 75 46 02 37
       -8.578743e-06 1.7249907e-07 -4.06258e-06 7.765008e-06
000220 00 00 00 00 1b eb b5 36 26 69 0f b7 8d b5 44 b7
       0.0 5.4215902e-06 -8.547946e-06 -1.1724781e-05
000230 5e f0 d5 36 00 00 00 00 73 ca 92 b6 96 42 17 b7
       6.375877e-06 0.0 -4.3747073e-06 -9.015805e-06
000240 83 ea 17 b7 2a 26 db 36 00 00 00 00 93 a0 2e b7
       -9.054903e-06 6.5311515e-06 0.0 -1.0408595e-05
000250 d1 e2 ab 36 87 82 5d 36 5c aa e2 36 00 00 00 00
       5.122602e-06 3.3007543e-06 6.7551573e-06 0.0
000260 22 7c d6 36 79 db ad b6 13 c8 11 b7 2e c3 5e b5
       6.392148e-06 -5.1813518e-06 -8.689257e-06 -8.298547e-07
000270 00 00 00 00 10 9d 58 b7 52 f8 48 37 35 ec 18 37
       0.0 -1.2911172e-05 1.19787455e-05 9.114902e-06
000280 0c 32 13 37 00 00 00 00 02 33 bf 36 33 6a c8 b7
       8.773535e-06 0.0 5.6981817e-06 -2.389131e-05
000290 6e 9c 2e b7 09 dc 67 37 00 00 00 00 5f 8f d2 36
       -1.040763e-05 1.3819904e-05 0.0 6.2751783e-06
0002a0 4c 4a f2 b5 41 92 fe b6 5e 2c e7 31 00 00 00 00
       -1.8052028e-06 -7.586816e-06 6.728029e-09 0.0
0002b0 cd 37 21 b5 96 29 9b 37 d5 4c a4 37 9d 4c 3c 38
       -6.0058375e-07 1.8496805e-05 1.9586101e-05 4.4894045e-05
0002c0 00 00 00 00 3a 6c 38 b5 49 bb 22 b8 d9 d8 89 b8
       0.0 -6.870283e-07 -3.8798233e-05 -6.57306e-05
0002d0 c5 49 a6 b5 00 00 00 00 95 9b 56 b7 0b 9d cb 37
       -1.2389434e-06 0.0 -1.2791618e-05 2.4272615e-05
0002e0 fc 86 58 b7 d5 8a 22 b7 00 00 00 00 c1 52 61 b6
       -1.2906032e-05 -9.688277e-06 0.0 -3.3575782e-06
0002f0 b6 b1 96 36 8b ea 12 b8 9c 14 4a b8 00 00 00 00
       4.4910366e-06 -3.5027548e-05 -4.8179747e-05 0.0
000300 9d 1c 37 37 a8 dc b1 b7 44 67 ba b7 48 92 00 b8
       1.0914312e-05 -2.1202795e-05 -2.2221015e-05 -3.0653813e-05
000310 00 00 00 00 a7 fb 13 b7 f6 84 e6 38 e4 88 91 38
       0.0 -8.820475e-06 0.000109920205 6.939637e-05
000320 10 e8 35 b5 00 00 00 00 27 e8 c0 37 44 20 45 37
       -6.776545e-07 0.0 2.2996288e-05 1.1749627e-05
000330 3d 9b e5 36 f5 03 f4 35 00 00 00 00 62 54 7a 36
       6.842804e-06 1.8180568e-06 0.0 3.730202e-06
000340 3e bb d0 37 91 7c 82 38 06 2a e3 b7 00 00 00 00
       2.4882724e-05 6.222085e-05 -2.7080077e-05 0.0
000350 0a 6f 35 36 e0 c1 10 b7 88 6a ce b6 a3 8d 6d 37
       2.7035735e-06 -8.628209e-06 -6.1516803e-06 1.4159278e-05
000360 00 00 00 00 6c ab 7d 36 61 4a 5e b8 3f e8 43 b8
       0.0 3.7799718e-06 -5.2998195e-05 -4.670792e-05
000370 0a 8c 42 b7 00 00 00 00 ae ab d8 b6 b9 37 5d b7
       -1.15959065e-05 0.0 -6.457288e-06 -1.31856e-05
000380 3e 2e 88 36 61 0b 08 38 00 00 00 00 90 c1 09 b6
       4.058499e-06 3.2435524e-05 0.0 -2.052726e-06
000390 1d 4b 01 b8 5f f2 f4 b7 b9 89 09 b8 00 00 00 00
       -3.082595e-05 -2.919993e-05 -3.279161e-05 0.0
0003a0 55 75 48 35 d0 dd 52 b7 27 fc 56 b7 74 8c 37 b7
       7.4676547e-07 -1.256862e-05 -1.2814103e-05 -1.0940352e-05
0003b0 00 00 00 00 03 de 92 b7 38 36 2b b7 c5 65 b8 b7
       0.0 -1.7507939e-05 -1.0205018e-05 -2.19819e-05
0003c0 8c 96 66 b7 00 00 00 00 82 35 a3 35 59 97 f3 b7
       -1.374412e-05 0.0 1.2160019e-06 -2.9038334e-05
0003d0 76 03 3f b8 c4 cb 97 36 00 00 00 00 3a 07 0c b6
       -4.5541172e-05 4.523872e-06 0.0 -2.0865832e-06
0003e0 39 87 68 b6 f8 83 f3 b6 82 f0 48 35 00 00 00 00
       -3.4649404e-06 -7.2573275e-06 7.485579e-07 0.0
0003f0 cc 16 f4 b6 95 be 5b 37 aa 3c e5 36 bf 46 b7 b5
       -7.2744206e-06 1.30977905e-05 6.831794e-06 -1.3655152e-06

exp_avg_sq f4 [256, 35]
000000 57 6c 30 33 00 00 00 00 b0 fc d5 31 ed 2d 9b 32
       4.1076728e-08 0.0 6.227843e-09 1.806526e-08
000010 93 65 ac 32 4e 2f f6 32 00 00 00 00 aa 4b ee 31
       2.0069626e-08 2.865968e-08 0.0 6.9353137e-09
000020 43 be 06 33 88 9f 0c 33 fd 72 26 33 00 00 00 00
       3.137235e-08 3.2741383e-08 3.8754468e-08 0.0
000030 77 cb 0b 31 a9 50 e0 32 8a 22 ed 32 ed 3c a8 32
       2.0342819e-09 2.6113712e-08 2.7606138e-08 1.958548e-08
000040 00 00 00 00 31 a7 16 32 3a 59 1c 33 5f 67 29 33
       0.0 8.769164e-09 3.640273e-08 3.9442394e-08
000050 56 9c f3 32 00 00 00 00 34 be 42 31 5a ed 01 33
       2.8360017e-08 0.0 2.8338834e-09 3.0251023e-08
000060 5b 7b 08 33 d6 df 54 32 00 00 00 00 3b 62 16 32
       3.177716e-08 1.23909185e-08 0.0 8.753484e-09
000070 9f b6 37 33 da 07 54 33 b7 75 a4 32 00 00 00 00
       4.27741e-08 4.9367237e-08 1.9145643e-08 0.0
000080 1e 42 1a 31 91 4b 2b 33 6c 34 40 33 03 d6 5c 31
       2.2447533e-09 3.9882767e-08 4.475116e-08 3.2135865e-09
000090 00 00 00 00 bf 5d fe 31 b3 99 7e 31 17 6a 8b 31
       0.0 7.4030306e-09 3.7049233e-09 4.0574935e-09
0000a0 79 bb 8b 31 00 00 00 00 59 6f 00 32 33 c6 68 31
       4.0667456e-09 0.0 7.475898e-09 3.3873107e-09
0000b0 e3 96 81 31 13 48 1b 31 00 00 00 00 5a 64 f1 30
       3.771548e-09 2.2596438e-09 0.0 1.756358e-09
0000c0 13 9f 26 32 29 76 29 32 87 22 59 31 00 00 00 00
       9.698641e-09 9.863961e-09 3.1597283e-09 0.0
0000d0 1c 20 11 32 a3 1e 2c 31 36 ea 48 31 ba c9 81 31
       8.447412e-09 2.504671e-09 2.9236964e-09 3.777328e-09
0000e0 00 00 00 00 0a 29 88 30 52 88 0c 32 a0 ec 12 32
       0.0 9.906966e-10 8.180068e-09 8.552121e-09
0000f0 e2 f6 20 31 00 00 00 00 3d e7 d7 31 aa af 5f 31
       2.34234e-09 0.0 6.2836123e-09 3.2550624e-09
000100 bf 94 91 31 4d 94 ee 30 00 00 00 00 9a d4 78 30
       4.236966e-09 1.7358929e-09 0.0 9.0524e-10
000110 89 c1 1d 32 79 3a 30 32 4f f2 1a 31 00 00 00 00
       9.182608e-09 1.02578435e-08 2.2547686e-09 0.0
000120 3f 1a 7c 30 fe e9 42 31 dc 74 55 31 f5 97 d1 30
       9.1714364e-10 2.8363725e-09 3.1062006e-09 1.524994e-09
000130 00 00 00 00 c1 b0 3b 30 42 48 88 31 fd 5c 8f 31
       0.0 6.8281386e-10 3.9663357e-09 4.1724193e-09
000140 e5 57 23 31 00 00 00 00 03 80 5b 30 5d ca 4f 31
       2.3769584e-09 0.0 7.985365e-10 3.0237495e-09
000150 57 17 5f 31 db e9 bc 30 00 00 00 00 75 27 72 30
       3.2464038e-09 1.3745266e-09 0.0 8.809516e-10
000160 fd 79 85 31 c6 1d 8a 31 b9 ab 42 31 00 00 00 00
       3.884678e-09 4.0197135e-09 2.8328329e-09 0.0
000170 aa 21 18 30 1d 46 2a 31 32 2a 3e 31 ba e3 c8 30
       5.534512e-10 2.477811e-09 2.7672624e-09 1.4616639e-09
000180 00 00 00 00 3d dc 33 30 31 55 95 31 0d df a1 31
       0.0 6.54328e-10 4.346156e-09 4.7110746e-09
000190 5e 3e 38 31 00 00 00 00 75 c3 e0 2f 89 af 2d 31
       2.6810976e-09 0.0 4.0884243e-10 2.5274594e-09
0001a0 3e 60 4d 31 a9 8e 79 31 00 00 00 00 66 e3 9d 2f
       2.9886134e-09 3.6315362e-09 0.0 2.871971e-10
0001b0 62 24 a8 30 71 85 c9 30 a1 a3 56 31 00 00 00 00
       1.2233949e-09 1.4662601e-09 3.123411e-09 0.0
0001c0 46 15 8f 2f c5 8f c4 30 87 7d dc 30 ef 07 6b 31
       2.6026664e-10 1.4301739e-09 1.6042784e-09 3.420151e-09
0001d0 00 00 00 00 08 5b bc 2f 8d 18 94 30 cf 19 b1 30
       0.0 3.4261682e-10 1.0775395e-09 1.288578e-09
0001e0 3b 3d 35 31 00 00 00 00 d7 e8 66 2f b1 c6 09 31
       2.6373772e-09 0.0 2.10011e-10 2.0049067e-09
0001f0 b7 e0 14 31 96 94 42 31 00 00 00 00 cc 2e b4 2f
       2.166457e-09 2.8315177e-09 0.0 3.277506e-10
000200 35 fd b3 30 f6 fc c9 30 1d 9e f6 30 00 00 00 00
       1.309593e-09 1.4696571e-09 1.7943794e-09 0.0
000210 18 d5 84 2f c0 76 63 31 85 87 74 31 df a5 da 30
       2.4162072e-10 3.310035e-09 3.5583707e-09 1.5908731e-09
000220 00 00 00 00 8a f2 f5 2f 7d b5 14 31 94 fa 21 31
       0.0 4.4737575e-10 2.1639999e-09 2.357102e-09
000230 6f f5 db 30 00 00 00 00 67 dd f6 2f 47 40 9b 30
       1.6004104e-09 0.0 4.4904455e-10 1.1296003e-09
000240 75 d7 ab 30 05 a9 b9 30 00 00 00 00 83 82 07 30
       1.2503124e-09 1.350856e-09 0.0 4.929818e-10
000250 93 2c c5 30 08 b8 d5 30 24 09 db 30 00 00 00 00
       1.4346305e-09 1.5550095e-09 1.5936945e-09 0.0
000260 a8 89 ef 2f 0a 7f 9a 30 5c cc aa 30 f1 4a 92 30
       4.3571657e-10 1.1241081e-09 1.242721e-09 1.0644198e-09
000270 00 00 00 00 ea 5e 14 30 82 b4 da 30 65 37 e8 30
       0.0 5.397697e-10 1.5912891e-09 1.6895966e-09
000280 ab be bd 30 00 00 00 00 d4 3c f2 2f b2 ce b7 30
       1.3805751e-09 0.0 4.4062765e-10 1.3373749e-09
000290 3d 78 c0 30 9e 55 58 30 00 00 00 00 13 30 98 2f
       1.4004012e-09 7.870201e-10 0.0 2.7682798e-10
0002a0 2f bc 36 31 85 14 4b 31 70 58 bb 30 00 00 00 00
       2.6591456e-09 2.9552052e-09 1.3631176e-09 0.0
0002b0 1b 0a d2 2f ea 8c b1 30 67 d2 d7 30 e2 d6 90 31
       3.8205958e-10 1.2918495e-09 1.5703109e-09 4.215381e-09
0002c0 00 00 00 00 8f fb 86 32 64 b6 76 32 e5 c6 85 32
       0.0 1.5714049e-08 1.4360555e-08 1.5573685e-08
0002d0 85 a3 e6 31 00 00 00 00 85 c3 56 32 80 3e 7b 32
       6.712471e-09 0.0 1.2500895e-08 1.4624334e-08
0002e0 f3 4a 8c 32 fd 99 3e 31 00 00 00 00 c5 bf 04 32
       1.6332228e-08 2.7736171e-09 0.0 7.727015e-09
0002f0 9a 7b c9 32 d5 be cf 32 34 e9 5c 31 00 00 00 00
       2.3455687e-08 2.4184752e-08 3.2146774e-09 0.0
000300 4e bb 4b 32 f1 83 8c 32 60 6a 9a 32 cc 86 b1 31
       1.1858743e-08 1.6358145e-08 1.7976333e-08 5.1667026e-09
000310 00 00 00 00 00 33 e2 31 d5 04 b2 32 5c aa ba 32
       0.0 6.5832637e-09 2.0724125e-08 2.173072e-08
000320 f1 81 95 31 00 00 00 00 c0 3e d4 31 74 f7 9d 32
       4.3512434e-09 0.0 6.177146e-09 1.8389734e-08
000330 5a 04 b9 32 d1 b5 86 31 00 00 00 00 00 1f 99 31
       2.1538813e-08 3.9205834e-09 0.0 4.4564104e-09
000340 55 87 9c 32 a8 a9 b3 32 71 f1 aa 31 00 00 00 00
       1.8222332e-08 2.0915493e-08 4.9751e-09 0.0
000350 8e 02 2c 31 6b 64 02 31 40 d2 13 31 70 1e 83 31
       2.5030746e-09 1.897457e-09 2.1510829e-09 3.816062e-09
000360 00 00 00 00 8b d9 bb 30 48 cb 80 31 85 a1 90 31
       0.0 1.366787e-09 3.7484007e-09 4.2093142e-09
000370 d5 e2 c0 31 00 00 00 00 5e df e5 30 76 23 16 31
       5.6137233e-09 0.0 1.6725428e-09 2.184803e-09
000380 71 c7 23 31 fd 04 13 31 00 00 00 00 59 37 a8 30
       2.3832991e-09 2.139415e-09 0.0 1.223934e-09
000390 ac 58 df 31 a4 ac e4 31 c1 e9 98 31 00 00 00 00
       6.500235e-09 6.6553003e-09 4.450357e-09 0.0
0003a0 00 4a bd 30 c8 2c 7a 31 ca e8 82 31 54 a6 f5 30
       1.3772592e-09 3.6405243e-09 3.809963e-09 1.787337e-09
0003b0 00 00 00 00 66 87 8f 30 57 8b de 31 0b 5e fa 31
       0.0 1.0443102e-09 6.4768915e-09 7.286649e-09
0003c0 37 53 2d 31 00 00 00 00 ec 27 49 30 8f 52 d0 31
       2.5222116e-09 0.0 7.3180106e-10 6.0629826e-09
0003d0 3c f4 e6 31 44 05 a7 30 00 00 00 00 14 4a 45 30
       6.7216472e-09 1.2152346e-09 0.0 7.1773454e-10
0003e0 40 86 b9 30 a4 56 cd 30 13 5e b4 30 00 00 00 00
       1.3498678e-09 1.4940338e-09 1.3123461e-09 0.0
0003f0 2f 42 2b 30 23 03 c3 30 54 62 d9 30 45 d2 9d 30
       6.230349e-10 1.4189009e-09 1.5816775e-09 1.1483016e-09

exp_avg f4 [256]
000000 a0 88 6e b8 c7 0d 36 36 d5 c6 b2 b7 ca 11 8d 37
       -5.6870864e-05 2.7128133e-06 -2.1311842e-05 1.6816794e-05
000010 6a e3 11 37 5f c0 dd b6 e4 bd 26 b8 d7 44 a8 36
       8.6956225e-06 -6.608708e-06 -3.9754334e-05 5.014804e-06
000020 eb ba 00 b6 d4 64 07 b8 c6 48 a4 36 52 1f 7e b7
       -1.9182287e-06 -3.228041e-05 4.896053e-06 -1.5146872e-05
000030 52 a4 50 36 e8 fa e9 b7 52 bd 59 b5 1a cc 8a b7
       3.1090062e-06 -2.7892602e-05 -8.1114297e-07 -1.6545924e-05
000040 cd 0a 00 38 bc 9f f2 b4 0a d3 c5 37 4b 50 c6 35
       3.0527637e-05 -4.5192235e-07 2.3582503e-05 1.4775518e-06
000050 43 83 5c 37 7d 2b e8 b7 0b f0 cf b5 a0 4a f1 b6
       1.3143584e-05 -2.7676806e-05 -1.5492564e-06 -7.191047e-06
000060 1c cc 92 37 6d 4f b4 37 aa 85 52 37 5d bb 92 35
       1.7499602e-05 2.1494658e-05 1.25480965e-05 1.0932378e-06
000070 b4 49 6a b6 8c 09 2b 37 a9 ab e9 37 63 04 34 37
       -3.4911618e-06 1.0194617e-05 2.78557e-05 1.0729857e-05
000080 0c 16 ec b7 12 d3 3f b8 2d 0a 99 36 c9 79 c9 b7
       -2.8143659e-05 -4.5734523e-05 4.56094e-06 -2.4017778e-05
000090 37 03 f6 33 39 2e b0 b7 bf 89 f3 b6 af ac 5f 36
       1.14558524e-07 -2.1002359e-05 -7.258e-06 3.3330105e-06
0000a0 87 33 18 37 8d 0f 0c b8 4b 77 41 b7 c7 e1 83 b7
       9.071903e-06 -3.3393084e-05 -1.15314715e-05 -1.5721553e-05
0000b0 0b 93 fa b7 26 40 26 b8 6c b1 ad 36 1b c5 b9 36
       -2.9870795e-05 -3.9637227e-05 5.1764564e-06 5.5363757e-06
0000c0 05 7c 48 37 85 67 af b5 9c f6 f0 b6 83 f5 8c b7
       1.19498045e-05 -1.3068644e-06 -7.1812665e-06 -1.6803626e-05
0000d0 0a 52 b3 b6 13 a6 e3 36 c0 cb e1 34 8d 41 29 b7
       -5.3441663e-06 6.7844608e-06 4.2057763e-07 -1.0088447e-05
0000e0 23 fd 00 35 74 e7 66 b7 a4 27 0e 38 a2 bd a1 b6
       4.805208e-07 -1.3762958e-05 3.3892356e-05 -4.82025e-06
0000f0 60 a2 34 37 12 3f 37 b7 ee 28 cd b6 fd db c3 b7
       1.0766642e-05 -1.0922335e-05 -6.114241e-06 -2.3348251e-05
000100 58 ff 95 36 8d 00 67 36 95 9c 99 37 9c 89 a0 b6
       4.470272e-06 3.4422003e-06 1.8311935e-05 -4.7843914e-06
000110 3e d8 7e 35 08 41 15 b6 87 2d 87 b7 b1 2a d1 b7
       9.493705e-07 -2.2240583e-06 -1.6114454e-05 -2.4934621e-05
000120 1e d0 5b b8 af 46 5b b8 d9 59 95 b7 7a 08 fd 37
       -5.2407493e-05 -5.2279498e-05 -1.7804023e-05 3.0163897e-05
000130 14 78 ac b6 58 7a 06 b6 e3 85 0f b8 ec 70 80 b7
       -5.1399784e-06 -2.003877e-06 -3.421855e-05 -1.5311372e-05
000140 f6 23 df b7 08 ef df 37 53 22 40 36 95 b2 04 b7
       -2.6600417e-05 2.669498e-05 2.8630209e-06 -7.9093925e-06
000150 72 f2 83 35 4c 89 f8 37 62 61 a9 b6 ca d2 a5 b6
       9.830821e-07 2.9627838e-05 -5.0479293e-06 -4.9419223e-06
000160 fc 95 e0 b7 8c 15 cc 36 fb 49 94 b8 36 9a 18 38
       -2.6772723e-05 6.082182e-06 -7.07097e-05 3.6383244e-05
000170 67 c6 df b7 d3 6f 4d b4 d1 92 0c 36 5f 0d aa b3
       -2.667606e-05 -1.9132794e-07 2.0947084e-06 -7.918674e-08
000180 a5 01 92 37 8e 4a 5a 36 dd a0 91 b7 64 18 c1 34
       1.7405322e-05 3.2527928e-06 -1.7360255e-05 3.5966798e-07
000190 55 7d 18 38 bd 62 0d b8 2f 3f c7 b6 e8 1d 08 b7
       3.635635e-05 -3.3708977e-05 -5.9380177e-06 -8.113195e-06
0001a0 e5 81 e7 b6 53 11 15 b5 ba c4 1c 38 11 1a c2 37
       -6.899458e-06 -5.5532036e-07 3.7376514e-05 2.313874e-05
0001b0 1e 13 95 b7 0b 3b e7 b6 54 be e5 b5 ab 69 51 37
       -1.7771086e-05 -6.89121e-06 -1.7117222e-06 1.24819735e-05
0001c0 0b 02 3c b7 7a c2 60 b8 2f 18 e6 36 74 6a 0f b8
       -1.1206149e-05 -5.3586882e-05 6.8573495e-06 -3.4193e-05
0001d0 34 a2 5f 37 4a 55 ba b7 9c 03 49 38 fe 3b 58 36
       1.3329602e-05 -2.2212644e-05 4.7925496e-05 3.2221428e-06
0001e0 09 32 e6 37 9d 38 dd 36 77 87 5e b7 bd 00 80 b6
       2.7441436e-05 6.592904e-06 -1.32637715e-05 -3.814783e-06
0001f0 88 d8 ec 36 82 cc ca 36 8a f6 2a 36 4f 98 cd 37
       7.0585556e-06 6.043877e-06 2.5475479e-06 2.4508829e-05
000200 05 48 f8 b5 2b 0b 15 b7 20 4a af b6 94 db 3f 36
       -1.84984e-06 -8.883692e-06 -5.2240357e-06 2.858903e-06
000210 0e 8e dc b7 27 7e a4 37 bb 6c 9b 37 48 18 72 b7
       -2.6292193e-05 1.9609068e-05 1.8528071e-05 -1.4429977e-05
000220 e1 7d d5 b6 58 cd 0f b7 77 c5 10 b8 1b a5 38 36
       -6.362549e-06 -8.5712745e-06 -3.451618e-05 2.751424e-06
000230 dc ae 3f 37 e6 a2 78 36 c7 3a 4a b7 66 29 1f b7
       1.14252e-05 3.70497e-06 -1.2053823e-05 -9.486777e-06
000240 15 8f 12 37 5d 88 e6 37 65 b0 14 34 01 03 2b b8
       8.735592e-06 2.7481636e-05 1.3847746e-07 -4.0772375e-05
000250 b3 13 c6 36 7d 49 46 b7 37 a2 27 b8 19 ef b0 37
       5.903153e-06 -1.181883e-05 -3.9966977e-05 2.1092173e-05
000260 e0 bc eb 37 14 a6 20 b7 d0 91 01 b7 8b 41 22 37
       2.8102135e-05 -9.575411e-06 -7.722949e-06 9.671213e-06
000270 43 cc 41 36 ca 72 32 b7 da ef 4f b8 c5 c7 c1 b4
       2.8878137e-06 -1.0636353e-05 -4.9576025e-05 -3.6094403e-07
000280 9f e9 7c 37 b3 2d 8b 37 91 37 5b 37 ff 9e 1e b7
       1.5074765e-05 1.6591372e-05 1.3066355e-05 -9.454553e-06
000290 b6 e5 e1 36 8b 85 58 37 49 72 1d 36 71 a5 07 b6
       6.7322644e-06 1.2905696e-05 2.3461346e-06 -2.0212867e-06
0002a0 86 90 80 b7 9a 1a 23 b8 e0 b5 87 37 f3 f4 d2 36
       -1.5326088e-05 -3.8887003e-05 1.6177946e-05 6.2870035e-06
0002b0 03 4a 00 b5 e3 8b ba b6 f8 fd 06 b8 59 83 08 38
       -4.7791417e-07 -5.559517e-06 -3.2184616e-05 3.2547254e-05
0002c0 e4 5e 58 b7 05 b8 1f b7 dc b3 08 37 55 7b d9 b7
       -1.2896697e-05 -9.519984e-06 8.1481085e-06 -2.5925847e-05
0002d0 5b 43 a4 36 9f af b3 b7 af 04 39 b8 e7 a9 83 b8
       4.895422e-06 -2.1420243e-05 -4.41118e-05 -6.2782136e-05
0002e0 1e d0 25 b6 ae fe b5 b6 30 ec a7 b7 e0 94 34 38
       -2.4708056e-06 -5.423869e-06 -2.0017935e-05 4.3053995e-05
0002f0 9b 81 26 b8 55 58 b0 b7 7d 48 6e b7 b7 5e 97 38
       -3.969819e-05 -2.1021968e-05 -1.4202783e-05 7.217883e-05
000300 5c 02 39 36 d5 4a 99 37 0c 07 24 b7 a4 d9 c0 36
       2.7568522e-06 1.8273868e-05 -9.7768025e-06 5.7473826e-06
000310 40 17 a2 37 77 44 c9 b5 48 0c e1 36 c6 98 aa 37
       1.9322732e-05 -1.4995593e-06 6.7069523e-06 2.033672e-05
000320 1a d8 1d b7 a6 bb 92 b7 e6 89 ea 36 9e 3f 31 37
       -9.408244e-06 -1.7491937e-05 6.989797e-06 1.0564834e-05
000330 49 91 36 37 00 34 de 34 d7 8c 41 b7 2d dd 25 37
       1.0881872e-05 4.1388557e-07 -1.1536488e-05 9.886263e-06
000340 c8 e4 05 b8 fe 10 e0 36 70 31 9f b7 9d be 12 b6
       -3.192274e-05 6.6776984e-06 -1.8977298e-05 -2.1866647e-06
000350 1c ad 19 b7 0d 21 43 b7 85 73 35 36 da ea b5 37
       -9.159816e-06 -1.1630601e-05 2.7038343e-06 2.1686243e-05
000360 ae 6d 7e b7 c3 b6 11 37 c7 9d 8a 37 58 f4 09 37
       -1.5165117e-05 8.685226e-06 1.6524353e-05 8.222727e-06
000370 3c 1b 93 b7 79 65 55 b6 38 45 9e 36 52 d2 a6 b7
       -1.7536448e-05 -3.1798538e-06 4.716825e-06 -1.988668e-05
000380 cb 78 39 b7 6f d1 2f 37 2e 36 93 b7 5a 1f 16 b7
       -1.1054984e-05 1.0479575e-05 -1.7548995e-05 -8.947996e-06
000390 d2 1e c0 b7 80 4c 29 b8 f3 b1 35 37 2b 90 ea 36
       -2.2902535e-05 -4.0363986e-05 1.0829873e-05 6.990527e-06
0003a0 82 3c e7 36 1c 6f 6d b7 0f 41 db 36 4d 00 83 37
       6.8913805e-06 -1.41521705e-05 6.5342824e-06 1.5616557e-05
0003b0 ae a5 9d 36 59 22 d2 37 d6 1d 81 37 fb 0c 66 36
       4.6982523e-06 2.5049945e-05 1.5391892e-05 3.4280226e-06
0003c0 4a af c9 36 3b c4 df b8 0a bc 46 37 8d da bb 37
       6.010673e-06 -0.000106700194 1.1845501e-05 2.2393908e-05
0003d0 95 c5 ba 37 80 96 6d 37 c0 35 83 b6 87 0f 32 b7
       2.2264934e-05 1.4161342e-05 -3.9103616e-06 -1.0613242e-05
0003e0 21 94 4b 35 c7 c9 97 36 c0 25 d1 35 ea df 1f b7
       7.583895e-07 4.5236407e-06 1.55827e-06 -9.529273e-06
0003f0 50 a1 11 b8 0f ed 5d b8 9a 01 5c 37 15 64 ad b7
       -3.4720928e-05 -5.2911284e-05 1.3113395e-05 -2.0669811e-05
