IAV_FINAL/results/results/SheepsRedo4/Sheeps/Sheeps-430372.pt (torch, 200063 bytes, 24 tensors)

network_body._body_endoder.seq_layers.0.weight f4 [256, 28]
0	0x3c865b6c	0.016401015
1	0x3e6adc5e	0.22935626
2	0xbe8138f3	-0.2523876
3	0x3d921d12	0.07134451
4	0xbeaa84c5	-0.3330442
5	0x3ccf6662	0.025317375
6	0xbe82e0ba	-0.25562078
7	0x3dccb6e8	0.09995824
8	0xbd8cd0b8	-0.068757474
9	0xbe05fd9c	-0.13085026
10	0xbdbb7ee8	-0.09155065
11	0xbe95f147	-0.29285643
12	0xbddc9542	-0.10770656
13	0xbdfded9b	-0.12398835
14	0xbdb86796	-0.090041324
15	0xbe784f9e	-0.24249122
16	0xbdd11aee	-0.102102146
17	0xbe0260ed	-0.12732287
18	0x3b9b291e	0.004735126
19	0xbea2ff07	-0.31835195
20	0x3c723ef5	0.014785518
21	0x3e87f6d4	0.26555502
22	0xbddbec79	-0.10738463
23	0xbd476af0	-0.048685968
24	0x3e73af34	0.23797303
25	0x3e366ee0	0.17815733
26	0xbe3ab238	-0.18232048
27	0x3cf07347	0.029351844
28	0x3e80f807	0.2518923
29	0x3ea5a419	0.3235176
30	0x3dcff247	0.101536326
31	0x3db729dc	0.08943531
32	0x3e18ba30	0.14914775
33	0x3d3529cc	0.044229314
34	0xbe51b92d	-0.20480795
35	0x3e4c76f0	0.19967246
36	0x3dc2935c	0.09500763
37	0x3ebe78dc	0.37201583
38	0x3e62aa88	0.22135365
39	0xbe733075	-0.23748954
40	0x3d2f0083	0.042725097
41	0xbf0d018d	-0.5508049
42	0x3ca61dc8	0.020277873
43	0x3e8f48c1	0.27985194
44	0x3de9905c	0.114044875
45	0x3d358de8	0.044324785
46	0xbe74d8d0	-0.23910832
47	0xbeb0c9df	-0.34529015
48	0xbe8985e5	-0.26859966
49	0x3e245eb1	0.16051747
50	0x3d69f3a0	0.057117105
51	0xbeacb4a4	-0.33731568
52	0x3d9fbf72	0.07800187
53	0x3dab387f	0.08360385
54	0x3c3cab85	0.011515503
55	0x3e352fa8	0.1769396
56	0x3ce05174	0.02738259
57	0xbd79face	-0.0610302
58	0xbd5e6ee7	-0.054304983
59	0x3cfad4f8	0.03061913
60	0xbd78f422	-0.0607797
61	0x3ef95364	0.48696434
62	0x3e098a04	0.13431555
63	0x3d9d110b	0.07669266
64	0x3e06b0e3	0.13153414
65	0xbe83d969	-0.25751808
66	0xbd58e9ec	-0.05295746
67	0x3e3a21f6	0.18177018
68	0xbe0c7a21	-0.13718463
69	0x3e965e4a	0.29368812
70	0xbecac379	-0.3960226
71	0x3d338d5e	0.04383599
72	0x3da58f5e	0.08083986
73	0x3e998f76	0.29992265
74	0xbe03fc2a	-0.12889162
75	0x3e50cd93	0.2039092
76	0x3d64086b	0.05567209
77	0x3ed65915	0.4186484
78	0x3d8ae411	0.067817815
79	0xbe88364a	-0.2660392
80	0xbed63160	-0.41834545
81	0x3eeefc56	0.46676892
82	0xbf0d75b6	-0.5525774
83	0x3d57b82f	0.052665886
84	0x3d5c2f2b	0.05375592
85	0xbd6b01a6	-0.05737462
86	0xbd9168d9	-0.07100076
87	0xbe6ce072	-0.23132494
88	0xbd11083c	-0.035408244
89	0xbc01b6f7	-0.007917157
90	0xbd5e7ac5	-0.0543163
91	0xbcb97d54	-0.022642769
92	0x3e8d038e	0.27541775
93	0x3d1fac12	0.03898246
94	0xbd58369e	-0.052786462
95	0x3e544d30	0.2073257
96	0x3e2f0fc7	0.17095862
97	0xbe83eb24	-0.25765336
98	0xbe2659ce	-0.16245195
99	0x3e823372	0.25429875
100	0x3e0dfd76	0.13866219
101	0x3c0817c6	0.008306449
102	0xbe2dd683	-0.16976361
103	0x3e033fff	0.12817381
104	0x3e79edef	0.2440717
105	0x3e2453f0	0.16047645
106	0x3e18a312	0.14905956
107	0xbef161c9	-0.47144917
108	0xbd17faf0	-0.037104547
109	0x3e41e0bf	0.1893339
110	0xbd0cfa8d	-0.03441863
111	0xbcb7c6a8	-0.022433594
112	0x3d7b2cba	0.06132195
113	0xbda4c968	-0.08046228
114	0xbdd9a429	-0.10627014
115	0x3e06bb38	0.13157356
116	0xbcfd2cef	-0.030905215
117	0x3e088739	0.13332833
118	0x3db90e8e	0.09035979
119	0xbdca7b12	-0.09886755
120	0xbe09b7f6	-0.13449082
121	0x3d9a9e0f	0.075496785
122	0x3e1e4864	0.15457302
123	0xbdde4f7a	-0.10855003
124	0xbd8779e4	-0.06615046
125	0xbe22ef55	-0.1591161
126	0xbd0a0dde	-0.03370463
127	0xbde68c15	-0.11257187
128	0xbe02a65a	-0.1275877
129	0xbe77bd16	-0.24193224
130	0xbe1b06a0	-0.15139246
131	0xbe13f6cb	-0.14449613
132	0x3d61a451	0.055088345
133	0xbed9473b	-0.42437157
134	0xbcb48893	-0.02203778
135	0x3dca2ba2	0.098716035
136	0x3e7a761d	0.24459119
137	0xbd3cd0dd	-0.046097625
138	0x3e4af4cc	0.19819945
139	0xbe51efbd	-0.20501609
140	0xbe039cf4	-0.12852842
141	0xbdb502b2	-0.08838405
142	0xbc282321	-0.010262282
143	0x3bb9f951	0.005675473
144	0xbd09d864	-0.03365363
145	0x3cb7737c	0.022393934
146	0xbeddc9e1	-0.43318084
147	0xbd1eb858	-0.038750023
148	0x3e3d226e	0.18470165
149	0xbe3845aa	-0.17995325
150	0xbe2fbadb	-0.17161123
151	0xbe01a884	-0.1266194
152	0xbde82fb7	-0.11337226
153	0xbecf2657	-0.40458938
154	0x3e111640	0.14168644
155	0x3de4bb57	0.11168545
156	0x3e394b2f	0.18095087
157	0xbdaa85e3	-0.08326318
158	0x3dbac529	0.091196366
159	0x3dcfe575	0.10151187
160	0xbe89d7f4	-0.26922572
161	0xbe4a7a53	-0.19773225
162	0xbe841e7c	-0.25804508
163	0x3da5f7e0	0.08103919
164	0xbed20479	-0.41019037
165	0xbc98f6d9	-0.018672394
166	0xbcf544c3	-0.029940015
167	0xbe6834c4	-0.22676378
168	0xbc874750	-0.016513497
169	0x3eb9776b	0.3622392
170	0x3d13a1ef	0.036043104
171	0xbb8fd5b7	-0.0043894905
172	0x3ed82461	0.42215255
173	0x3be2c8d2	0.0069209123
174	0xbcc41fd1	-0.023940952
175	0x3e8de5f0	0.2771449
176	0xbe9b0edc	-0.30284774
177	0x3e3315a0	0.17488718
178	0xbdb28a90	-0.08717835
179	0x3e0c94d7	0.13728653
180	0x3eab92e5	0.3351051
181	0x3e96a258	0.29420733
182	0x3c778eec	0.015109759
183	0xbe9ea8c1	-0.30988124
184	0x3e5b2c85	0.21403702
185	0xbdb93126	-0.090425774
186	0xbe1aa4e5	-0.15101965
187	0xbe165e5b	-0.14684431
188	0x3e16ac0e	0.14714071
189	0x3e87b2ab	0.265035
190	0x3daba480	0.08380985
191	0xbe8cb287	-0.27479956
192	0x3e864e0b	0.26231417
193	0xbe16318f	-0.14667343
194	0x3e9242c7	0.28566572
195	0xbe18fb45	-0.14939602
196	0xbb7e3977	-0.0038791576
197	0xbe568adf	-0.20951413
198	0xbe7d51c5	-0.24738224
199	0xbd862a65	-0.06551055
200	0xbca40751	-0.02002302
201	0x3d2b873d	0.04187702
202	0x3dc53ee7	0.09631138
203	0xbcd44bb9	-0.025915014
204	0x3ea4b5c0	0.32169914
205	0xbcd584e4	-0.026064344
206	0xbe72f3bd	-0.23725791
207	0x3e57df8a	0.21081367
208	0xbe4eca3d	-0.20194335
209	0x3e088a88	0.13334095
210	0x3d1bfe86	0.03808453
211	0x3e27e802	0.16397098
212	0x3cd9ffe2	0.026611272
213	0xbeb8dbb8	-0.36105132
214	0xbde6ec0b	-0.112754904
215	0x3de0098b	0.1093932
216	0xbe9d3c5a	-0.30710107
217	0xbda0a56f	-0.07844054
218	0x3ebb29f5	0.36555448
219	0xbe960781	-0.293026
220	0x3dd2b3dd	0.102882124
221	0x3cef941c	0.029245429
222	0xbd0618cb	-0.03273849
223	0x3cdbcc13	0.026830709
224	0x3dc4d8de	0.09611677
225	0xbe56597d	-0.20932575
226	0xbd769e1c	-0.06020938
227	0xbea4e6a6	-0.3220722
228	0xbcc66280	-0.02421689
229	0xbdee3fa6	-0.11633234
230	0x3dec4d1f	0.11538147
231	0x3dbc40b2	0.09192027
232	0x3d98867e	0.07447527
233	0x3e882691	0.26591924
234	0xbc495bf3	-0.012289989
235	0xbdb6b7cd	-0.08921776
236	0x3e8d2f90	0.2757535
237	0x3e154c9d	0.14580007
238	0xbdc27af0	-0.09496105
239	0x3db38d42	0.08767177
240	0x3e1f0486	0.1552907
241	0xbbd069fa	-0.0063602896
242	0x3e9ad3b7	0.3023965
243	0x3de23773	0.11045732
244	0xbca4ae63	-0.020102685
245	0x3de1056b	0.109873615
246	0xbeccaa0c	-0.39973485
247	0x3e8dcc2b	0.2769483
248	0x3e85ed50	0.26157618
249	0xbce7a26f	-0.028275697
250	0xbe0ca550	-0.13734937
251	0x3ed420dd	0.41431323
252	0x3d88a825	0.06672696
253	0xbcd387ba	-0.025821555
254	0x3dcf97a6	0.101363465
255	0x3cd67e97	0.02618341

network_body._body_endoder.seq_layers.0.bias f4 [256]
0	0x3ace5c86	0.0015744127
1	0xbbc559dd	-0.0060226754
2	0xbca88770	-0.020572394
3	0xbb035871	-0.002004173
4	0xbbd36606	-0.006451371
5	0x3c2b38a0	0.010450512
6	0xbc9cc6f5	-0.019137839
7	0x3c310678	0.010804765
8	0xbc900bdd	-0.017583782
9	0xbc246a3b	-0.010035093
10	0xbc7229e3	-0.014780494
11	0x3cb97071	0.022636624
12	0xbc9fe1bf	-0.019516824
13	0x3c839ce1	0.016066017
14	0xbb71b4e6	-0.0036881506
15	0xbc3843ea	-0.011246661
16	0xbbf0fba3	-0.007354216
17	0xbc1829ec	-0.009287339
18	0x3ce54c4d	0.027990485
19	0x3c42404f	0.011856153
20	0x3cd4d38d	0.025979782
21	0x3c52a0a0	0.012855679
22	0x3c840e60	0.016120136
23	0xbc09f004	-0.008419041
24	0xbb6ac098	-0.0035820361
25	0xbc5ce569	-0.01348243
26	0xbc7c4056	-0.015396198
27	0xbbc39040	-0.0059681237
28	0x3c8ef172	0.017449114
29	0xbc299852	-0.010351257
30	0xbc7d29a2	-0.015451821
31	0xbc2b0f70	-0.010440692
32	0x3cd56cb3	0.026052808
33	0xbc781e8f	-0.0151440045
34	0x3c1e859d	0.009675411
35	0xbae1e759	-0.0017235085
36	0xbc736c63	-0.014857384
37	0xbc393a34	-0.011305381
38	0x3cceb7ba	0.025234092
39	0x38ee62ab	0.00011367103
40	0xbc8c7813	-0.0171471
41	0x3bde1df2	0.006778472
42	0xbaa357bb	-0.0012462059
43	0xbc836749	-0.016040461
44	0x3c1735b6	0.009229114
45	0xbbbb2c8a	-0.0057120966
46	0xbc829d20	-0.015944064
47	0xbc97336a	-0.018457133
48	0xbc5fe276	-0.013664832
49	0x3c64951b	0.013951565
50	0x3ccb2e53	0.024802363
51	0xbc989b0e	-0.018628623
52	0xbb37873e	-0.0028004195
53	0xbb54e10c	-0.0032482771
54	0x3c9efda9	0.019408064
55	0xbcd1ca68	-0.02560921
56	0x3cd7b94a	0.02633347
57	0xbc339c83	-0.010962608
58	0x3aa44db8	0.0012535369
59	0x3c2e8d40	0.010653794
60	0xbba28216	-0.004959355
61	0xbcb651be	-0.022255775
62	0xbacbfcae	-0.0015562975
63	0xbc91e2d3	-0.017808354
64	0x3c387c70	0.011260137
65	0xbab0258a	-0.0013438922
66	0x3cf7d383	0.030252224
67	0xbc6c4c56	-0.014422497
68	0x3cc7dc49	0.024397032
69	0xbb91ae3a	-0.0044458183
70	0xbc27f725	-0.010251795
71	0xbb5545bb	-0.0032542783
72	0x3c293c79	0.010329359
73	0xbb8b74b1	-0.004255854
74	0x3b881299	0.0041526076
75	0x3bc74265	0.006080913
76	0x3c327f5f	0.010894625
77	0x3cd3c286	0.025849592
78	0x3c6bb92b	0.014387409
79	0xbc15dde0	-0.009147137
80	0x3b0bc973	0.002132979
81	0xbbed81c0	-0.0072481334
82	0x3cb0d041	0.021583678
83	0xbcb289da	-0.021794248
84	0x3be1d832	0.0068922276
85	0xbc5f7525	-0.013638769
86	0x3bb4d709	0.0055187983
87	0xbc4b51b9	-0.012409621
88	0xbc2c4d3b	-0.01051646
89	0x3bced607	0.006312135
90	0x3c217fac	0.0098570995
91	0xbc404019	-0.011734032
92	0x3ba031e0	0.004888758
93	0xbc1ee973	-0.009699213
94	0xbbd15b35	-0.0063890466
95	0x3bdda3c6	0.006763908
96	0x3ba9e570	0.005184822
97	0xbc43adb5	-0.01194327
98	0xbcc1f095	-0.023674289
99	0x3cfa3a76	0.030545454
100	0xbc8b9437	-0.017038448
101	0x3c18a4a5	0.009316598
102	0x3bbe5b62	0.0058092335
103	0xbcadac77	-0.021200402
104	0x3aa519dd	0.0012596209
105	0x3d3ab7ae	0.045585327
106	0xbc00f472	-0.00787078
107	0xbb9d975b	-0.0048093027
108	0x3cd40812	0.025882754
109	0xbc7801d5	-0.015137156
110	0xbb1accd5	-0.0023620625
111	0x3c16e50c	0.0092098825
112	0x3cc0df64	0.023544021
113	0xbc35e989	-0.011103042
114	0x3c0774d1	0.008267597
115	0xbc3a2d40	-0.0113633275
116	0x3c8427f4	0.016132332
117	0xbbdd6528	-0.0067564435
118	0x3cc73d4c	0.02432122
119	0xbbb6d300	-0.0055793524
120	0xbc0e3552	-0.008679705
121	0xbc657cc6	-0.014006799
122	0xbc5cdf09	-0.01348091
123	0xbb9f0031	-0.0048523177
124	0x3c39c21a	0.011337781
125	0xbaa0dfa7	-0.0012273685
126	0x3bf3c768	0.0074395426
127	0xbc569094	-0.013095994
128	0x3ce2cbc4	0.027685054
129	0x3ca76e29	0.02043827
130	0xbc8ff81d	-0.017574364
131	0xba87d744	-0.0010363837
132	0xbc628167	-0.013824797
133	0x3cabbe1b	0.020964673
134	0x3c468704	0.012117151
135	0x3c8450a8	0.016151741
136	0x3abecce1	0.0014556908
137	0xbc7d6a3d	-0.015467224
138	0xbba7d7cd	-0.005122161
139	0x3bcba675	0.0062149116
140	0x3bd85bfc	0.0066027623
141	0xbc3b7290	-0.011440888
142	0x3ba6bcea	0.0050884383
143	0x3c43e32f	0.01195602
144	0x3ca2e3a7	0.019883944
145	0x3c873571	0.016504975
146	0xbc4412b8	-0.0119673535
147	0xbc1a73f5	-0.00942706
148	0xbbf82d90	-0.007573791
149	0xbbb5411a	-0.0055314424
150	0xbbd5d80a	-0.006525998
151	0xbc6ae289	-0.014336237
152	0x3c81ecb1	0.015859934
153	0xbcbe9cea	-0.023268182
154	0xbc916e45	-0.017752776
155	0xbc0c0986	-0.008547192
156	0x3c752e17	0.014964602
157	0x3c7974ad	0.015225572
158	0x3c8e2740	0.0173527
159	0xbc573cdf	-0.013137071
160	0x3c73951d	0.014867094
161	0x3b07a89c	0.0020699864
162	0x3c1522dd	0.00910255
163	0x3bd23906	0.006415489
164	0x3c25057a	0.0100721065
165	0x3cb01265	0.021493146
166	0x3ca07ce1	0.019590797
167	0xbc85842c	-0.016298376
168	0xbb71a3ea	-0.0036871382
169	0xbb696b8a	-0.0035617077
170	0xbc5e9494	-0.0135852285
171	0x3b720a7f	0.0036932526
172	0xbba34365	-0.0049823993
173	0x3afd0e91	0.0019306709
174	0x3cd84c30	0.026403517
175	0x3b96c548	0.0046011545
176	0x3a95e177	0.0011434992
177	0x3aa701a9	0.0012741584
178	0xbbf22425	-0.0073895627
179	0x3cecf963	0.02892751
180	0xbb9dd582	-0.004816712
181	0x3c18416e	0.009292943
182	0xbbd8813a	-0.006607202
183	0x3c15edc2	0.009150924
184	0x3cb91035	0.022590736
185	0xbc9a26e4	-0.018817373
186	0xbc7da8e2	-0.015482159
187	0xbc96b35e	-0.018396076
188	0x3b3149ab	0.0027051966
189	0xbc795e62	-0.0152202565
190	0xbc52dbab	-0.012869756
191	0xbb020efe	-0.0019845362
192	0xbc65c59b	-0.014024164
193	0xbc64ee1a	-0.013972783
194	0x3bb8f0d7	0.0056439447
195	0x3c3673eb	0.011136035
196	0x3c698d43	0.014254871
197	0x3cf8d562	0.030375186
198	0xbbb00b11	-0.005372413
199	0x3bf9984f	0.0076170336
200	0x3c3364b9	0.010949307
201	0x3c7b7741	0.015348257
202	0x3bff77ed	0.0077962787
203	0x3c70a4c8	0.014687724
204	0xbc225b80	-0.009909511
205	0xbab39870	-0.0013702046
206	0x3ccbc281	0.02487302
207	0x3c75cb38	0.015002064
208	0xbba44ea5	-0.005014258
209	0xbcd24bff	-0.025671003
210	0x3bbb1be0	0.00571011
211	0xbc7c47af	-0.01539795
212	0x3c416492	0.011803763
213	0x3c209fdf	0.009803741
214	0x3c6553e4	0.013997052
215	0xbbcfe342	-0.00634423
216	0x3ca26660	0.019824207
217	0xbc405f90	-0.011741534
218	0x3ccae469	0.024767118
219	0x3b9a4410	0.0047078207
220	0x3c1a51de	0.009418933
221	0x3cea2b92	0.02858523
222	0xbc46031d	-0.012085703
223	0x3cd0fdab	0.025511583
224	0xbba4325c	-0.005010886
225	0xbc62d178	-0.013843887
226	0x3adefc5b	0.0017012464
227	0x3c22b706	0.0099313315
228	0x3cc61c1b	0.024183324
229	0x3bbad58b	0.005701726
230	0xbc543a21	-0.012953312
231	0xbb954a56	-0.0045559807
232	0xbc0e729d	-0.008694318
233	0x3c884bc6	0.016637694
234	0x3cba2836	0.022724252
235	0x3c270d9d	0.010196117
236	0xbc5337ed	-0.012891752
237	0xbcb35c8e	-0.02189472
238	0xbc3b1866	-0.011419391
239	0xbc5b2590	-0.013375655
240	0xbb520dea	-0.003205175
241	0x3ae5047f	0.0017472653
242	0x3c7088f8	0.014681093
243	0xbc58fa21	-0.013243229
244	0x3c92301d	0.017845208
245	0x3c04b2a0	0.008099228
246	0x3bc596f5	0.0060299584
247	0xbc7ac6a3	-0.015306148
248	0x3cce77c2	0.02520359
249	0x3c7fbc73	0.015608895
250	0xbba93cfa	-0.0051647397
251	0x3ca5c2f6	0.020234566
252	0x3be72bd1	0.007054784
253	0xbc790454	-0.015198786
254	0x3cbf7792	0.023372445
255	0xbc58560b	-0.013204108

action_model._continuous_distribution.log_sigma f4 [1, 2]
0	0x3dd9be3a	0.10631986
1	0x3d2f69d6	0.042825542

action_model._continuous_distribution.mu.weight f4 [2, 256]
0	0x3c0f4828	0.008745231
1	0x3bae47b6	0.005318607
2	0x3bdda0fd	0.006763576
3	0x3c29d2b4	0.010365177
4	0x3b653fe9	0.003498072
5	0xbc9d15e7	-0.019175483
6	0x3d545c18	0.05184564
7	0xbc2324fd	-0.009957549
8	0x3d075770	0.03304237
9	0x3c8b9e70	0.017043322
10	0x3cf35540	0.029703736
11	0xbd074707	-0.03302672
12	0x3bdcee02	0.00674224
13	0xbc768939	-0.015047365
14	0xbc8afb20	-0.016965449
15	0x3c73d771	0.014882908
16	0xbb19d3e7	-0.002347225
17	0x3c8eca51	0.017430456
18	0xbc870c4d	-0.016485358
19	0xbc845f2f	-0.016158668
20	0xbd44c4f1	-0.04803938
21	0xbca1c73c	-0.019748323
22	0xbd0dfc0d	-0.034664202
23	0x3ca332b4	0.019921638
24	0x3cb3fc95	0.021971026
25	0x3b7ff6c8	0.0039057005
26	0x3c83540d	0.01603129
27	0xbae3f10c	-0.0017390563
28	0xbcc48791	-0.023990424
29	0x3c62fd11	0.013854281
30	0x3cac2ad1	0.02101651
31	0x3c92b074	0.017906405
32	0xbd0f52c6	-0.03499105
33	0x3d1b3438	0.037891597
34	0xbbaf7092	-0.0053539956
35	0x3bc49f56	0.0060004396
36	0x3c8da991	0.01729277
37	0x3c6db0ab	0.014507453
38	0xbcb84700	-0.022494793
39	0xbb9fb8ac	-0.0048743095
40	0x3cd89c45	0.026441703
41	0xbcb09e8c	-0.021559976
42	0xbb935a16	-0.004496823
43	0x3c9ef64b	0.019404551
44	0x3b8f06b8	0.0043648146
45	0xb93e201c	-0.00018131774
46	0x3c54c14a	0.012985537
47	0x3c16f80e	0.009214414
48	0x3bdbad18	0.006703984
49	0xbbffbc6e	-0.007804445
50	0xbd1bb7a6	-0.038016938
51	0x3c46fa4e	0.012144638
52	0x3c0e94c5	0.008702462
53	0x3bf5aeb9	0.007497635
54	0xba5afbf8	-0.00083535863
55	0x3c63e91e	0.01391056
56	0xbcfff0a3	-0.031242674
57	0x3cc52a5a	0.024068046
58	0x3cd20660	0.025637805
59	0x3c024771	0.007951603
60	0x3cc6e041	0.024276854
61	0x3c044d86	0.008075124
62	0x3cd39ee0	0.025832593
63	0x3cc69c0a	0.024244327
64	0xbc3c5fb8	-0.0114974305
65	0x3c90eb63	0.017690366
66	0xbca177b8	-0.019710407
67	0x3c05350d	0.008130324
68	0xbc56069e	-0.013063101
69	0x3d0197e0	0.03163898
70	0xbc0a42d8	-0.008438788
71	0x3bccda96	0.0062516434
72	0xbc1bb6da	-0.009504044
73	0xb9fe0f92	-0.00048458256
74	0xbc22e06c	-0.009941202
75	0xbc3f4e5e	-0.011676399
76	0xbb3a1ffc	-0.0028400412
77	0xbd2c62dd	-0.04208647
78	0xbb703bdb	-0.003665677
79	0x3bcda171	0.006275349
80	0x3c132209	0.008980283
81	0xbc6b4a69	-0.0143610025
82	0xbcc23b6f	-0.02370998
83	0x3b71b393	0.0036880716
84	0x3bcc4cf8	0.0062347613
85	0x3d2f641b	0.042820077
86	0x3c116acc	0.00887556
87	0x3cb7f102	0.022453789
88	0x3cdc43f5	0.026887873
89	0x3c1dcc54	0.009631235
90	0xbcb18842	-0.021671418
91	0x3cabb85e	0.020961937
92	0xbaf38f15	-0.001858207
93	0x3b365276	0.0027820147
94	0x3c3bb654	0.011457045
95	0xbc328a00	-0.01089716
96	0x3c14a976	0.009073606
97	0x3cd96d30	0.026541322
98	0x3bcb734a	0.006208812
99	0xbc8b2835	-0.016986946
100	0x3c17fa41	0.009275974
101	0xbbce292b	-0.0062915287
102	0xbc955395	-0.018228332
103	0x3d1325d9	0.035924766
104	0x3c4160ac	0.0118028335
105	0xbc380d01	-0.011233569
106	0x3b474f60	0.0030412301
107	0x3b09abda	0.0021006973
108	0xbbb3d798	-0.0054883473
109	0x3cab9484	0.020944841
110	0xba90d1c7	-0.0011048847
111	0xbc754fda	-0.014972651
112	0xbd22f39d	-0.03978311
113	0x3ba44d87	0.005014125
114	0x3b633d47	0.0034673975
115	0xb9ead435	-0.00044790065
116	0xbc92af70	-0.01790592
117	0x3c3ef926	0.011656081
118	0xbca178dd	-0.019710952
119	0x3cf1070b	0.029422304
120	0xbb3f51a5	-0.002919295
121	0x3cfdf1a1	0.030999007
122	0x3d1e6b56	0.038676582
123	0xbb667d28	-0.0035169814
124	0xbd0e0379	-0.03467128
125	0xbc42e8c3	-0.011896315
126	0xbb08af1d	-0.0020856329
127	0x3b8c9cde	0.004291161
128	0xbc9d8e0e	-0.019232776
129	0xbcab4c14	-0.0209103
130	0x3c7c5df4	0.01540326
131	0x3c425fa2	0.011863621
132	0xbc3a1ea6	-0.011359846
133	0x39e6d1df	0.00044025385
134	0xba84569b	-0.0010096611
135	0xbc7bffc0	-0.0153808
136	0xbc8aab4a	-0.01692738
137	0x3ca2de44	0.019881375
138	0xbc28d748	-0.010305233
139	0xbca722f6	-0.020402413
140	0xbc84a2d6	-0.016190927
141	0x3cd67a21	0.026181282
142	0x3aa67035	0.0012698235
143	0xbcc259e4	-0.023724504
144	0xbcedd954	-0.029034294
145	0x3990a8d3	0.00027591604
146	0x3bc6f74e	0.0060719615
147	0x3b543c1e	0.0032384465
148	0x3c9f43b6	0.019441467
149	0xba759ac9	-0.0009369073
150	0xbc1e8c2a	-0.009676972
151	0x3d4926ac	0.049109146
152	0xbc4f0a68	-0.012636758
153	0x3cbe7b92	0.023252282
154	0x3c0430d0	0.008068278
155	0x3ce2d1c8	0.027687922
156	0xbcd8c378	-0.026460394
157	0x3ac40ee3	0.001495805
158	0xbd34c6c1	-0.04413486
159	0x3d51d58e	0.051229052
160	0xbd062756	-0.032752357
161	0x3c6885d9	0.014192068
162	0xbc826bca	-0.015920538
163	0x3b878ea8	0.004136879
164	0xbc6445a3	-0.013932618
165	0xbbdbd4e8	-0.00670873
166	0xbca596ab	-0.020213446
167	0xbb550d80	-0.0032509267
168	0x3c36a1b9	0.011146956
169	0x398ed8c1	0.00027245845
170	0x3c80ddf5	0.015730837
171	0xbc24e364	-0.01006398
172	0x3c3f7242	0.011684956
173	0xbab156df	-0.0013529918
174	0xbd10c04c	-0.03533964
175	0xbc1bee0a	-0.009517202
176	0xbbd00f10	-0.006349452
177	0xbba20d5e	-0.004945441
178	0xb7bbb427	-2.2376027e-05
179	0xbd6356cd	-0.0555027
180	0x3babc93b	0.0052424944
181	0xbc854d71	-0.016272279
182	0x3c9ff6b4	0.019526817
183	0xbcb4d9fd	-0.022076601
184	0xbc5a20a6	-0.013313448
185	0x3c1c760c	0.009549629
186	0x3cb6f1a4	0.02233202
187	0x3c20186f	0.00977145
188	0x3c92480c	0.01785662
189	0x3c64ab45	0.013956849
190	0x3d212c50	0.0393489
191	0xba81cb34	-0.0009902478
192	0x3c722749	0.014779874
193	0x3b6d40ba	0.003620191
194	0xbc8deb69	-0.017324166
195	0xbcb57449	-0.022150176
196	0xbd15ff5a	-0.036620475
197	0xbd002404	-0.031284347
198	0xbc09695e	-0.008386938
199	0xbc999f3b	-0.018752685
200	0xbc96c1bd	-0.018402928
201	0xbd58c651	-0.052923504
202	0xbcc752d1	-0.024331482
203	0xbcba63c2	-0.022752646
204	0x3c8d2f48	0.01723446
205	0x3bb0feff	0.0054014917
206	0xbb47e3fc	-0.003050088
207	0xbd24ef7c	-0.040267453
208	0x3b806325	0.003918069
209	0x3c779baf	0.015112801
210	0x3c37e28e	0.011223448
211	0x3cdf1868	0.027233317
212	0xbcd56be6	-0.026052427
213	0xbce3e640	-0.027819753
214	0xbce6c8ba	-0.028171886
215	0x3c061b4f	0.008185222
216	0xb9e7d1f4	-0.0004421618
217	0x3cc15315	0.023599187
218	0xbc5ed813	-0.013601321
219	0x3b9d723b	0.004804877
220	0xbd0ade01	-0.033903126
221	0xbcbf6544	-0.023363717
222	0x3b7aaccc	0.0038249968
223	0xbca87306	-0.02056266
224	0x3b962cb7	0.004582967
225	0x3c3e3350	0.011608914
226	0xbc4b7723	-0.012418541
227	0xbd07088b	-0.03296713
228	0xbbb12487	-0.0054059657
229	0xbc366ee1	-0.011134834
230	0x3c8b4883	0.01700235
231	0x3ccff662	0.02538604
232	0x3c4baee0	0.01243183
233	0xbcbb6675	-0.022876004
234	0xbce75e14	-0.028243102
235	0xbcaf9b60	-0.021436393
236	0x3b4957d9	0.0030722527
237	0x3cc513d7	0.024057312
238	0x3a9df31a	0.0012050599
239	0x3aecea6b	0.0018075233
240	0xbc181690	-0.009282723
241	0x3979689a	0.00023785458
242	0xbbb3f8af	-0.005492292
243	0x3c273163	0.010204646
244	0xbc3f14f6	-0.011662712
245	0xbc8964f6	-0.016771775
246	0xbcd05eba	-0.025435794
247	0x3d4fd762	0.050742514
248	0xbc8b9ed9	-0.017043518
249	0xbc3b753a	-0.011441523
250	0x3cbeed96	0.02330665
251	0xbc8a79c3	-0.016903764
252	0x399ff15a	0.00030506664
253	0x3cd70dca	0.026251692
254	0xbd29ea51	-0.041483227
255	0x3bbd990a	0.005786066

action_model._continuous_distribution.mu.bias f4 [2]
0	0xbc83bd21	-0.016081395
1	0x3b9113a5	0.0044273906

exp_avg f4 [256, 28]
0	0x00000000	0.0
1	0x00000000	0.0
2	0x1c9e7e45	1.0488203e-21
3	0x32cc1355	2.3757517e-08
4	0x00000000	0.0
5	0x00000000	0.0
6	0x1c9e7e45	1.0488203e-21
7	0x3318486d	3.545613e-08
8	0x00000000	0.0
9	0x00000000	0.0
10	0x1c9e7e45	1.0488203e-21
11	0x32a3fa1f	1.908944e-08
12	0xb66f976b	-3.5701912e-06
13	0x00000000	0.0
14	0x35956a3b	1.1132282e-06
15	0xb6ed1a83	-7.066237e-06
16	0x00000000	0.0
17	0x00000000	0.0
18	0x1c9e7e45	1.0488203e-21
19	0x32a3b18f	1.9056442e-08
20	0x36561958	3.1903237e-06
21	0x00000000	0.0
22	0x36bcf31a	5.6311374e-06
23	0xb76ee984	-1.4240275e-05
24	0x8000002c	-6.2e-44
25	0x00000000	0.0
26	0x1c9e7e45	1.0488203e-21
27	0x32d2bed5	2.4533998e-08
28	0x00000000	0.0
29	0x00000000	0.0
30	0x1dcbd4ce	5.3953687e-21
31	0x32d662b6	2.4957767e-08
32	0x00000000	0.0
33	0x00000000	0.0
34	0x1dcbd4ce	5.3953687e-21
35	0x3347e780	4.6543846e-08
36	0x00000000	0.0
37	0x00000000	0.0
38	0x1dcbd4ce	5.3953687e-21
39	0x32b3b56c	2.0920844e-08
40	0x365fb10e	3.3332649e-06
41	0x00000000	0.0
42	0x374762db	1.1884341e-05
43	0x379cbb67	1.8683915e-05
44	0x00000000	0.0
45	0x00000000	0.0
46	0x1dcbd4ce	5.3953687e-21
47	0x32c39307	2.2767848e-08
48	0x358effbb	1.0654252e-06
49	0x00000000	0.0
50	0x36a0ec4c	4.79588e-06
51	0x379b748b	1.853171e-05
52	0x0000001d	4e-44
53	0x00000000	0.0
54	0x1dcbd4ce	5.3953687e-21
55	0x32f5d1ae	2.8617105e-08
56	0x00000000	0.0
57	0x00000000	0.0
58	0x1cb8a3a4	1.2218399e-21
59	0x32589bd9	1.260829e-08
60	0x00000000	0.0
61	0x00000000	0.0
62	0x1cb8a3a4	1.2218399e-21
63	0x32bb396d	2.179578e-08
64	0x00000000	0.0
65	0x00000000	0.0
66	0x1cb8a3a4	1.2218399e-21
67	0x32321c02	1.0367332e-08
68	0x35b725ce	1.3645565e-06
69	0x00000000	0.0
70	0x36985ed8	4.5409943e-06
71	0x36b1997a	5.292878e-06
72	0x00000000	0.0
73	0x00000000	0.0
74	0x1cb8a3a4	1.2218399e-21
75	0x323b7bdc	1.0912995e-08
76	0x35f03840	1.7897764e-06
77	0x00000000	0.0
78	0x360038fd	1.9106658e-06
79	0x3631c204	2.6487987e-06
80	0x80000004	-6e-45
81	0x00000000	0.0
82	0x1cb8a3a4	1.2218399e-21
83	0x326cb425	1.3777968e-08
84	0x00000000	0.0
85	0x00000000	0.0
86	0x9cd7cf29	-1.4281056e-21
87	0x3331684d	4.1305885e-08
88	0x00000000	0.0
89	0x00000000	0.0
90	0x9cd7cf29	-1.4281056e-21
91	0x339076d8	6.72714e-08
92	0x00000000	0.0
93	0x00000000	0.0
94	0x9cd7cf29	-1.4281056e-21
95	0x33110f7c	3.3774526e-08
96	0xb638df21	-2.7548015e-06
97	0x00000000	0.0
98	0x370a521f	8.244561e-06
99	0x35d67c5a	1.5980434e-06
100	0x00000000	0.0
101	0x00000000	0.0
102	0x9cd7cf29	-1.4281056e-21
103	0x3312147f	3.4011915e-08
104	0x3640d649	2.873496e-06
105	0x00000000	0.0
106	0x3749ff11	1.2039921e-05
107	0xb70d9b66	-8.440436e-06
108	0x8000000f	-2.1e-44
109	0x00000000	0.0
110	0x9cd7cf29	-1.4281056e-21
111	0x333b6c48	4.363781e-08
112	0x00000000	0.0
113	0x00000000	0.0
114	0x1d047367	1.7529716e-21
115	0x32285343	9.797819e-09
116	0x00000000	0.0
117	0x00000000	0.0
118	0x1d047367	1.7529716e-21
119	0x32995aa1	1.7852757e-08
120	0x00000000	0.0
121	0x00000000	0.0
122	0x1d047367	1.7529716e-21
123	0x320c2ffa	8.159981e-09
124	0x35b93353	1.3798511e-06
125	0x00000000	0.0
126	0x36ac3e2b	5.1332368e-06
127	0x36da20de	6.5007325e-06
128	0x00000000	0.0
129	0x00000000	0.0
130	0x1d047367	1.7529716e-21
131	0x321676a8	8.7581284e-09
132	0x357e1567	9.465352e-07
133	0x00000000	0.0
134	0x361aba21	2.305613e-06
135	0x36b9548f	5.5232736e-06
136	0x8000000b	-1.5e-44
137	0x00000000	0.0
138	0x1d047367	1.7529716e-21
139	0x323df64b	1.10572485e-08
140	0x00000000	0.0
141	0x00000000	0.0
142	0x9bd71780	-3.5583953e-22
143	0xb39ce0b9	-7.305193e-08
144	0x00000000	0.0
145	0x00000000	0.0
146	0x9bd71780	-3.5583953e-22
147	0xb4092d7f	-1.277567e-07
148	0x00000000	0.0
149	0x00000000	0.0
150	0x9bd71780	-3.5583953e-22
151	0xb381cfbd	-6.044818e-08
152	0xb5cb4f5c	-1.5147775e-06
153	0x00000000	0.0
154	0xb802d1cf	-3.1189815e-05
155	0xb807d101	-3.238116e-05
156	0x00000000	0.0
157	0x00000000	0.0
158	0x9bd71780	-3.5583953e-22
159	0xb385f83e	-6.23845e-08
160	0xb65b5226	-3.268136e-06
161	0x00000000	0.0
162	0xb7da7e08	-2.6046313e-05
163	0xb7b0b640	-2.1065702e-05
164	0x00000019	3.5e-44
165	0x00000000	0.0
166	0x9bd71780	-3.5583953e-22
167	0xb3ac27b7	-8.016598e-08
168	0x00000000	0.0
169	0x00000000	0.0
170	0x1e843cf9	1.4001261e-20
171	0x3408b2cf	1.2731037e-07
172	0x00000000	0.0
173	0x00000000	0.0
174	0x1e843cf9	1.4001261e-20
175	0x34726226	2.2573712e-07
176	0x00000000	0.0
177	0x00000000	0.0
178	0x1e843cf9	1.4001261e-20
179	0x33e26440	1.05421805e-07
180	0x37c3b920	2.3332017e-05
181	0x00000000	0.0
182	0x3842f59e	4.6481953e-05
183	0x386b581f	5.6110435e-05
184	0x00000000	0.0
185	0x00000000	0.0
186	0x1e843cf9	1.4001261e-20
187	0x33ee1006	1.1085653e-07
188	0x37b3d20d	2.1436275e-05
189	0x00000000	0.0
190	0x37d264bb	2.5080857e-05
191	0x3830db34	4.216582e-05
192	0x8000001c	-3.9e-44
193	0x00000000	0.0
194	0x1e843cf9	1.4001261e-20
195	0x341758ae	1.4095232e-07
196	0x00000000	0.0
197	0x00000000	0.0
198	0x1dace90d	4.576899e-21
199	0xb3405731	-4.4782784e-08
200	0x00000000	0.0
201	0x00000000	0.0
202	0x1dace90d	4.576899e-21
203	0xb39f16f5	-7.40819e-08
204	0x00000000	0.0
205	0x00000000	0.0
206	0x1dace90d	4.576899e-21
207	0xb31dba86	-3.6724053e-08
208	0x357a67ce	9.3283313e-07
209	0x00000000	0.0
210	0xb7921be8	-1.7417551e-05
211	0xb71af9d5	-9.237284e-06
212	0x00000000	0.0
213	0x00000000	0.0
214	0x1dace90d	4.576899e-21
215	0xb3181be3	-3.541562e-08
216	0xb5adf79e	-1.296157e-06
217	0x00000000	0.0
218	0xb79dfa85	-1.8832516e-05
219	0x3618c024	2.2761606e-06
220	0x0000001c	3.9e-44
221	0x00000000	0.0
222	0x1dace90d	4.576899e-21
223	0xb349d2c5	-4.6990653e-08
224	0x00000000	0.0
225	0x00000000	0.0
226	0x1dcb1e08	5.3764704e-21
227	0x34051a81	1.2396232e-07
228	0x00000000	0.0
229	0x00000000	0.0
230	0x1dcb1e08	5.3764704e-21
231	0x3468c2a7	2.1677498e-07
232	0x00000000	0.0
233	0x00000000	0.0
234	0x1dcb1e08	5.3764704e-21
235	0x33dc3fa6	1.0256126e-07
236	0x36b30ff7	5.3364743e-06
237	0x00000000	0.0
238	0x3837c855	4.3817174e-05
239	0x38445ff5	4.681941e-05
240	0x00000000	0.0
241	0x00000000	0.0
242	0x1dcb1e08	5.3764704e-21
243	0x33e5ee5e	1.0707002e-07
244	0x3728aea9	1.0054247e-05
245	0x00000000	0.0
246	0x3808d3c2	3.262214e-05
247	0x37e3233a	2.7076912e-05
248	0x8000002c	-6.2e-44
249	0x00000000	0.0
250	0x1dcb1e08	5.3764704e-21
251	0x34127892	1.3641173e-07
252	0x00000000	0.0
253	0x00000000	0.0
254	0x1e9a77f3	1.6354994e-20
255	0x33f8909c	1.1574704e-07

exp_avg_sq f4 [256, 28]
0	0x00000000	0.0
1	0x00000000	0.0
2	0x294c0d9a	4.5308897e-14
3	0x2a180dcd	1.35051e-13
4	0x00000000	0.0
5	0x00000000	0.0
6	0x294c0d9a	4.5308897e-14
7	0x2abbd5c0	3.3366192e-13
8	0x00000000	0.0
9	0x00000000	0.0
10	0x294c0d9a	4.5308897e-14
11	0x29f3e78e	1.0831536e-13
12	0x31169f5a	2.1918454e-09
13	0x00000000	0.0
14	0x3201f4a4	7.564413e-09
15	0x323f798f	1.11453025e-08
16	0x00000000	0.0
17	0x00000000	0.0
18	0x294c0d9a	4.5308897e-14
19	0x29fc93e4	1.1216703e-13
20	0x3138e052	2.6903035e-09
21	0x00000000	0.0
22	0x323a86db	1.08572875e-08
23	0x326482ad	1.3301059e-08
24	0x2942d83b	4.3264203e-14
25	0x00000000	0.0
26	0x294c0d9a	4.5308897e-14
27	0x2a3052e3	1.5660697e-13
28	0x00000000	0.0
29	0x00000000	0.0
30	0x286cd747	1.31473125e-14
31	0x29408873	4.2750915e-14
32	0x00000000	0.0
33	0x00000000	0.0
34	0x286cd747	1.31473125e-14
35	0x29f77d78	1.0990769e-13
36	0x00000000	0.0
37	0x00000000	0.0
38	0x286cd747	1.31473125e-14
39	0x291819f6	3.3773297e-14
40	0x2fda7902	3.973995e-10
41	0x00000000	0.0
42	0x31a56b50	4.814332e-09
43	0x31cebe13	6.016998e-09
44	0x00000000	0.0
45	0x00000000	0.0
46	0x286cd747	1.31473125e-14
47	0x291d9e92	3.499854e-14
48	0x2febdde0	4.2903903e-10
49	0x00000000	0.0
50	0x31c977ae	5.863476e-09
51	0x31d97337	6.3286296e-09
52	0x2899d1e0	1.7077431e-14
53	0x00000000	0.0
54	0x286cd747	1.31473125e-14
55	0x2960df00	4.9931413e-14
56	0x00000000	0.0
57	0x00000000	0.0
58	0x29aa6b3f	7.568121e-14
59	0x29bd0898	8.394777e-14
60	0x00000000	0.0
61	0x00000000	0.0
62	0x29aa6b3f	7.568121e-14
63	0x29e82ddf	1.0310827e-13
64	0x00000000	0.0
65	0x00000000	0.0
66	0x29aa6b3f	7.568121e-14
67	0x29b74ec6	8.1404976e-14
68	0x2f33dcd7	1.6358413e-10
69	0x00000000	0.0
70	0x303dcf9a	6.905282e-10
71	0x3091ff1f	1.0622648e-09
72	0x00000000	0.0
73	0x00000000	0.0
74	0x29aa6b3f	7.568121e-14
75	0x29b82178	8.1770474e-14
76	0x2f832f1c	2.3862234e-10
77	0x00000000	0.0
78	0x309249ca	1.064387e-09
79	0x30ada6e8	1.2634844e-09
80	0x257f82f3	2.2162092e-16
81	0x00000000	0.0
82	0x29aa6b3f	7.568121e-14
83	0x29c1bac0	8.603318e-14
84	0x00000000	0.0
85	0x00000000	0.0
86	0x2a6d5d64	2.108223e-13
87	0x2a97e3bc	2.698101e-13
88	0x00000000	0.0
89	0x00000000	0.0
90	0x2a6d5d64	2.108223e-13
91	0x2ae501d1	4.0679832e-13
92	0x00000000	0.0
93	0x00000000	0.0
94	0x2a6d5d64	2.108223e-13
95	0x2a8da172	2.5158657e-13
96	0x312d39c1	2.5207643e-09
97	0x00000000	0.0
98	0x31eed2e6	6.950688e-09
99	0x32234f74	9.505914e-09
100	0x00000000	0.0
101	0x00000000	0.0
102	0x2a6d5d64	2.108223e-13
103	0x2a8f1f60	2.5423674e-13
104	0x315afdb2	3.1867384e-09
105	0x00000000	0.0
106	0x32126c97	8.523009e-09
107	0x3229d069	9.884482e-09
108	0x27b45f1c	5.0063154e-15
109	0x00000000	0.0
110	0x2a6d5d64	2.108223e-13
111	0x2aa03618	2.8459245e-13
112	0x00000000	0.0
113	0x00000000	0.0
114	0x2ad7039b	3.8194174e-13
115	0x2adb8237	3.899257e-13
116	0x00000000	0.0
117	0x00000000	0.0
118	0x2ad7039b	3.8194174e-13
119	0x2aea222f	4.159047e-13
120	0x00000000	0.0
121	0x00000000	0.0
122	0x2ad7039b	3.8194174e-13
123	0x2ad9bca3	3.8677836e-13
124	0x2f45ac8d	1.7978348e-10
125	0x00000000	0.0
126	0x3104e4a8	1.9338504e-09
127	0x311ff003	2.3273976e-09
128	0x00000000	0.0
129	0x00000000	0.0
130	0x2ad7039b	3.8194174e-13
131	0x2ad9fd11	3.8722544e-13
132	0x2f88e964	2.490409e-10
133	0x00000000	0.0
134	0x311a5a2e	2.246121e-09
135	0x312caae1	2.5126428e-09
136	0x274f644b	2.878139e-15
137	0x00000000	0.0
138	0x2ad7039b	3.8194174e-13
139	0x2add06de	3.926225e-13
140	0x00000000	0.0
141	0x00000000	0.0
142	0x27abb542	4.7658554e-15
143	0x29d7ae20	9.578124e-14
144	0x00000000	0.0
145	0x00000000	0.0
146	0x27abb542	4.7658554e-15
147	0x2aa88346	2.9933884e-13
148	0x00000000	0.0
149	0x00000000	0.0
150	0x27abb542	4.7658554e-15
151	0x299a1add	6.843634e-14
152	0x305b3551	7.9747503e-10
153	0x00000000	0.0
154	0x328322f6	1.5266306e-08
155	0x329ab878	1.8011846e-08
156	0x00000000	0.0
157	0x00000000	0.0
158	0x27abb542	4.7658554e-15
159	0x29a2de43	7.2328015e-14
160	0x3095fa64	1.0912342e-09
161	0x00000000	0.0
162	0x328ae8c1	1.6171159e-08
163	0x329cb784	1.8244243e-08
164	0x286d96e9	1.3188866e-14
165	0x00000000	0.0
166	0x27abb542	4.7658554e-15
167	0x2a04aa8f	1.178313e-13
168	0x00000000	0.0
169	0x00000000	0.0
170	0x2bb5ccf7	1.2917713e-12
171	0x2bcd643e	1.4593949e-12
172	0x00000000	0.0
173	0x00000000	0.0
174	0x2bb5ccf7	1.2917713e-12
175	0x2c01f9a0	1.8470572e-12
176	0x00000000	0.0
177	0x00000000	0.0
178	0x2bb5ccf7	1.2917713e-12
179	0x2bc62397	1.4078624e-12
180	0x32274982	9.737393e-09
181	0x00000000	0.0
182	0x328b849f	1.6242039e-08
183	0x32b8bbd2	2.150583e-08
184	0x00000000	0.0
185	0x00000000	0.0
186	0x2bb5ccf7	1.2917713e-12
187	0x2bc72a02	1.415146e-12
188	0x3235164e	1.0540658e-08
189	0x00000000	0.0
190	0x32bb578e	2.180948e-08
191	0x32d438c1	2.4705857e-08
192	0x28936cd6	1.6367479e-14
193	0x00000000	0.0
194	0x2bb5ccf7	1.2917713e-12
195	0x2bd345e0	1.5011846e-12
196	0x00000000	0.0
197	0x00000000	0.0
198	0x295d07ab	4.907851e-14
199	0x2a3be04a	1.6686752e-13
200	0x00000000	0.0
201	0x00000000	0.0
202	0x295d07ab	4.907851e-14
203	0x2af2f904	4.3160625e-13
204	0x00000000	0.0
205	0x00000000	0.0
206	0x295d07ab	4.907851e-14
207	0x2a13d447	1.3129871e-13
208	0x303c3aa2	6.8477324e-10
209	0x00000000	0.0
210	0x32b413bd	2.0963734e-08
211	0x32d4f1df	2.4790038e-08
212	0x00000000	0.0
213	0x00000000	0.0
214	0x295d07ab	4.907851e-14
215	0x2a198411	1.363495e-13
216	0x30452da3	7.1733036e-10
217	0x00000000	0.0
218	0x32d4ae41	2.475929e-08
219	0x32e3295b	2.6445084e-08
220	0x28922aa2	1.6227745e-14
221	0x00000000	0.0
222	0x295d07ab	4.907851e-14
223	0x2a5c22e8	1.9552036e-13
224	0x00000000	0.0
225	0x00000000	0.0
226	0x2c16f3b2	2.145156e-12
227	0x2c2658b5	2.3639261e-12
228	0x00000000	0.0
229	0x00000000	0.0
230	0x2c16f3b2	2.145156e-12
231	0x2c4a14d7	2.8717495e-12
232	0x00000000	0.0
233	0x00000000	0.0
234	0x2c16f3b2	2.145156e-12
235	0x2c219982	2.296469e-12
236	0x31d2a931	6.1310392e-09
237	0x00000000	0.0
238	0x32f9ef04	2.9096107e-08
239	0x3321e5ee	3.7694853e-08
240	0x00000000	0.0
241	0x00000000	0.0
242	0x2c16f3b2	2.145156e-12
243	0x2c2248c4	2.3061978e-12
244	0x31ddb2e2	6.452283e-09
245	0x00000000	0.0
246	0x330d84d2	3.294992e-08
247	0x332ad20a	3.977224e-08
248	0x293a3bc9	4.1352152e-14
249	0x00000000	0.0
250	0x2c16f3b2	2.145156e-12
251	0x2c2a3604	2.4188438e-12
252	0x00000000	0.0
253	0x00000000	0.0
254	0x2cb774f5	5.2141577e-12
255	0x2cb9fa1a	5.285783e-12

exp_avg f4 [256]
0	0x374ae078	1.2092401e-05
1	0x375b2bc5	1.3063608e-05
2	0x36d9b99e	6.4887126e-06
3	0x37b18b4d	2.1164911e-05
4	0x36ab180b	5.098996e-06
5	0xb81f46eb	-3.79746e-05
6	0x3889949b	6.560349e-05
7	0xb7c2ad81	-2.3207396e-05
8	0x38869beb	6.41866e-05
9	0x387de7f9	6.0535942e-05
10	0x3885dd79	6.383187e-05
11	0xb8886b85	-6.5050124e-05
12	0x37172c62	9.010635e-06
13	0xb7d067e2	-2.4843906e-05
14	0xb8252dff	-3.9381903e-05
15	0x38097e7c	3.2781143e-05
16	0xb733f8db	-1.0727173e-05
17	0x37be6ee2	2.2701399e-05
18	0xb7e7102c	-2.7544877e-05
19	0xb83c15e3	-4.4843076e-05
20	0xb8bde5e3	-9.055042e-05
21	0xb829bb73	-4.0467316e-05
22	0xb8ccec3d	-9.771481e-05
23	0x3802d997	3.119706e-05
24	0x382f0726	4.172991e-05
25	0x37cd6ad9	2.448766e-05
26	0x380e9d0a	3.4001692e-05
27	0xb5f10a89	-1.7958965e-06
28	0xb862bb42	-5.4056996e-05
29	0x37963c4f	1.7909477e-05
30	0x388af313	6.625629e-05
31	0x385a18db	5.19984e-05
32	0xb8a9454e	-8.071457e-05
33	0x38dec444	0.00010622342
34	0xb71d4aa6	-9.37531e-06
35	0xb6e2ae22	-6.7555966e-06
36	0x3864a354	5.4511547e-05
37	0x381737f7	3.6053327e-05
38	0xb80f05ae	-3.4099146e-05
39	0xb789ebf1	-1.6441541e-05
40	0x389042a1	6.878866e-05
41	0xb8713c97	-5.7515306e-05
42	0xb748dee1	-1.1972822e-05
43	0x388a7c81	6.6035434e-05
44	0x378666f4	1.6021986e-05
45	0x359714eb	1.1256465e-06
46	0x37a51112	1.9677482e-05
47	0x37656f85	1.3675429e-05
48	0x37310854	1.0551961e-05
49	0xb73ac191	-1.1131532e-05
50	0xb85bb268	-5.2379823e-05
51	0x3816e34f	3.5974484e-05
52	0x384aafe2	4.8324357e-05
53	0x37618bb4	1.3443572e-05
54	0x36a6907d	4.964006e-06
55	0x38051563	3.172959e-05
56	0xb84ec410	-4.9296825e-05
57	0x3843d956	4.6694033e-05
58	0x3825cc76	3.9529485e-05
59	0x365b6a35	3.2695364e-06
60	0x383d58de	4.5143875e-05
61	0x371179f9	8.6710725e-06
62	0x3825f723	3.956923e-05
63	0x379c7306	1.8650211e-05
64	0xb7c31359	-2.3254821e-05
65	0x37c1cbdb	2.310232e-05
66	0xb82245d8	-3.8688857e-05
67	0x37faa742	2.9880208e-05
68	0xb7d7be63	-2.5718653e-05
69	0x385b8e7e	5.2346375e-05
70	0xb7b68d34	-2.1761844e-05
71	0x372c11c1	1.0256133e-05
72	0xb7a329c3	-1.9450561e-05
73	0xb708fbd1	-8.164862e-06
74	0xb7da5498	-2.6027017e-05
75	0xb7a509c1	-1.9674075e-05
76	0xb67192d2	-3.599726e-06
77	0xb8a843fc	-8.023527e-05
78	0xb6e6cca4	-6.8783575e-06
79	0x37dbee9b	2.6217944e-05
80	0x377461b1	1.4566279e-05
81	0xb7ed1cad	-2.8265955e-05
82	0xb8355d49	-4.324064e-05
83	0x37967095	1.7933819e-05
84	0x372beb05	1.0247114e-05
85	0x39014a7f	0.0001233015
86	0x378731c2	1.6116424e-05
87	0x388e1253	6.774501e-05
88	0x38a5facc	7.914528e-05
89	0x370283ad	7.779262e-06
90	0xb895c0ae	-7.140763e-05
91	0x3851c919	5.001677e-05
92	0xb685d19a	-3.9881097e-06
93	0x363d3a8b	2.8197271e-06
94	0x380e1c37	3.3881715e-05
95	0xb7ca75f9	-2.4135212e-05
96	0x3752cf9b	1.2565312e-05
97	0x38442a82	4.676963e-05
98	0x37acec9d	2.061418e-05
99	0xb7c9c475	-2.405255e-05
100	0x37431304	1.1627333e-05
101	0xb6eab40b	-6.994703e-06
102	0xb8352fe7	-4.3198375e-05
103	0x38804e42	6.118092e-05
104	0x379853e0	1.815887e-05
105	0xb77704f4	-1.47235005e-05
106	0x3735ce32	1.0836449e-05
107	0x35a6e821	1.2435522e-06
108	0xb7602284	-1.3359477e-05
109	0x381ea5ad	3.7824433e-05
110	0xb68d9a4d	-4.2200904e-06
111	0xb7c6e5fc	-2.3710534e-05
112	0xb8a09a2e	-7.658113e-05
113	0x37e0e9d3	2.6811764e-05
114	0x369ca182	4.6679643e-06
115	0x36f8fb07	7.4201994e-06
116	0xb8103589	-3.4382134e-05
117	0x37dd5608	2.6385314e-05
118	0xb821b690	-3.8555416e-05
119	0x388b9c10	6.6571054e-05
120	0xb69429c4	-4.415606e-06
121	0x38a2c640	7.761689e-05
122	0x38bf957f	9.1354355e-05
123	0xb637c137	-2.738159e-06
124	0xb8af5de8	-8.362142e-05
125	0xb7c60ad8	-2.3608489e-05
126	0xb6b812b7	-5.485806e-06
127	0x379d1250	1.8724386e-05
128	0xb7fa7bb4	-2.9859926e-05
129	0xb819a81e	-3.6634614e-05
130	0x378dc985	1.690235e-05
131	0x387fbdce	6.0973507e-05
132	0xb7cbdf40	-2.4303445e-05
133	0xb60807ca	-2.0270113e-06
134	0x35ab743a	1.2774319e-06
135	0xb82a2060	-4.056131e-05
136	0xb837282b	-4.366801e-05
137	0x38139702	3.5188168e-05
138	0xb7d68533	-2.5572814e-05
139	0xb82e746c	-4.159326e-05
140	0xb827af2a	-3.9979037e-05
141	0x385ec9ea	5.311697e-05
142	0xb5af0c42	-1.3042084e-06
143	0xb8485a38	-4.776774e-05
144	0xb882ee79	-6.243302e-05
145	0xb5a2b4be	-1.2122543e-06
146	0x37817935	1.543444e-05
147	0x348e9882	2.6560525e-07
148	0x38535d27	5.0393075e-05
149	0xb5bac7cf	-1.3916232e-06
150	0xb7a78eb1	-1.9974397e-05
151	0x39024f83	0.00012427387
152	0xb7c4eefa	-2.3476303e-05
153	0x38027406	3.110247e-05
154	0x3807aff2	3.235037e-05
155	0x3830f409	4.2188945e-05
156	0xb876c207	-5.8831673e-05
157	0x36630269	3.3827039e-06
158	0xb8ba1217	-8.872541e-05
159	0x390d3ebb	0.00013470177
160	0xb8978b5f	-7.226201e-05
161	0x37a28d98	1.937784e-05
162	0xb83298a1	-4.2580654e-05
163	0x37222a98	9.66587e-06
164	0xb82bfa38	-4.100261e-05
165	0xb74eff21	-1.2337959e-05
166	0xb832e30e	-4.264997e-05
167	0xb6da89be	-6.5129416e-06
168	0x37c22999	2.3145973e-05
169	0x3766bd36	1.3753122e-05
170	0x37d92d02	2.5889374e-05
171	0xb7c95c8f	-2.4004168e-05
172	0x38093ff8	3.272292e-05
173	0xb692700c	-4.364183e-06
174	0xb870c9a4	-5.740825e-05
175	0xb7bf2dbd	-2.2790273e-05
176	0xb7512d36	-1.2467897e-05
177	0xb6fe6229	-7.5812172e-06
178	0x37122241	8.7102535e-06
179	0xb8e6cd0b	-0.00011005447
180	0x374823f9	1.19293045e-05
181	0xb81f6fce	-3.801268e-05
182	0x3849936d	4.8059435e-05
183	0xb8741e61	-5.8202426e-05
184	0xb798ddac	-1.8223036e-05
185	0x370f21ae	8.531306e-06
186	0x38158a66	3.5653262e-05
187	0x380fc97e	3.428151e-05
188	0x3800e7fa	3.0733623e-05
189	0x382375c8	3.897192e-05
190	0x3890d0ce	6.905348e-05
191	0xb6a8ad29	-5.0269487e-06
192	0x384ec783	4.9300037e-05
193	0x36da7dad	6.511537e-06
194	0xb8203205	-3.8193557e-05
195	0xb86acbc8	-5.5979734e-05
196	0xb8c293da	-9.2781804e-05
197	0xb874d1be	-5.836947e-05
198	0xb772a165	-1.4461902e-05
199	0xb847f310	-4.7671667e-05
200	0xb821314f	-3.8431313e-05
201	0xb8fb2257	-0.00011975009
202	0xb887b80c	-6.471583e-05
203	0xb8576a85	-5.13592e-05
204	0x387358b5	5.801833e-05
205	0x37745a6b	1.4564585e-05
206	0xb6961f8d	-4.4740214e-06
207	0xb8c8c10e	-9.5727024e-05
208	0x36749ee3	3.6451318e-06
209	0x38155956	3.560757e-05
210	0x373944ea	1.1042905e-05
211	0x38a29c03	7.7538214e-05
212	0xb88ea9db	-6.802726e-05
213	0xb89a051e	-7.3442454e-05
214	0xb889e6f5	-6.575688e-05
215	0x383e9bc1	4.5444587e-05
216	0xb691d6b1	-4.34633e-06
217	0x38b95789	8.837792e-05
218	0xb7d19abe	-2.4986799e-05
219	0x36fd3640	7.546303e-06
220	0xb897ce60	-7.2386814e-05
221	0xb8449fb8	-4.687879e-05
222	0x373a5925	1.11072195e-05
223	0xb7f1d0e8	-2.8826718e-05
224	0x376fa4b0	1.4283854e-05
225	0x37a97ea3	2.020534e-05
226	0xb8167bcb	-3.5878078e-05
227	0xb891e5a6	-6.956914e-05
228	0xb679e3b7	-3.7236439e-06
229	0xb7df9570	-2.6653259e-05
230	0x384cefc9	4.8860707e-05
231	0x38a050a6	7.6444165e-05
232	0x381a04c4	3.67209e-05
233	0xb88d75e5	-6.7453635e-05
234	0xb85578b4	-5.089557e-05
235	0xb8269b59	-3.9722163e-05
236	0x363467ff	2.6882624e-06
237	0x387c6004	6.0170903e-05
238	0xb668f992	-3.4715963e-06
239	0x369d9d82	4.697301e-06
240	0xb7eedaf8	-2.8473776e-05
241	0xb58456b1	-9.859997e-07
242	0xb6e90cc5	-6.9454277e-06
243	0x381f8835	3.8035407e-05
244	0xb7b640c7	-2.1726255e-05
245	0xb80bff07	-3.3377695e-05
246	0xb88041c4	-6.1157654e-05
247	0x38ddf54d	0.00010583792
248	0xb80ca9da	-3.3536788e-05
249	0xb7ee8b8b	-2.843679e-05
250	0x3833fc9f	4.2912197e-05
251	0xb7c5608c	-2.3529188e-05
252	0xb6599332	-3.2421199e-06
253	0x38a9d1d4	8.0976315e-05
254	0xb8b45100	-8.598156e-05
255	0x37e13f2f	2.6851512e-05

exp_avg_sq f4 [256]
0	0x32d02c5c	2.423456e-08
1	0x320efcdf	8.322984e-09
2	0x31268750	2.4233096e-09
3	0x329407cb	1.7233011e-08
4	0x31811a0a	3.7573544e-09
5	0x32d8195c	2.5157242e-08
6	0x3351f0b9	4.888054e-08
7	0x330d0c8c	3.2840532e-08
8	0x338964ed	6.397918e-08
9	0x3308f19a	3.1884703e-08
10	0x330f9dff	3.343848e-08
11	0x32f9b19b	2.906818e-08
12	0x30ca7792	1.4731418e-09
13	0x31f16932	7.0259825e-09
14	0x31e6ff6e	6.72292e-09
15	0x323d5f81	1.1022963e-08
16	0x32d75e38	2.507214e-08
17	0x32615e18	1.3118118e-08
18	0x31db8f52	6.3900325e-09
19	0x32d21641	2.4457337e-08
20	0x338ac16b	6.461308e-08
21	0x330501f4	3.0968252e-08
22	0x33d5a091	9.947792e-08
23	0x321afa58	9.020901e-09
24	0x336a3df9	5.4538734e-08
25	0x31f7dfc8	7.214087e-09
26	0x327c735a	1.46945585e-08
27	0x3118cf27	2.2236664e-09
28	0x33057a3d	3.107765e-08
29	0x3256fdbc	1.2514132e-08
30	0x32e7aa10	2.6969275e-08
31	0x33307825	4.1087464e-08
32	0x336021dc	5.218486e-08
33	0x338b0a0a	6.474518e-08
34	0x30d991b6	1.5830242e-09
35	0x32a7044a	1.944331e-08
36	0x32d0e452	2.4318215e-08
37	0x32949f90	1.7302028e-08
38	0x32af617e	2.0417016e-08
39	0x320a0966	8.034794e-09
40	0x3302c8b9	3.045054e-08
41	0x33a08ce1	7.476206e-08
42	0x321ae229	9.015403e-09
43	0x328d0d48	1.64206e-08
44	0x3184ec31	3.8685575e-09
45	0x32511452	1.2170021e-08
46	0x3285cf35	1.5577465e-08
47	0x318b487c	4.053673e-09
48	0x31e031d0	6.524921e-09
49	0x32723f2e	1.4100619e-08
50	0x336e6cbd	5.551259e-08
51	0x3266a4a7	1.34252e-08
52	0x33b2fd6a	8.334867e-08
53	0x3176ef65	3.5933791e-09
54	0x326992bc	1.35957485e-08
55	0x3241796e	1.12616885e-08
56	0x32d9bcff	2.534807e-08
57	0x3253ee97	1.23360655e-08
58	0x3398f3d1	7.1224015e-08
59	0x3382ba53	6.087489e-08
60	0x3342ba99	4.5338854e-08
61	0x312cd7bc	2.5151925e-09
62	0x338fa5df	6.689128e-08
63	0x31edb604	6.9183006e-09
64	0x327d66e7	1.47499355e-08
65	0x32aa2da9	1.9811369e-08
66	0x322d6982	1.0093915e-08
67	0x3258bd4e	1.2615898e-08
68	0x313dcda7	2.762002e-09
69	0x32ad6dd0	2.0189788e-08
70	0x31ba2b38	5.418226e-09
71	0x32f37b03	2.8344862e-08
72	0x3119b963	2.236981e-09
73	0x32a3e008	1.9077575e-08
74	0x32d79e65	2.5101324e-08
75	0x3282ac72	1.521241e-08
76	0x32c53404	2.2957472e-08
77	0x33478c79	4.6461057e-08
78	0x31424429	2.826946e-09
79	0x322e2e41	1.013865e-08
80	0x313e9ed8	2.7738931e-09
81	0x3231df69	1.0353554e-08
82	0x32f08eb9	2.800458e-08
83	0x30ff9204	1.8595192e-09
84	0x32674bc9	1.3463201e-08
85	0x342342ce	1.5204861e-07
86	0x324926c4	1.1708554e-08
87	0x331d7871	3.6663952e-08
88	0x33999ce9	7.1531595e-08
89	0x33336b01	4.1774005e-08
90	0x3347f995	4.656029e-08
91	0x329ab82b	1.801171e-08
92	0x31a46ef6	4.785643e-09
93	0x31966cfa	4.3779638e-09
94	0x329d6901	1.8324956e-08
95	0x32dc2e26	2.5632357e-08
96	0x3263eec7	1.3267431e-08
97	0x3387cf29	6.3241096e-08
98	0x31610d70	3.2749448e-09
99	0x31bc793a	5.485302e-09
100	0x30edafa3	1.7293939e-09
101	0x32e73498	2.6915856e-08
102	0x3295ef95	1.7454832e-08
103	0x337e513b	5.9212862e-08
104	0x325d72ce	1.2889997e-08
105	0x30e1c2b5	1.6426244e-09
106	0x30a4962f	1.1975255e-09
107	0x31462e43	2.883909e-09
108	0x315880b9	3.1505307e-09
109	0x325957ed	1.2651054e-08
110	0x3286ebf3	1.570695e-08
111	0x3397a53f	7.0615435e-08
112	0x333ac9fe	4.349021e-08
113	0x3206ba39	7.842169e-09
114	0x319e9b21	4.6160413e-09
115	0x3175255c	3.5673429e-09
116	0x32a29309	1.8926146e-08
117	0x32338794	1.0449998e-08
118	0x32b880af	2.1478938e-08
119	0x338f2ce0	6.667119e-08
120	0x3250e36a	1.2158901e-08
121	0x3365e953	5.3530425e-08
122	0x3353dbcc	4.932717e-08
123	0x3287e8bb	1.5821902e-08
124	0x34247845	1.5317444e-07
125	0x328dd00f	1.6509174e-08
126	0x329b7a89	1.8100097e-08
127	0x3210abf7	8.4210035e-09
128	0x31dcc2d5	6.4249925e-09
129	0x331b5be3	3.617232e-08
130	0x32319a90	1.0337899e-08
131	0x33cee8d6	9.634975e-08
132	0x3184f23b	3.869244e-09
133	0x303858a7	6.706479e-10
134	0x3309e384	3.2104722e-08
135	0x330689a2	3.1324483e-08
136	0x331be691	3.629845e-08
137	0x328ab186	1.6146043e-08
138	0x32133cb1	8.570326e-09
139	0x328900d7	1.5949281e-08
140	0x330fe344	3.350148e-08
141	0x335cd89d	5.141975e-08
142	0x303f2017	6.9531e-10
143	0x33687ebf	5.4131984e-08
144	0x32b10ea2	2.0612166e-08
145	0x31c41d9d	5.7077174e-09
146	0x32077291	7.884084e-09
147	0x3277ad05	1.4416632e-08
148	0x332d0570	4.0284647e-08
149	0x31ec4239	6.8760326e-09
150	0x31fa80ac	7.290586e-09
151	0x33b6652b	8.493438e-08
152	0x32311086	1.0306513e-08
153	0x326c0324	1.3737722e-08
154	0x31da31a5	6.350279e-09
155	0x32968d1d	1.752647e-08
156	0x3343dd3d	4.560319e-08
157	0x316463f5	3.3235186e-09
158	0x337241c2	5.6404822e-08
159	0x33e6d333	1.07486265e-07
160	0x333ff72e	4.469546e-08
161	0x336d6957	5.527667e-08
162	0x33953803	6.948542e-08
163	0x33201976	3.727606e-08
164	0x3321720a	3.758945e-08
165	0x30994b1f	1.1153566e-09
166	0x32bfda8f	2.2334715e-08
167	0x30bbd86f	1.3667555e-09
168	0x32b98827	2.159875e-08
169	0x333f20fa	4.4500645e-08
170	0x321a830e	8.993778e-09
171	0x327ac177	1.4595904e-08
172	0x33439006	4.5532964e-08
173	0x313a8412	2.7141636e-09
174	0x32d72560	2.504629e-08
175	0x33169523	3.5060236e-08
176	0x30ebddde	1.7161559e-09
177	0x3219107d	8.909521e-09
178	0x31b674f6	5.310194e-09
179	0x33d1a589	9.7624316e-08
180	0x32827f93	1.5192006e-08
181	0x32f99640	2.9055741e-08
182	0x331d4e20	3.6625465e-08
183	0x33206b38	3.7350418e-08
184	0x329b29c5	1.806337e-08
185	0x31dfb918	6.511197e-09
186	0x325b17c9	1.2752886e-08
187	0x31afb89d	5.1141584e-09
188	0x3238b4f2	1.0751352e-08
189	0x324a9ddc	1.1793841e-08
190	0x333f62ef	4.4560633e-08
191	0x328cb465	1.6380179e-08
192	0x32a8db78	1.9657577e-08
193	0x321f805b	9.284203e-09
194	0x32a17286	1.8794946e-08
195	0x32e1338a	2.6216885e-08
196	0x335bafeb	5.1149907e-08
197	0x32df3777	2.598584e-08
198	0x325e2913	1.293144e-08
199	0x330c93c0	3.2730668e-08
200	0x328ca64d	1.637377e-08
201	0x34242b7f	1.5289514e-07
202	0x335ff08c	5.214001e-08
203	0x331cc2e1	3.649882e-08
204	0x333bfcb8	4.3769177e-08
205	0x31ba4c00	5.4219527e-09
206	0x2f6a6bc2	2.1320459e-10
207	0x33de36bb	1.0347636e-07
208	0x30a0f5a9	1.1711353e-09
209	0x31e8dd61	6.7772565e-09
210	0x326fad39	1.3951017e-08
211	0x32cc70d2	2.380003e-08
212	0x339dcfbd	7.3486696e-08
213	0x338d70e4	6.586359e-08
214	0x333e034b	4.4240817e-08
215	0x33645888	5.3165905e-08
216	0x3098ff8a	1.1132084e-09
217	0x3333a948	4.1830646e-08
218	0x31f5cc72	7.153681e-09
219	0x32ae0c57	2.0261878e-08
220	0x33581827	5.0313385e-08
221	0x32de3042	2.5866147e-08
222	0x321c3509	9.092454e-09
223	0x3212dd5c	8.54865e-09
224	0x3237411a	1.0666804e-08
225	0x31c92bcd	5.8548495e-09
226	0x3271b073	1.4068166e-08
227	0x333a5f64	4.3393257e-08
228	0x311869c2	2.2179028e-09
229	0x32bf98fd	2.2304897e-08
230	0x32fb8aad	2.9283308e-08
231	0x33b49658	8.4092505e-08
232	0x3287458b	1.5747693e-08
233	0x3356929e	4.9959105e-08
234	0x326e3247	1.3864855e-08
235	0x32d68df2	2.4977428e-08
236	0x3091f50d	1.0619786e-09
237	0x32b7ee8e	2.1412486e-08
238	0x321eacea	9.2361265e-09
239	0x31f04987	6.9932784e-09
240	0x324c16d6	1.1879555e-08
241	0x30936f13	1.0727227e-09
242	0x3245f939	1.1523576e-08
243	0x32861301	1.5608295e-08
244	0x32c36f93	2.2751726e-08
245	0x33868dcb	6.265653e-08
246	0x33371158	4.2623782e-08
247	0x33bf7510	8.915424e-08
248	0x32151c4e	8.679377e-09
249	0x32a3bdf4	1.9062078e-08
250	0x3288823d	1.589171e-08
251	0x320be95e	8.143926e-09
252	0x30bab757	1.358539e-09
253	0x331934e8	3.5671206e-08
254	0x335c34df	5.1270828e-08
255	0x318bd498	4.0696015e-09

exp_avg f4 [1, 2]
0	0xbc5a26d6	-0.013314923
1	0x3ba5e1b3	0.005062306

exp_avg_sq f4 [1, 2]
0	0x39d58ced	0.00040731524
1	0x39bddbff	0.000362128
