IAV_FINAL/results/results/SheepsRedo4/Sheeps/Sheeps-64.onnx (onnx, 33382 bytes, 5 tensors)

action_model._continuous_distribution.log_sigma f4 [1, 2]
00000000: 0000 0000 0000 0000
0.0 0.0

action_model._continuous_distribution.mu.bias f4 [2]
00000000: 0000 0000 0000 0000
0.0 0.0

action_model._continuous_distribution.mu.weight f4 [2, 256]
00000000: bc37 433c 15f9 70bc 1d29 223b f3f1 083c
00000010: a8d3 97bb 73b0 7cbc 070b 9736 45ec 053c
00000020: 7ff5 3abc b255 0f3c b565 8d3b ed77 e8bb
00000030: d8bb c93b aae1 103c 8355 c3bb fdaf cc3c
00000040: 8b08 72ba f939 023c 2143 283c 9397 27bb
00000050: 5b7c 3cbc c015 e7bc b8bf f6bc 919f 0d3c
00000060: e8f7 d13b e307 0439 4dfa 6eba 1a69 d2bb
00000070: 5a40 313c 1772 0d3c 65b1 c03c 1797 9abb
00000080: 8793 52bc 6749 ec3c dda4 08bb bca4 23bc
00000090: ed90 843b 889d f83b 98c3 873c c34b 01bc
000000a0: 885f 96bc 7906 033c 3db1 b93b 1fc5 a53c
000000b0: d7e2 81bb 5f0e a33c 9165 013c 34a9 90bc
000000c0: 169c 18bd 85ee bc3a bf26 32bb 96df 9fbc
000000d0: 1d89 b63c 0b51 703b 088d c2ba 8931 4639
000000e0: 3700 dcbb 408c 0e39 15e1 523c fd76 83bc
000000f0: 4298 8f3c 3bd1 af3b 33d3 98bc e459 8bbc
00000100: 1b0c b53b 732d c73b 9ab2 07bd abbc 5cbb
00000110: f373 033b db70 363b 25c7 f03b 63e7 273b
00000120: aacf 033d 07a8 f6bb 1717 893c bf2c b03b
00000130: ade5 113d 6fa6 c7bc b397 5a3a d6cd 9ebb
00000140: b3ef 8dbb 1b69 573c e730 10bc 2faa 02bc
00000150: 221e 923c 025a 5c3b 5373 5dbb fdf4 d03b
00000160: 028e e6ba 6aa7 d9bc 7d25 f9bc 43c5 cabb
00000170: 87c3 8abc 740c 81bc 832a 4abc 52e5 613b
00000180: 8bca c9bb 737a 6fbc cb6e 95bc 2714 0e3c
00000190: bf17 a53a 2388 203c d4ad 22bc bae8 54bb
000001a0: 0fc1 e3bb 3347 413c 08cb 053b 1a09 893c
000001b0: d89e 933b 79d2 28bc 095e a23a 6f88 43bc
000001c0: 5092 bc3b 9263 233c 7785 303c e3d8 2ebc
000001d0: 67c6 933b 73a0 48bb a37d 0c3b 1931 9d3b
000001e0: 3fd9 c3ba 0c1c 1b3b e802 6b3b 0cff 173c
000001f0: ff9f cc3c 2ba3 c9bb 3ba8 563c 74f3 0c3d
00000200: b4c1 a63c f373 5e3c bde9 f03a 7a39 83bb
00000210: a703 453c 5f0d adba 6269 21bc 81ac 9039
00000220: 4382 a43c 0379 453b 20bb cfb8 0a45 503c
00000230: 17e0 3bbc 4a52 6cbb 5bb3 653c 7cf1 003c
00000240: 4501 62bc 40c9 f5bb 5b2b d73c 50de d03c
00000250: 20e8 4d3c 3519 6f3c b7cb ba3c c6e6 2e3c
00000260: e1fd ac3c 2f18 963b 15fb 5a3b f004 09bb
00000270: 9d60 673c 6f8b 4dbc bf22 6b3b 9a19 8fbb
00000280: df00 cd3b 101f 463c 8359 eabb 9366 bc3b
00000290: 37bb fc3b 0711 6c3c 9f0b 733b 8adc 18bb
000002a0: fb90 fa3c e40b 123c 77bc 303c 4baa 26bc
000002b0: 85f8 393c 8302 b63c cfd7 fd3b ec3b 29bc
000002c0: 4517 d9bc 5aa2 1ebc 0a32 663a ad15 223c
000002d0: 1357 09bb 97bb 49bc 1716 8cbc 00e9 66bc
000002e0: f0cc 42bc d7b0 a2bc 6758 98bc e14a 873c
000002f0: bf84 b93a 7dc0 79bc ec8e a23b c8d6 7d3c
00000300: 4810 f33b 989b 2d3a d3d5 fe3b 04ea 4abc
00000310: cef2 29bb 291a 98bb d37e 6b3b bf24 4c3c
00000320: c7fb 38bc 10d0 54bc 748f 2e3c 7f50 f73a
00000330: 935a 84bc bf61 93bc a74f 813c 2da9 02bc
00000340: a5fb 3b3c 2e94 c13b 0ee7 823c 8844 44bc
00000350: c331 213c fffe 23bc 3be9 b73a 12aa fd3b
00000360: 5376 eeba f7f6 763c d367 c53b e2fc 873c
00000370: 2b14 de3b 982b b9bc ab3f 9e3b a609 87bc
00000380: b431 8abc 4e5e 863c 3354 763c 9350 383c
00000390: 7c50 333c 5cd9 bf3c 0241 81bc e535 f93b
000003a0: 1602 92bc 5b34 aabc e8a8 03bc 15c3 a0bc
000003b0: 8329 2a3c 9095 1d3c 70bd 6cbc af56 9f3c
000003c0: 3b80 61bc b840 893b 745a c53b eaa5 8bbb
000003d0: ef90 873a 32fd 513c d2fe 7dbc 350f 12bc
000003e0: 1a67 ef3b 3019 bfbb 38d6 3a3b 0089 81bb
000003f0: ed24 0d3c 86a5 283c 88c1 9cbc 407a 29bc
0.011915144 -0.014707823 0.0024743744 0.008358466 -0.0046333857 -0.015422928 4.5014344e-06 0.008174007
-0.01141107 0.008748459 0.004315103 -0.0070943744 0.006156426 0.008842865 -0.0059611215 0.024986262
-0.00092328404 0.007948392 0.010269911 -0.0025572523 -0.011504258 -0.028208613 -0.030120715 0.008644001
0.0064077266 0.00012591439 -0.0009116277 -0.0064212205 0.010818565 0.008633158 0.023522088 -0.0047177183
-0.012852556 0.028843595 -0.002085022 -0.009988006 0.004045597 0.0075871386 0.016572759 -0.007891598
-0.0183561 0.007997149 0.0056668804 0.020235596 -0.003963809 0.019904314 0.0078977505 -0.017658807
-0.03725823 0.0014414346 -0.002718374 -0.019515794 0.022282178 0.00366694 -0.0014843056 0.00018901205
-0.006713893 0.00013594422 0.012871047 -0.016047949 0.017528657 0.0053655184 -0.018655395 -0.017010637
0.0055251247 0.006078416 -0.033129312 -0.003368179 0.0020058125 0.0027838263 0.0073479586 0.0025620095
0.032180466 -0.0075273546 0.016734643 0.005376428 0.035619427 -0.024371354 0.0008338645 -0.004846315
-0.004331553 0.013147618 -0.008800722 -0.007975145 0.017836634 0.0033622985 -0.0033790662 0.006376861
-0.0017589929 -0.026569087 -0.030413384 -0.006188066 -0.016938938 -0.015753008 -0.012339237 0.003446896
-0.006158178 -0.0146165965 -0.018241307 0.008671797 0.0012595578 0.0097980825 -0.009929139 -0.0032487349
-0.0069505046 0.01179676 0.0020415206 0.016727973 0.0045050196 -0.010304087 0.0012387644 -0.011934384
0.0057547465 0.00997247 0.010774008 -0.010671827 0.0045097354 -0.0030613213 0.002143719 0.0047971127
-0.0014942064 0.002366784 0.0035859887 0.0092771165 0.024978636 -0.0061534843 0.013101633 0.034411862
0.020356037 0.013577449 0.0018380206 -0.0040046545 0.012024797 -0.0013202837 -0.009851785 0.00027594346
0.020081645 0.0030131943 -9.905384e-05 0.012711773 -0.011467001 -0.003605979 0.014019812 0.007870074
-0.013794248 -0.0075007975 0.02626579 0.025496632 0.01256755 0.014593412 0.022802217 0.010675138
0.021117153 0.0045805196 0.0033413817 -0.0020907484 0.0141221555 -0.012545451 0.0035878865 -0.0043670656
0.0062562074 0.012092367 -0.007151784 0.0057495325 0.0077127474 0.0144083565 0.0037085784 -0.002332481
0.03058671 0.008913968 0.010787121 -0.010172437 0.011350756 0.022217995 0.0077466737 -0.010329228
-0.026500354 -0.009682262 0.000878126 0.009892863 -0.0020956441 -0.012312791 -0.017100377 -0.0140936375
-0.011889681 -0.019859714 -0.018596841 0.016515197 0.0014153941 -0.015243647 0.0049608853 0.015493102
0.0074177124 0.00066226115 0.0077769547 -0.012384895 -0.0025932076 -0.0046417904 0.0035933747 0.012459933
-0.011290497 -0.012989059 0.010654319 0.0018868594 -0.01615647 -0.017990945 0.015785052 -0.007974905
0.011473571 0.005907557 0.015979316 -0.01197923 0.009838524 -0.010009526 0.00140313 0.007741221
-0.0018193222 0.015073529 0.0060243397 0.016600076 0.0067773066 -0.022603795 0.004829367 -0.016484093
-0.016869403 0.01640239 0.015034723 0.011249679 0.010944482 0.023419075 -0.015778068 0.0076053017
-0.01782326 -0.020776918 -0.008035876 -0.019624272 0.010385874 0.009618178 -0.014449462 0.019450514
-0.013763483 0.0041886233 0.0060227457 -0.004261722 0.0010342876 0.012816714 -0.015502648 -0.008914758
0.007305992 -0.00583186 0.0028509032 -0.0039530993 0.008614761 0.01029337 -0.019135252 -0.010344088

network_body._body_endoder.seq_layers.0.bias f4 [256]
00000000: 0000 0000 0000 0000 0000 0000 0000 0000
00000010: 0000 0000 0000 0000 0000 0000 0000 0000
00000020: 0000 0000 0000 0000 0000 0000 0000 0000
00000030: 0000 0000 0000 0000 0000 0000 0000 0000
00000040: 0000 0000 0000 0000 0000 0000 0000 0000
00000050: 0000 0000 0000 0000 0000 0000 0000 0000
00000060: 0000 0000 0000 0000 0000 0000 0000 0000
00000070: 0000 0000 0000 0000 0000 0000 0000 0000
00000080: 0000 0000 0000 0000 0000 0000 0000 0000
00000090: 0000 0000 0000 0000 0000 0000 0000 0000
000000a0: 0000 0000 0000 0000 0000 0000 0000 0000
000000b0: 0000 0000 0000 0000 0000 0000 0000 0000
000000c0: 0000 0000 0000 0000 0000 0000 0000 0000
000000d0: 0000 0000 0000 0000 0000 0000 0000 0000
000000e0: 0000 0000 0000 0000 0000 0000 0000 0000
000000f0: 0000 0000 0000 0000 0000 0000 0000 0000
00000100: 0000 0000 0000 0000 0000 0000 0000 0000
00000110: 0000 0000 0000 0000 0000 0000 0000 0000
00000120: 0000 0000 0000 0000 0000 0000 0000 0000
00000130: 0000 0000 0000 0000 0000 0000 0000 0000
00000140: 0000 0000 0000 0000 0000 0000 0000 0000
00000150: 0000 0000 0000 0000 0000 0000 0000 0000
00000160: 0000 0000 0000 0000 0000 0000 0000 0000
00000170: 0000 0000 0000 0000 0000 0000 0000 0000
00000180: 0000 0000 0000 0000 0000 0000 0000 0000
00000190: 0000 0000 0000 0000 0000 0000 0000 0000
000001a0: 0000 0000 0000 0000 0000 0000 0000 0000
000001b0: 0000 0000 0000 0000 0000 0000 0000 0000
000001c0: 0000 0000 0000 0000 0000 0000 0000 0000
000001d0: 0000 0000 0000 0000 0000 0000 0000 0000
000001e0: 0000 0000 0000 0000 0000 0000 0000 0000
000001f0: 0000 0000 0000 0000 0000 0000 0000 0000
00000200: 0000 0000 0000 0000 0000 0000 0000 0000
00000210: 0000 0000 0000 0000 0000 0000 0000 0000
00000220: 0000 0000 0000 0000 0000 0000 0000 0000
00000230: 0000 0000 0000 0000 0000 0000 0000 0000
00000240: 0000 0000 0000 0000 0000 0000 0000 0000
00000250: 0000 0000 0000 0000 0000 0000 0000 0000
00000260: 0000 0000 0000 0000 0000 0000 0000 0000
00000270: 0000 0000 0000 0000 0000 0000 0000 0000
00000280: 0000 0000 0000 0000 0000 0000 0000 0000
00000290: 0000 0000 0000 0000 0000 0000 0000 0000
000002a0: 0000 0000 0000 0000 0000 0000 0000 0000
000002b0: 0000 0000 0000 0000 0000 0000 0000 0000
000002c0: 0000 0000 0000 0000 0000 0000 0000 0000
000002d0: 0000 0000 0000 0000 0000 0000 0000 0000
000002e0: 0000 0000 0000 0000 0000 0000 0000 0000
000002f0: 0000 0000 0000 0000 0000 0000 0000 0000
00000300: 0000 0000 0000 0000 0000 0000 0000 0000
00000310: 0000 0000 0000 0000 0000 0000 0000 0000
00000320: 0000 0000 0000 0000 0000 0000 0000 0000
00000330: 0000 0000 0000 0000 0000 0000 0000 0000
00000340: 0000 0000 0000 0000 0000 0000 0000 0000
00000350: 0000 0000 0000 0000 0000 0000 0000 0000
00000360: 0000 0000 0000 0000 0000 0000 0000 0000
00000370: 0000 0000 0000 0000 0000 0000 0000 0000
00000380: 0000 0000 0000 0000 0000 0000 0000 0000
00000390: 0000 0000 0000 0000 0000 0000 0000 0000
000003a0: 0000 0000 0000 0000 0000 0000 0000 0000
000003b0: 0000 0000 0000 0000 0000 0000 0000 0000
000003c0: 0000 0000 0000 0000 0000 0000 0000 0000
000003d0: 0000 0000 0000 0000 0000 0000 0000 0000
000003e0: 0000 0000 0000 0000 0000 0000 0000 0000
000003f0: 0000 0000 0000 0000 0000 0000 0000 0000
0.0 0.0 0.0 0.0 0.0 0.0 0.0 0.0
0.0 0.0 0.0 0.0 0.0 0.0 0.0 0.0
0.0 0.0 0.0 0.0 0.0 0.0 0.0 0.0
0.0 0.0 0.0 0.0 0.0 0.0 0.0 0.0
0.0 0.0 0.0 0.0 0.0 0.0 0.0 0.0
0.0 0.0 0.0 0.0 0.0 0.0 0.0 0.0
0.0 0.0 0.0 0.0 0.0 0.0 0.0 0.0
0.0 0.0 0.0 0.0 0.0 0.0 0.0 0.0
0.0 0.0 0.0 0.0 0.0 0.0 0.0 0.0
0.0 0.0 0.0 0.0 0.0 0.0 0.0 0.0
0.0 0.0 0.0 0.0 0.0 0.0 0.0 0.0
0.0 0.0 0.0 0.0 0.0 0.0 0.0 0.0
0.0 0.0 0.0 0.0 0.0 0.0 0.0 0.0
0.0 0.0 0.0 0.0 0.0 0.0 0.0 0.0
0.0 0.0 0.0 0.0 0.0 0.0 0.0 0.0
0.0 0.0 0.0 0.0 0.0 0.0 0.0 0.0
0.0 0.0 0.0 0.0 0.0 0.0 0.0 0.0
0.0 0.0 0.0 0.0 0.0 0.0 0.0 0.0
0.0 0.0 0.0 0.0 0.0 0.0 0.0 0.0
0.0 0.0 0.0 0.0 0.0 0.0 0.0 0.0
0.0 0.0 0.0 0.0 0.0 0.0 0.0 0.0
0.0 0.0 0.0 0.0 0.0 0.0 0.0 0.0
0.0 0.0 0.0 0.0 0.0 0.0 0.0 0.0
0.0 0.0 0.0 0.0 0.0 0.0 0.0 0.0
0.0 0.0 0.0 0.0 0.0 0.0 0.0 0.0
0.0 0.0 0.0 0.0 0.0 0.0 0.0 0.0
0.0 0.0 0.0 0.0 0.0 0.0 0.0 0.0
0.0 0.0 0.0 0.0 0.0 0.0 0.0 0.0
0.0 0.0 0.0 0.0 0.0 0.0 0.0 0.0
0.0 0.0 0.0 0.0 0.0 0.0 0.0 0.0
0.0 0.0 0.0 0.0 0.0 0.0 0.0 0.0
0.0 0.0 0.0 0.0 0.0 0.0 0.0 0.0

network_body._body_endoder.seq_layers.0.weight f4 [256, 28]
00000000: 8410 403d 1617 c7bd d2bf 7dbe 7b38 4bbe
00000010: eb0d 773d db9e 8d3d 5b44 643e 3f1c 8ebd
00000020: 7e34 ab3e f4a5 323e 15c5 ac3e d296 b8bc
00000030: 39a4 90bc 8665 cb3d 1dae 0bbd 741d 713d
00000040: e1ec ca3d 2715 91be 8346 74be 38a8 233e
00000050: 9d43 95bd eeee b93d 40b4 a2bd a697 833e
00000060: b590 2c3d a198 52bc 5c3e 8ebe 9423 6abd
00000070: 9144 81bd de89 413d 069d 343e fe99 5bbd
00000080: 3a04 b13c 55b9 52bd b32c 233e 8a7e 81bd
00000090: 4fe2 fabd 5fc7 68be 37d0 c6bd b427 9e3e
000000a0: 1f81 c8bd 7e8f 1e3d 8aac 193e 31e5 3bbe
000000b0: afff 043d 85b6 c53d 9183 133c f83e fd3d
000000c0: 0a20 0fbe c774 a2bc fb2a 493e 2c0e 0ebe
000000d0: f3ae 143e 447f 35be 1e96 d83d 5b8d 87bd
000000e0: a056 c6bd af43 7dbe 5a91 c8bc 4795 4abd
000000f0: d1fb f0bc 5661 99bd 0987 5f3d a72e 333e
00000100: 0262 b6be c4b3 e93e b96c ab3e b96a f83d
00000110: 1389 fdbd 1663 3a3d 9f5e 16bd c0b6 1abe
00000120: 5090 d6bd 8cfa 1ebe d543 2f3c 3461 993e
00000130: c7b5 07be aee7 07be 3f94 26bb 5f74 90bc
00000140: 9a6b 65be 4f44 c03e cab3 5d3d 6c63 c9bc
00000150: 3eba 633e 95a1 a3bd 82b9 f43d db82 603e
00000160: 6f32 93be 022a 0b3d f1da c4be 114f 133e
00000170: c96e 433e 8373 09bd 16eb 793e 8531 5f3e
00000180: 824e 8dbc 86c8 f2bd c325 103e 013d 80bd
00000190: 5161 74be 6d2c 0abf a657 adbe 6787 fbbd
000001a0: 2b76 023f 20ae f93d a757 ebbd b39e 1fbe
000001b0: 5e69 17be b7a0 3dbd 4354 a33d 8da5 70be
000001c0: 1c50 163e 9e9c 13bd dc4f e13d 0c3e 693e
000001d0: d7f0 cf3d 1df8 b8be 342f 1b3e 1d39 d63c
000001e0: 33c1 383e 26ca aebd ada9 4d3e fcaf 103e
000001f0: 1727 2abe f2c1 f53d 82ab 973e 3055 9cbe
00000200: fc3f a73d 57ee 14bd a74c 223e 74ac a23c
00000210: d618 2ebe 2e53 9d3d eb37 113e 5205 463d
00000220: 854e f73e c2e9 42bd 12c1 123c db7b c6be
00000230: 8246 16be 1dad 873e 7b22 b8bd 9e3c 5d3d
00000240: c7e4 743e 844c 14be dcc8 0dbe 27ab d4be
00000250: eb4f 863e 7e2e 8cbd f082 603d d908 bdbd
00000260: ab86 31bd a496 1bbe 3464 8cbd 0127 713e
00000270: 776e b0bd c618 8ebd 1b5d 3f3e 577e 1e3e
00000280: 8dcd 27bd 6ca0 51bd aa33 32be 8852 ca3e
00000290: 3941 eabe e9ec 8a3e 5dcf 623d c977 8b3e
000002a0: a7b7 2dbe 04f6 39be 9d94 7b3e 25e9 4a3e
000002b0: caa8 9d3e 53cf 88be 4aef 253d 4acb 273d
000002c0: 827c c7be b1b3 2f3e bb3d 45be a867 4fbd
000002d0: f9b2 1b3e da1b 853d db5d 54be 377c 663c
000002e0: 230f 3a3c e9fe e8bc 8b8d e1be ed3f 9cbe
000002f0: d0e5 c9be f4f5 993d 7e44 403e f182 d83d
00000300: 106c 8f3b 8896 92bd 55f8 2f3e 3b8e c4be
00000310: e989 40be 4287 d43d c0f9 153e 1408 533e
00000320: e85c f23d ab06 c23d 9ef3 e73e f13c 47be
00000330: 5cd0 393e c62b 853e e04f 663e bc9c 37be
00000340: 7b20 c9be 7194 853d f10f d0bd 24f9 713e
00000350: 9ae5 303c c708 493e 7325 cb3d 62d0 d7bc
00000360: 8de3 1dbd 183b 0c3e 29b1 8d3d 45d3 8b3e
00000370: b1ee ac3e 85d4 76bd 3719 01bd b556 c83c
00000380: 11d3 e53d 9df3 863e f595 d5be 37b6 5e3e
00000390: d15f ec3c 8d06 2d3e 8317 803c 9fb2 0d3e
000003a0: b86c 59bd fe40 52be 7b5c 73bc f10d 40be
000003b0: 08dc 283d bfff 263e ff11 59be 0ee8 62be
000003c0: e1ac c63d 1edf de3d 9d76 b2bb a1d7 d8bd
000003d0: b6be a5be a820 0cbd 5ab0 0bbe c02a 3dbe
000003e0: 388a 40be 8eed 77bc f7da a23e 187d 973c
000003f0: 8095 73be 3808 bfbd ba64 ccbd 4a2b 1dbe
0.04689075 -0.097212 -0.24780205 -0.19845764 0.060316008 0.06915065 0.222917 -0.06938981
0.33438486 0.17446119 0.33744112 -0.022532854 -0.017656432 0.099314734 -0.034101594 0.05886598
0.09908462 -0.2833645 -0.23855023 0.15982139 -0.07288287 0.09078775 -0.07944536 0.25701636
0.04213019 -0.012853772 -0.2778195 -0.057162836 -0.06311906 0.04725062 0.17638025 -0.053613655
0.02160846 -0.051446278 0.1593502 -0.063229635 -0.12250196 -0.22732304 -0.097076826 0.30889666
-0.09790253 0.038711064 0.15007225 -0.18349148 0.0324704 0.096539535 0.009003536 0.12365526
-0.13977066 -0.019831074 0.19645302 -0.13872594 0.14519863 -0.17724329 0.105755076 -0.06618758
-0.09684491 -0.2473285 -0.024483372 -0.04945877 -0.02941695 -0.074892685 0.05457214 0.17498265
-0.3562165 0.45644963 0.33481386 0.12129731 -0.123796605 0.045504652 -0.03671133 -0.15108776
-0.10476744 -0.15525264 0.010697325 0.29956973 -0.13252936 -0.13271973 -0.0025417951 -0.017633615
-0.22404328 0.37552115 0.05412654 -0.02458354 0.22239015 -0.07989804 0.11949445 0.21924917
-0.28749415 0.03397561 -0.3844829 0.1438563 0.1908523 -0.033557426 0.24406084 0.21796234
-0.01724935 -0.11854653 0.14076905 -0.062616356 -0.23865248 -0.5397404 -0.33855933 -0.12281685
0.5096156 0.12191415 -0.11491328 -0.15587883 -0.14786288 -0.046295848 0.07975056 -0.23500653
0.14678997 -0.036038034 0.1100156 0.22777575 0.101533584 -0.36126795 0.15154725 0.02615028
0.1804245 -0.085346505 0.20084257 0.14129633 -0.16616474 0.11999883 0.29623038 -0.30533743
0.08166501 -0.03636011 0.15849553 0.019857623 -0.17001662 0.07681881 0.14181487 0.048344918
0.48302093 -0.04758621 0.008957164 -0.3876637 -0.14675334 0.26499262 -0.08990952 0.054012887
0.23915397 -0.14482313 -0.13846153 -0.4153683 0.26232848 -0.06844805 0.05481237 -0.09230203
-0.04334132 -0.15194184 -0.0685505 0.23550035 -0.086148195 -0.06938319 0.1868786 0.15477882
-0.040967513 -0.05117838 -0.17402521 0.3951609 -0.45752886 0.27133873 0.05537354 0.27239826
-0.16964589 -0.18160254 0.2456841 0.198155 0.30792838 -0.26720676 0.040511407 0.040965356
-0.3896218 0.1715839 -0.1926183 -0.050635964 0.15204991 0.06499453 -0.20738928 0.014067701
0.011356148 -0.028441863 -0.440533 -0.30517522 -0.39433146 0.07517615 0.18776128 0.1057185
0.0043768957 -0.07157618 0.17184575 -0.38389763 -0.18802609 0.10377361 0.14646053 0.2060855
0.11834127 0.09473928 0.45303053 -0.19456841 0.18145889 0.2600996 0.22491407 -0.17930883
-0.39282593 0.065224536 -0.101592906 0.23630196 0.010796929 0.19632255 0.09919252 -0.026344482
-0.038547087 0.13694417 0.06918556 0.27309623 0.33775857 -0.06026127 -0.031518187 0.024455408
0.11221898 0.26357737 -0.4171597 0.21749197 0.028854283 0.1689703 0.015636211 0.1383767
-0.053082198 -0.20532605 -0.014853592 -0.18755318 0.041225463 0.16308497 -0.21198271 -0.22158834
0.09700943 0.108824 -0.0054462687 -0.10588003 -0.32372063 -0.03421083 -0.13641492 -0.18473339
-0.18802726 -0.015132321 0.31807682 0.018492267 -0.23787498 -0.093277395 -0.099801496 -0.15348545
