IAV_FINAL/results/results/SheepsRedo4/Sheeps/Sheeps-428197.onnx (onnx, 33382 bytes, 5 tensors)

action_model._continuous_distribution.log_sigma f4 [1, 2]
00000000: 3abe d93d d669 2f3d
0.10631986 0.042825542

action_model._continuous_distribution.mu.bias f4 [2]
00000000: 21bd 83bc a513 913b
-0.016081395 0.0044273906

action_model._continuous_distribution.mu.weight f4 [2, 256]
00000000: 2848 0f3c b647 ae3b fda0 dd3b b4d2 293c
00000010: e93f 653b e715 9dbc 185c 543d fd24 23bc
00000020: 7057 073d 709e 8b3c 4055 f33c 0747 07bd
00000030: 02ee dc3b 3989 76bc 20fb 8abc 71d7 733c
00000040: e7d3 19bb 51ca 8e3c 4d0c 87bc 2f5f 84bc
00000050: f1c4 44bd 3cc7 a1bc 0dfc 0dbd b432 a33c
00000060: 95fc b33c c8f6 7f3b 0d54 833c 0cf1 e3ba
00000070: 9187 c4bc 11fd 623c d12a ac3c 74b0 923c
00000080: c652 0fbd 3834 1b3d 9270 afbb 569f c43b
00000090: 91a9 8d3c abb0 6d3c 0047 b8bc acb8 9fbb
000000a0: 459c d83c 8c9e b0bc 165a 93bb 4bf6 9e3c
000000b0: b806 8f3b 1c20 3eb9 4ac1 543c 0ef8 163c
000000c0: 18ad db3b 6ebc ffbb a6b7 1bbd 4efa 463c
000000d0: c594 0e3c b9ae f53b f8fb 5aba 1ee9 633c
000000e0: a3f0 ffbc 5a2a c53c 6006 d23c 7147 023c
000000f0: 41e0 c63c 864d 043c e09e d33c 0a9c c63c
00000100: b85f 3cbc 63eb 903c b877 a1bc 0d35 053c
00000110: 9e06 56bc e097 013d d842 0abc 96da cc3b
00000120: dab6 1bbc 920f feb9 6ce0 22bc 5e4e 3fbc
00000130: fc1f 3abb dd62 2cbd db3b 70bb 71a1 cd3b
00000140: 0922 133c 694a 6bbc 6f3b c2bc 93b3 713b
00000150: f84c cc3b 1b64 2f3d cc6a 113c 02f1 b73c
00000160: f543 dc3c 54cc 1d3c 4288 b1bc 5eb8 ab3c
00000170: 158f f3ba 7652 363b 54b6 3b3c 008a 32bc
00000180: 76a9 143c 306d d93c 4a73 cb3b 3528 8bbc
00000190: 41fa 173c 2b29 cebb 9553 95bc d925 133d
000001a0: ac60 413c 010d 38bc 604f 473b daab 093b
000001b0: 98d7 b3bb 8494 ab3c c7d1 90ba da4f 75bc
000001c0: 9df3 22bd 874d a43b 473d 633b 35d4 eab9
000001d0: 70af 92bc 26f9 3e3c dd78 a1bc 0b07 f13c
000001e0: a551 3fbb a1f1 fd3c 566b 1e3d 287d 66bb
000001f0: 7903 0ebd c3e8 42bc 1daf 08bb de9c 8c3b
00000200: 0e8e 9dbc 144c abbc f45d 7c3c a25f 423c
00000210: a61e 3abc dfd1 e639 9b56 84ba c0ff 7bbc
00000220: 4aab 8abc 44de a23c 48d7 28bc f622 a7bc
00000230: d6a2 84bc 217a d63c 3570 a63a e459 c2bc
00000240: 54d9 edbc d3a8 9039 4ef7 c63b 1e3c 543b
00000250: b643 9f3c c99a 75ba 2a8c 1ebc ac26 493d
00000260: 680a 4fbc 927b be3c d030 043c c8d1 e23c
00000270: 78c3 d8bc e30e c43a c1c6 34bd 8ed5 513d
00000280: 5627 06bd d985 683c ca6b 82bc a88e 873b
00000290: a345 64bc e8d4 dbbb ab96 a5bc 800d 55bb
000002a0: b9a1 363c c1d8 8e39 f5dd 803c 64e3 24bc
000002b0: 4272 3f3c df56 b1ba 4cc0 10bd 0aee 1bbc
000002c0: 100f d0bb 5e0d a2bb 27b4 bbb7 cd56 63bd
000002d0: 3bc9 ab3b 714d 85bc b4f6 9f3c fdd9 b4bc
000002e0: a620 5abc 0c76 1c3c a4f1 b63c 6f18 203c
000002f0: 0c48 923c 45ab 643c 502c 213d 34cb 81ba
00000300: 4927 723c ba40 6d3b 69eb 8dbc 4974 b5bc
00000310: 5aff 15bd 0424 00bd 5e69 09bc 3b9f 99bc
00000320: bdc1 96bc 51c6 58bd d152 c7bc c263 babc
00000330: 482f 8d3c fffe b03b fce3 47bb 7cef 24bd
00000340: 2563 803b af9b 773c 8ee2 373c 6818 df3c
00000350: e66b d5bc 40e6 e3bc bac8 e6bc 4f1b 063c
00000360: f4d1 e7b9 1553 c13c 13d8 5ebc 3b72 9d3b
00000370: 01de 0abd 4465 bfbc ccac 7a3b 0673 a8bc
00000380: b72c 963b 5033 3e3c 2377 4bbc 8b08 07bd
00000390: 8724 b1bb e16e 36bc 8348 8b3c 62f6 cf3c
000003a0: e0ae 4b3c 7566 bbbc 145e e7bc 609b afbc
000003b0: d957 493b d713 c53c 1af3 9d3a 6bea ec3a
000003c0: 9016 18bc 9a68 7939 aff8 b3bb 6331 273c
000003d0: f614 3fbc f664 89bc ba5e d0bc 62d7 4f3d
000003e0: d99e 8bbc 3a75 3bbc 96ed be3c c379 8abc
000003f0: 5af1 9f39 ca0d d73c 51ea 29bd 0a99 bd3b
0.008745231 0.005318607 0.006763576 0.010365177 0.003498072 -0.019175483 0.05184564 -0.009957549
0.03304237 0.017043322 0.029703736 -0.03302672 0.00674224 -0.015047365 -0.016965449 0.014882908
-0.002347225 0.017430456 -0.016485358 -0.016158668 -0.04803938 -0.019748323 -0.034664202 0.019921638
0.021971026 0.0039057005 0.01603129 -0.0017390563 -0.023990424 0.013854281 0.02101651 0.017906405
-0.03499105 0.037891597 -0.0053539956 0.0060004396 0.01729277 0.014507453 -0.022494793 -0.0048743095
0.026441703 -0.021559976 -0.004496823 0.019404551 0.0043648146 -0.00018131774 0.012985537 0.009214414
0.006703984 -0.007804445 -0.038016938 0.012144638 0.008702462 0.007497635 -0.00083535863 0.01391056
-0.031242674 0.024068046 0.025637805 0.007951603 0.024276854 0.008075124 0.025832593 0.024244327
-0.0114974305 0.017690366 -0.019710407 0.008130324 -0.013063101 0.03163898 -0.008438788 0.0062516434
-0.009504044 -0.00048458256 -0.009941202 -0.011676399 -0.0028400412 -0.04208647 -0.003665677 0.006275349
0.008980283 -0.0143610025 -0.02370998 0.0036880716 0.0062347613 0.042820077 0.00887556 0.022453789
0.026887873 0.009631235 -0.021671418 0.020961937 -0.001858207 0.0027820147 0.011457045 -0.01089716
0.009073606 0.026541322 0.006208812 -0.016986946 0.009275974 -0.0062915287 -0.018228332 0.035924766
0.0118028335 -0.011233569 0.0030412301 0.0021006973 -0.0054883473 0.020944841 -0.0011048847 -0.014972651
-0.03978311 0.005014125 0.0034673975 -0.00044790065 -0.01790592 0.011656081 -0.019710952 0.029422304
-0.002919295 0.030999007 0.038676582 -0.0035169814 -0.03467128 -0.011896315 -0.0020856329 0.004291161
-0.019232776 -0.0209103 0.01540326 0.011863621 -0.011359846 0.00044025385 -0.0010096611 -0.0153808
-0.01692738 0.019881375 -0.010305233 -0.020402413 -0.016190927 0.026181282 0.0012698235 -0.023724504
-0.029034294 0.00027591604 0.0060719615 0.0032384465 0.019441467 -0.0009369073 -0.009676972 0.049109146
-0.012636758 0.023252282 0.008068278 0.027687922 -0.026460394 0.001495805 -0.04413486 0.051229052
-0.032752357 0.014192068 -0.015920538 0.004136879 -0.013932618 -0.00670873 -0.020213446 -0.0032509267
0.011146956 0.00027245845 0.015730837 -0.01006398 0.011684956 -0.0013529918 -0.03533964 -0.009517202
-0.006349452 -0.004945441 -2.2376027e-05 -0.0555027 0.0052424944 -0.016272279 0.019526817 -0.022076601
-0.013313448 0.009549629 0.02233202 0.00977145 0.01785662 0.013956849 0.0393489 -0.0009902478
0.014779874 0.003620191 -0.017324166 -0.022150176 -0.036620475 -0.031284347 -0.008386938 -0.018752685
-0.018402928 -0.052923504 -0.024331482 -0.022752646 0.01723446 0.0054014917 -0.003050088 -0.040267453
0.003918069 0.015112801 0.011223448 0.027233317 -0.026052427 -0.027819753 -0.028171886 0.008185222
-0.0004421618 0.023599187 -0.013601321 0.004804877 -0.033903126 -0.023363717 0.0038249968 -0.02056266
0.004582967 0.011608914 -0.012418541 -0.03296713 -0.0054059657 -0.011134834 0.01700235 0.02538604
0.01243183 -0.022876004 -0.028243102 -0.021436393 0.0030722527 0.024057312 0.0012050599 0.0018075233
-0.009282723 0.00023785458 -0.005492292 0.010204646 -0.011662712 -0.016771775 -0.025435794 0.050742514
-0.017043518 -0.011441523 0.02330665 -0.016903764 0.00030506664 0.026251692 -0.041483227 0.005786066

network_body._body_endoder.seq_layers.0.bias f4 [256]
00000000: 865c ce3a dd59 c5bb 7087 a8bc 7158 03bb
00000010: 0666 d3bb a038 2b3c f5c6 9cbc 7806 313c
00000020: dd0b 90bc 3b6a 24bc e329 72bc 7170 b93c
00000030: bfe1 9fbc e19c 833c e6b4 71bb ea43 38bc
00000040: a3fb f0bb ec29 18bc 4d4c e53c 4f40 423c
00000050: 8dd3 d43c a0a0 523c 600e 843c 04f0 09bc
00000060: 98c0 6abb 69e5 5cbc 5640 7cbc 4090 c3bb
00000070: 72f1 8e3c 5298 29bc a229 7dbc 700f 2bbc
00000080: b36c d53c 8f1e 78bc 9d85 1e3c 59e7 e1ba
00000090: 636c 73bc 343a 39bc bab7 ce3c ab62 ee38
000000a0: 1378 8cbc f21d de3b bb57 a3ba 4967 83bc
000000b0: b635 173c 8a2c bbbb 209d 82bc 6a33 97bc
000000c0: 76e2 5fbc 1b95 643c 532e cb3c 0e9b 98bc
000000d0: 3e87 37bb 0ce1 54bb a9fd 9e3c 68ca d1bc
000000e0: 4ab9 d73c 839c 33bc b84d a43a 408d 2e3c
000000f0: 1682 a2bb be51 b6bc aefc cbba d3e2 91bc
00000100: 707c 383c 8a25 b0ba 83d3 f73c 564c 6cbc
00000110: 49dc c73c 3aae 91bb 25f7 27bc bb45 55bb
00000120: 793c 293c b174 8bbb 9912 883b 6542 c73b
00000130: 5f7f 323c 86c2 d33c 2bb9 6b3c e0dd 15bc
00000140: 73c9 0b3b c081 edbb 41d0 b03c da89 b2bc
00000150: 32d8 e13b 2575 5fbc 09d7 b43b b951 4bbc
00000160: 3b4d 2cbc 07d6 ce3b ac7f 213c 1940 40bc
00000170: e031 a03b 73e9 1ebc 355b d1bb c6a3 dd3b
00000180: 70e5 a93b b5ad 43bc 95f0 c1bc 763a fa3c
00000190: 3794 8bbc a5a4 183c 625b be3b 77ac adbc
000001a0: dd19 a53a aeb7 3a3d 72f4 00bc 5b97 9dbb
000001b0: 1208 d43c d501 78bc d5cc 1abb 0ce5 163c
000001c0: 64df c03c 89e9 35bc d174 073c 402d 3abc
000001d0: f427 843c 2865 ddbb 4c3d c73c 00d3 b6bb
000001e0: 5235 0ebc c67c 65bc 09df 5cbc 3100 9fbb
000001f0: 1ac2 393c a7df a0ba 68c7 f33b 9490 56bc
00000200: c4cb e23c 296e a73c 1df8 8fbc 44d7 87ba
00000210: 6781 62bc 1bbe ab3c 0487 463c a850 843c
00000220: e1cc be3a 3d6a 7dbc cdd7 a7bb 75a6 cb3b
00000230: fc5b d83b 9072 3bbc eabc a63b 2fe3 433c
00000240: a7e3 a23c 7135 873c b812 44bc f573 1abc
00000250: 902d f8bb 1a41 b5bb 0ad8 d5bb 89e2 6abc
00000260: b1ec 813c ea9c bebc 456e 91bc 8609 0cbc
00000270: 172e 753c ad74 793c 4027 8e3c df3c 57bc
00000280: 1d95 733c 9ca8 073b dd22 153c 0639 d23b
00000290: 7a05 253c 6512 b03c e17c a03c 2c84 85bc
000002a0: eaa3 71bb 8a6b 69bb 9494 5ebc 7f0a 723b
000002b0: 6543 a3bb 910e fd3a 304c d83c 48c5 963b
000002c0: 77e1 953a a901 a73a 2524 f2bb 63f9 ec3c
000002d0: 82d5 9dbb 6e41 183c 3a81 d8bb c2ed 153c
000002e0: 3510 b93c e426 9abc e2a8 7dbc 5eb3 96bc
000002f0: ab49 313b 625e 79bc abdb 52bc fe0e 02bb
00000300: 9bc5 65bc 1aee 64bc d7f0 b83b eb73 363c
00000310: 438d 693c 62d5 f83c 110b b0bb 4f98 f93b
00000320: b964 333c 4177 7b3c ed77 ff3b c8a4 703c
00000330: 805b 22bc 7098 b3ba 81c2 cb3c 38cb 753c
00000340: a54e a4bb ff4b d2bc e01b bb3b af47 7cbc
00000350: 9264 413c df9f 203c e453 653c 42e3 cfbb
00000360: 6066 a23c 905f 40bc 69e4 ca3c 1044 9a3b
00000370: de51 1a3c 922b ea3c 1d03 46bc abfd d03c
00000380: 5c32 a4bb 78d1 62bc 5bfc de3a 06b7 223c
00000390: 1b1c c63c 8bd5 ba3b 213a 54bc 564a 95bb
000003a0: 9d72 0ebc c64b 883c 3628 ba3c 9d0d 273c
000003b0: ed37 53bc 8e5c b3bc 6618 3bbc 9025 5bbc
000003c0: ea0d 52bb 7f04 e53a f888 703c 21fa 58bc
000003d0: 1d30 923c a0b2 043c f596 c53b a3c6 7abc
000003e0: c277 ce3c 73bc 7f3c fa3c a9bb f6c2 a53c
000003f0: d12b e73b 5404 79bc 9277 bf3c 0b56 58bc
0.0015744127 -0.0060226754 -0.020572394 -0.002004173 -0.006451371 0.010450512 -0.019137839 0.010804765
-0.017583782 -0.010035093 -0.014780494 0.022636624 -0.019516824 0.016066017 -0.0036881506 -0.011246661
-0.007354216 -0.009287339 0.027990485 0.011856153 0.025979782 0.012855679 0.016120136 -0.008419041
-0.0035820361 -0.01348243 -0.015396198 -0.0059681237 0.017449114 -0.010351257 -0.015451821 -0.010440692
0.026052808 -0.0151440045 0.009675411 -0.0017235085 -0.014857384 -0.011305381 0.025234092 0.00011367103
-0.0171471 0.006778472 -0.0012462059 -0.016040461 0.009229114 -0.0057120966 -0.015944064 -0.018457133
-0.013664832 0.013951565 0.024802363 -0.018628623 -0.0028004195 -0.0032482771 0.019408064 -0.02560921
0.02633347 -0.010962608 0.0012535369 0.010653794 -0.004959355 -0.022255775 -0.0015562975 -0.017808354
0.011260137 -0.0013438922 0.030252224 -0.014422497 0.024397032 -0.0044458183 -0.010251795 -0.0032542783
0.010329359 -0.004255854 0.0041526076 0.006080913 0.010894625 0.025849592 0.014387409 -0.009147137
0.002132979 -0.0072481334 0.021583678 -0.021794248 0.0068922276 -0.013638769 0.0055187983 -0.012409621
-0.01051646 0.006312135 0.0098570995 -0.011734032 0.004888758 -0.009699213 -0.0063890466 0.006763908
0.005184822 -0.01194327 -0.023674289 0.030545454 -0.017038448 0.009316598 0.0058092335 -0.021200402
0.0012596209 0.045585327 -0.00787078 -0.0048093027 0.025882754 -0.015137156 -0.0023620625 0.0092098825
0.023544021 -0.011103042 0.008267597 -0.0113633275 0.016132332 -0.0067564435 0.02432122 -0.0055793524
-0.008679705 -0.014006799 -0.01348091 -0.0048523177 0.011337781 -0.0012273685 0.0074395426 -0.013095994
0.027685054 0.02043827 -0.017574364 -0.0010363837 -0.013824797 0.020964673 0.012117151 0.016151741
0.0014556908 -0.015467224 -0.005122161 0.0062149116 0.0066027623 -0.011440888 0.0050884383 0.01195602
0.019883944 0.016504975 -0.0119673535 -0.00942706 -0.007573791 -0.0055314424 -0.006525998 -0.014336237
0.015859934 -0.023268182 -0.017752776 -0.008547192 0.014964602 0.015225572 0.0173527 -0.013137071
0.014867094 0.0020699864 0.00910255 0.006415489 0.0100721065 0.021493146 0.019590797 -0.016298376
-0.0036871382 -0.0035617077 -0.0135852285 0.0036932526 -0.0049823993 0.0019306709 0.026403517 0.0046011545
0.0011434992 0.0012741584 -0.0073895627 0.02892751 -0.004816712 0.009292943 -0.006607202 0.009150924
0.022590736 -0.018817373 -0.015482159 -0.018396076 0.0027051966 -0.0152202565 -0.012869756 -0.0019845362
-0.014024164 -0.013972783 0.0056439447 0.011136035 0.014254871 0.030375186 -0.005372413 0.0076170336
0.010949307 0.015348257 0.0077962787 0.014687724 -0.009909511 -0.0013702046 0.02487302 0.015002064
-0.005014258 -0.025671003 0.00571011 -0.01539795 0.011803763 0.009803741 0.013997052 -0.00634423
0.019824207 -0.011741534 0.024767118 0.0047078207 0.009418933 0.02858523 -0.012085703 0.025511583
-0.005010886 -0.013843887 0.0017012464 0.0099313315 0.024183324 0.005701726 -0.012953312 -0.0045559807
-0.008694318 0.016637694 0.022724252 0.010196117 -0.012891752 -0.02189472 -0.011419391 -0.013375655
-0.003205175 0.0017472653 0.014681093 -0.013243229 0.017845208 0.008099228 0.0060299584 -0.015306148
0.02520359 0.015608895 -0.0051647397 0.020234566 0.007054784 -0.015198786 0.023372445 -0.013204108

network_body._body_endoder.seq_layers.0.weight f4 [256, 28]
00000000: 6c5b 863c 5edc 6a3e f338 81be 121d 923d
00000010: c584 aabe 6266 cf3c bae0 82be e8b6 cc3d
00000020: b8d0 8cbd 9cfd 05be e87e bbbd 47f1 95be
00000030: 4295 dcbd 9bed fdbd 9667 b8bd 9e4f 78be
00000040: ee1a d1bd ed60 02be 1e29 9b3b 07ff a2be
00000050: f53e 723c d4f6 873e 79ec dbbd f06a 47bd
00000060: 34af 733e e06e 363e 38b2 3abe 4773 f03c
00000070: 07f8 803e 19a4 a53e 47f2 cf3d dc29 b73d
00000080: 30ba 183e cc29 353d 2db9 51be f076 4c3e
00000090: 5c93 c23d dc78 be3e 88aa 623e 7530 73be
000000a0: 8300 2f3d 8d01 0dbf c81d a63c c148 8f3e
000000b0: 5c90 e93d e88d 353d d0d8 74be dfc9 b0be
000000c0: e585 89be b15e 243e a0f3 693d a4b4 acbe
000000d0: 72bf 9f3d 7f38 ab3d 85ab 3c3c a82f 353e
000000e0: 7451 e03c cefa 79bd e76e 5ebd f8d4 fa3c
000000f0: 22f4 78bd 6453 f93e 048a 093e 0b11 9d3d
00000100: e3b0 063e 69d9 83be ece9 58bd f621 3a3e
00000110: 217a 0cbe 4a5e 963e 79c3 cabe 5e8d 333d
00000120: 5e8f a53d 768f 993e 2afc 03be 93cd 503e
00000130: 6b08 643d 1559 d63e 11e4 8a3d 4a36 88be
00000140: 6031 d6be 56fc ee3e b675 0dbf 2fb8 573d
00000150: 2b2f 5c3d a601 6bbd d968 91bd 72e0 6cbe
00000160: 3c08 11bd f7b6 01bc c57a 5ebd 547d b9bc
00000170: 8e03 8d3e 12ac 1f3d 9e36 58bd 304d 543e
00000180: c70f 2f3e 24eb 83be ce59 26be 7233 823e
00000190: 76fd 0d3e c617 083c 83d6 2dbe ff3f 033e
000001a0: efed 793e f053 243e 12a3 183e c961 f1be
000001b0: f0fa 17bd bfe0 413e 8dfa 0cbd a8c6 b7bc
000001c0: ba2c 7b3d 68c9 a4bd 29a4 d9bd 38bb 063e
000001d0: ef2c fdbc 3987 083e 8e0e b93d 127b cabd
000001e0: f6b7 09be 0f9e 9a3d 6448 1e3e 7a4f debd
000001f0: e479 87bd 55ef 22be de0d 0abd 158c e6bd
00000200: 5aa6 02be 16bd 77be a006 1bbe cbf6 13be
00000210: 51a4 613d 3b47 d9be 9388 b4bc a22b ca3d
00000220: 1d76 7a3e ddd0 3cbd ccf4 4a3e bdef 51be
00000230: f49c 03be b202 b5bd 2123 28bc 51f9 b93b
00000240: 64d8 09bd 7c73 b73c e1c9 ddbe 58b8 1ebd
00000250: 6e22 3d3e aa45 38be dbba 2fbe 84a8 01be
00000260: b72f e8bd 5726 cfbe 4016 113e 57bb e43d
00000270: 2f4b 393e e385 aabd 29c5 ba3d 75e5 cf3d
00000280: f4d7 89be 537a 4abe 7c1e 84be e0f7 a53d
00000290: 7904 d2be d9f6 98bc c344 f5bc c434 68be
000002a0: 5047 87bc 6b77 b93e efa1 133d b7d5 8fbb
000002b0: 6124 d83e d2c8 e23b d11f c4bc f0e5 8d3e
000002c0: dc0e 9bbe a015 333e 908a b2bd d794 0c3e
000002d0: e592 ab3e 58a2 963e ec8e 773c c1a8 9ebe
000002e0: 852c 5b3e 2631 b9bd e5a4 1abe 5b5e 16be
000002f0: 0eac 163e abb2 873e 80a4 ab3d 87b2 8cbe
00000300: 0b4e 863e 8f31 16be c742 923e 45fb 18be
00000310: 7739 7ebb df8a 56be c551 7dbe 652a 86bd
00000320: 5107 a4bc 3d87 2b3d e73e c53d b94b d4bc
00000330: c0b5 a43e e484 d5bc bdf3 72be 8adf 573e
00000340: 3dca 4ebe 888a 083e 86fe 1b3d 02e8 273e
00000350: e2ff d93c b8db b8be 0bec e6bd 8b09 e03d
00000360: 5a3c 9dbe 6fa5 a0bd f529 bb3e 8107 96be
00000370: ddb3 d23d 1c94 ef3c cb18 06bd 13cc db3c
00000380: ded8 c43d 7d59 56be 1c9e 76bd a6e6 a4be
00000390: 8062 c6bc a63f eebd 1f4d ec3d b240 bc3d
000003a0: 7e86 983d 9126 883e f35b 49bc cdb7 b6bd
000003b0: 902f 8d3e 9d4c 153e f07a c2bd 428d b33d
000003c0: 8604 1f3e fa69 d0bb b7d3 9a3e 7337 e23d
000003d0: 63ae a4bc 6b05 e13d 0caa ccbe 2bcc 8d3e
000003e0: 50ed 853e 6fa2 e7bc 50a5 0cbe dd20 d43e
000003f0: 25a8 883d ba87 d3bc a697 cf3d 977e d63c
0.016401015 0.22935626 -0.2523876 0.07134451 -0.3330442 0.025317375 -0.25562078 0.09995824
-0.068757474 -0.13085026 -0.09155065 -0.29285643 -0.10770656 -0.12398835 -0.090041324 -0.24249122
-0.102102146 -0.12732287 0.004735126 -0.31835195 0.014785518 0.26555502 -0.10738463 -0.048685968
0.23797303 0.17815733 -0.18232048 0.029351844 0.2518923 0.3235176 0.101536326 0.08943531
0.14914775 0.044229314 -0.20480795 0.19967246 0.09500763 0.37201583 0.22135365 -0.23748954
0.042725097 -0.5508049 0.020277873 0.27985194 0.114044875 0.044324785 -0.23910832 -0.34529015
-0.26859966 0.16051747 0.057117105 -0.33731568 0.07800187 0.08360385 0.011515503 0.1769396
0.02738259 -0.0610302 -0.054304983 0.03061913 -0.0607797 0.48696434 0.13431555 0.07669266
0.13153414 -0.25751808 -0.05295746 0.18177018 -0.13718463 0.29368812 -0.3960226 0.04383599
0.08083986 0.29992265 -0.12889162 0.2039092 0.05567209 0.4186484 0.067817815 -0.2660392
-0.41834545 0.46676892 -0.5525774 0.052665886 0.05375592 -0.05737462 -0.07100076 -0.23132494
-0.035408244 -0.007917157 -0.0543163 -0.022642769 0.27541775 0.03898246 -0.052786462 0.2073257
0.17095862 -0.25765336 -0.16245195 0.25429875 0.13866219 0.008306449 -0.16976361 0.12817381
0.2440717 0.16047645 0.14905956 -0.47144917 -0.037104547 0.1893339 -0.03441863 -0.022433594
0.06132195 -0.08046228 -0.10627014 0.13157356 -0.030905215 0.13332833 0.09035979 -0.09886755
-0.13449082 0.075496785 0.15457302 -0.10855003 -0.06615046 -0.1591161 -0.03370463 -0.11257187
-0.1275877 -0.24193224 -0.15139246 -0.14449613 0.055088345 -0.42437157 -0.02203778 0.098716035
0.24459119 -0.046097625 0.19819945 -0.20501609 -0.12852842 -0.08838405 -0.010262282 0.005675473
-0.03365363 0.022393934 -0.43318084 -0.038750023 0.18470165 -0.17995325 -0.17161123 -0.1266194
-0.11337226 -0.40458938 0.14168644 0.11168545 0.18095087 -0.08326318 0.091196366 0.10151187
-0.26922572 -0.19773225 -0.25804508 0.08103919 -0.41019037 -0.018672394 -0.029940015 -0.22676378
-0.016513497 0.3622392 0.036043104 -0.0043894905 0.42215255 0.0069209123 -0.023940952 0.2771449
-0.30284774 0.17488718 -0.08717835 0.13728653 0.3351051 0.29420733 0.015109759 -0.30988124
0.21403702 -0.090425774 -0.15101965 -0.14684431 0.14714071 0.265035 0.08380985 -0.27479956
0.26231417 -0.14667343 0.28566572 -0.14939602 -0.0038791576 -0.20951413 -0.24738224 -0.06551055
-0.02002302 0.04187702 0.09631138 -0.025915014 0.32169914 -0.026064344 -0.23725791 0.21081367
-0.20194335 0.13334095 0.03808453 0.16397098 0.026611272 -0.36105132 -0.112754904 0.1093932
-0.30710107 -0.07844054 0.36555448 -0.293026 0.102882124 0.029245429 -0.03273849 0.026830709
0.09611677 -0.20932575 -0.06020938 -0.3220722 -0.02421689 -0.11633234 0.11538147 0.09192027
0.07447527 0.26591924 -0.012289989 -0.08921776 0.2757535 0.14580007 -0.09496105 0.08767177
0.1552907 -0.0063602896 0.3023965 0.11045732 -0.020102685 0.109873615 -0.39973485 0.2769483
0.26157618 -0.028275697 -0.13734937 0.41431323 0.06672696 -0.025821555 0.101363465 0.02618341
