IAV_FINAL/results/results/SheepsRedo4/Sheeps/Sheeps-11422.pt (torch, 200063 bytes, 24 tensors)

network_body._body_endoder.seq_layers.0.weight f4 [256, 28]
00000000: fd9e c63d 473d 16bc c4ad 19be ca1c 9b3e
00000010: 016d 67be fe04 4bbe 5d83 00be 9bdc 3cbc
00000020: 61c6 52be 347b 403e 3cbc 803e 66cc 2dbc
00000030: bdad ae3c 67b9 53bd cd7a 35be 330a 203e
00000040: 0abc f93c 9bbc b43d f9bb c33e bf5b b0bd
00000050: 3d85 743d 90d5 95bd 3f8a 283e ecfb 913c
00000060: cadc 4f3e 8d20 993e ed40 ae3d 7653 ca3d
00000070: 10dd 25be 26b6 5a3e 4339 0d3e cfc4 88be
00000080: 10c2 c73e 800b 9ebd 2937 f53d df08 213e
00000090: 85ef 1b3e 77db 36be 60c0 38be 273e cb3c
000000a0: 3f6a 81bd f93e 99be 7efd 33be a5a2 35be
000000b0: e6e5 703c bab8 0a3f e521 41bd 6f8c 5d3d
000000c0: 4b59 f1bb cd4a b3be 3e37 813d ee4e 3f3a
000000d0: 6bf9 5a3e 1318 e7bd b26b fdbd 6831 e0bc
000000e0: e14a 4abe a0ff a1be 22bd a2bd ba79 de3d
000000f0: 5eaa 93bd f9e6 3e3d edc0 203e aa0c 5ebe
00000100: 2e37 723d 2b21 c7be b61a 183e 2bf7 663e
00000110: f2e2 eebd d7d2 e8be 4c8d c1bd 5812 af3e
00000120: 1f75 e23d 93e7 b83d 842f 033c 02b4 26be
00000130: cdb6 4ebd 78de e0bd 33b2 f7bd c6f3 c33c
00000140: 0388 973c 39b5 90bc b213 c2be 88f1 af3b
00000150: 1e24 b23e 5893 a1bd b841 9dbc 34db 3fbe
00000160: 6caf 323e 2735 503d 03cd 9a3e ceed 09be
00000170: 82c7 973e 502e 363e 4cc7 b63d 2f4d ad3d
00000180: f745 933d afb0 2c3d fb52 03be 8bbd ad3d
00000190: 6ed2 163c f819 063e adfc b13d dadd 1abc
000001a0: b095 c7bc 8a32 923e 4f45 8ebc a5cb 81bd
000001b0: 3f85 eb3d afbc 6dbe d844 073e b8f0 223d
000001c0: 3611 1a3e 0fd9 b6bd 1091 cc3d 0bd1 d0be
000001d0: 7f72 6a3e 693c e1ba c5fb d13e c285 1b3d
000001e0: 6daa 96bd 7e21 64be 1467 6ebe b309 0dbd
000001f0: eba7 6b3e 07de 64be e2df bc39 7f07 8abc
00000200: 6e81 d73c 5c2b c63d cd31 aa3e 6f6c 68be
00000210: a6a1 473d 7321 913e bebf 11be 49f2 8dbe
00000220: 32d0 ef3c a5ed a7bd 69af 093d 970a 413e
00000230: 53f5 233e 3a95 73bd 6e9e 9a3d 2950 2dbe
00000240: c232 ce3c 3da4 e33d 6c36 acbe 45b1 55be
00000250: 08d2 3bbe 5569 913e a1e1 81be d75d 323e
00000260: 74a3 253e ba25 29be 13a8 59be 7048 bc3e
00000270: 7860 213d 6692 53be ff05 3b3d f417 553e
00000280: 9269 813d ff6f eebd 1c67 f73d d563 cfbd
00000290: d003 38bc 04fb adbd 135a 243e 68d7 b33c
000002a0: e24a 9dbd d76d 5c3e 1385 c1bd dd1e 27be
000002b0: 1e2d 42be 7fd2 4d3d abba 373e 391b 84be
000002c0: f9d3 143e 5056 cdbc 9a6e 84be 0adb 333e
000002d0: 6c17 933e 121a 633e 50f5 59be 5a0b e8bd
000002e0: e729 11bd e04b 133e 19f3 21bd 7cc3 26bd
000002f0: f10f ebbe f938 283e c038 79be 1244 3cbd
00000300: fb28 a03c 7976 3cbe 9a05 e53d 5d3f c33d
00000310: f630 bdbd d4f7 71bd f8c5 09be d32a c8bd
00000320: 9092 513e 53f9 bebd cc47 193e f820 363e
00000330: 95d6 2d3e ac5a 763d 9c84 143d 5ae7 183e
00000340: 4b46 f33d 1d5c bc3b f90c 993e df83 d1bd
00000350: 0b46 d53d 3551 303e 056a 05be 1270 40be
00000360: 8c74 1a3e 808b 51bc 68dc 933e f4a2 0a3e
00000370: 1ed4 9dbe 6b21 b4ba f512 e53d 34cb de3d
00000380: 2208 6e3e 8e59 d13d 7ed1 ed3e c59b bc3d
00000390: 2e88 043e dce2 19be 29ed e4bd f16a 823d
000003a0: 5364 f83a 6352 103e 24de eebd 8da3 0cbe
000003b0: d68f 263e 4ed7 433e bf8a 7f3e 566b 153e
000003c0: 87e2 0fbe abfa 5dbe b42c 46be 3f9f 1d3e
000003d0: e2b3 ac3e add7 66be f46e 2d3d 20eb 193e
000003e0: 992f f4be 5b8a f93d ae5f ccbd 2cad 18bd
000003f0: 3e4c 2dbe 2ae2 a73d fc27 4e3d 38f0 773d
0.09698293 -0.009169883 -0.15007693 0.30295402 -0.22600175 -0.19826123 -0.12550111 -0.011527206
-0.20583488 0.18796998 0.2514361 -0.010607814 0.02132308 -0.051690485 -0.17722626 0.1562889
0.030485172 0.08825036 0.3822935 -0.08611249 0.05969738 -0.073161244 0.16458987 0.017820321
0.20299068 0.29907647 0.08508477 0.098792 -0.1619761 0.21358547 0.13791375 -0.26712653
0.39015245 -0.07717037 0.119734116 0.1572604 0.15228088 -0.17857157 -0.18042135 0.02480991
-0.06319093 -0.29930857 -0.17577168 -0.17737825 0.01470325 0.5418812 -0.047151465 0.054089006
-0.007365381 -0.35018006 0.06309365 0.0007297833 0.21384208 -0.11283889 -0.12374057 -0.027367309
-0.19755127 -0.3164034 -0.079462305 0.10863061 -0.07210229 0.04660699 0.15698595 -0.21684518
0.059134655 -0.38892493 0.1485394 0.22555225 -0.1166438 -0.45473358 -0.09450778 0.34193683
0.11057495 0.09028544 0.008006934 -0.16279605 -0.0504673 -0.109799325 -0.12094536 0.023919951
0.018497473 -0.017664539 -0.3790565 0.005369369 0.3479318 -0.07889432 -0.019196376 -0.18735963
0.1744973 0.05083194 0.30234537 -0.13469622 0.296444 0.17791104 0.089247316 0.08461987
0.07191079 0.042160686 -0.12824623 0.08483418 0.009205444 0.13095844 0.08690772 -0.009452308
-0.024363369 0.28554183 -0.017367033 -0.0633767 0.11500024 -0.23216508 0.13209856 0.03978035
0.15045628 -0.089281194 0.09988606 -0.40784487 0.2289524 -0.0017184141 0.41012397 0.03796936
-0.07356725 -0.22278401 -0.23281509 -0.034433078 0.23013274 -0.22350322 0.0003602496 -0.016849278
0.026306834 0.09676239 0.3324112 -0.22697614 0.048738144 0.28345832 -0.142333 -0.2772391
0.02927408 -0.08199624 0.03361455 0.18851696 0.16011553 -0.059468485 0.07549749 -0.1692511
0.025170688 0.1111531 -0.3363527 -0.20868404 -0.1834184 0.28400674 -0.25367454 0.1741861
0.16175634 -0.16518298 -0.21255521 0.36774015 0.03939864 -0.20661315 0.045660015 0.20809919
0.06318964 -0.11642455 0.120802134 -0.10126463 -0.011231378 -0.08495143 0.16049986 0.0219533
-0.076802984 0.21526276 -0.0944921 -0.16320367 -0.18962523 0.050249573 0.17942302 -0.2580202
0.14533986 -0.025065571 -0.25865632 0.17564026 0.28728807 0.22177914 -0.21284986 -0.1133029
-0.03544035 0.14384413 -0.039538477 -0.040713772 -0.459106 0.16427983 -0.24338055 -0.045963354
0.019550791 -0.18404569 0.11182709 0.0953357 -0.09237854 -0.059074238 -0.13454425 -0.09773793
0.20466065 -0.093248986 0.14968795 0.17786014 0.16976388 0.060145065 0.03625928 0.14932004
0.11878642 0.0057482854 0.2989271 -0.102302305 0.1041375 0.17218478 -0.13028724 -0.18792751
0.15083522 -0.012789607 0.28879094 0.13538724 -0.30825895 -0.001374287 0.111852564 0.10878602
0.2324529 0.10222159 0.46448892 0.09209398 0.12942573 -0.15027946 -0.11178047 0.06368054
0.0018950797 0.14093928 -0.11663464 -0.13734265 0.16265807 0.19125101 0.24955271 0.14591727
-0.14051257 -0.21677653 -0.1935299 0.15392779 0.3373099 -0.22543211 0.04234214 0.150311
-0.47692564 0.12184592 -0.09979187 -0.037274525 -0.16923615 0.08197434 0.0503311 0.060531825

network_body._body_endoder.seq_layers.0.bias f4 [256]
00000000: dae5 43bb a5ac 5bbb 2c99 5b3b cf98 3a3a
00000010: b02d 7ebb 7351 063b 39c5 94bb 2c07 093b
00000020: 6204 413b 5d8b 86bb b598 483b 1cbb 703b
00000030: 2033 63bb 4a6a 2b3a fc6a 3f3b 74bd 3dbb
00000040: 52cf 66bb 6dda fd3a 8793 773b 1e03 5a3b
00000050: 8f10 783b 25b9 77bb 2d24 733b b97a 09bb
00000060: 8c41 193b d1f7 6fbb 59b4 4fbb 62e5 0fbb
00000070: 387f 63bb 0d65 4bbb 1599 16b8 4933 60bb
00000080: 4c36 74b9 b952 583b 1b77 b0b8 a7ae 86bb
00000090: 646b 59bb c580 2c3b fc14 2abb 1f6d 2dbb
000000a0: cc35 f2ba 81ea acb8 93e5 f83a 3fe6 433b
000000b0: a346 c639 e244 17ba a2c5 1c3b 77e3 633b
000000c0: 8070 313b 9d7b b5b9 e81a 60bb 3b86 13ba
000000d0: 6d95 d83a f457 633b 6447 773a 4cdb 74bb
000000e0: 6ace 723b 0fd8 93bb 0fb5 be3a 7594 78b7
000000f0: a2f9 15bb 6bad 5e3b c7fe 423b 51eb 3dbb
00000100: 2948 3b3b f6a8 533a 11e2 103b c4f2 03bb
00000110: 9ef6 64bb 8199 273b 6a25 223b 7ac7 4cbb
00000120: 608f 4dbb 668d 11bb 1187 653a 8798 66bb
00000130: 31b5 39bb 8faa 45bb 03f8 1e3a 91dd 4abb
00000140: e304 53bb 6005 a3ba 52c5 3bbb 50ae 473b
00000150: 40cc 0b3b 6bc8 e23a b67b 08ba 45b0 adba
00000160: d64a 50bb b1f0 953a 30cd 6dbb eb46 5ebb
00000170: 9187 633b e345 87bb f197 ad3a 1da3 c1ba
00000180: 15d1 4e3a 5f06 763b 3024 44bb 8219 6aba
00000190: 5a34 c73a 9763 1fbb 988b 2c3b d20e 353b
000001a0: b0c6 483b 8c0d 58bb 3d65 a4b9 297a 1a3b
000001b0: d818 5a3b 8b65 3ebb f0a4 58bb b522 b8ba
000001c0: 2b2d 82bb 5aa9 c03a 2c25 8b3a ffab 583b
000001d0: 1814 4a3b d488 1b3b edbf 303b 436d 0ebb
000001e0: ceee 5f3b 89dc 43bb de36 843b e5c5 68bb
000001f0: 1931 f5ba b284 68ba 0ba3 82bb 2005 503b
00000200: 8871 8abb f6c8 3539 4e7c 8ebb c496 3fbb
00000210: 6a55 6a3b 6ece 2d39 d9bd 85bb 4666 c8ba
00000220: 5bf2 58bb 80ca 7c3b 90d0 273b efb6 673a
00000230: df1f 7b3b a84b 5fb9 b602 dab9 52d2 1fbb
00000240: 8126 51bb 914f 59bb 8e8d 513b 0c6b 4cba
00000250: 79e0 1cba 658a 16bb 20c2 11bb e1d2 87bb
00000260: 8ed9 1cbb e543 95bb 46ff 02ba f5b7 a939
00000270: 6a57 303b cfef 473a 3531 5abb a691 ffba
00000280: 4b8e 193b 0229 91bb 74c6 ef3a 6b55 6c3b
00000290: 2604 4ebb 46ce 873b 6e62 f1ba beed 543b
000002a0: 562f 5f3b c136 65bb 1dc3 67bb ae55 c6ba
000002b0: 7e99 bbb9 ef99 013b 5d8a 56bb 0c11 7dbb
000002c0: daf1 75bb 32dc 7aba 1087 12ba a605 5abb
000002d0: ce97 ec3a f4a6 3a3b 8177 0dbb 49bd 4839
000002e0: 67f1 4cbb e217 58bb fc14 473b b69d 363b
000002f0: 1eb3 97bb 2fb7 2cbb 972e 713b 0649 773b
00000300: 88aa 73b9 7746 faba cbc6 85bb 40b4 11bb
00000310: 36c5 ccba fd9f 533b caf0 4f3b 6796 593b
00000320: 52a9 5fbb 552e 89bb d86b 463b 42e7 623b
00000330: 6884 59bb 1265 543b 4c45 76bb 580b 11bb
00000340: df60 853b f594 3a3b d349 1abb 4ea0 31bb
00000350: 99ef 6ebb e08e efba da7e 6f3b f1af 143b
00000360: a99b 03bb f824 62bb fddc 793b c195 5dbb
00000370: 2586 91b8 abaa 0fbb 4aad 82bb 9679 b4ba
00000380: 6e8f 343b c927 6d3a 38a5 45bb b3f6 503a
00000390: 4fe8 10b9 5986 13bb a528 623b e6c0 d439
000003a0: 3581 a9b8 7273 5f3b 0c9e f5b9 b2c3 043a
000003b0: fd04 5b3b d4ee 663b d1a4 63ba c4b6 293b
000003c0: ed79 41bb e2b9 8d3a 2b58 40bb bded 4a3b
000003d0: aaa5 1ebb c3af 513b f574 da39 f19b 61bb
000003e0: 99a0 2c3b 66a0 823b 6a0a 0ebb 01a1 b93a
000003f0: e8a4 dc3a 8a16 40bb 36a8 843b b6d1 323b
-0.002989164 -0.0033519652 0.0033508046 0.0007118107 -0.0038784556 0.0020495325 -0.0045401123 0.0020908816
0.0029452075 -0.004105969 0.0030608599 0.003673262 -0.0034667924 0.00065389706 0.0029208055 -0.0028952034
-0.0035218787 0.0019367464 0.0037777142 0.0033266018 0.0037851667 -0.0037799564 0.003710042 -0.002097769
0.0023385016 -0.0036616216 -0.003169319 -0.0021956791 -0.003471328 -0.0031035573 -3.5905356e-05 -0.0034210256
-0.0002328988 0.003300829 -8.414519e-05 -0.0041101757 -0.0033175582 0.002632187 -0.002595245 -0.0026462746
-0.0018479167 -8.245279e-05 0.0018989317 0.0029891876 0.0003781813 -0.0005770457 0.002392151 0.003477303
0.0027075112 -0.0003461511 -0.0034195725 -0.0005627607 0.0016524025 0.0034689875 0.000943294 -0.0037362156
0.0037049302 -0.00451184 0.0014549809 -1.4816517e-05 -0.0022884388 0.0033977877 0.002975391 -0.002897937
0.0028576946 0.00080741884 0.0022107402 -0.0020133713 -0.0034937034 0.0025573673 0.0024741539 -0.0031246827
-0.0031365976 -0.0022209524 0.0008755783 -0.0035186128 -0.0028336758 -0.0030161475 0.00060641783 -0.0030954818
-0.0032198958 -0.0012437515 -0.0028651548 0.0030468889 0.002133146 0.0017302161 -0.00052064226 -0.0013251385
-0.0031782887 0.001143953 -0.0036285631 -0.0033916782 0.0034718255 -0.004128204 0.0013244135 -0.0014773343
0.0007889432 0.0037540419 -0.0029928796 -0.00089301926 0.0015198097 -0.0024320835 0.0026328322 0.0027627242
0.0030636005 -0.003296706 -0.00031355946 0.0023571348 0.0033278968 -0.0029052224 -0.0033057295 -0.001404843
-0.0039726696 0.0014698908 0.0010615936 0.0033061502 0.003083473 0.002373268 0.0026969865 -0.0021732606
0.0034169438 -0.0029886088 0.004034861 -0.0035518345 -0.0018706649 -0.0008869871 -0.0039867214 0.0031741336
-0.0042249598 0.00017336369 -0.0043483144 -0.002923415 0.0035756477 0.00016575467 -0.0040814695 -0.0015289269
-0.003310344 0.0038572848 0.002560649 0.000883921 0.0038318557 -0.00021295121 -0.0004158222 -0.0024386835
-0.003191382 -0.0033158998 0.0031975242 -0.00077979336 -0.0005984377 -0.0022970673 -0.0022240952 -0.004145012
-0.0023933384 -0.004555213 -0.0004997145 0.0003237125 0.0026907572 0.0007626982 -0.003329349 -0.0019498363
0.002343076 -0.0044299373 0.0018293397 0.0036061655 -0.0031435578 0.0041444628 -0.0018416175 0.0032490338
0.0034055314 -0.0034975263 -0.00353641 -0.0015131736 -0.0003578178 0.001977559 -0.003273628 -0.0038614897
-0.0037528188 -0.0009569555 -0.0005589584 -0.0033267527 0.0018050612 0.002848086 -0.0021586122 0.00019144
-0.0031271817 -0.003297322 0.0030377498 0.0027865 -0.0046295067 -0.0026354303 0.0036801451 0.0037732734
-0.00023237814 -0.0019094486 -0.004082536 -0.0022232682 -0.0015622738 0.0032291405 0.0031729215 0.003320122
-0.0034128022 -0.0041864314 0.0030276682 0.0034622704 -0.0033190493 0.0032408875 -0.0037577925 -0.0022132006
0.004070386 0.0028470133 -0.0023542538 -0.0027103606 -0.003645873 -0.0018276833 0.0036544115 0.0022687877
-0.0020081794 -0.0034506898 0.0038126104 -0.0033811184 -6.939125e-05 -0.0021921794 -0.003987943 -0.0013769146
0.002755131 0.0009046761 -0.0030158293 0.00079713314 -0.00013819452 -0.0022510497 0.003450909 0.00040579512
-8.082615e-05 0.003409591 -0.00046847796 0.0005064561 0.0033419721 0.0035237567 -0.00086839224 0.002589629
-0.0029522136 0.0010812844 -0.0029349427 0.0030964457 -0.002420763 0.0031995631 0.0004166734 -0.0034425224
0.002634084 0.003986406 -0.0021673688 0.0014162363 0.0016833814 -0.002931031 0.0040483726 0.0027285642

action_model._continuous_distribution.log_sigma f4 [1, 2]
00000000: aa1e 5e3b e6f1 c43a
0.003389279 0.0015025705

action_model._continuous_distribution.mu.weight f4 [2, 256]
00000000: 5497 683c 7b76 d13b fee2 1bbd 0dd0 3c3b
00000010: e565 5a3c 47f2 5cbb 616f 8f3c fe5f 81bb
00000020: 3ed5 70bc cc26 643c dd84 f1bb 255f 8bbc
00000030: f698 d03c 67cc 12bc 1d75 05bd a270 0c3c
00000040: 416f a63b 456e c8bb cbcb 2dbc 130b 66bc
00000050: 9a6d dbbb 5bd0 3c3c e0db 19bc 5c23 fa3b
00000060: 9ada bdbb 0d29 b33a ede3 873c d665 253c
00000070: 45ab 043d 8940 f13b d7f2 5d3b 9a78 a03b
00000080: 6076 df3b 1c19 66bb 4272 233b 0938 8c3c
00000090: c577 923c ee39 c0bb bfe7 903b 3be9 6f3c
000000a0: 8ada 433c fe3d b53b bf05 c6bb 12ad cdbb
000000b0: 018a 61ba aeaf 733a ab34 95ba 7cf4 babc
000000c0: b95d 0539 1aad c93b a367 5d3c d61d a23b
000000d0: 2e28 2fbc 78ed d2bb 5f05 12bc dee3 053c
000000e0: 7a50 5fbc 4eb9 e43b 36a5 fcb9 772b cd3b
000000f0: bdbc 2e3b 2781 aabc 58b9 aabb 50b3 103c
00000100: 417f 45bc cc4a 47ba 6f4b d4ba 636b 2839
00000110: 0258 b93b 6e52 dcbc 16c9 18bc b7b0 143c
00000120: fd43 703c 42d3 e33b 0bef 1cbb 8da1 c23c
00000130: fa0b 643c 6130 553b 8899 2fbb 6541 cd3b
00000140: 5594 743c eb6f eb3b 90a3 3b3c ba61 96bc
00000150: 9d69 62bc cff9 38bc b417 2dbb 52cc 8b3c
00000160: 0053 c93c e74e c8ba 1571 eb3a bbf7 cb3b
00000170: e973 96bc 3e1d 823c 61d5 00bb f8d4 423b
00000180: 75b7 59b7 e387 84bc 9be4 ae3c ecd2 4f3c
00000190: 938c abbc 12f7 113c dd09 bfbb 1430 d0bb
000001a0: 06d3 1dbc d9d1 413b 14c3 6d3b 54eb 45bc
000001b0: 810e 00bc 2224 0e3c b77b cb3c 25d3 a43b
000001c0: 0c47 af3c ef02 b7b9 5043 b23b d7db 89bc
000001d0: 0e19 63bc 611a 36bb f41f b6bb 5af7 c53b
000001e0: 2c60 8bbc bd60 383c c7d0 6ebc 059f ae3b
000001f0: 2ea4 183c 0a2a 013a 0e8d 813c 3537 edbb
00000200: 924f 9b3c 68d0 29ba 5af2 413c 349c 853c
00000210: ea32 d4ba 479e b1bb 5608 9b3b 03e7 a23a
00000220: cb81 c43c 27d7 13bc eb23 1bbc 2310 083b
00000230: bd6f e3bb 32bc ed3b d2b9 423b d9c6 333c
00000240: 3fd0 423c c2e1 233c e6d3 ffba cb95 77b9
00000250: 85b3 a23a f75a a7ba 2dc3 093c 645f 0e3d
00000260: a89c 273b d861 773c 2465 23bb d4b8 9e3b
00000270: 4230 eebb a6c8 00bc dbad ad3b d3e3 5c3a
00000280: 5da5 52bc f692 973c 9f08 10bc aab8 1cbc
00000290: a6d3 aa3b 44dd f8bb f990 403b 9315 f7bb
000002a0: bd64 62bb 5ffa cc3c 701a b93b ab88 f739
000002b0: 280f e0ba a253 60bc 3234 f23b d668 a339
000002c0: d2f6 473c e6d0 483b 44b8 1fba e0cd 9e3c
000002d0: b85e 36bc 1348 16bc 907e 253c a66f 91bb
000002e0: f855 a13c fa2b dd3c 66a2 d6bc 414e 7ebc
000002f0: 7a96 2a3d 8fb5 e93b 69cd 94bc 7b7f b0bb
00000300: 3b77 5d3b c289 dfb9 bb1f 893c ae02 bb3b
00000310: 5640 163c a98b f5ba cb0c 5fbb 4752 f2bc
00000320: e5fc ba3b f310 143c a626 e1bc b42a 3dbc
00000330: 3fd5 083c bd46 e1bc 7973 013c 71be e83b
00000340: ef83 9abc 4b4a adbc fb48 b33b f37a d53b
00000350: 35fb 263a d39a d23b b470 98bb a114 b4bb
00000360: d487 2a3c c7d3 763c 2ddd 6dbc 7db2 a33b
00000370: fb18 583b afb9 df3b 93f0 013c f92b ca3a
00000380: 4da6 75bb 57c1 1cbc 3c76 a93c 3966 f8ba
00000390: 1df2 503b 891c 503b a085 74bc d361 d83b
000003a0: f320 af38 1663 71bc 3873 183b 596b 153b
000003b0: 662b 87bc 7235 f1ba 135a 0b3b 9d9e f6bb
000003c0: 3cdb b73c db0e 91bb 6e34 1e3c 5595 6cbc
000003d0: f9be cf3b f6ff 7bbc 2de3 1d3b b726 253c
000003e0: ac2a 32bc a4a1 0fbc 5aaf 323b 924b a0bb
000003f0: 1f87 98ba 2165 d53b 111a 7abb 217c 99bb
0.014196236 0.006392298 -0.038058273 0.0028810531 0.013329958 -0.0033713744 0.017509164 -0.0039482107
-0.014699278 0.0139252655 -0.007370575 -0.017013142 0.025463562 -0.008959866 -0.03258239 0.008571776
0.0050791805 -0.006116661 -0.01060767 -0.014040726 -0.006696415 0.011524285 -0.009390801 0.0076336097
-0.0057938816 0.001366885 0.016588176 0.01009508 0.032389898 0.0073624295 0.0033866668 0.0048971893
0.0068195313 -0.0035110181 0.002493993 0.017116563 0.017879376 -0.0058662808 0.0044221575 0.014643009
0.011953959 0.0055310717 -0.0060431655 -0.006276735 -0.0008603633 0.00092958927 -0.0011383494 -0.022821657
0.00012718783 0.0061546685 0.013513478 0.0049474044 -0.010690732 -0.006437 -0.008912413 0.008172004
-0.013630027 0.006980098 -0.00048188277 0.006261285 0.002666279 -0.020813538 -0.005210083 0.008831814
-0.0120542655 -0.0007602393 -0.0016196797 0.00016061733 0.0056562433 -0.026894774 -0.009325286 0.009075335
0.014664647 0.006952674 -0.0023946192 0.023758674 0.013918871 0.0032530057 -0.0026794393 0.006263899
0.014927943 0.0071849725 0.011452571 -0.018357147 -0.0138191255 -0.011290028 -0.0026411833 0.017065201
0.02457571 -0.0015282304 0.0017962778 0.0062246 -0.018365817 0.015883084 -0.0019658434 0.002972899
-1.2976922e-05 -0.016178077 0.021349242 0.012684565 -0.020941054 0.008909004 -0.005830033 -0.0063533876
-0.009632831 0.0029574542 0.0036279606 -0.012080032 -0.007815958 0.008675607 0.024839265 0.005030053
0.021396182 -0.00034906666 0.005440153 -0.01682846 -0.013860954 -0.002778672 -0.0055580083 0.0060414495
-0.017013632 0.011253533 -0.014576144 0.005329015 0.009316487 0.0004927224 0.01581433 -0.007239247
0.01895884 -0.00064778933 0.011837566 0.016309835 -0.001618949 -0.0054204795 0.0047312183 0.0012428466
0.023987671 -0.009023464 -0.009469013 0.0020761571 -0.0069408105 0.0072551006 0.0029712808 0.010972702
0.01189047 0.010002555 -0.0019518107 -0.00023611558 0.001241312 -0.0012768199 0.00840835 0.03475894
0.0025575552 0.015099011 -0.002493211 0.0048438106 -0.0072689364 -0.007860338 0.005300266 0.00084262824
-0.0128568085 0.018502694 -0.008791118 -0.009565512 0.0052132187 -0.0075947363 0.0029383285 -0.0075404136
-0.0034544908 0.02502173 0.0056489035 0.00047213337 -0.0017094361 -0.013691815 0.007391476 0.00031167892
0.012204843 0.0030642091 -0.00060928264 0.019385278 -0.011130981 -0.009172457 0.010100976 -0.0044383584
0.019694313 0.026998509 -0.026200484 -0.015521587 0.041647412 0.007132239 -0.018164353 -0.0053862906
0.003379299 -0.00042636512 0.016738763 0.0057071066 0.009170612 -0.0018733639 -0.0034034725 -0.029580249
0.005706417 0.009037244 -0.02748425 -0.011545826 0.008351623 -0.027499551 0.007901066 0.0071027805
-0.018861739 -0.02115359 0.0054713464 0.006514901 0.000636983 0.006427148 -0.004652107 -0.005495623
0.0104083605 0.01506514 -0.014518064 0.0049956427 0.0032973874 0.006827555 0.0079308925 0.0015424482
-0.0037483156 -0.00956758 0.020686261 -0.0018951363 0.0031882592 0.003175529 -0.014924437 0.0066034584
8.3507875e-05 -0.014733097 0.0023262035 0.002279958 -0.016500186 -0.0018402769 0.0021263405 -0.0075262324
0.022443406 -0.0044268197 0.009656055 -0.0144399 0.0063399044 -0.01538085 0.0024091706 0.010080031
-0.010874432 -0.0087665655 0.0027265162 -0.004891821 -0.0011636949 0.0065122996 -0.003816251 -0.004683987

action_model._continuous_distribution.mu.bias f4 [2]
00000000: 3979 67bb a88f 5fba
-0.0035320057 -0.00085281814

exp_avg f4 [256, 28]
00000000: 0000 0000 0000 0000 211b f9b4 1dad e6b4
00000010: 0000 0000 0000 0000 211b f9b4 98c1 d7b4
00000020: 0000 0000 0000 0000 211b f9b4 8cb2 e9b4
00000030: a7d8 a235 0000 0000 af68 9ab7 8070 93b6
00000040: 0000 0000 0000 0000 211b f9b4 ea13 e8b4
00000050: b67a b135 0000 0000 3048 9bb7 a1f7 3bb7
00000060: 0000 0000 0000 0000 211b f9b4 4656 e4b4
00000070: 0000 0000 0000 0000 6ba7 79b3 bd18 2eb3
00000080: 0000 0000 0000 0000 6ba7 79b3 b335 e1b2
00000090: 0000 0000 0000 0000 6ba7 79b3 577e 3ab3
000000a0: 349c 86b3 0000 0000 b83b 6fb6 8442 6134
000000b0: 0000 0000 0000 0000 6ba7 79b3 81fb 35b3
000000c0: 1e2f 83b4 0000 0000 8e2b 87b6 6ca7 cab5
000000d0: 0000 0000 0000 0000 6ba7 79b3 e709 25b3
000000e0: 0000 0000 0000 0000 78ae 1b35 fb3c ec34
000000f0: 0000 0000 0000 0000 78ae 1b35 9000 af34
00000100: 0000 0000 0000 0000 78ae 1b35 1392 f834
00000110: f52c 5c36 0000 0000 32da 3f37 8e7a 1eb7
00000120: 0000 0000 0000 0000 78ae 1b35 c947 f334
00000130: 5d2c 0e37 0000 0000 d158 da37 7986 dd36
00000140: 0000 0000 0000 0000 78ae 1b35 f22e e334
00000150: 0000 0000 0000 0000 abbe 3834 1c22 7934
00000160: 0000 0000 0000 0000 abbe 3834 f38a 9734
00000170: 0000 0000 0000 0000 abbe 3834 9c82 6e34
00000180: 08ff 27b7 0000 0000 8ce5 2338 b73f c337
00000190: 0000 0000 0000 0000 abbe 3834 055e 7134
000001a0: 7b5e 87b7 0000 0000 1286 0f38 3509 0638
000001b0: 0000 0000 0000 0000 abbe 3834 3f0d 8034
000001c0: 0000 0000 0000 0000 73b2 57b4 6025 2db4
000001d0: 0000 0000 0000 0000 73b2 57b4 7203 0bb4
000001e0: 0000 0000 0000 0000 73b2 57b4 8a1c 34b4
000001f0: d61c 0a36 0000 0000 a2ef cdb6 7720 f735
00000200: 0000 0000 0000 0000 73b2 57b4 1806 32b4
00000210: c5eb 3f36 0000 0000 9ff5 54b7 07f0 b2b6
00000220: 0000 0000 0000 0000 73b2 57b4 f509 28b4
00000230: 0000 0000 0000 0000 00f3 b933 f299 c733
00000240: 0000 0000 0000 0000 00f3 b933 4339 d333
00000250: 0000 0000 0000 0000 00f3 b933 f956 c533
00000260: 4ba9 39b6 0000 0000 6662 8137 28a8 0b37
00000270: 0000 0000 0000 0000 00f3 b933 87fe c433
00000280: 81e9 8db6 0000 0000 5706 7f37 583a 4b37
00000290: 0000 0000 0000 0000 00f3 b933 18b5 c833
000002a0: 0000 0000 0000 0000 b6af 5ab3 5911 9c32
000002b0: 0000 0000 0000 0000 b6af 5ab3 713e a033
000002c0: 0000 0000 0000 0000 b6af 5ab3 7776 ea31
000002d0: 2963 1eb6 0000 0000 04e4 9c36 4aab 0d37
000002e0: 0000 0000 0000 0000 b6af 5ab3 fdd6 2532
000002f0: 28b7 c5b5 0000 0000 78a1 0fb6 6752 c936
00000300: 0000 0000 0000 0000 b6af 5ab3 b797 e032
00000310: 0000 0000 0000 0000 8fee 0b34 6817 0834
00000320: 0000 0000 0000 0000 8fee 0b34 10ea 0434
00000330: 0000 0000 0000 0000 8fee 0b34 e5b8 0834
00000340: 9905 a5b4 0000 0000 aded 0737 a892 8e36
00000350: 0000 0000 0000 0000 8fee 0b34 2fb6 0734
00000360: b0e9 7eb4 0000 0000 5a40 2337 8a00 f736
00000370: 0000 0000 0000 0000 8fee 0b34 d171 0734
00000380: 0000 0000 0000 0000 6eca 9534 4aef 5a34
00000390: 0000 0000 0000 0000 6eca 9534 76bf 1834
000003a0: 0000 0000 0000 0000 6eca 9534 d830 6834
000003b0: 9349 d136 0000 0000 781e 50b7 be20 6db7
000003c0: 0000 0000 0000 0000 6eca 9534 fd0c 6234
000003d0: 3404 7137 0000 0000 8d71 c0b6 262c 22b7
000003e0: 0000 0000 0000 0000 6eca 9534 376e 5134
000003f0: 0000 0000 0000 0000 6711 3fb4 93d0 feb3
0.0 0.0 -4.6399603e-07 -4.2966795e-07 0.0 0.0 -4.6399603e-07 -4.018773e-07
0.0 0.0 -4.6399603e-07 -4.3529542e-07 1.2132995e-06 0.0 -1.8406978e-05 -4.394038e-06
0.0 0.0 -4.6399603e-07 -4.3227857e-07 1.3223241e-06 0.0 -1.8511055e-05 -1.1203724e-05
0.0 0.0 -4.6399603e-07 -4.2531082e-07 0.0 0.0 -5.8127096e-08 -4.053503e-08
0.0 0.0 -5.8127096e-08 -2.6217867e-08 0.0 0.0 -5.8127096e-08 -4.3421405e-08
-6.2682744e-08 0.0 -3.5648536e-06 2.0978956e-07 0.0 0.0 -5.8127096e-08 -4.2371088e-08
-2.4434934e-07 0.0 -4.028384e-06 -1.5098899e-06 0.0 0.0 -5.8127096e-08 -3.8426062e-08
0.0 0.0 5.7995885e-07 4.4002795e-07 0.0 0.0 5.7995885e-07 3.25967e-07
0.0 0.0 5.7995885e-07 4.6299883e-07 3.2808723e-06 0.0 1.143529e-05 -9.446068e-06
0.0 0.0 5.7995885e-07 4.5314508e-07 8.474189e-06 0.0 2.6028983e-05 6.601968e-06
0.0 0.0 5.7995885e-07 4.2316202e-07 0.0 0.0 1.72057e-07 2.3202341e-07
0.0 0.0 1.72057e-07 2.822704e-07 0.0 0.0 1.72057e-07 2.2212993e-07
-1.0013355e-05 0.0 3.907601e-05 2.3275481e-05 0.0 0.0 1.72057e-07 2.2479078e-07
-1.613725e-05 0.0 3.421872e-05 3.1956664e-05 0.0 0.0 1.72057e-07 2.3851496e-07
0.0 0.0 -2.0088355e-07 -1.6125477e-07 0.0 0.0 -2.0088355e-07 -1.2946637e-07
0.0 0.0 -2.0088355e-07 -1.6774189e-07 2.0580387e-06 0.0 -6.137373e-06 1.8412383e-06
0.0 0.0 -2.0088355e-07 -1.6579759e-07 2.8598454e-06 0.0 -1.2693373e-05 -5.3327562e-06
0.0 0.0 -2.0088355e-07 -1.5649842e-07 0.0 0.0 8.658935e-08 9.294662e-08
0.0 0.0 8.658935e-08 9.835869e-08 0.0 0.0 8.658935e-08 9.1893476e-08
-2.766569e-06 0.0 1.5423819e-05 8.324198e-06 0.0 0.0 8.658935e-08 9.1732595e-08
-4.229311e-06 0.0 1.52006605e-05 1.2113327e-05 0.0 0.0 8.658935e-08 9.3461665e-08
0.0 0.0 -5.091689e-08 1.8168679e-08 0.0 0.0 -5.091689e-08 7.4619386e-08
0.0 0.0 -5.091689e-08 6.823764e-09 -2.3601553e-06 0.0 4.675707e-06 8.444136e-06
0.0 0.0 -5.091689e-08 9.653147e-09 -1.4730949e-06 0.0 -2.1402648e-06 5.9998597e-06
0.0 0.0 -5.091689e-08 2.6146024e-08 0.0 0.0 1.3032171e-07 1.2674502e-07
0.0 0.0 1.3032171e-07 1.237861e-07 0.0 0.0 1.3032171e-07 1.2733251e-07
-3.0737718e-07 0.0 8.101965e-06 4.249003e-06 0.0 0.0 1.3032171e-07 1.2639133e-07
-2.3740608e-07 0.0 9.73054e-06 7.3612364e-06 0.0 0.0 1.3032171e-07 1.2614261e-07
0.0 0.0 2.79007e-07 2.0389885e-07 0.0 0.0 2.79007e-07 1.4225756e-07
0.0 0.0 2.79007e-07 2.1624453e-07 6.2372505e-06 0.0 -1.240486e-05 -1.4133924e-05
0.0 0.0 2.79007e-07 2.1052615e-07 1.4365698e-05 0.0 -5.735265e-06 -9.666232e-06
0.0 0.0 2.79007e-07 1.9504738e-07 0.0 0.0 -1.7794592e-07 -1.1865736e-07

exp_avg_sq f4 [256, 28]
00000000: 0000 0000 0000 0000 41ca 002a 8e45 fb29
00000010: 0000 0000 0000 0000 41ca 002a 0e29 ff29
00000020: 0000 0000 0000 0000 41ca 002a f872 fb29
00000030: 7e91 0d2d 0000 0000 a7ef dc2f b610 0b30
00000040: 0000 0000 0000 0000 41ca 002a 0874 fb29
00000050: 277b 7c2d 0000 0000 93e0 1930 d1d4 2630
00000060: 0000 0000 0000 0000 41ca 002a f625 fb29
00000070: 0000 0000 0000 0000 7999 e626 a480 ec26
00000080: 0000 0000 0000 0000 7999 e626 bfe1 0d27
00000090: 0000 0000 0000 0000 7999 e626 027f e726
000000a0: eb10 eb2a 0000 0000 e21f c62d 4409 0e2e
000000b0: 0000 0000 0000 0000 7999 e626 0948 e826
000000c0: 54dd 622b 0000 0000 8d0e 322e 3441 442e
000000d0: 0000 0000 0000 0000 7999 e626 127a f026
000000e0: 0000 0000 0000 0000 1600 402a 5d19 482a
000000f0: 0000 0000 0000 0000 1600 402a 48f2 662a
00000100: 0000 0000 0000 0000 1600 402a 9473 442a
00000110: 2f89 132e 0000 0000 d9fa 1731 9359 4231
00000120: 0000 0000 0000 0000 1600 402a 5a17 452a
00000130: 9786 a52e 0000 0000 1637 4b31 d3c0 6b31
00000140: 0000 0000 0000 0000 1600 402a 9bdf 4a2a
00000150: 0000 0000 0000 0000 bbda 9a28 632e 8028
00000160: 0000 0000 0000 0000 bbda 9a28 1b04 8628
00000170: 0000 0000 0000 0000 bbda 9a28 d4f6 8128
00000180: 9320 292d 0000 0000 2459 ac2f 624b 9c2f
00000190: 0000 0000 0000 0000 bbda 9a28 2eb5 8128
000001a0: e8f6 e12d 0000 0000 f4e2 992f 2ff9 982f
000001b0: 0000 0000 0000 0000 bbda 9a28 e2c5 7e28
000001c0: 0000 0000 0000 0000 4acf b928 b128 ab28
000001d0: 0000 0000 0000 0000 4acf b928 b661 ac28
000001e0: 0000 0000 0000 0000 4acf b928 1253 ac28
000001f0: 0b70 ca2c 0000 0000 fc8d 0b2f 5d55 212f
00000200: 0000 0000 0000 0000 4acf b928 a62b ac28
00000210: 89b6 4f2d 0000 0000 7e1d 142f 17c6 292f
00000220: 0000 0000 0000 0000 4acf b928 6072 aa28
00000230: 0000 0000 0000 0000 32d8 8127 7f76 6a27
00000240: 0000 0000 0000 0000 32d8 8127 1e33 7c27
00000250: 0000 0000 0000 0000 32d8 8127 0afd 6a27
00000260: 2acb e52b 0000 0000 d724 a42e 3a1f 9f2e
00000270: 0000 0000 0000 0000 32d8 8127 5bd9 6a27
00000280: 456c 9f2c 0000 0000 7145 a32e 871a a02e
00000290: 0000 0000 0000 0000 32d8 8127 2363 6a27
000002a0: 0000 0000 0000 0000 3be4 bb26 bcc2 1727
000002b0: 0000 0000 0000 0000 3be4 bb26 52af 9527
000002c0: 0000 0000 0000 0000 3be4 bb26 08a8 0427
000002d0: e99c 6a2c 0000 0000 a6b6 962e 0dd6 ec2e
000002e0: 0000 0000 0000 0000 3be4 bb26 8fda 0727
000002f0: 2e87 142c 0000 0000 28bc 0a2f 7555 2a2f
00000300: 0000 0000 0000 0000 3be4 bb26 a9fe 2627
00000310: 0000 0000 0000 0000 c0b3 1d28 94f3 1928
00000320: 0000 0000 0000 0000 c0b3 1d28 388c 1f28
00000330: 0000 0000 0000 0000 c0b3 1d28 8ebf 1928
00000340: a717 312b 0000 0000 91d0 8a2e a265 a02e
00000350: 0000 0000 0000 0000 c0b3 1d28 27c5 1928
00000360: f8ac 0d2c 0000 0000 cd5a af2e ccb0 ba2e
00000370: 0000 0000 0000 0000 c0b3 1d28 c70d 1a28
00000380: 0000 0000 0000 0000 aa7c 2b29 d3a2 4329
00000390: 0000 0000 0000 0000 aa7c 2b29 c8fb 6b29
000003a0: 0000 0000 0000 0000 aa7c 2b29 f2ad 3d29
000003b0: 8fce 212d 0000 0000 9020 0430 e683 2a30
000003c0: 0000 0000 0000 0000 aa7c 2b29 63aa 3e29
000003d0: fae4 c22d 0000 0000 ab93 3430 0e12 5930
000003e0: 0000 0000 0000 0000 aa7c 2b29 8007 4829
000003f0: 0000 0000 0000 0000 db17 8928 f7b3 9428
0.0 0.0 1.1438855e-13 1.1158705e-13 0.0 0.0 1.1438855e-13 1.1331397e-13
0.0 0.0 1.1438855e-13 1.1166583e-13 8.047228e-12 0.0 4.018805e-10 5.0591653e-10
0.0 0.0 1.1438855e-13 1.11667674e-13 1.4351887e-11 0.0 5.5980215e-10 6.069288e-10
0.0 0.0 1.1438855e-13 1.11532243e-13 0.0 0.0 1.6001055e-15 1.6410658e-15
0.0 0.0 1.6001055e-15 1.9690058e-15 0.0 0.0 1.6001055e-15 1.606327e-15
4.1756125e-13 0.0 2.2524153e-11 3.229529e-11 0.0 0.0 1.6001055e-15 1.6117759e-15
8.0598484e-13 0.0 4.0485438e-11 4.4623152e-11 0.0 0.0 1.6001055e-15 1.6686433e-15
0.0 0.0 1.7053055e-13 1.7772368e-13 0.0 0.0 1.7053055e-13 2.0512162e-13
0.0 0.0 1.7053055e-13 1.7448396e-13 3.3545774e-11 0.0 2.2115982e-09 2.8281633e-09
0.0 0.0 1.7053055e-13 1.7505217e-13 7.527239e-11 0.0 2.95717e-09 3.4306609e-09
0.0 0.0 1.7053055e-13 1.8018783e-13 0.0 0.0 1.7192294e-14 1.4230972e-14
0.0 0.0 1.7192294e-14 1.4878769e-14 0.0 0.0 1.7192294e-14 1.4428922e-14
9.613771e-12 0.0 3.1349956e-10 2.8429797e-10 0.0 0.0 1.7192294e-14 1.4400451e-14
2.5689187e-11 0.0 2.7991798e-10 2.7825695e-10 0.0 0.0 1.7192294e-14 1.4142741e-14
0.0 0.0 2.0629023e-14 1.900246e-14 0.0 0.0 2.0629023e-14 1.9138211e-14
0.0 0.0 2.0629023e-14 1.9131862e-14 5.7536246e-12 0.0 1.269242e-10 1.4673192e-10
0.0 0.0 2.0629023e-14 1.9114766e-14 1.1807119e-11 0.0 1.3471e-10 1.5440836e-10
0.0 0.0 2.0629023e-14 1.8923394e-14 0.0 0.0 3.603909e-15 3.253826e-15
0.0 0.0 3.603909e-15 3.4999736e-15 0.0 0.0 3.603909e-15 3.2611196e-15
1.6327818e-12 0.0 7.4644006e-11 7.23603e-11 0.0 0.0 3.603909e-15 3.2591852e-15
4.531072e-12 0.0 7.424717e-11 7.28067e-11 0.0 0.0 3.603909e-15 3.2527766e-15
0.0 0.0 1.3037594e-15 2.1061025e-15 0.0 0.0 1.3037594e-15 4.154589e-15
0.0 0.0 1.3037594e-15 1.840977e-15 3.3340503e-12 0.0 6.853655e-11 1.07700605e-10
0.0 0.0 1.3037594e-15 1.8853494e-15 2.1107105e-12 0.0 1.2617873e-10 1.549177e-10
0.0 0.0 1.3037594e-15 2.317518e-15 0.0 0.0 8.754228e-15 8.546024e-15
0.0 0.0 8.754228e-15 8.856678e-15 0.0 0.0 8.754228e-15 8.534743e-15
6.2915856e-13 0.0 6.312562e-11 7.294011e-11 0.0 0.0 8.754228e-15 8.535957e-15
2.0133322e-12 0.0 7.974208e-11 8.489706e-11 0.0 0.0 8.754228e-15 8.551705e-15
0.0 0.0 3.8077756e-14 4.3439925e-14 0.0 0.0 3.8077756e-14 5.2398868e-14
0.0 0.0 3.8077756e-14 4.2117304e-14 9.197656e-12 0.0 4.8067594e-10 6.203308e-10
0.0 0.0 3.8077756e-14 4.2336262e-14 2.2156933e-11 0.0 6.569347e-10 7.89698e-10
0.0 0.0 3.8077756e-14 4.4415426e-14 0.0 0.0 1.5220401e-14 1.6509348e-14

exp_avg f4 [256]
00000000: f915 9337 e9d1 1937 10a2 98b8 f27b 0438
00000010: 0bc7 ac37 156a 6536 97c3 1738 d44e e9b5
00000020: 72ef 23b8 ad98 0138 8e55 92b7 2969 e8b7
00000030: 66cc a338 a108 20b8 2862 68b8 b094 ff36
00000040: 029c 8d37 4bd5 9a36 8b48 40b7 7c8c 31b8
00000050: 343f 82b7 12ec 9e37 abba 0fb8 9031 bcb7
00000060: 1fe6 df36 0c69 1637 ef60 e037 cb6a 4f38
00000070: 6595 8638 287b 1a38 e305 0237 899b 9537
00000080: ae59 1338 b9d2 2eb6 482a 1d38 3b6c 2e38
00000090: 227a 2c38 4484 08b7 583e 8e36 ae86 fd35
000000a0: 5d30 6038 088f 2738 240a dfb7 b009 cdb5
000000b0: 631a 2138 0c26 29b7 0d3b 6533 c19a 5fb8
000000c0: c308 3736 4c01 0038 e357 2538 c40e 4c38
000000d0: c732 88b8 b807 adb7 c52f 4eb8 3a0f 9a37
000000e0: 71a6 b1b7 35da 6b37 43f6 b437 7976 3c38
000000f0: 0797 e4b6 2402 51b8 bfeb c1b6 dc42 2838
00000100: 7140 f4b7 3267 ae37 6043 9c36 bc03 56b7
00000110: ea02 3d37 4b74 0ab8 3aad ea35 b2c6 0c38
00000120: aa44 dd37 cf4b 2334 9e59 7c37 5f45 a238
00000130: e0c5 2d37 9753 e035 4669 4138 432a 4736
00000140: 6451 ca37 0013 5238 6a4c 2b37 9750 fab7
00000150: b43b 66b8 70cc 4eb8 d84d 5db7 8b24 a738
00000160: d701 3838 8b57 48b7 c208 3037 4f47 e737
00000170: f0c6 0fb8 6998 f637 62e4 0338 db6e d437
00000180: cebd 9437 0b3b 03b8 7d3d d337 5fd1 b338
00000190: f2b7 c3b8 ca2f 30b5 fb39 99b7 9c70 18b7
000001a0: 90ab cfb7 d036 2336 20a0 ac37 c93c d935
000001b0: 969b f1b6 dcfd 0e37 24a8 8f38 9526 21b8
000001c0: d687 3e38 2b02 5937 e5ac f737 7669 bcb7
000001d0: 2a1b 93b7 228a 9d36 2b2e e8b6 6def 0838
000001e0: 990e 24b8 37bd 1037 fa87 06b8 dfd1 4537
000001f0: 46b6 5638 c20e 1834 9824 1e38 a582 87b7
00000200: b691 2238 406c 0437 6412 e637 9feb 5e37
00000210: 7845 dbb6 b48c e2b7 f720 1d37 e830 d7b7
00000220: 3b4a 2f38 aca0 c7b7 9647 d634 5e2b 5937
00000230: b316 80b7 e54b 0238 01fa 3437 a110 1b36
00000240: 07ff 6437 02f9 2738 055d 37b6 2d4c 15b8
00000250: fe31 0137 d27a 71b6 edba 3638 ef0a a138
00000260: 14be be35 b2fc 0538 1e14 30b8 c9d0 e637
00000270: a4c0 a3b7 742b 3eb8 859c 7737 cb58 d9b4
00000280: d401 09b8 855b 0838 ce9f 3eb8 e5dd c8b7
00000290: dbfc 1c37 bed9 7cb7 63d1 cd37 c355 01b7
000002a0: 5bc7 0cb7 df63 5938 de78 5737 c159 50b7
000002b0: a6f5 e1b7 e6d4 5a37 e1e0 6137 832a 36b4
000002c0: 9fac f537 71b0 e137 77d1 3cb7 ff9f 7338
000002d0: af37 1eb8 19a3 88b6 7a05 20b7 de6e 08b8
000002e0: 7ee5 9537 5e70 7438 a1a6 98b8 7e9d acb7
000002f0: 01da ab38 1fd2 0f36 675f cbb7 0e48 50b7
00000300: 8e48 3538 07bd f935 9ff0 2838 1f03 e337
00000310: 6f5c 8b38 666d a6b5 e1ed 80b6 73de 96b8
00000320: 51cb 1c37 bca3 a637 6700 63b8 a5c8 21b8
00000330: 206f a437 3d1e 97b8 668c 6437 63d6 5fb7
00000340: 1585 25b8 a7a5 33b8 266a 0636 f2b2 dd36
00000350: 94a9 9636 b78d 0538 143d 6bb7 263d 8a36
00000360: e7d8 e7b7 b8a9 1838 3868 ccb7 dfc3 5736
00000370: 78ea 7a37 e96b 5f38 3d27 8d37 44bd 4036
00000380: e8f7 0d36 8c1f 70b8 fae1 d937 f1dc c436
00000390: 5c9b 8737 3ce2 8837 6e8f 34b8 ca43 ed37
000003a0: 7b2f c8b7 afcf 04b8 1b9a 42b7 d0af dd37
000003b0: 1a6b 56b8 d075 f6b6 d795 11b8 e17b d3b6
000003c0: c011 1238 479f f237 2bf4 0a37 5ebb bbb7
000003d0: 1f03 90b6 0758 25b8 2c85 1038 babb 9637
000003e0: 30c5 1db8 491c a0b7 5d6b a5b6 81c2 8b37
000003f0: 41b4 7a37 e65b 1e36 fa4b 02b7 a7d1 bdb5
1.7533997e-05 9.168384e-06 -7.278111e-05 3.1586686e-05 2.0596684e-05 3.4185407e-06 3.6183363e-05 -1.7382795e-06
-3.908523e-05 3.0898187e-05 -1.7444396e-05 -2.7705524e-05 7.810518e-05 -3.815501e-05 -5.5404525e-05 7.6169017e-06
1.6881157e-05 4.614388e-06 -1.1460982e-05 -4.2330925e-05 -1.5526639e-05 1.8944997e-05 -3.4267705e-05 -2.2434426e-05
6.6727075e-06 8.965155e-06 2.6748019e-05 4.9452105e-05 6.417445e-05 3.683116e-05 7.749974e-06 1.783461e-05
3.5131052e-05 -2.6050677e-06 3.7471094e-05 4.158563e-05 4.112174e-05 -8.137027e-06 4.2391875e-06 1.8889166e-06
5.3450804e-05 3.994911e-05 -2.6588394e-05 -1.527651e-06 3.8409966e-05 -1.0082043e-05 5.3371924e-08 -5.331147e-05
2.7274225e-06 3.0518786e-05 3.9420916e-05 4.865114e-05 -6.4944434e-05 -2.0626801e-05 -4.9158716e-05 1.8365321e-05
-2.117755e-05 1.4057897e-05 2.1572347e-05 4.493303e-05 -6.8125114e-06 -4.9831477e-05 -5.7792927e-06 4.011659e-05
-2.9117075e-05 2.079047e-05 4.657006e-06 -1.27562635e-05 1.1265956e-05 -3.301007e-05 1.7484774e-06 3.356365e-05
2.6377227e-05 1.5208137e-07 1.5041236e-05 7.737683e-05 1.0357675e-05 1.6713628e-06 4.611283e-05 2.967791e-06
2.4118177e-05 5.0085597e-05 1.0210186e-05 -2.983985e-05 -5.4891876e-05 -4.9304625e-05 -1.3190751e-05 7.969987e-05
4.3870732e-05 -1.1941312e-05 1.0492457e-05 2.7570552e-05 -3.427913e-05 2.9396457e-05 3.1445532e-05 2.532399e-05
1.773136e-05 -3.1287822e-05 2.5181793e-05 8.5743835e-05 -9.332587e-05 -6.563465e-07 -1.826602e-05 -9.086125e-06
-2.4756213e-05 2.4320798e-06 2.0578562e-05 1.6185451e-06 -7.2004723e-06 8.522966e-06 6.85009e-05 -3.8421324e-05
4.5426037e-05 1.2934713e-05 2.9525205e-05 -2.2460456e-05 -1.7536415e-05 4.6950454e-06 -6.9195135e-06 3.264791e-05
-3.9114242e-05 8.627124e-06 -3.2074728e-05 1.1790979e-05 5.119133e-05 1.4161472e-07 3.7704216e-05 -1.615409e-05
3.8759514e-05 7.893017e-06 2.74267e-05 1.3287091e-05 -6.534796e-06 -2.700682e-05 9.3656045e-06 -2.5652771e-05
4.1792384e-05 -2.3797467e-05 3.9912692e-07 1.2944305e-05 -1.526936e-05 3.1065098e-05 1.0787045e-05 2.310648e-06
1.3649237e-05 4.004781e-05 -2.732327e-06 -3.5595313e-05 7.700639e-06 -3.598329e-06 4.356627e-05 7.679115e-05
1.4211423e-06 3.1945012e-05 -4.1980406e-05 2.751536e-05 -1.952082e-05 -4.534e-05 1.475879e-05 -4.0484005e-07
-3.2665048e-05 3.251016e-05 -4.544836e-05 -2.3945186e-05 9.357197e-06 -1.50710675e-05 2.4535408e-05 -7.708967e-06
-8.391066e-06 5.1829844e-05 1.284314e-05 -1.2418664e-05 -2.693648e-05 1.3043382e-05 1.3463404e-05 -1.6965537e-07
2.9286659e-05 2.6904252e-05 -1.1254443e-05 5.8084723e-05 -3.7721995e-05 -4.072103e-06 -9.538018e-06 -3.252818e-05
1.786905e-05 5.8278783e-05 -7.278962e-05 -2.0577336e-05 8.194522e-05 2.1430967e-06 -2.4243911e-05 -1.2414543e-05
4.3221335e-05 1.860696e-06 4.0278417e-05 2.7061962e-05 6.6452536e-05 -1.2399803e-06 -3.84239e-06 -7.193992e-05
9.345663e-06 1.9864987e-05 -5.4121392e-05 -3.8572256e-05 1.960207e-05 -7.2058734e-05 1.3622548e-05 -1.3341752e-05
-3.9463008e-05 -4.28312e-05 2.0029343e-06 6.607145e-06 4.49009e-06 3.1841653e-05 -1.4021312e-05 4.119839e-06
-2.7638349e-05 3.6397687e-05 -2.4367226e-05 3.2151509e-06 1.4955753e-05 5.3267842e-05 1.6826782e-05 2.8720397e-06
2.1154938e-06 -5.724984e-05 2.5973644e-05 5.866976e-06 1.6165599e-05 1.6317812e-05 -4.3048924e-05 2.8284168e-05
-2.3863968e-05 -3.1664673e-05 -1.1599182e-05 2.6427122e-05 -5.1121322e-05 -7.3450865e-06 -3.4710243e-05 -6.3027114e-06
3.4825644e-05 2.8922817e-05 8.282291e-06 -2.2379387e-05 -4.2918978e-06 -3.9421047e-05 3.44563e-05 1.796881e-05
-3.7615362e-05 -1.9086658e-05 -4.929882e-06 1.6660664e-05 1.494313e-05 2.3597327e-06 -7.7662935e-06 -1.4142614e-06

exp_avg_sq f4 [256]
00000000: aa5e 5130 2685 772e c34b 8e31 ae02 1e30
00000010: b7c1 962f 788d dc2e 24c8 932f 3b1f c82e
00000020: 16e8 7530 405e 6d2f 4828 2f2f 1fe0 0d30
00000030: 5c11 3c31 e880 1230 b4bd 9631 da07 f02f
00000040: f276 c82e 1681 cf2f b4d5 9d2f 8cc6 1430
00000050: 2b25 a12e 234c 462f 4af8 6e2f 5788 8f30
00000060: b594 b42f a3f3 e72d 06be 9130 b212 4030
00000070: 35ac c130 d8bc c62f bfb5 f82d 2556 b22e
00000080: 4672 ff2f 940f 462e 1881 1430 019c bd2f
00000090: 3f01 c030 9ca7 062f 8036 1d2e 0bfe 8730
000000a0: 9650 7030 a329 2430 9898 3b2f 9683 a32f
000000b0: 61e7 4b30 c3d2 a12e 1577 bb2c ada9 b030
000000c0: a340 842d 4814 a52f 0af0 a32f ddfe 6530
000000d0: 0d11 7a30 72be e82e c2f1 5730 9420 2e2f
000000e0: 462a c92f 450e 0c2e f528 1930 e95e 4130
000000f0: d6f9 082f b115 8930 c755 b32e 8401 0630
00000100: 711a 8b2f 8dd9 aa2f c499 9f2e 46b3 422f
00000110: b0f3 bc2e 04bd b131 d85b 2b30 0724 a32f
00000120: 01fc 8a30 9552 eb2e 6372 742f a400 ea30
00000130: f0ee 8a30 f1fa c92e c32e 9e30 da80 1b2f
00000140: 89a2 8730 fd17 5130 fb73 e12f cca5 9f30
00000150: c7df 5130 4c71 3230 6533 b72e 2b1d 1a31
00000160: 35c9 0631 605c 712e 5cb2 162e e45f 822f
00000170: 31c5 3e30 d63d 7f2f 2f89 7a30 300f 472f
00000180: b02d 662f 1a09 ed2f 0938 f630 7b11 1c31
00000190: a3a8 2a31 3fc3 0030 bcfc d72e fc5b 1e2f
000001a0: 8829 ab2f ea26 682e e3de 352f 9ef8 7130
000001b0: b503 2c2f 143d d32f caac c330 411a 0d31
000001c0: d11b 0f30 6110 2e2f 6356 8b30 1909 4030
000001d0: 6c2b 0f30 c04c dd2e 9662 ff2e c287 8e2f
000001e0: ca9f 2e30 c452 3030 fd9f 992f 0fc3 562e
000001f0: 2a41 4630 5a7d 132c e999 9b2f ed64 332f
00000200: 3f6b 0530 c431 3c2e ee52 1b2f 3806 1e30
00000210: 70cd 232d 8952 c82f 8394 652e c096 6330
00000220: 0f28 1f31 c920 2b2f ba2a 1130 0228 b52e
00000230: ea80 622e ea50 bb2f 856a 0e2e f541 4430
00000240: 5b6b 2530 89d8 1130 6f7b 972d 49f7 1330
00000250: e8ba b72d 16b5 b82c c362 0530 1ea9 b430
00000260: b0c8 812f 7bf7 3f2f 37e8 9c30 0e35 b72f
00000270: e044 4a2f 0706 2830 bc93 602e 23c2 702e
00000280: 3424 e62f 26b5 b62f 4238 0130 1b3b 392f
00000290: a57c 082e 3594 9d2e 087b 1e2f 1d62 4f2f
000002a0: f4db a12d 15c3 9a30 04f6 1d2e b080 a32e
000002b0: 37b0 d32f 02ab f630 6db6 9e2e 250f 962c
000002c0: 28ad 832f 0564 7c2f 4dc9 ed2e 1b94 9130
000002d0: 6b58 0930 6d55 db2f e9f5 9030 2e53 c22f
000002e0: bedd 8430 0e70 4e31 5453 1331 6923 9030
000002f0: 6541 c330 fe18 852f a741 4130 0cb6 5b2e
00000300: 8b6c 3e30 6189 b12c 4ecc cf2f 0246 532f
00000310: 1bf9 9530 aeba a82d 9ec8 582e 311c d430
00000320: 8811 b02e 65f8 9e2e d29c 3d31 2910 bc2f
00000330: 9907 cb2f bfd8 0d31 cfdf c52e a1a6 4530
00000340: 4008 0c30 96a3 2b31 65f0 0d2f c58e fa2e
00000350: c35d cb2c a5fa 9c2f b91c 3e2e df0e 912f
00000360: c54d 0631 1d8d 0e30 dcf5 b12f fb72 5e2e
00000370: 97bf b52e 44b8 3230 b220 ca2e 6b2a 4b2c
00000380: 78a5 152f a6ec 7530 2ef9 8e30 f6f0 4c2e
00000390: 2292 c52e 5aaf 972e 65ed 1230 698d 0530
000003a0: 5812 5f2f 1a0e 1b30 445f 142f 3c54 bc2f
000003b0: bb2d 5a30 8d70 8a2d d0f6 6a30 e7dc 6b2f
000003c0: 174e 1e31 817d 5b30 8f60 772f 1c4c 3730
000003d0: 7068 f02f ca73 f72f 7978 2930 7656 3e2f
000003e0: 6e1f 3030 ade5 072f 664b 5c2f 792b 0030
000003f0: c1ff b02f dd9a fd2e a62a bd2d e16e ba2e
7.6168283e-10 5.6279557e-11 4.141357e-09 5.7483873e-10 2.7422484e-10 1.00295716e-10 2.6881353e-10 9.100495e-11
8.9460295e-10 2.1588509e-10 1.5930468e-10 5.1613996e-10 2.7367468e-09 5.329768e-10 4.3871413e-09 4.3661325e-10
9.116076e-11 3.7744802e-10 2.870998e-10 5.412424e-10 7.328035e-11 1.8035044e-10 2.1734184e-10 1.044337e-09
3.2847472e-10 2.6369856e-11 1.0604146e-09 6.987576e-10 1.4091542e-09 3.6150172e-10 2.8275047e-11 8.109805e-11
4.6465426e-10 4.5033824e-11 5.402554e-10 3.4489747e-10 1.3970193e-09 1.2246776e-10 3.5746073e-11 9.894746e-10
8.742601e-10 5.972202e-10 1.7061763e-10 2.9743025e-10 7.417978e-10 7.358871e-11 5.3280804e-12 1.285391e-09
1.5035367e-11 3.0027736e-10 2.9820085e-10 8.3671897e-10 9.09737e-10 1.05839684e-10 7.8560103e-10 1.5836782e-10
3.6591724e-10 3.184499e-11 5.571928e-10 7.0347866e-10 1.2457887e-10 9.974227e-10 8.155215e-11 4.875107e-10
2.530274e-10 3.10774e-10 7.257797e-11 1.7707888e-10 8.592538e-11 5.1728666e-09 6.2339955e-10 2.9675126e-10
1.0112445e-09 1.0701232e-10 2.2232309e-10 1.7025923e-09 1.0108732e-09 9.184998e-11 1.1509304e-09 1.4142945e-10
9.868738e-10 7.6067846e-10 4.100967e-10 1.1615895e-09 7.6351764e-10 6.491703e-10 8.331006e-11 2.242653e-09
1.961394e-09 5.48791e-11 3.4264466e-11 2.3714997e-10 6.9401823e-10 2.3214083e-10 9.114442e-10 1.810434e-10
2.093461e-10 4.3116516e-10 1.7914782e-09 2.2710924e-09 2.4834115e-09 4.684359e-10 9.821963e-11 1.4402696e-10
3.1134229e-10 5.2785255e-11 1.654104e-10 8.8028596e-10 1.5644626e-10 3.8424075e-10 1.4237227e-09 2.0533124e-09
5.2062626e-10 1.5831027e-10 1.0138134e-09 6.986212e-10 5.2084803e-10 1.006355e-10 1.161357e-10 2.592611e-10
6.3527905e-10 6.4146044e-10 2.7944216e-10 4.8831213e-11 7.2124584e-10 2.095954e-12 2.8303695e-10 1.6315811e-10
4.8537524e-10 4.2790452e-11 1.412663e-10 5.74889e-10 9.3110936e-12 3.6438433e-10 5.2200477e-11 8.279635e-10
2.3160316e-09 1.5564007e-10 5.281141e-10 8.238034e-11 5.150095e-11 3.4072595e-10 3.238167e-11 7.1398115e-10
6.017921e-10 5.305841e-10 1.7221528e-11 5.38297e-10 2.0887694e-11 5.249699e-12 4.8525467e-10 1.314479e-09
2.360756e-10 1.7459272e-10 1.1416493e-09 3.3325204e-10 1.8396262e-10 6.112661e-10 5.1062918e-11 5.474211e-11
4.186248e-10 3.323432e-10 4.7009874e-10 1.684665e-10 3.1033526e-11 7.16586e-11 1.4413726e-10 1.8861397e-10
1.840126e-11 1.126042e-09 3.5916173e-11 7.435241e-11 3.8505885e-10 1.7947459e-09 7.2174135e-11 4.264938e-12
2.3951796e-10 2.29548e-10 1.08132704e-10 1.0592233e-09 4.996596e-10 3.9896567e-10 1.0547271e-09 3.5347497e-10
9.667287e-10 3.004064e-09 2.1438682e-09 1.0487443e-09 1.4206704e-09 2.4210317e-10 7.030629e-10 4.9956525e-11
6.9275846e-10 5.0458947e-12 3.7798248e-10 1.921521e-10 1.0911977e-09 1.9182291e-11 4.9290898e-11 1.5433043e-09
8.0066676e-11 7.229132e-11 2.7592262e-09 3.4208483e-10 3.6930883e-10 2.0641406e-09 8.998279e-11 7.1904976e-10
5.094343e-10 2.4976763e-09 1.290928e-10 1.1394045e-10 5.7800167e-12 2.8554328e-10 4.322651e-11 2.6385913e-10
1.9543773e-09 5.1859833e-10 3.2370806e-10 5.057908e-11 8.26496e-11 6.501788e-10 9.191704e-11 2.8871582e-12
1.3610257e-10 8.946678e-10 1.0402681e-09 4.6598246e-11 8.984481e-11 6.897834e-11 5.345185e-10 4.8586074e-10
2.0288249e-10 5.640871e-10 1.3494367e-10 3.4256853e-10 7.9372925e-10 1.5738766e-11 8.5479446e-10 2.1451606e-10
2.3036415e-09 7.985009e-10 2.2498824e-10 6.668317e-10 4.3729953e-10 4.501131e-10 6.1653044e-10 1.7311116e-10
6.407309e-10 1.2359776e-10 2.003567e-10 4.6627907e-10 3.2195938e-10 1.1532617e-10 2.1505752e-11 8.477997e-11

exp_avg f4 [1, 2]
00000000: d854 63bb 96cb 56bb
-0.0034688022 -0.0032775155

exp_avg_sq f4 [1, 2]
00000000: 91e3 6437 fc71 0437
1.3642843e-05 7.894352e-06
